{"format": "graph-model", "generatedBy": "2.2.0", "convertedBy": "TensorFlow.js Converter v1.7.4r1", "userDefinedMetadata": {"signature": {"inputs": {"fpn_cells/cell_2/fnode4/op_after_combine9/conv/bias/ExponentialMovingAverage:0": {"name": "fpn_cells/cell_2/fnode4/op_after_combine9/conv/bias/ExponentialMovingAverage:0", "dtype": "DT_RESOURCE", "tensorShape": {}}, "resample_p6/bn/beta/ExponentialMovingAverage:0": {"name": "resample_p6/bn/beta/ExponentialMovingAverage:0", "dtype": "DT_RESOURCE", "tensorShape": {}}, "fpn_cells/cell_0/fnode2/op_after_combine7/bn/moving_mean/ExponentialMovingAverage:0": {"name": "fpn_cells/cell_0/fnode2/op_after_combine7/bn/moving_mean/ExponentialMovingAverage:0", "dtype": "DT_RESOURCE", "tensorShape": {}}, "fpn_cells/cell_0/fnode7/op_after_combine12/conv/depthwise_kernel/ExponentialMovingAverage:0": {"name": "fpn_cells/cell_0/fnode7/op_after_combine12/conv/depthwise_kernel/ExponentialMovingAverage:0", "dtype": "DT_RESOURCE", "tensorShape": {}}, "efficientnet-b0/stem/tpu_batch_normalization/gamma/ExponentialMovingAverage:0": {"name": "efficientnet-b0/stem/tpu_batch_normalization/gamma/ExponentialMovingAverage:0", "dtype": "DT_RESOURCE", "tensorShape": {}}, "efficientnet-b0/blocks_1/tpu_batch_normalization_1/gamma/ExponentialMovingAverage:0": {"name": "efficientnet-b0/blocks_1/tpu_batch_normalization_1/gamma/ExponentialMovingAverage:0", "dtype": "DT_RESOURCE", "tensorShape": {}}, "fpn_cells/cell_1/fnode3/op_after_combine8/conv/depthwise_kernel/ExponentialMovingAverage:0": {"name": "fpn_cells/cell_1/fnode3/op_after_combine8/conv/depthwise_kernel/ExponentialMovingAverage:0", "dtype": "DT_RESOURCE", "tensorShape": {}}, "efficientnet-b0/blocks_12/tpu_batch_normalization/beta/ExponentialMovingAverage:0": {"name": "efficientnet-b0/blocks_12/tpu_batch_normalization/beta/ExponentialMovingAverage:0", "dtype": "DT_RESOURCE", "tensorShape": {}}, "class_net/class-1-bn-3/gamma/ExponentialMovingAverage:0": {"name": "class_net/class-1-bn-3/gamma/ExponentialMovingAverage:0", "dtype": "DT_RESOURCE", "tensorShape": {}}, "fpn_cells/cell_0/fnode3/op_after_combine8/bn/moving_mean/ExponentialMovingAverage:0": {"name": "fpn_cells/cell_0/fnode3/op_after_combine8/bn/moving_mean/ExponentialMovingAverage:0", "dtype": "DT_RESOURCE", "tensorShape": {}}, "efficientnet-b0/blocks_1/tpu_batch_normalization_2/beta/ExponentialMovingAverage:0": {"name": "efficientnet-b0/blocks_1/tpu_batch_normalization_2/beta/ExponentialMovingAverage:0", "dtype": "DT_RESOURCE", "tensorShape": {}}, "class_net/class-1-bn-4/beta/ExponentialMovingAverage:0": {"name": "class_net/class-1-bn-4/beta/ExponentialMovingAverage:0", "dtype": "DT_RESOURCE", "tensorShape": {}}, "efficientnet-b0/blocks_14/tpu_batch_normalization_1/moving_variance/ExponentialMovingAverage:0": {"name": "efficientnet-b0/blocks_14/tpu_batch_normalization_1/moving_variance/ExponentialMovingAverage:0", "dtype": "DT_RESOURCE", "tensorShape": {}}, "fpn_cells/cell_1/fnode2/op_after_combine7/bn/moving_variance/ExponentialMovingAverage:0": {"name": "fpn_cells/cell_1/fnode2/op_after_combine7/bn/moving_variance/ExponentialMovingAverage:0", "dtype": "DT_RESOURCE", "tensorShape": {}}, "box_net/box-0-bn-6/beta/ExponentialMovingAverage:0": {"name": "box_net/box-0-bn-6/beta/ExponentialMovingAverage:0", "dtype": "DT_RESOURCE", "tensorShape": {}}, "class_net/class-0-bn-6/gamma/ExponentialMovingAverage:0": {"name": "class_net/class-0-bn-6/gamma/ExponentialMovingAverage:0", "dtype": "DT_RESOURCE", "tensorShape": {}}, "efficientnet-b0/blocks_11/tpu_batch_normalization/moving_mean/ExponentialMovingAverage:0": {"name": "efficientnet-b0/blocks_11/tpu_batch_normalization/moving_mean/ExponentialMovingAverage:0", "dtype": "DT_RESOURCE", "tensorShape": {}}, "box_net/box-0-bn-3/moving_mean/ExponentialMovingAverage:0": {"name": "box_net/box-0-bn-3/moving_mean/ExponentialMovingAverage:0", "dtype": "DT_RESOURCE", "tensorShape": {}}, "efficientnet-b0/blocks_5/tpu_batch_normalization/gamma/ExponentialMovingAverage:0": {"name": "efficientnet-b0/blocks_5/tpu_batch_normalization/gamma/ExponentialMovingAverage:0", "dtype": "DT_RESOURCE", "tensorShape": {}}, "fpn_cells/cell_0/fnode4/op_after_combine9/bn/moving_mean/ExponentialMovingAverage:0": {"name": "fpn_cells/cell_0/fnode4/op_after_combine9/bn/moving_mean/ExponentialMovingAverage:0", "dtype": "DT_RESOURCE", "tensorShape": {}}, "box_net/box-1/pointwise_kernel/ExponentialMovingAverage:0": {"name": "box_net/box-1/pointwise_kernel/ExponentialMovingAverage:0", "dtype": "DT_RESOURCE", "tensorShape": {}}, "fpn_cells/cell_1/fnode0/op_after_combine5/conv/pointwise_kernel/ExponentialMovingAverage:0": {"name": "fpn_cells/cell_1/fnode0/op_after_combine5/conv/pointwise_kernel/ExponentialMovingAverage:0", "dtype": "DT_RESOURCE", "tensorShape": {}}, "class_net/class-0-bn-3/moving_mean/ExponentialMovingAverage:0": {"name": "class_net/class-0-bn-3/moving_mean/ExponentialMovingAverage:0", "dtype": "DT_RESOURCE", "tensorShape": {}}, "fpn_cells/cell_0/fnode5/resample_0_2_10/bn/moving_mean/ExponentialMovingAverage:0": {"name": "fpn_cells/cell_0/fnode5/resample_0_2_10/bn/moving_mean/ExponentialMovingAverage:0", "dtype": "DT_RESOURCE", "tensorShape": {}}, "class_net/class-1/pointwise_kernel/ExponentialMovingAverage:0": {"name": "class_net/class-1/pointwise_kernel/ExponentialMovingAverage:0", "dtype": "DT_RESOURCE", "tensorShape": {}}, "box_net/box-0-bn-5/gamma/ExponentialMovingAverage:0": {"name": "box_net/box-0-bn-5/gamma/ExponentialMovingAverage:0", "dtype": "DT_RESOURCE", "tensorShape": {}}, "box_net/box-0-bn-6/moving_mean/ExponentialMovingAverage:0": {"name": "box_net/box-0-bn-6/moving_mean/ExponentialMovingAverage:0", "dtype": "DT_RESOURCE", "tensorShape": {}}, "class_net/class-0-bn-6/moving_mean/ExponentialMovingAverage:0": {"name": "class_net/class-0-bn-6/moving_mean/ExponentialMovingAverage:0", "dtype": "DT_RESOURCE", "tensorShape": {}}, "efficientnet-b0/blocks_0/se/conv2d/bias/ExponentialMovingAverage:0": {"name": "efficientnet-b0/blocks_0/se/conv2d/bias/ExponentialMovingAverage:0", "dtype": "DT_RESOURCE", "tensorShape": {}}, "fpn_cells/cell_1/fnode5/WSM_1/ExponentialMovingAverage:0": {"name": "fpn_cells/cell_1/fnode5/WSM_1/ExponentialMovingAverage:0", "dtype": "DT_RESOURCE", "tensorShape": {}}, "efficientnet-b0/blocks_3/tpu_batch_normalization/moving_variance/ExponentialMovingAverage:0": {"name": "efficientnet-b0/blocks_3/tpu_batch_normalization/moving_variance/ExponentialMovingAverage:0", "dtype": "DT_RESOURCE", "tensorShape": {}}, "efficientnet-b0/blocks_6/conv2d/kernel/ExponentialMovingAverage:0": {"name": "efficientnet-b0/blocks_6/conv2d/kernel/ExponentialMovingAverage:0", "dtype": "DT_RESOURCE", "tensorShape": {}}, "efficientnet-b0/blocks_12/tpu_batch_normalization_2/moving_mean/ExponentialMovingAverage:0": {"name": "efficientnet-b0/blocks_12/tpu_batch_normalization_2/moving_mean/ExponentialMovingAverage:0", "dtype": "DT_RESOURCE", "tensorShape": {}}, "efficientnet-b0/blocks_12/conv2d/kernel/ExponentialMovingAverage:0": {"name": "efficientnet-b0/blocks_12/conv2d/kernel/ExponentialMovingAverage:0", "dtype": "DT_RESOURCE", "tensorShape": {}}, "efficientnet-b0/blocks_0/se/conv2d_1/bias/ExponentialMovingAverage:0": {"name": "efficientnet-b0/blocks_0/se/conv2d_1/bias/ExponentialMovingAverage:0", "dtype": "DT_RESOURCE", "tensorShape": {}}, "efficientnet-b0/blocks_13/tpu_batch_normalization_2/beta/ExponentialMovingAverage:0": {"name": "efficientnet-b0/blocks_13/tpu_batch_normalization_2/beta/ExponentialMovingAverage:0", "dtype": "DT_RESOURCE", "tensorShape": {}}, "fpn_cells/cell_1/fnode6/op_after_combine11/conv/depthwise_kernel/ExponentialMovingAverage:0": {"name": "fpn_cells/cell_1/fnode6/op_after_combine11/conv/depthwise_kernel/ExponentialMovingAverage:0", "dtype": "DT_RESOURCE", "tensorShape": {}}, "fpn_cells/cell_2/fnode3/WSM/ExponentialMovingAverage:0": {"name": "fpn_cells/cell_2/fnode3/WSM/ExponentialMovingAverage:0", "dtype": "DT_RESOURCE", "tensorShape": {}}, "fpn_cells/cell_0/fnode4/op_after_combine9/bn/beta/ExponentialMovingAverage:0": {"name": "fpn_cells/cell_0/fnode4/op_after_combine9/bn/beta/ExponentialMovingAverage:0", "dtype": "DT_RESOURCE", "tensorShape": {}}, "fpn_cells/cell_0/fnode0/WSM/ExponentialMovingAverage:0": {"name": "fpn_cells/cell_0/fnode0/WSM/ExponentialMovingAverage:0", "dtype": "DT_RESOURCE", "tensorShape": {}}, "efficientnet-b0/blocks_11/tpu_batch_normalization_1/beta/ExponentialMovingAverage:0": {"name": "efficientnet-b0/blocks_11/tpu_batch_normalization_1/beta/ExponentialMovingAverage:0", "dtype": "DT_RESOURCE", "tensorShape": {}}, "box_net/box-2-bn-7/gamma/ExponentialMovingAverage:0": {"name": "box_net/box-2-bn-7/gamma/ExponentialMovingAverage:0", "dtype": "DT_RESOURCE", "tensorShape": {}}, "efficientnet-b0/blocks_9/se/conv2d/kernel/ExponentialMovingAverage:0": {"name": "efficientnet-b0/blocks_9/se/conv2d/kernel/ExponentialMovingAverage:0", "dtype": "DT_RESOURCE", "tensorShape": {}}, "efficientnet-b0/blocks_7/tpu_batch_normalization_2/gamma/ExponentialMovingAverage:0": {"name": "efficientnet-b0/blocks_7/tpu_batch_normalization_2/gamma/ExponentialMovingAverage:0", "dtype": "DT_RESOURCE", "tensorShape": {}}, "efficientnet-b0/blocks_4/tpu_batch_normalization/beta/ExponentialMovingAverage:0": {"name": "efficientnet-b0/blocks_4/tpu_batch_normalization/beta/ExponentialMovingAverage:0", "dtype": "DT_RESOURCE", "tensorShape": {}}, "fpn_cells/cell_1/fnode5/WSM/ExponentialMovingAverage:0": {"name": "fpn_cells/cell_1/fnode5/WSM/ExponentialMovingAverage:0", "dtype": "DT_RESOURCE", "tensorShape": {}}, "fpn_cells/cell_2/fnode2/op_after_combine7/bn/moving_variance/ExponentialMovingAverage:0": {"name": "fpn_cells/cell_2/fnode2/op_after_combine7/bn/moving_variance/ExponentialMovingAverage:0", "dtype": "DT_RESOURCE", "tensorShape": {}}, "class_net/class-0-bn-6/moving_variance/ExponentialMovingAverage:0": {"name": "class_net/class-0-bn-6/moving_variance/ExponentialMovingAverage:0", "dtype": "DT_RESOURCE", "tensorShape": {}}, "fpn_cells/cell_2/fnode6/op_after_combine11/bn/moving_mean/ExponentialMovingAverage:0": {"name": "fpn_cells/cell_2/fnode6/op_after_combine11/bn/moving_mean/ExponentialMovingAverage:0", "dtype": "DT_RESOURCE", "tensorShape": {}}, "efficientnet-b0/blocks_0/se/conv2d_1/kernel/ExponentialMovingAverage:0": {"name": "efficientnet-b0/blocks_0/se/conv2d_1/kernel/ExponentialMovingAverage:0", "dtype": "DT_RESOURCE", "tensorShape": {}}, "fpn_cells/cell_0/fnode6/WSM_1/ExponentialMovingAverage:0": {"name": "fpn_cells/cell_0/fnode6/WSM_1/ExponentialMovingAverage:0", "dtype": "DT_RESOURCE", "tensorShape": {}}, "efficientnet-b0/blocks_2/tpu_batch_normalization_2/beta/ExponentialMovingAverage:0": {"name": "efficientnet-b0/blocks_2/tpu_batch_normalization_2/beta/ExponentialMovingAverage:0", "dtype": "DT_RESOURCE", "tensorShape": {}}, "class_net/class-2-bn-7/beta/ExponentialMovingAverage:0": {"name": "class_net/class-2-bn-7/beta/ExponentialMovingAverage:0", "dtype": "DT_RESOURCE", "tensorShape": {}}, "fpn_cells/cell_1/fnode2/op_after_combine7/conv/depthwise_kernel/ExponentialMovingAverage:0": {"name": "fpn_cells/cell_1/fnode2/op_after_combine7/conv/depthwise_kernel/ExponentialMovingAverage:0", "dtype": "DT_RESOURCE", "tensorShape": {}}, "efficientnet-b0/blocks_10/tpu_batch_normalization/moving_mean/ExponentialMovingAverage:0": {"name": "efficientnet-b0/blocks_10/tpu_batch_normalization/moving_mean/ExponentialMovingAverage:0", "dtype": "DT_RESOURCE", "tensorShape": {}}, "efficientnet-b0/blocks_15/tpu_batch_normalization_2/gamma/ExponentialMovingAverage:0": {"name": "efficientnet-b0/blocks_15/tpu_batch_normalization_2/gamma/ExponentialMovingAverage:0", "dtype": "DT_RESOURCE", "tensorShape": {}}, "fpn_cells/cell_0/fnode3/op_after_combine8/bn/moving_variance/ExponentialMovingAverage:0": {"name": "fpn_cells/cell_0/fnode3/op_after_combine8/bn/moving_variance/ExponentialMovingAverage:0", "dtype": "DT_RESOURCE", "tensorShape": {}}, "fpn_cells/cell_0/fnode7/WSM/ExponentialMovingAverage:0": {"name": "fpn_cells/cell_0/fnode7/WSM/ExponentialMovingAverage:0", "dtype": "DT_RESOURCE", "tensorShape": {}}, "fpn_cells/cell_1/fnode0/op_after_combine5/conv/bias/ExponentialMovingAverage:0": {"name": "fpn_cells/cell_1/fnode0/op_after_combine5/conv/bias/ExponentialMovingAverage:0", "dtype": "DT_RESOURCE", "tensorShape": {}}, "fpn_cells/cell_2/fnode5/op_after_combine10/conv/depthwise_kernel/ExponentialMovingAverage:0": {"name": "fpn_cells/cell_2/fnode5/op_after_combine10/conv/depthwise_kernel/ExponentialMovingAverage:0", "dtype": "DT_RESOURCE", "tensorShape": {}}, "box_net/box-1/bias/ExponentialMovingAverage:0": {"name": "box_net/box-1/bias/ExponentialMovingAverage:0", "dtype": "DT_RESOURCE", "tensorShape": {}}, "efficientnet-b0/blocks_0/tpu_batch_normalization_1/beta/ExponentialMovingAverage:0": {"name": "efficientnet-b0/blocks_0/tpu_batch_normalization_1/beta/ExponentialMovingAverage:0", "dtype": "DT_RESOURCE", "tensorShape": {}}, "fpn_cells/cell_2/fnode6/op_after_combine11/conv/bias/ExponentialMovingAverage:0": {"name": "fpn_cells/cell_2/fnode6/op_after_combine11/conv/bias/ExponentialMovingAverage:0", "dtype": "DT_RESOURCE", "tensorShape": {}}, "efficientnet-b0/blocks_0/tpu_batch_normalization_1/moving_variance/ExponentialMovingAverage:0": {"name": "efficientnet-b0/blocks_0/tpu_batch_normalization_1/moving_variance/ExponentialMovingAverage:0", "dtype": "DT_RESOURCE", "tensorShape": {}}, "efficientnet-b0/blocks_10/tpu_batch_normalization/moving_variance/ExponentialMovingAverage:0": {"name": "efficientnet-b0/blocks_10/tpu_batch_normalization/moving_variance/ExponentialMovingAverage:0", "dtype": "DT_RESOURCE", "tensorShape": {}}, "fpn_cells/cell_2/fnode5/op_after_combine10/bn/beta/ExponentialMovingAverage:0": {"name": "fpn_cells/cell_2/fnode5/op_after_combine10/bn/beta/ExponentialMovingAverage:0", "dtype": "DT_RESOURCE", "tensorShape": {}}, "fpn_cells/cell_1/fnode7/op_after_combine12/bn/moving_variance/ExponentialMovingAverage:0": {"name": "fpn_cells/cell_1/fnode7/op_after_combine12/bn/moving_variance/ExponentialMovingAverage:0", "dtype": "DT_RESOURCE", "tensorShape": {}}, "efficientnet-b0/blocks_5/tpu_batch_normalization_1/moving_variance/ExponentialMovingAverage:0": {"name": "efficientnet-b0/blocks_5/tpu_batch_normalization_1/moving_variance/ExponentialMovingAverage:0", "dtype": "DT_RESOURCE", "tensorShape": {}}, "efficientnet-b0/blocks_14/tpu_batch_normalization_2/beta/ExponentialMovingAverage:0": {"name": "efficientnet-b0/blocks_14/tpu_batch_normalization_2/beta/ExponentialMovingAverage:0", "dtype": "DT_RESOURCE", "tensorShape": {}}, "fpn_cells/cell_2/fnode5/op_after_combine10/bn/moving_variance/ExponentialMovingAverage:0": {"name": "fpn_cells/cell_2/fnode5/op_after_combine10/bn/moving_variance/ExponentialMovingAverage:0", "dtype": "DT_RESOURCE", "tensorShape": {}}, "resample_p6/bn/moving_variance/ExponentialMovingAverage:0": {"name": "resample_p6/bn/moving_variance/ExponentialMovingAverage:0", "dtype": "DT_RESOURCE", "tensorShape": {}}, "fpn_cells/cell_2/fnode6/op_after_combine11/bn/gamma/ExponentialMovingAverage:0": {"name": "fpn_cells/cell_2/fnode6/op_after_combine11/bn/gamma/ExponentialMovingAverage:0", "dtype": "DT_RESOURCE", "tensorShape": {}}, "efficientnet-b0/blocks_14/tpu_batch_normalization_2/moving_variance/ExponentialMovingAverage:0": {"name": "efficientnet-b0/blocks_14/tpu_batch_normalization_2/moving_variance/ExponentialMovingAverage:0", "dtype": "DT_RESOURCE", "tensorShape": {}}, "efficientnet-b0/blocks_12/tpu_batch_normalization_1/beta/ExponentialMovingAverage:0": {"name": "efficientnet-b0/blocks_12/tpu_batch_normalization_1/beta/ExponentialMovingAverage:0", "dtype": "DT_RESOURCE", "tensorShape": {}}, "efficientnet-b0/blocks_4/tpu_batch_normalization_2/moving_mean/ExponentialMovingAverage:0": {"name": "efficientnet-b0/blocks_4/tpu_batch_normalization_2/moving_mean/ExponentialMovingAverage:0", "dtype": "DT_RESOURCE", "tensorShape": {}}, "box_net/box-2-bn-4/beta/ExponentialMovingAverage:0": {"name": "box_net/box-2-bn-4/beta/ExponentialMovingAverage:0", "dtype": "DT_RESOURCE", "tensorShape": {}}, "fpn_cells/cell_1/fnode3/op_after_combine8/bn/moving_variance/ExponentialMovingAverage:0": {"name": "fpn_cells/cell_1/fnode3/op_after_combine8/bn/moving_variance/ExponentialMovingAverage:0", "dtype": "DT_RESOURCE", "tensorShape": {}}, "efficientnet-b0/blocks_13/tpu_batch_normalization_1/moving_mean/ExponentialMovingAverage:0": {"name": "efficientnet-b0/blocks_13/tpu_batch_normalization_1/moving_mean/ExponentialMovingAverage:0", "dtype": "DT_RESOURCE", "tensorShape": {}}, "efficientnet-b0/blocks_5/tpu_batch_normalization_1/gamma/ExponentialMovingAverage:0": {"name": "efficientnet-b0/blocks_5/tpu_batch_normalization_1/gamma/ExponentialMovingAverage:0", "dtype": "DT_RESOURCE", "tensorShape": {}}, "efficientnet-b0/blocks_3/se/conv2d_1/kernel/ExponentialMovingAverage:0": {"name": "efficientnet-b0/blocks_3/se/conv2d_1/kernel/ExponentialMovingAverage:0", "dtype": "DT_RESOURCE", "tensorShape": {}}, "efficientnet-b0/blocks_5/se/conv2d/bias/ExponentialMovingAverage:0": {"name": "efficientnet-b0/blocks_5/se/conv2d/bias/ExponentialMovingAverage:0", "dtype": "DT_RESOURCE", "tensorShape": {}}, "efficientnet-b0/blocks_9/se/conv2d_1/bias/ExponentialMovingAverage:0": {"name": "efficientnet-b0/blocks_9/se/conv2d_1/bias/ExponentialMovingAverage:0", "dtype": "DT_RESOURCE", "tensorShape": {}}, "efficientnet-b0/blocks_3/tpu_batch_normalization_2/beta/ExponentialMovingAverage:0": {"name": "efficientnet-b0/blocks_3/tpu_batch_normalization_2/beta/ExponentialMovingAverage:0", "dtype": "DT_RESOURCE", "tensorShape": {}}, "efficientnet-b0/blocks_9/tpu_batch_normalization/moving_mean/ExponentialMovingAverage:0": {"name": "efficientnet-b0/blocks_9/tpu_batch_normalization/moving_mean/ExponentialMovingAverage:0", "dtype": "DT_RESOURCE", "tensorShape": {}}, "fpn_cells/cell_1/fnode5/op_after_combine10/bn/moving_mean/ExponentialMovingAverage:0": {"name": "fpn_cells/cell_1/fnode5/op_after_combine10/bn/moving_mean/ExponentialMovingAverage:0", "dtype": "DT_RESOURCE", "tensorShape": {}}, "efficientnet-b0/blocks_11/se/conv2d/bias/ExponentialMovingAverage:0": {"name": "efficientnet-b0/blocks_11/se/conv2d/bias/ExponentialMovingAverage:0", "dtype": "DT_RESOURCE", "tensorShape": {}}, "fpn_cells/cell_1/fnode1/op_after_combine6/conv/depthwise_kernel/ExponentialMovingAverage:0": {"name": "fpn_cells/cell_1/fnode1/op_after_combine6/conv/depthwise_kernel/ExponentialMovingAverage:0", "dtype": "DT_RESOURCE", "tensorShape": {}}, "fpn_cells/cell_1/fnode5/op_after_combine10/bn/beta/ExponentialMovingAverage:0": {"name": "fpn_cells/cell_1/fnode5/op_after_combine10/bn/beta/ExponentialMovingAverage:0", "dtype": "DT_RESOURCE", "tensorShape": {}}, "fpn_cells/cell_1/fnode0/WSM_1/ExponentialMovingAverage:0": {"name": "fpn_cells/cell_1/fnode0/WSM_1/ExponentialMovingAverage:0", "dtype": "DT_RESOURCE", "tensorShape": {}}, "fpn_cells/cell_1/fnode6/op_after_combine11/conv/bias/ExponentialMovingAverage:0": {"name": "fpn_cells/cell_1/fnode6/op_after_combine11/conv/bias/ExponentialMovingAverage:0", "dtype": "DT_RESOURCE", "tensorShape": {}}, "efficientnet-b0/blocks_1/tpu_batch_normalization_1/beta/ExponentialMovingAverage:0": {"name": "efficientnet-b0/blocks_1/tpu_batch_normalization_1/beta/ExponentialMovingAverage:0", "dtype": "DT_RESOURCE", "tensorShape": {}}, "fpn_cells/cell_2/fnode7/WSM_1/ExponentialMovingAverage:0": {"name": "fpn_cells/cell_2/fnode7/WSM_1/ExponentialMovingAverage:0", "dtype": "DT_RESOURCE", "tensorShape": {}}, "efficientnet-b0/blocks_8/tpu_batch_normalization_2/moving_mean/ExponentialMovingAverage:0": {"name": "efficientnet-b0/blocks_8/tpu_batch_normalization_2/moving_mean/ExponentialMovingAverage:0", "dtype": "DT_RESOURCE", "tensorShape": {}}, "class_net/class-1-bn-3/beta/ExponentialMovingAverage:0": {"name": "class_net/class-1-bn-3/beta/ExponentialMovingAverage:0", "dtype": "DT_RESOURCE", "tensorShape": {}}, "fpn_cells/cell_0/fnode3/op_after_combine8/conv/bias/ExponentialMovingAverage:0": {"name": "fpn_cells/cell_0/fnode3/op_after_combine8/conv/bias/ExponentialMovingAverage:0", "dtype": "DT_RESOURCE", "tensorShape": {}}, "efficientnet-b0/blocks_2/conv2d/kernel/ExponentialMovingAverage:0": {"name": "efficientnet-b0/blocks_2/conv2d/kernel/ExponentialMovingAverage:0", "dtype": "DT_RESOURCE", "tensorShape": {}}, "efficientnet-b0/blocks_13/tpu_batch_normalization_1/gamma/ExponentialMovingAverage:0": {"name": "efficientnet-b0/blocks_13/tpu_batch_normalization_1/gamma/ExponentialMovingAverage:0", "dtype": "DT_RESOURCE", "tensorShape": {}}, "box_net/box-0-bn-5/beta/ExponentialMovingAverage:0": {"name": "box_net/box-0-bn-5/beta/ExponentialMovingAverage:0", "dtype": "DT_RESOURCE", "tensorShape": {}}, "efficientnet-b0/stem/tpu_batch_normalization/moving_variance/ExponentialMovingAverage:0": {"name": "efficientnet-b0/stem/tpu_batch_normalization/moving_variance/ExponentialMovingAverage:0", "dtype": "DT_RESOURCE", "tensorShape": {}}, "box_net/box-1-bn-4/moving_mean/ExponentialMovingAverage:0": {"name": "box_net/box-1-bn-4/moving_mean/ExponentialMovingAverage:0", "dtype": "DT_RESOURCE", "tensorShape": {}}, "class_net/class-2-bn-3/gamma/ExponentialMovingAverage:0": {"name": "class_net/class-2-bn-3/gamma/ExponentialMovingAverage:0", "dtype": "DT_RESOURCE", "tensorShape": {}}, "class_net/class-1-bn-4/moving_mean/ExponentialMovingAverage:0": {"name": "class_net/class-1-bn-4/moving_mean/ExponentialMovingAverage:0", "dtype": "DT_RESOURCE", "tensorShape": {}}, "efficientnet-b0/blocks_7/se/conv2d/kernel/ExponentialMovingAverage:0": {"name": "efficientnet-b0/blocks_7/se/conv2d/kernel/ExponentialMovingAverage:0", "dtype": "DT_RESOURCE", "tensorShape": {}}, "fpn_cells/cell_0/fnode5/op_after_combine10/conv/depthwise_kernel/ExponentialMovingAverage:0": {"name": "fpn_cells/cell_0/fnode5/op_after_combine10/conv/depthwise_kernel/ExponentialMovingAverage:0", "dtype": "DT_RESOURCE", "tensorShape": {}}, "efficientnet-b0/blocks_15/tpu_batch_normalization_2/beta/ExponentialMovingAverage:0": {"name": "efficientnet-b0/blocks_15/tpu_batch_normalization_2/beta/ExponentialMovingAverage:0", "dtype": "DT_RESOURCE", "tensorShape": {}}, "class_net/class-1-bn-6/gamma/ExponentialMovingAverage:0": {"name": "class_net/class-1-bn-6/gamma/ExponentialMovingAverage:0", "dtype": "DT_RESOURCE", "tensorShape": {}}, "box_net/box-1-bn-7/moving_mean/ExponentialMovingAverage:0": {"name": "box_net/box-1-bn-7/moving_mean/ExponentialMovingAverage:0", "dtype": "DT_RESOURCE", "tensorShape": {}}, "fpn_cells/cell_2/fnode1/op_after_combine6/conv/bias/ExponentialMovingAverage:0": {"name": "fpn_cells/cell_2/fnode1/op_after_combine6/conv/bias/ExponentialMovingAverage:0", "dtype": "DT_RESOURCE", "tensorShape": {}}, "class_net/class-0-bn-7/moving_variance/ExponentialMovingAverage:0": {"name": "class_net/class-0-bn-7/moving_variance/ExponentialMovingAverage:0", "dtype": "DT_RESOURCE", "tensorShape": {}}, "class_net/class-1-bn-7/moving_mean/ExponentialMovingAverage:0": {"name": "class_net/class-1-bn-7/moving_mean/ExponentialMovingAverage:0", "dtype": "DT_RESOURCE", "tensorShape": {}}, "fpn_cells/cell_2/fnode6/op_after_combine11/bn/beta/ExponentialMovingAverage:0": {"name": "fpn_cells/cell_2/fnode6/op_after_combine11/bn/beta/ExponentialMovingAverage:0", "dtype": "DT_RESOURCE", "tensorShape": {}}, "box_net/box-1-bn-5/gamma/ExponentialMovingAverage:0": {"name": "box_net/box-1-bn-5/gamma/ExponentialMovingAverage:0", "dtype": "DT_RESOURCE", "tensorShape": {}}, "efficientnet-b0/blocks_2/tpu_batch_normalization/moving_variance/ExponentialMovingAverage:0": {"name": "efficientnet-b0/blocks_2/tpu_batch_normalization/moving_variance/ExponentialMovingAverage:0", "dtype": "DT_RESOURCE", "tensorShape": {}}, "fpn_cells/cell_2/fnode3/op_after_combine8/bn/moving_variance/ExponentialMovingAverage:0": {"name": "fpn_cells/cell_2/fnode3/op_after_combine8/bn/moving_variance/ExponentialMovingAverage:0", "dtype": "DT_RESOURCE", "tensorShape": {}}, "efficientnet-b0/blocks_13/tpu_batch_normalization_1/beta/ExponentialMovingAverage:0": {"name": "efficientnet-b0/blocks_13/tpu_batch_normalization_1/beta/ExponentialMovingAverage:0", "dtype": "DT_RESOURCE", "tensorShape": {}}, "fpn_cells/cell_0/fnode1/WSM_1/ExponentialMovingAverage:0": {"name": "fpn_cells/cell_0/fnode1/WSM_1/ExponentialMovingAverage:0", "dtype": "DT_RESOURCE", "tensorShape": {}}, "fpn_cells/cell_0/fnode5/op_after_combine10/bn/beta/ExponentialMovingAverage:0": {"name": "fpn_cells/cell_0/fnode5/op_after_combine10/bn/beta/ExponentialMovingAverage:0", "dtype": "DT_RESOURCE", "tensorShape": {}}, "efficientnet-b0/blocks_8/tpu_batch_normalization/moving_mean/ExponentialMovingAverage:0": {"name": "efficientnet-b0/blocks_8/tpu_batch_normalization/moving_mean/ExponentialMovingAverage:0", "dtype": "DT_RESOURCE", "tensorShape": {}}, "efficientnet-b0/blocks_15/se/conv2d/kernel/ExponentialMovingAverage:0": {"name": "efficientnet-b0/blocks_15/se/conv2d/kernel/ExponentialMovingAverage:0", "dtype": "DT_RESOURCE", "tensorShape": {}}, "fpn_cells/cell_0/fnode4/op_after_combine9/bn/moving_variance/ExponentialMovingAverage:0": {"name": "fpn_cells/cell_0/fnode4/op_after_combine9/bn/moving_variance/ExponentialMovingAverage:0", "dtype": "DT_RESOURCE", "tensorShape": {}}, "efficientnet-b0/blocks_4/tpu_batch_normalization_2/beta/ExponentialMovingAverage:0": {"name": "efficientnet-b0/blocks_4/tpu_batch_normalization_2/beta/ExponentialMovingAverage:0", "dtype": "DT_RESOURCE", "tensorShape": {}}, "efficientnet-b0/blocks_6/se/conv2d_1/kernel/ExponentialMovingAverage:0": {"name": "efficientnet-b0/blocks_6/se/conv2d_1/kernel/ExponentialMovingAverage:0", "dtype": "DT_RESOURCE", "tensorShape": {}}, "fpn_cells/cell_0/fnode6/op_after_combine11/conv/bias/ExponentialMovingAverage:0": {"name": "fpn_cells/cell_0/fnode6/op_after_combine11/conv/bias/ExponentialMovingAverage:0", "dtype": "DT_RESOURCE", "tensorShape": {}}, "fpn_cells/cell_0/fnode5/op_after_combine10/bn/gamma/ExponentialMovingAverage:0": {"name": "fpn_cells/cell_0/fnode5/op_after_combine10/bn/gamma/ExponentialMovingAverage:0", "dtype": "DT_RESOURCE", "tensorShape": {}}, "efficientnet-b0/blocks_1/tpu_batch_normalization_1/moving_mean/ExponentialMovingAverage:0": {"name": "efficientnet-b0/blocks_1/tpu_batch_normalization_1/moving_mean/ExponentialMovingAverage:0", "dtype": "DT_RESOURCE", "tensorShape": {}}, "fpn_cells/cell_1/fnode0/WSM/ExponentialMovingAverage:0": {"name": "fpn_cells/cell_1/fnode0/WSM/ExponentialMovingAverage:0", "dtype": "DT_RESOURCE", "tensorShape": {}}, "efficientnet-b0/blocks_5/tpu_batch_normalization_2/moving_variance/ExponentialMovingAverage:0": {"name": "efficientnet-b0/blocks_5/tpu_batch_normalization_2/moving_variance/ExponentialMovingAverage:0", "dtype": "DT_RESOURCE", "tensorShape": {}}, "efficientnet-b0/blocks_8/tpu_batch_normalization/beta/ExponentialMovingAverage:0": {"name": "efficientnet-b0/blocks_8/tpu_batch_normalization/beta/ExponentialMovingAverage:0", "dtype": "DT_RESOURCE", "tensorShape": {}}, "efficientnet-b0/blocks_9/depthwise_conv2d/depthwise_kernel/ExponentialMovingAverage:0": {"name": "efficientnet-b0/blocks_9/depthwise_conv2d/depthwise_kernel/ExponentialMovingAverage:0", "dtype": "DT_RESOURCE", "tensorShape": {}}, "fpn_cells/cell_1/fnode0/op_after_combine5/conv/depthwise_kernel/ExponentialMovingAverage:0": {"name": "fpn_cells/cell_1/fnode0/op_after_combine5/conv/depthwise_kernel/ExponentialMovingAverage:0", "dtype": "DT_RESOURCE", "tensorShape": {}}, "box_net/box-1/depthwise_kernel/ExponentialMovingAverage:0": {"name": "box_net/box-1/depthwise_kernel/ExponentialMovingAverage:0", "dtype": "DT_RESOURCE", "tensorShape": {}}, "class_net/class-1/depthwise_kernel/ExponentialMovingAverage:0": {"name": "class_net/class-1/depthwise_kernel/ExponentialMovingAverage:0", "dtype": "DT_RESOURCE", "tensorShape": {}}, "efficientnet-b0/blocks_2/tpu_batch_normalization_1/beta/ExponentialMovingAverage:0": {"name": "efficientnet-b0/blocks_2/tpu_batch_normalization_1/beta/ExponentialMovingAverage:0", "dtype": "DT_RESOURCE", "tensorShape": {}}, "class_net/class-2-bn-6/beta/ExponentialMovingAverage:0": {"name": "class_net/class-2-bn-6/beta/ExponentialMovingAverage:0", "dtype": "DT_RESOURCE", "tensorShape": {}}, "fpn_cells/cell_2/fnode5/WSM/ExponentialMovingAverage:0": {"name": "fpn_cells/cell_2/fnode5/WSM/ExponentialMovingAverage:0", "dtype": "DT_RESOURCE", "tensorShape": {}}, "efficientnet-b0/blocks_14/tpu_batch_normalization/gamma/ExponentialMovingAverage:0": {"name": "efficientnet-b0/blocks_14/tpu_batch_normalization/gamma/ExponentialMovingAverage:0", "dtype": "DT_RESOURCE", "tensorShape": {}}, "box_net/box-2-bn-3/moving_variance/ExponentialMovingAverage:0": {"name": "box_net/box-2-bn-3/moving_variance/ExponentialMovingAverage:0", "dtype": "DT_RESOURCE", "tensorShape": {}}, "fpn_cells/cell_1/fnode6/op_after_combine11/bn/beta/ExponentialMovingAverage:0": {"name": "fpn_cells/cell_1/fnode6/op_after_combine11/bn/beta/ExponentialMovingAverage:0", "dtype": "DT_RESOURCE", "tensorShape": {}}, "fpn_cells/cell_0/fnode2/WSM/ExponentialMovingAverage:0": {"name": "fpn_cells/cell_0/fnode2/WSM/ExponentialMovingAverage:0", "dtype": "DT_RESOURCE", "tensorShape": {}}, "efficientnet-b0/blocks_3/tpu_batch_normalization/gamma/ExponentialMovingAverage:0": {"name": "efficientnet-b0/blocks_3/tpu_batch_normalization/gamma/ExponentialMovingAverage:0", "dtype": "DT_RESOURCE", "tensorShape": {}}, "fpn_cells/cell_2/fnode6/op_after_combine11/bn/moving_variance/ExponentialMovingAverage:0": {"name": "fpn_cells/cell_2/fnode6/op_after_combine11/bn/moving_variance/ExponentialMovingAverage:0", "dtype": "DT_RESOURCE", "tensorShape": {}}, "efficientnet-b0/blocks_5/tpu_batch_normalization_1/moving_mean/ExponentialMovingAverage:0": {"name": "efficientnet-b0/blocks_5/tpu_batch_normalization_1/moving_mean/ExponentialMovingAverage:0", "dtype": "DT_RESOURCE", "tensorShape": {}}, "box_net/box-0/bias/ExponentialMovingAverage:0": {"name": "box_net/box-0/bias/ExponentialMovingAverage:0", "dtype": "DT_RESOURCE", "tensorShape": {}}, "efficientnet-b0/blocks_9/conv2d/kernel/ExponentialMovingAverage:0": {"name": "efficientnet-b0/blocks_9/conv2d/kernel/ExponentialMovingAverage:0", "dtype": "DT_RESOURCE", "tensorShape": {}}, "efficientnet-b0/blocks_15/conv2d/kernel/ExponentialMovingAverage:0": {"name": "efficientnet-b0/blocks_15/conv2d/kernel/ExponentialMovingAverage:0", "dtype": "DT_RESOURCE", "tensorShape": {}}, "fpn_cells/cell_1/fnode7/WSM/ExponentialMovingAverage:0": {"name": "fpn_cells/cell_1/fnode7/WSM/ExponentialMovingAverage:0", "dtype": "DT_RESOURCE", "tensorShape": {}}, "efficientnet-b0/blocks_1/tpu_batch_normalization/beta/ExponentialMovingAverage:0": {"name": "efficientnet-b0/blocks_1/tpu_batch_normalization/beta/ExponentialMovingAverage:0", "dtype": "DT_RESOURCE", "tensorShape": {}}, "fpn_cells/cell_0/fnode4/WSM_2/ExponentialMovingAverage:0": {"name": "fpn_cells/cell_0/fnode4/WSM_2/ExponentialMovingAverage:0", "dtype": "DT_RESOURCE", "tensorShape": {}}, "fpn_cells/cell_1/fnode4/op_after_combine9/conv/bias/ExponentialMovingAverage:0": {"name": "fpn_cells/cell_1/fnode4/op_after_combine9/conv/bias/ExponentialMovingAverage:0", "dtype": "DT_RESOURCE", "tensorShape": {}}, "efficientnet-b0/blocks_13/tpu_batch_normalization_1/moving_variance/ExponentialMovingAverage:0": {"name": "efficientnet-b0/blocks_13/tpu_batch_normalization_1/moving_variance/ExponentialMovingAverage:0", "dtype": "DT_RESOURCE", "tensorShape": {}}, "efficientnet-b0/blocks_7/se/conv2d_1/bias/ExponentialMovingAverage:0": {"name": "efficientnet-b0/blocks_7/se/conv2d_1/bias/ExponentialMovingAverage:0", "dtype": "DT_RESOURCE", "tensorShape": {}}, "class_net/class-0-bn-7/beta/ExponentialMovingAverage:0": {"name": "class_net/class-0-bn-7/beta/ExponentialMovingAverage:0", "dtype": "DT_RESOURCE", "tensorShape": {}}, "fpn_cells/cell_0/fnode1/op_after_combine6/bn/beta/ExponentialMovingAverage:0": {"name": "fpn_cells/cell_0/fnode1/op_after_combine6/bn/beta/ExponentialMovingAverage:0", "dtype": "DT_RESOURCE", "tensorShape": {}}, "fpn_cells/cell_1/fnode2/op_after_combine7/bn/beta/ExponentialMovingAverage:0": {"name": "fpn_cells/cell_1/fnode2/op_after_combine7/bn/beta/ExponentialMovingAverage:0", "dtype": "DT_RESOURCE", "tensorShape": {}}, "efficientnet-b0/blocks_14/tpu_batch_normalization_1/beta/ExponentialMovingAverage:0": {"name": "efficientnet-b0/blocks_14/tpu_batch_normalization_1/beta/ExponentialMovingAverage:0", "dtype": "DT_RESOURCE", "tensorShape": {}}, "fpn_cells/cell_2/fnode3/op_after_combine8/bn/beta/ExponentialMovingAverage:0": {"name": "fpn_cells/cell_2/fnode3/op_after_combine8/bn/beta/ExponentialMovingAverage:0", "dtype": "DT_RESOURCE", "tensorShape": {}}, "efficientnet-b0/blocks_4/tpu_batch_normalization_2/gamma/ExponentialMovingAverage:0": {"name": "efficientnet-b0/blocks_4/tpu_batch_normalization_2/gamma/ExponentialMovingAverage:0", "dtype": "DT_RESOURCE", "tensorShape": {}}, "efficientnet-b0/blocks_9/tpu_batch_normalization_1/moving_mean/ExponentialMovingAverage:0": {"name": "efficientnet-b0/blocks_9/tpu_batch_normalization_1/moving_mean/ExponentialMovingAverage:0", "dtype": "DT_RESOURCE", "tensorShape": {}}, "fpn_cells/cell_1/fnode4/op_after_combine9/bn/moving_variance/ExponentialMovingAverage:0": {"name": "fpn_cells/cell_1/fnode4/op_after_combine9/bn/moving_variance/ExponentialMovingAverage:0", "dtype": "DT_RESOURCE", "tensorShape": {}}, "efficientnet-b0/blocks_7/tpu_batch_normalization/moving_mean/ExponentialMovingAverage:0": {"name": "efficientnet-b0/blocks_7/tpu_batch_normalization/moving_mean/ExponentialMovingAverage:0", "dtype": "DT_RESOURCE", "tensorShape": {}}, "fpn_cells/cell_2/fnode7/op_after_combine12/bn/beta/ExponentialMovingAverage:0": {"name": "fpn_cells/cell_2/fnode7/op_after_combine12/bn/beta/ExponentialMovingAverage:0", "dtype": "DT_RESOURCE", "tensorShape": {}}, "efficientnet-b0/stem/conv2d/kernel/ExponentialMovingAverage:0": {"name": "efficientnet-b0/stem/conv2d/kernel/ExponentialMovingAverage:0", "dtype": "DT_RESOURCE", "tensorShape": {}}, "efficientnet-b0/blocks_8/depthwise_conv2d/depthwise_kernel/ExponentialMovingAverage:0": {"name": "efficientnet-b0/blocks_8/depthwise_conv2d/depthwise_kernel/ExponentialMovingAverage:0", "dtype": "DT_RESOURCE", "tensorShape": {}}, "efficientnet-b0/blocks_12/se/conv2d_1/kernel/ExponentialMovingAverage:0": {"name": "efficientnet-b0/blocks_12/se/conv2d_1/kernel/ExponentialMovingAverage:0", "dtype": "DT_RESOURCE", "tensorShape": {}}, "efficientnet-b0/blocks_9/tpu_batch_normalization_1/gamma/ExponentialMovingAverage:0": {"name": "efficientnet-b0/blocks_9/tpu_batch_normalization_1/gamma/ExponentialMovingAverage:0", "dtype": "DT_RESOURCE", "tensorShape": {}}, "efficientnet-b0/blocks_5/tpu_batch_normalization_2/beta/ExponentialMovingAverage:0": {"name": "efficientnet-b0/blocks_5/tpu_batch_normalization_2/beta/ExponentialMovingAverage:0", "dtype": "DT_RESOURCE", "tensorShape": {}}, "fpn_cells/cell_2/fnode2/WSM_1/ExponentialMovingAverage:0": {"name": "fpn_cells/cell_2/fnode2/WSM_1/ExponentialMovingAverage:0", "dtype": "DT_RESOURCE", "tensorShape": {}}, "efficientnet-b0/blocks_5/se/conv2d/kernel/ExponentialMovingAverage:0": {"name": "efficientnet-b0/blocks_5/se/conv2d/kernel/ExponentialMovingAverage:0", "dtype": "DT_RESOURCE", "tensorShape": {}}, "efficientnet-b0/blocks_9/se/conv2d_1/kernel/ExponentialMovingAverage:0": {"name": "efficientnet-b0/blocks_9/se/conv2d_1/kernel/ExponentialMovingAverage:0", "dtype": "DT_RESOURCE", "tensorShape": {}}, "fpn_cells/cell_0/fnode6/op_after_combine11/bn/beta/ExponentialMovingAverage:0": {"name": "fpn_cells/cell_0/fnode6/op_after_combine11/bn/beta/ExponentialMovingAverage:0", "dtype": "DT_RESOURCE", "tensorShape": {}}, "efficientnet-b0/blocks_12/tpu_batch_normalization_2/gamma/ExponentialMovingAverage:0": {"name": "efficientnet-b0/blocks_12/tpu_batch_normalization_2/gamma/ExponentialMovingAverage:0", "dtype": "DT_RESOURCE", "tensorShape": {}}, "fpn_cells/cell_0/fnode2/resample_0_1_7/bn/beta/ExponentialMovingAverage:0": {"name": "fpn_cells/cell_0/fnode2/resample_0_1_7/bn/beta/ExponentialMovingAverage:0", "dtype": "DT_RESOURCE", "tensorShape": {}}, "box_net/box-2-bn-3/beta/ExponentialMovingAverage:0": {"name": "box_net/box-2-bn-3/beta/ExponentialMovingAverage:0", "dtype": "DT_RESOURCE", "tensorShape": {}}, "efficientnet-b0/blocks_15/se/conv2d_1/bias/ExponentialMovingAverage:0": {"name": "efficientnet-b0/blocks_15/se/conv2d_1/bias/ExponentialMovingAverage:0", "dtype": "DT_RESOURCE", "tensorShape": {}}, "efficientnet-b0/blocks_1/conv2d_1/kernel/ExponentialMovingAverage:0": {"name": "efficientnet-b0/blocks_1/conv2d_1/kernel/ExponentialMovingAverage:0", "dtype": "DT_RESOURCE", "tensorShape": {}}, "efficientnet-b0/blocks_3/tpu_batch_normalization_1/beta/ExponentialMovingAverage:0": {"name": "efficientnet-b0/blocks_3/tpu_batch_normalization_1/beta/ExponentialMovingAverage:0", "dtype": "DT_RESOURCE", "tensorShape": {}}, "box_net/box-predict/pointwise_kernel/ExponentialMovingAverage:0": {"name": "box_net/box-predict/pointwise_kernel/ExponentialMovingAverage:0", "dtype": "DT_RESOURCE", "tensorShape": {}}, "efficientnet-b0/blocks_8/tpu_batch_normalization/gamma/ExponentialMovingAverage:0": {"name": "efficientnet-b0/blocks_8/tpu_batch_normalization/gamma/ExponentialMovingAverage:0", "dtype": "DT_RESOURCE", "tensorShape": {}}, "class_net/class-0-bn-4/gamma/ExponentialMovingAverage:0": {"name": "class_net/class-0-bn-4/gamma/ExponentialMovingAverage:0", "dtype": "DT_RESOURCE", "tensorShape": {}}, "fpn_cells/cell_0/fnode3/resample_0_0_8/bn/moving_variance/ExponentialMovingAverage:0": {"name": "fpn_cells/cell_0/fnode3/resample_0_0_8/bn/moving_variance/ExponentialMovingAverage:0", "dtype": "DT_RESOURCE", "tensorShape": {}}, "fpn_cells/cell_2/fnode0/op_after_combine5/bn/gamma/ExponentialMovingAverage:0": {"name": "fpn_cells/cell_2/fnode0/op_after_combine5/bn/gamma/ExponentialMovingAverage:0", "dtype": "DT_RESOURCE", "tensorShape": {}}, "box_net/box-0-bn-4/beta/ExponentialMovingAverage:0": {"name": "box_net/box-0-bn-4/beta/ExponentialMovingAverage:0", "dtype": "DT_RESOURCE", "tensorShape": {}}, "efficientnet-b0/blocks_9/tpu_batch_normalization/moving_variance/ExponentialMovingAverage:0": {"name": "efficientnet-b0/blocks_9/tpu_batch_normalization/moving_variance/ExponentialMovingAverage:0", "dtype": "DT_RESOURCE", "tensorShape": {}}, "fpn_cells/cell_1/fnode7/op_after_combine12/bn/beta/ExponentialMovingAverage:0": {"name": "fpn_cells/cell_1/fnode7/op_after_combine12/bn/beta/ExponentialMovingAverage:0", "dtype": "DT_RESOURCE", "tensorShape": {}}, "fpn_cells/cell_0/fnode1/resample_0_2_6/bn/moving_variance/ExponentialMovingAverage:0": {"name": "fpn_cells/cell_0/fnode1/resample_0_2_6/bn/moving_variance/ExponentialMovingAverage:0", "dtype": "DT_RESOURCE", "tensorShape": {}}, "fpn_cells/cell_2/fnode4/op_after_combine9/bn/moving_variance/ExponentialMovingAverage:0": {"name": "fpn_cells/cell_2/fnode4/op_after_combine9/bn/moving_variance/ExponentialMovingAverage:0", "dtype": "DT_RESOURCE", "tensorShape": {}}, "box_net/box-0-bn-3/gamma/ExponentialMovingAverage:0": {"name": "box_net/box-0-bn-3/gamma/ExponentialMovingAverage:0", "dtype": "DT_RESOURCE", "tensorShape": {}}, "box_net/box-2-bn-5/moving_mean/ExponentialMovingAverage:0": {"name": "box_net/box-2-bn-5/moving_mean/ExponentialMovingAverage:0", "dtype": "DT_RESOURCE", "tensorShape": {}}, "efficientnet-b0/blocks_13/se/conv2d/kernel/ExponentialMovingAverage:0": {"name": "efficientnet-b0/blocks_13/se/conv2d/kernel/ExponentialMovingAverage:0", "dtype": "DT_RESOURCE", "tensorShape": {}}, "efficientnet-b0/blocks_2/se/conv2d/bias/ExponentialMovingAverage:0": {"name": "efficientnet-b0/blocks_2/se/conv2d/bias/ExponentialMovingAverage:0", "dtype": "DT_RESOURCE", "tensorShape": {}}, "class_net/class-2-bn-5/moving_mean/ExponentialMovingAverage:0": {"name": "class_net/class-2-bn-5/moving_mean/ExponentialMovingAverage:0", "dtype": "DT_RESOURCE", "tensorShape": {}}, "efficientnet-b0/blocks_7/depthwise_conv2d/depthwise_kernel/ExponentialMovingAverage:0": {"name": "efficientnet-b0/blocks_7/depthwise_conv2d/depthwise_kernel/ExponentialMovingAverage:0", "dtype": "DT_RESOURCE", "tensorShape": {}}, "fpn_cells/cell_1/fnode3/WSM_1/ExponentialMovingAverage:0": {"name": "fpn_cells/cell_1/fnode3/WSM_1/ExponentialMovingAverage:0", "dtype": "DT_RESOURCE", "tensorShape": {}}, "fpn_cells/cell_2/fnode4/op_after_combine9/conv/pointwise_kernel/ExponentialMovingAverage:0": {"name": "fpn_cells/cell_2/fnode4/op_after_combine9/conv/pointwise_kernel/ExponentialMovingAverage:0", "dtype": "DT_RESOURCE", "tensorShape": {}}, "efficientnet-b0/blocks_15/tpu_batch_normalization_1/beta/ExponentialMovingAverage:0": {"name": "efficientnet-b0/blocks_15/tpu_batch_normalization_1/beta/ExponentialMovingAverage:0", "dtype": "DT_RESOURCE", "tensorShape": {}}, "efficientnet-b0/blocks_6/tpu_batch_normalization/moving_mean/ExponentialMovingAverage:0": {"name": "efficientnet-b0/blocks_6/tpu_batch_normalization/moving_mean/ExponentialMovingAverage:0", "dtype": "DT_RESOURCE", "tensorShape": {}}, "fpn_cells/cell_1/fnode7/op_after_combine12/bn/moving_mean/ExponentialMovingAverage:0": {"name": "fpn_cells/cell_1/fnode7/op_after_combine12/bn/moving_mean/ExponentialMovingAverage:0", "dtype": "DT_RESOURCE", "tensorShape": {}}, "efficientnet-b0/blocks_11/tpu_batch_normalization_2/moving_mean/ExponentialMovingAverage:0": {"name": "efficientnet-b0/blocks_11/tpu_batch_normalization_2/moving_mean/ExponentialMovingAverage:0", "dtype": "DT_RESOURCE", "tensorShape": {}}, "fpn_cells/cell_2/fnode5/WSM_2/ExponentialMovingAverage:0": {"name": "fpn_cells/cell_2/fnode5/WSM_2/ExponentialMovingAverage:0", "dtype": "DT_RESOURCE", "tensorShape": {}}, "class_net/class-2-bn-6/gamma/ExponentialMovingAverage:0": {"name": "class_net/class-2-bn-6/gamma/ExponentialMovingAverage:0", "dtype": "DT_RESOURCE", "tensorShape": {}}, "efficientnet-b0/blocks_2/tpu_batch_normalization_1/gamma/ExponentialMovingAverage:0": {"name": "efficientnet-b0/blocks_2/tpu_batch_normalization_1/gamma/ExponentialMovingAverage:0", "dtype": "DT_RESOURCE", "tensorShape": {}}, "box_net/box-2-bn-4/moving_variance/ExponentialMovingAverage:0": {"name": "box_net/box-2-bn-4/moving_variance/ExponentialMovingAverage:0", "dtype": "DT_RESOURCE", "tensorShape": {}}, "fpn_cells/cell_0/fnode4/op_after_combine9/conv/pointwise_kernel/ExponentialMovingAverage:0": {"name": "fpn_cells/cell_0/fnode4/op_after_combine9/conv/pointwise_kernel/ExponentialMovingAverage:0", "dtype": "DT_RESOURCE", "tensorShape": {}}, "efficientnet-b0/blocks_1/tpu_batch_normalization/moving_variance/ExponentialMovingAverage:0": {"name": "efficientnet-b0/blocks_1/tpu_batch_normalization/moving_variance/ExponentialMovingAverage:0", "dtype": "DT_RESOURCE", "tensorShape": {}}, "fpn_cells/cell_0/fnode0/op_after_combine5/conv/bias/ExponentialMovingAverage:0": {"name": "fpn_cells/cell_0/fnode0/op_after_combine5/conv/bias/ExponentialMovingAverage:0", "dtype": "DT_RESOURCE", "tensorShape": {}}, "efficientnet-b0/blocks_15/se/conv2d_1/kernel/ExponentialMovingAverage:0": {"name": "efficientnet-b0/blocks_15/se/conv2d_1/kernel/ExponentialMovingAverage:0", "dtype": "DT_RESOURCE", "tensorShape": {}}, "efficientnet-b0/blocks_6/tpu_batch_normalization_2/beta/ExponentialMovingAverage:0": {"name": "efficientnet-b0/blocks_6/tpu_batch_normalization_2/beta/ExponentialMovingAverage:0", "dtype": "DT_RESOURCE", "tensorShape": {}}, "efficientnet-b0/blocks_13/tpu_batch_normalization/beta/ExponentialMovingAverage:0": {"name": "efficientnet-b0/blocks_13/tpu_batch_normalization/beta/ExponentialMovingAverage:0", "dtype": "DT_RESOURCE", "tensorShape": {}}, "efficientnet-b0/blocks_4/tpu_batch_normalization_1/moving_variance/ExponentialMovingAverage:0": {"name": "efficientnet-b0/blocks_4/tpu_batch_normalization_1/moving_variance/ExponentialMovingAverage:0", "dtype": "DT_RESOURCE", "tensorShape": {}}, "box_net/box-2-bn-5/gamma/ExponentialMovingAverage:0": {"name": "box_net/box-2-bn-5/gamma/ExponentialMovingAverage:0", "dtype": "DT_RESOURCE", "tensorShape": {}}, "fpn_cells/cell_0/fnode5/resample_0_2_10/conv2d/kernel/ExponentialMovingAverage:0": {"name": "fpn_cells/cell_0/fnode5/resample_0_2_10/conv2d/kernel/ExponentialMovingAverage:0", "dtype": "DT_RESOURCE", "tensorShape": {}}, "efficientnet-b0/blocks_15/tpu_batch_normalization_2/moving_mean/ExponentialMovingAverage:0": {"name": "efficientnet-b0/blocks_15/tpu_batch_normalization_2/moving_mean/ExponentialMovingAverage:0", "dtype": "DT_RESOURCE", "tensorShape": {}}, "class_net/class-2/bias/ExponentialMovingAverage:0": {"name": "class_net/class-2/bias/ExponentialMovingAverage:0", "dtype": "DT_RESOURCE", "tensorShape": {}}, "efficientnet-b0/blocks_9/tpu_batch_normalization_1/moving_variance/ExponentialMovingAverage:0": {"name": "efficientnet-b0/blocks_9/tpu_batch_normalization_1/moving_variance/ExponentialMovingAverage:0", "dtype": "DT_RESOURCE", "tensorShape": {}}, "fpn_cells/cell_1/fnode7/op_after_combine12/conv/pointwise_kernel/ExponentialMovingAverage:0": {"name": "fpn_cells/cell_1/fnode7/op_after_combine12/conv/pointwise_kernel/ExponentialMovingAverage:0", "dtype": "DT_RESOURCE", "tensorShape": {}}, "efficientnet-b0/blocks_10/tpu_batch_normalization_1/gamma/ExponentialMovingAverage:0": {"name": "efficientnet-b0/blocks_10/tpu_batch_normalization_1/gamma/ExponentialMovingAverage:0", "dtype": "DT_RESOURCE", "tensorShape": {}}, "efficientnet-b0/blocks_4/tpu_batch_normalization_1/beta/ExponentialMovingAverage:0": {"name": "efficientnet-b0/blocks_4/tpu_batch_normalization_1/beta/ExponentialMovingAverage:0", "dtype": "DT_RESOURCE", "tensorShape": {}}, "fpn_cells/cell_1/fnode0/op_after_combine5/bn/gamma/ExponentialMovingAverage:0": {"name": "fpn_cells/cell_1/fnode0/op_after_combine5/bn/gamma/ExponentialMovingAverage:0", "dtype": "DT_RESOURCE", "tensorShape": {}}, "efficientnet-b0/blocks_13/tpu_batch_normalization_2/moving_variance/ExponentialMovingAverage:0": {"name": "efficientnet-b0/blocks_13/tpu_batch_normalization_2/moving_variance/ExponentialMovingAverage:0", "dtype": "DT_RESOURCE", "tensorShape": {}}, "efficientnet-b0/blocks_5/se/conv2d_1/bias/ExponentialMovingAverage:0": {"name": "efficientnet-b0/blocks_5/se/conv2d_1/bias/ExponentialMovingAverage:0", "dtype": "DT_RESOURCE", "tensorShape": {}}, "fpn_cells/cell_0/fnode4/WSM_1/ExponentialMovingAverage:0": {"name": "fpn_cells/cell_0/fnode4/WSM_1/ExponentialMovingAverage:0", "dtype": "DT_RESOURCE", "tensorShape": {}}, "fpn_cells/cell_0/fnode7/op_after_combine12/bn/beta/ExponentialMovingAverage:0": {"name": "fpn_cells/cell_0/fnode7/op_after_combine12/bn/beta/ExponentialMovingAverage:0", "dtype": "DT_RESOURCE", "tensorShape": {}}, "efficientnet-b0/blocks_5/conv2d/kernel/ExponentialMovingAverage:0": {"name": "efficientnet-b0/blocks_5/conv2d/kernel/ExponentialMovingAverage:0", "dtype": "DT_RESOURCE", "tensorShape": {}}, "fpn_cells/cell_2/fnode7/op_after_combine12/bn/moving_variance/ExponentialMovingAverage:0": {"name": "fpn_cells/cell_2/fnode7/op_after_combine12/bn/moving_variance/ExponentialMovingAverage:0", "dtype": "DT_RESOURCE", "tensorShape": {}}, "efficientnet-b0/blocks_11/conv2d/kernel/ExponentialMovingAverage:0": {"name": "efficientnet-b0/blocks_11/conv2d/kernel/ExponentialMovingAverage:0", "dtype": "DT_RESOURCE", "tensorShape": {}}, "efficientnet-b0/blocks_6/depthwise_conv2d/depthwise_kernel/ExponentialMovingAverage:0": {"name": "efficientnet-b0/blocks_6/depthwise_conv2d/depthwise_kernel/ExponentialMovingAverage:0", "dtype": "DT_RESOURCE", "tensorShape": {}}, "fpn_cells/cell_1/fnode6/op_after_combine11/bn/gamma/ExponentialMovingAverage:0": {"name": "fpn_cells/cell_1/fnode6/op_after_combine11/bn/gamma/ExponentialMovingAverage:0", "dtype": "DT_RESOURCE", "tensorShape": {}}, "fpn_cells/cell_1/fnode6/WSM_2/ExponentialMovingAverage:0": {"name": "fpn_cells/cell_1/fnode6/WSM_2/ExponentialMovingAverage:0", "dtype": "DT_RESOURCE", "tensorShape": {}}, "class_net/class-2-bn-5/beta/ExponentialMovingAverage:0": {"name": "class_net/class-2-bn-5/beta/ExponentialMovingAverage:0", "dtype": "DT_RESOURCE", "tensorShape": {}}, "fpn_cells/cell_2/fnode0/WSM/ExponentialMovingAverage:0": {"name": "fpn_cells/cell_2/fnode0/WSM/ExponentialMovingAverage:0", "dtype": "DT_RESOURCE", "tensorShape": {}}, "fpn_cells/cell_2/fnode1/op_after_combine6/bn/gamma/ExponentialMovingAverage:0": {"name": "fpn_cells/cell_2/fnode1/op_after_combine6/bn/gamma/ExponentialMovingAverage:0", "dtype": "DT_RESOURCE", "tensorShape": {}}, "box_net/box-1-bn-7/beta/ExponentialMovingAverage:0": {"name": "box_net/box-1-bn-7/beta/ExponentialMovingAverage:0", "dtype": "DT_RESOURCE", "tensorShape": {}}, "efficientnet-b0/blocks_5/tpu_batch_normalization/moving_mean/ExponentialMovingAverage:0": {"name": "efficientnet-b0/blocks_5/tpu_batch_normalization/moving_mean/ExponentialMovingAverage:0", "dtype": "DT_RESOURCE", "tensorShape": {}}, "efficientnet-b0/blocks_3/se/conv2d/kernel/ExponentialMovingAverage:0": {"name": "efficientnet-b0/blocks_3/se/conv2d/kernel/ExponentialMovingAverage:0", "dtype": "DT_RESOURCE", "tensorShape": {}}, "resample_p6/bn/gamma/ExponentialMovingAverage:0": {"name": "resample_p6/bn/gamma/ExponentialMovingAverage:0", "dtype": "DT_RESOURCE", "tensorShape": {}}, "fpn_cells/cell_1/fnode2/WSM/ExponentialMovingAverage:0": {"name": "fpn_cells/cell_1/fnode2/WSM/ExponentialMovingAverage:0", "dtype": "DT_RESOURCE", "tensorShape": {}}, "efficientnet-b0/blocks_8/tpu_batch_normalization_2/gamma/ExponentialMovingAverage:0": {"name": "efficientnet-b0/blocks_8/tpu_batch_normalization_2/gamma/ExponentialMovingAverage:0", "dtype": "DT_RESOURCE", "tensorShape": {}}, "fpn_cells/cell_2/fnode3/op_after_combine8/conv/pointwise_kernel/ExponentialMovingAverage:0": {"name": "fpn_cells/cell_2/fnode3/op_after_combine8/conv/pointwise_kernel/ExponentialMovingAverage:0", "dtype": "DT_RESOURCE", "tensorShape": {}}, "efficientnet-b0/blocks_13/se/conv2d_1/bias/ExponentialMovingAverage:0": {"name": "efficientnet-b0/blocks_13/se/conv2d_1/bias/ExponentialMovingAverage:0", "dtype": "DT_RESOURCE", "tensorShape": {}}, "efficientnet-b0/blocks_2/conv2d_1/kernel/ExponentialMovingAverage:0": {"name": "efficientnet-b0/blocks_2/conv2d_1/kernel/ExponentialMovingAverage:0", "dtype": "DT_RESOURCE", "tensorShape": {}}, "class_net/class-0-bn-6/beta/ExponentialMovingAverage:0": {"name": "class_net/class-0-bn-6/beta/ExponentialMovingAverage:0", "dtype": "DT_RESOURCE", "tensorShape": {}}, "fpn_cells/cell_2/fnode6/op_after_combine11/conv/pointwise_kernel/ExponentialMovingAverage:0": {"name": "fpn_cells/cell_2/fnode6/op_after_combine11/conv/pointwise_kernel/ExponentialMovingAverage:0", "dtype": "DT_RESOURCE", "tensorShape": {}}, "efficientnet-b0/blocks_5/tpu_batch_normalization/beta/ExponentialMovingAverage:0": {"name": "efficientnet-b0/blocks_5/tpu_batch_normalization/beta/ExponentialMovingAverage:0", "dtype": "DT_RESOURCE", "tensorShape": {}}, "fpn_cells/cell_0/fnode6/op_after_combine11/bn/moving_mean/ExponentialMovingAverage:0": {"name": "fpn_cells/cell_0/fnode6/op_after_combine11/bn/moving_mean/ExponentialMovingAverage:0", "dtype": "DT_RESOURCE", "tensorShape": {}}, "fpn_cells/cell_0/fnode2/resample_0_1_7/bn/moving_mean/ExponentialMovingAverage:0": {"name": "fpn_cells/cell_0/fnode2/resample_0_1_7/bn/moving_mean/ExponentialMovingAverage:0", "dtype": "DT_RESOURCE", "tensorShape": {}}, "fpn_cells/cell_2/fnode7/WSM/ExponentialMovingAverage:0": {"name": "fpn_cells/cell_2/fnode7/WSM/ExponentialMovingAverage:0", "dtype": "DT_RESOURCE", "tensorShape": {}}, "fpn_cells/cell_0/fnode0/op_after_combine5/bn/gamma/ExponentialMovingAverage:0": {"name": "fpn_cells/cell_0/fnode0/op_after_combine5/bn/gamma/ExponentialMovingAverage:0", "dtype": "DT_RESOURCE", "tensorShape": {}}, "efficientnet-b0/blocks_7/tpu_batch_normalization_2/beta/ExponentialMovingAverage:0": {"name": "efficientnet-b0/blocks_7/tpu_batch_normalization_2/beta/ExponentialMovingAverage:0", "dtype": "DT_RESOURCE", "tensorShape": {}}, "fpn_cells/cell_0/fnode3/op_after_combine8/conv/pointwise_kernel/ExponentialMovingAverage:0": {"name": "fpn_cells/cell_0/fnode3/op_after_combine8/conv/pointwise_kernel/ExponentialMovingAverage:0", "dtype": "DT_RESOURCE", "tensorShape": {}}, "fpn_cells/cell_0/fnode4/WSM/ExponentialMovingAverage:0": {"name": "fpn_cells/cell_0/fnode4/WSM/ExponentialMovingAverage:0", "dtype": "DT_RESOURCE", "tensorShape": {}}, "efficientnet-b0/blocks_5/depthwise_conv2d/depthwise_kernel/ExponentialMovingAverage:0": {"name": "efficientnet-b0/blocks_5/depthwise_conv2d/depthwise_kernel/ExponentialMovingAverage:0", "dtype": "DT_RESOURCE", "tensorShape": {}}, "box_net/box-0-bn-5/moving_mean/ExponentialMovingAverage:0": {"name": "box_net/box-0-bn-5/moving_mean/ExponentialMovingAverage:0", "dtype": "DT_RESOURCE", "tensorShape": {}}, "efficientnet-b0/blocks_7/se/conv2d/bias/ExponentialMovingAverage:0": {"name": "efficientnet-b0/blocks_7/se/conv2d/bias/ExponentialMovingAverage:0", "dtype": "DT_RESOURCE", "tensorShape": {}}, "efficientnet-b0/blocks_5/tpu_batch_normalization_1/beta/ExponentialMovingAverage:0": {"name": "efficientnet-b0/blocks_5/tpu_batch_normalization_1/beta/ExponentialMovingAverage:0", "dtype": "DT_RESOURCE", "tensorShape": {}}, "fpn_cells/cell_1/fnode1/op_after_combine6/bn/gamma/ExponentialMovingAverage:0": {"name": "fpn_cells/cell_1/fnode1/op_after_combine6/bn/gamma/ExponentialMovingAverage:0", "dtype": "DT_RESOURCE", "tensorShape": {}}, "efficientnet-b0/blocks_11/se/conv2d/kernel/ExponentialMovingAverage:0": {"name": "efficientnet-b0/blocks_11/se/conv2d/kernel/ExponentialMovingAverage:0", "dtype": "DT_RESOURCE", "tensorShape": {}}, "class_net/class-0-bn-5/moving_mean/ExponentialMovingAverage:0": {"name": "class_net/class-0-bn-5/moving_mean/ExponentialMovingAverage:0", "dtype": "DT_RESOURCE", "tensorShape": {}}, "fpn_cells/cell_1/fnode1/op_after_combine6/conv/bias/ExponentialMovingAverage:0": {"name": "fpn_cells/cell_1/fnode1/op_after_combine6/conv/bias/ExponentialMovingAverage:0", "dtype": "DT_RESOURCE", "tensorShape": {}}, "efficientnet-b0/blocks_3/tpu_batch_normalization_2/moving_mean/ExponentialMovingAverage:0": {"name": "efficientnet-b0/blocks_3/tpu_batch_normalization_2/moving_mean/ExponentialMovingAverage:0", "dtype": "DT_RESOURCE", "tensorShape": {}}, "efficientnet-b0/blocks_13/se/conv2d/bias/ExponentialMovingAverage:0": {"name": "efficientnet-b0/blocks_13/se/conv2d/bias/ExponentialMovingAverage:0", "dtype": "DT_RESOURCE", "tensorShape": {}}, "efficientnet-b0/blocks_12/tpu_batch_normalization_1/moving_mean/ExponentialMovingAverage:0": {"name": "efficientnet-b0/blocks_12/tpu_batch_normalization_1/moving_mean/ExponentialMovingAverage:0", "dtype": "DT_RESOURCE", "tensorShape": {}}, "efficientnet-b0/blocks_12/tpu_batch_normalization/gamma/ExponentialMovingAverage:0": {"name": "efficientnet-b0/blocks_12/tpu_batch_normalization/gamma/ExponentialMovingAverage:0", "dtype": "DT_RESOURCE", "tensorShape": {}}, "fpn_cells/cell_2/fnode5/op_after_combine10/conv/bias/ExponentialMovingAverage:0": {"name": "fpn_cells/cell_2/fnode5/op_after_combine10/conv/bias/ExponentialMovingAverage:0", "dtype": "DT_RESOURCE", "tensorShape": {}}, "efficientnet-b0/blocks_4/tpu_batch_normalization/moving_mean/ExponentialMovingAverage:0": {"name": "efficientnet-b0/blocks_4/tpu_batch_normalization/moving_mean/ExponentialMovingAverage:0", "dtype": "DT_RESOURCE", "tensorShape": {}}, "fpn_cells/cell_2/fnode2/op_after_combine7/bn/gamma/ExponentialMovingAverage:0": {"name": "fpn_cells/cell_2/fnode2/op_after_combine7/bn/gamma/ExponentialMovingAverage:0", "dtype": "DT_RESOURCE", "tensorShape": {}}, "fpn_cells/cell_0/fnode2/resample_0_1_7/conv2d/bias/ExponentialMovingAverage:0": {"name": "fpn_cells/cell_0/fnode2/resample_0_1_7/conv2d/bias/ExponentialMovingAverage:0", "dtype": "DT_RESOURCE", "tensorShape": {}}, "box_net/box-2-bn-5/moving_variance/ExponentialMovingAverage:0": {"name": "box_net/box-2-bn-5/moving_variance/ExponentialMovingAverage:0", "dtype": "DT_RESOURCE", "tensorShape": {}}, "fpn_cells/cell_2/fnode5/WSM_1/ExponentialMovingAverage:0": {"name": "fpn_cells/cell_2/fnode5/WSM_1/ExponentialMovingAverage:0", "dtype": "DT_RESOURCE", "tensorShape": {}}, "efficientnet-b0/blocks_1/tpu_batch_normalization/gamma/ExponentialMovingAverage:0": {"name": "efficientnet-b0/blocks_1/tpu_batch_normalization/gamma/ExponentialMovingAverage:0", "dtype": "DT_RESOURCE", "tensorShape": {}}, "efficientnet-b0/blocks_7/tpu_batch_normalization_2/moving_mean/ExponentialMovingAverage:0": {"name": "efficientnet-b0/blocks_7/tpu_batch_normalization_2/moving_mean/ExponentialMovingAverage:0", "dtype": "DT_RESOURCE", "tensorShape": {}}, "box_net/box-1-bn-3/moving_variance/ExponentialMovingAverage:0": {"name": "box_net/box-1-bn-3/moving_variance/ExponentialMovingAverage:0", "dtype": "DT_RESOURCE", "tensorShape": {}}, "efficientnet-b0/blocks_4/tpu_batch_normalization_2/moving_variance/ExponentialMovingAverage:0": {"name": "efficientnet-b0/blocks_4/tpu_batch_normalization_2/moving_variance/ExponentialMovingAverage:0", "dtype": "DT_RESOURCE", "tensorShape": {}}, "fpn_cells/cell_0/fnode4/resample_0_1_9/bn/moving_variance/ExponentialMovingAverage:0": {"name": "fpn_cells/cell_0/fnode4/resample_0_1_9/bn/moving_variance/ExponentialMovingAverage:0", "dtype": "DT_RESOURCE", "tensorShape": {}}, "efficientnet-b0/blocks_1/tpu_batch_normalization_2/gamma/ExponentialMovingAverage:0": {"name": "efficientnet-b0/blocks_1/tpu_batch_normalization_2/gamma/ExponentialMovingAverage:0", "dtype": "DT_RESOURCE", "tensorShape": {}}, "fpn_cells/cell_2/fnode0/op_after_combine5/bn/beta/ExponentialMovingAverage:0": {"name": "fpn_cells/cell_2/fnode0/op_after_combine5/bn/beta/ExponentialMovingAverage:0", "dtype": "DT_RESOURCE", "tensorShape": {}}, "box_net/box-0-bn-3/beta/ExponentialMovingAverage:0": {"name": "box_net/box-0-bn-3/beta/ExponentialMovingAverage:0", "dtype": "DT_RESOURCE", "tensorShape": {}}, "class_net/class-1-bn-4/gamma/ExponentialMovingAverage:0": {"name": "class_net/class-1-bn-4/gamma/ExponentialMovingAverage:0", "dtype": "DT_RESOURCE", "tensorShape": {}}, "efficientnet-b0/blocks_9/tpu_batch_normalization_2/moving_variance/ExponentialMovingAverage:0": {"name": "efficientnet-b0/blocks_9/tpu_batch_normalization_2/moving_variance/ExponentialMovingAverage:0", "dtype": "DT_RESOURCE", "tensorShape": {}}, "efficientnet-b0/blocks_8/tpu_batch_normalization/moving_variance/ExponentialMovingAverage:0": {"name": "efficientnet-b0/blocks_8/tpu_batch_normalization/moving_variance/ExponentialMovingAverage:0", "dtype": "DT_RESOURCE", "tensorShape": {}}, "fpn_cells/cell_2/fnode2/op_after_combine7/conv/pointwise_kernel/ExponentialMovingAverage:0": {"name": "fpn_cells/cell_2/fnode2/op_after_combine7/conv/pointwise_kernel/ExponentialMovingAverage:0", "dtype": "DT_RESOURCE", "tensorShape": {}}, "class_net/class-0-bn-7/gamma/ExponentialMovingAverage:0": {"name": "class_net/class-0-bn-7/gamma/ExponentialMovingAverage:0", "dtype": "DT_RESOURCE", "tensorShape": {}}, "efficientnet-b0/blocks_6/tpu_batch_normalization_1/gamma/ExponentialMovingAverage:0": {"name": "efficientnet-b0/blocks_6/tpu_batch_normalization_1/gamma/ExponentialMovingAverage:0", "dtype": "DT_RESOURCE", "tensorShape": {}}, "efficientnet-b0/blocks_4/depthwise_conv2d/depthwise_kernel/ExponentialMovingAverage:0": {"name": "efficientnet-b0/blocks_4/depthwise_conv2d/depthwise_kernel/ExponentialMovingAverage:0", "dtype": "DT_RESOURCE", "tensorShape": {}}, "efficientnet-b0/blocks_3/se/conv2d_1/bias/ExponentialMovingAverage:0": {"name": "efficientnet-b0/blocks_3/se/conv2d_1/bias/ExponentialMovingAverage:0", "dtype": "DT_RESOURCE", "tensorShape": {}}, "box_net/box-1-bn-3/gamma/ExponentialMovingAverage:0": {"name": "box_net/box-1-bn-3/gamma/ExponentialMovingAverage:0", "dtype": "DT_RESOURCE", "tensorShape": {}}, "fpn_cells/cell_0/fnode4/resample_0_1_9/bn/moving_mean/ExponentialMovingAverage:0": {"name": "fpn_cells/cell_0/fnode4/resample_0_1_9/bn/moving_mean/ExponentialMovingAverage:0", "dtype": "DT_RESOURCE", "tensorShape": {}}, "fpn_cells/cell_0/fnode1/op_after_combine6/bn/gamma/ExponentialMovingAverage:0": {"name": "fpn_cells/cell_0/fnode1/op_after_combine6/bn/gamma/ExponentialMovingAverage:0", "dtype": "DT_RESOURCE", "tensorShape": {}}, "efficientnet-b0/blocks_8/tpu_batch_normalization_2/beta/ExponentialMovingAverage:0": {"name": "efficientnet-b0/blocks_8/tpu_batch_normalization_2/beta/ExponentialMovingAverage:0", "dtype": "DT_RESOURCE", "tensorShape": {}}, "box_net/box-0-bn-6/gamma/ExponentialMovingAverage:0": {"name": "box_net/box-0-bn-6/gamma/ExponentialMovingAverage:0", "dtype": "DT_RESOURCE", "tensorShape": {}}, "fpn_cells/cell_0/fnode6/op_after_combine11/conv/pointwise_kernel/ExponentialMovingAverage:0": {"name": "fpn_cells/cell_0/fnode6/op_after_combine11/conv/pointwise_kernel/ExponentialMovingAverage:0", "dtype": "DT_RESOURCE", "tensorShape": {}}, "fpn_cells/cell_0/fnode2/op_after_combine7/conv/pointwise_kernel/ExponentialMovingAverage:0": {"name": "fpn_cells/cell_0/fnode2/op_after_combine7/conv/pointwise_kernel/ExponentialMovingAverage:0", "dtype": "DT_RESOURCE", "tensorShape": {}}, "fpn_cells/cell_1/fnode6/WSM_1/ExponentialMovingAverage:0": {"name": "fpn_cells/cell_1/fnode6/WSM_1/ExponentialMovingAverage:0", "dtype": "DT_RESOURCE", "tensorShape": {}}, "efficientnet-b0/blocks_12/tpu_batch_normalization_1/moving_variance/ExponentialMovingAverage:0": {"name": "efficientnet-b0/blocks_12/tpu_batch_normalization_1/moving_variance/ExponentialMovingAverage:0", "dtype": "DT_RESOURCE", "tensorShape": {}}, "efficientnet-b0/blocks_1/conv2d/kernel/ExponentialMovingAverage:0": {"name": "efficientnet-b0/blocks_1/conv2d/kernel/ExponentialMovingAverage:0", "dtype": "DT_RESOURCE", "tensorShape": {}}, "efficientnet-b0/blocks_6/tpu_batch_normalization_1/beta/ExponentialMovingAverage:0": {"name": "efficientnet-b0/blocks_6/tpu_batch_normalization_1/beta/ExponentialMovingAverage:0", "dtype": "DT_RESOURCE", "tensorShape": {}}, "box_net/box-predict/depthwise_kernel/ExponentialMovingAverage:0": {"name": "box_net/box-predict/depthwise_kernel/ExponentialMovingAverage:0", "dtype": "DT_RESOURCE", "tensorShape": {}}, "class_net/class-2-bn-3/moving_variance/ExponentialMovingAverage:0": {"name": "class_net/class-2-bn-3/moving_variance/ExponentialMovingAverage:0", "dtype": "DT_RESOURCE", "tensorShape": {}}, "fpn_cells/cell_1/fnode2/op_after_combine7/bn/gamma/ExponentialMovingAverage:0": {"name": "fpn_cells/cell_1/fnode2/op_after_combine7/bn/gamma/ExponentialMovingAverage:0", "dtype": "DT_RESOURCE", "tensorShape": {}}, "efficientnet-b0/blocks_0/tpu_batch_normalization/moving_variance/ExponentialMovingAverage:0": {"name": "efficientnet-b0/blocks_0/tpu_batch_normalization/moving_variance/ExponentialMovingAverage:0", "dtype": "DT_RESOURCE", "tensorShape": {}}, "resample_p6/conv2d/kernel/ExponentialMovingAverage:0": {"name": "resample_p6/conv2d/kernel/ExponentialMovingAverage:0", "dtype": "DT_RESOURCE", "tensorShape": {}}, "efficientnet-b0/blocks_14/tpu_batch_normalization_1/gamma/ExponentialMovingAverage:0": {"name": "efficientnet-b0/blocks_14/tpu_batch_normalization_1/gamma/ExponentialMovingAverage:0", "dtype": "DT_RESOURCE", "tensorShape": {}}, "efficientnet-b0/blocks_1/se/conv2d_1/kernel/ExponentialMovingAverage:0": {"name": "efficientnet-b0/blocks_1/se/conv2d_1/kernel/ExponentialMovingAverage:0", "dtype": "DT_RESOURCE", "tensorShape": {}}, "fpn_cells/cell_0/fnode4/op_after_combine9/conv/bias/ExponentialMovingAverage:0": {"name": "fpn_cells/cell_0/fnode4/op_after_combine9/conv/bias/ExponentialMovingAverage:0", "dtype": "DT_RESOURCE", "tensorShape": {}}, "efficientnet-b0/blocks_1/se/conv2d/kernel/ExponentialMovingAverage:0": {"name": "efficientnet-b0/blocks_1/se/conv2d/kernel/ExponentialMovingAverage:0", "dtype": "DT_RESOURCE", "tensorShape": {}}, "fpn_cells/cell_1/fnode5/op_after_combine10/conv/bias/ExponentialMovingAverage:0": {"name": "fpn_cells/cell_1/fnode5/op_after_combine10/conv/bias/ExponentialMovingAverage:0", "dtype": "DT_RESOURCE", "tensorShape": {}}, "efficientnet-b0/blocks_3/tpu_batch_normalization/moving_mean/ExponentialMovingAverage:0": {"name": "efficientnet-b0/blocks_3/tpu_batch_normalization/moving_mean/ExponentialMovingAverage:0", "dtype": "DT_RESOURCE", "tensorShape": {}}, "class_net/class-1/bias/ExponentialMovingAverage:0": {"name": "class_net/class-1/bias/ExponentialMovingAverage:0", "dtype": "DT_RESOURCE", "tensorShape": {}}, "efficientnet-b0/blocks_0/tpu_batch_normalization_1/moving_mean/ExponentialMovingAverage:0": {"name": "efficientnet-b0/blocks_0/tpu_batch_normalization_1/moving_mean/ExponentialMovingAverage:0", "dtype": "DT_RESOURCE", "tensorShape": {}}, "efficientnet-b0/blocks_11/se/conv2d_1/bias/ExponentialMovingAverage:0": {"name": "efficientnet-b0/blocks_11/se/conv2d_1/bias/ExponentialMovingAverage:0", "dtype": "DT_RESOURCE", "tensorShape": {}}, "efficientnet-b0/blocks_3/conv2d_1/kernel/ExponentialMovingAverage:0": {"name": "efficientnet-b0/blocks_3/conv2d_1/kernel/ExponentialMovingAverage:0", "dtype": "DT_RESOURCE", "tensorShape": {}}, "fpn_cells/cell_2/fnode3/op_after_combine8/bn/gamma/ExponentialMovingAverage:0": {"name": "fpn_cells/cell_2/fnode3/op_after_combine8/bn/gamma/ExponentialMovingAverage:0", "dtype": "DT_RESOURCE", "tensorShape": {}}, "efficientnet-b0/blocks_6/tpu_batch_normalization/gamma/ExponentialMovingAverage:0": {"name": "efficientnet-b0/blocks_6/tpu_batch_normalization/gamma/ExponentialMovingAverage:0", "dtype": "DT_RESOURCE", "tensorShape": {}}, "fpn_cells/cell_2/fnode2/op_after_combine7/conv/bias/ExponentialMovingAverage:0": {"name": "fpn_cells/cell_2/fnode2/op_after_combine7/conv/bias/ExponentialMovingAverage:0", "dtype": "DT_RESOURCE", "tensorShape": {}}, "fpn_cells/cell_0/fnode3/op_after_combine8/bn/beta/ExponentialMovingAverage:0": {"name": "fpn_cells/cell_0/fnode3/op_after_combine8/bn/beta/ExponentialMovingAverage:0", "dtype": "DT_RESOURCE", "tensorShape": {}}, "efficientnet-b0/blocks_3/depthwise_conv2d/depthwise_kernel/ExponentialMovingAverage:0": {"name": "efficientnet-b0/blocks_3/depthwise_conv2d/depthwise_kernel/ExponentialMovingAverage:0", "dtype": "DT_RESOURCE", "tensorShape": {}}, "class_net/class-2-bn-4/beta/ExponentialMovingAverage:0": {"name": "class_net/class-2-bn-4/beta/ExponentialMovingAverage:0", "dtype": "DT_RESOURCE", "tensorShape": {}}, "fpn_cells/cell_2/fnode4/op_after_combine9/conv/depthwise_kernel/ExponentialMovingAverage:0": {"name": "fpn_cells/cell_2/fnode4/op_after_combine9/conv/depthwise_kernel/ExponentialMovingAverage:0", "dtype": "DT_RESOURCE", "tensorShape": {}}, "fpn_cells/cell_1/fnode4/op_after_combine9/bn/beta/ExponentialMovingAverage:0": {"name": "fpn_cells/cell_1/fnode4/op_after_combine9/bn/beta/ExponentialMovingAverage:0", "dtype": "DT_RESOURCE", "tensorShape": {}}, "box_net/box-1-bn-6/beta/ExponentialMovingAverage:0": {"name": "box_net/box-1-bn-6/beta/ExponentialMovingAverage:0", "dtype": "DT_RESOURCE", "tensorShape": {}}, "efficientnet-b0/blocks_10/tpu_batch_normalization/beta/ExponentialMovingAverage:0": {"name": "efficientnet-b0/blocks_10/tpu_batch_normalization/beta/ExponentialMovingAverage:0", "dtype": "DT_RESOURCE", "tensorShape": {}}, "efficientnet-b0/blocks_15/tpu_batch_normalization/moving_variance/ExponentialMovingAverage:0": {"name": "efficientnet-b0/blocks_15/tpu_batch_normalization/moving_variance/ExponentialMovingAverage:0", "dtype": "DT_RESOURCE", "tensorShape": {}}, "fpn_cells/cell_1/fnode5/op_after_combine10/conv/pointwise_kernel/ExponentialMovingAverage:0": {"name": "fpn_cells/cell_1/fnode5/op_after_combine10/conv/pointwise_kernel/ExponentialMovingAverage:0", "dtype": "DT_RESOURCE", "tensorShape": {}}, "fpn_cells/cell_2/fnode7/op_after_combine12/bn/gamma/ExponentialMovingAverage:0": {"name": "fpn_cells/cell_2/fnode7/op_after_combine12/bn/gamma/ExponentialMovingAverage:0", "dtype": "DT_RESOURCE", "tensorShape": {}}, "class_net/class-predict/bias/ExponentialMovingAverage:0": {"name": "class_net/class-predict/bias/ExponentialMovingAverage:0", "dtype": "DT_RESOURCE", "tensorShape": {}}, "fpn_cells/cell_0/fnode7/WSM_1/ExponentialMovingAverage:0": {"name": "fpn_cells/cell_0/fnode7/WSM_1/ExponentialMovingAverage:0", "dtype": "DT_RESOURCE", "tensorShape": {}}, "efficientnet-b0/blocks_4/tpu_batch_normalization_1/moving_mean/ExponentialMovingAverage:0": {"name": "efficientnet-b0/blocks_4/tpu_batch_normalization_1/moving_mean/ExponentialMovingAverage:0", "dtype": "DT_RESOURCE", "tensorShape": {}}, "resample_p6/conv2d/bias/ExponentialMovingAverage:0": {"name": "resample_p6/conv2d/bias/ExponentialMovingAverage:0", "dtype": "DT_RESOURCE", "tensorShape": {}}, "fpn_cells/cell_0/fnode4/op_after_combine9/conv/depthwise_kernel/ExponentialMovingAverage:0": {"name": "fpn_cells/cell_0/fnode4/op_after_combine9/conv/depthwise_kernel/ExponentialMovingAverage:0", "dtype": "DT_RESOURCE", "tensorShape": {}}, "fpn_cells/cell_2/fnode1/op_after_combine6/conv/pointwise_kernel/ExponentialMovingAverage:0": {"name": "fpn_cells/cell_2/fnode1/op_after_combine6/conv/pointwise_kernel/ExponentialMovingAverage:0", "dtype": "DT_RESOURCE", "tensorShape": {}}, "global_step:0": {"name": "global_step:0", "dtype": "DT_RESOURCE", "tensorShape": {}}, "efficientnet-b0/blocks_9/tpu_batch_normalization_2/beta/ExponentialMovingAverage:0": {"name": "efficientnet-b0/blocks_9/tpu_batch_normalization_2/beta/ExponentialMovingAverage:0", "dtype": "DT_RESOURCE", "tensorShape": {}}, "fpn_cells/cell_0/fnode2/op_after_combine7/bn/gamma/ExponentialMovingAverage:0": {"name": "fpn_cells/cell_0/fnode2/op_after_combine7/bn/gamma/ExponentialMovingAverage:0", "dtype": "DT_RESOURCE", "tensorShape": {}}, "class_net/class-0-bn-5/beta/ExponentialMovingAverage:0": {"name": "class_net/class-0-bn-5/beta/ExponentialMovingAverage:0", "dtype": "DT_RESOURCE", "tensorShape": {}}, "box_net/box-2-bn-6/moving_variance/ExponentialMovingAverage:0": {"name": "box_net/box-2-bn-6/moving_variance/ExponentialMovingAverage:0", "dtype": "DT_RESOURCE", "tensorShape": {}}, "fpn_cells/cell_2/fnode2/WSM/ExponentialMovingAverage:0": {"name": "fpn_cells/cell_2/fnode2/WSM/ExponentialMovingAverage:0", "dtype": "DT_RESOURCE", "tensorShape": {}}, "efficientnet-b0/blocks_8/tpu_batch_normalization_1/moving_mean/ExponentialMovingAverage:0": {"name": "efficientnet-b0/blocks_8/tpu_batch_normalization_1/moving_mean/ExponentialMovingAverage:0", "dtype": "DT_RESOURCE", "tensorShape": {}}, "fpn_cells/cell_1/fnode7/op_after_combine12/conv/depthwise_kernel/ExponentialMovingAverage:0": {"name": "fpn_cells/cell_1/fnode7/op_after_combine12/conv/depthwise_kernel/ExponentialMovingAverage:0", "dtype": "DT_RESOURCE", "tensorShape": {}}, "efficientnet-b0/blocks_9/tpu_batch_normalization/beta/ExponentialMovingAverage:0": {"name": "efficientnet-b0/blocks_9/tpu_batch_normalization/beta/ExponentialMovingAverage:0", "dtype": "DT_RESOURCE", "tensorShape": {}}, "fpn_cells/cell_0/fnode1/op_after_combine6/conv/pointwise_kernel/ExponentialMovingAverage:0": {"name": "fpn_cells/cell_0/fnode1/op_after_combine6/conv/pointwise_kernel/ExponentialMovingAverage:0", "dtype": "DT_RESOURCE", "tensorShape": {}}, "efficientnet-b0/blocks_7/tpu_batch_normalization_1/beta/ExponentialMovingAverage:0": {"name": "efficientnet-b0/blocks_7/tpu_batch_normalization_1/beta/ExponentialMovingAverage:0", "dtype": "DT_RESOURCE", "tensorShape": {}}, "box_net/box-1-bn-4/moving_variance/ExponentialMovingAverage:0": {"name": "box_net/box-1-bn-4/moving_variance/ExponentialMovingAverage:0", "dtype": "DT_RESOURCE", "tensorShape": {}}, "fpn_cells/cell_1/fnode3/op_after_combine8/bn/gamma/ExponentialMovingAverage:0": {"name": "fpn_cells/cell_1/fnode3/op_after_combine8/bn/gamma/ExponentialMovingAverage:0", "dtype": "DT_RESOURCE", "tensorShape": {}}, "efficientnet-b0/blocks_2/tpu_batch_normalization/moving_mean/ExponentialMovingAverage:0": {"name": "efficientnet-b0/blocks_2/tpu_batch_normalization/moving_mean/ExponentialMovingAverage:0", "dtype": "DT_RESOURCE", "tensorShape": {}}, "fpn_cells/cell_0/fnode5/op_after_combine10/conv/bias/ExponentialMovingAverage:0": {"name": "fpn_cells/cell_0/fnode5/op_after_combine10/conv/bias/ExponentialMovingAverage:0", "dtype": "DT_RESOURCE", "tensorShape": {}}, "efficientnet-b0/blocks_4/se/conv2d_1/kernel/ExponentialMovingAverage:0": {"name": "efficientnet-b0/blocks_4/se/conv2d_1/kernel/ExponentialMovingAverage:0", "dtype": "DT_RESOURCE", "tensorShape": {}}, "box_net/box-1-bn-3/moving_mean/ExponentialMovingAverage:0": {"name": "box_net/box-1-bn-3/moving_mean/ExponentialMovingAverage:0", "dtype": "DT_RESOURCE", "tensorShape": {}}, "fpn_cells/cell_0/fnode3/resample_0_0_8/conv2d/kernel/ExponentialMovingAverage:0": {"name": "fpn_cells/cell_0/fnode3/resample_0_0_8/conv2d/kernel/ExponentialMovingAverage:0", "dtype": "DT_RESOURCE", "tensorShape": {}}, "fpn_cells/cell_2/fnode0/WSM_1/ExponentialMovingAverage:0": {"name": "fpn_cells/cell_2/fnode0/WSM_1/ExponentialMovingAverage:0", "dtype": "DT_RESOURCE", "tensorShape": {}}, "box_net/box-2/pointwise_kernel/ExponentialMovingAverage:0": {"name": "box_net/box-2/pointwise_kernel/ExponentialMovingAverage:0", "dtype": "DT_RESOURCE", "tensorShape": {}}, "class_net/class-1-bn-3/moving_mean/ExponentialMovingAverage:0": {"name": "class_net/class-1-bn-3/moving_mean/ExponentialMovingAverage:0", "dtype": "DT_RESOURCE", "tensorShape": {}}, "class_net/class-2/pointwise_kernel/ExponentialMovingAverage:0": {"name": "class_net/class-2/pointwise_kernel/ExponentialMovingAverage:0", "dtype": "DT_RESOURCE", "tensorShape": {}}, "efficientnet-b0/blocks_8/conv2d/kernel/ExponentialMovingAverage:0": {"name": "efficientnet-b0/blocks_8/conv2d/kernel/ExponentialMovingAverage:0", "dtype": "DT_RESOURCE", "tensorShape": {}}, "efficientnet-b0/blocks_14/conv2d/kernel/ExponentialMovingAverage:0": {"name": "efficientnet-b0/blocks_14/conv2d/kernel/ExponentialMovingAverage:0", "dtype": "DT_RESOURCE", "tensorShape": {}}, "efficientnet-b0/blocks_2/depthwise_conv2d/depthwise_kernel/ExponentialMovingAverage:0": {"name": "efficientnet-b0/blocks_2/depthwise_conv2d/depthwise_kernel/ExponentialMovingAverage:0", "dtype": "DT_RESOURCE", "tensorShape": {}}, "box_net/box-1-bn-6/moving_mean/ExponentialMovingAverage:0": {"name": "box_net/box-1-bn-6/moving_mean/ExponentialMovingAverage:0", "dtype": "DT_RESOURCE", "tensorShape": {}}, "class_net/class-1-bn-6/moving_mean/ExponentialMovingAverage:0": {"name": "class_net/class-1-bn-6/moving_mean/ExponentialMovingAverage:0", "dtype": "DT_RESOURCE", "tensorShape": {}}, "fpn_cells/cell_1/fnode4/WSM/ExponentialMovingAverage:0": {"name": "fpn_cells/cell_1/fnode4/WSM/ExponentialMovingAverage:0", "dtype": "DT_RESOURCE", "tensorShape": {}}, "fpn_cells/cell_2/fnode5/op_after_combine10/bn/moving_mean/ExponentialMovingAverage:0": {"name": "fpn_cells/cell_2/fnode5/op_after_combine10/bn/moving_mean/ExponentialMovingAverage:0", "dtype": "DT_RESOURCE", "tensorShape": {}}, "fpn_cells/cell_2/fnode4/op_after_combine9/bn/gamma/ExponentialMovingAverage:0": {"name": "fpn_cells/cell_2/fnode4/op_after_combine9/bn/gamma/ExponentialMovingAverage:0", "dtype": "DT_RESOURCE", "tensorShape": {}}, "fpn_cells/cell_0/fnode1/resample_0_2_6/bn/gamma/ExponentialMovingAverage:0": {"name": "fpn_cells/cell_0/fnode1/resample_0_2_6/bn/gamma/ExponentialMovingAverage:0", "dtype": "DT_RESOURCE", "tensorShape": {}}, "efficientnet-b0/blocks_1/se/conv2d_1/bias/ExponentialMovingAverage:0": {"name": "efficientnet-b0/blocks_1/se/conv2d_1/bias/ExponentialMovingAverage:0", "dtype": "DT_RESOURCE", "tensorShape": {}}, "efficientnet-b0/blocks_3/tpu_batch_normalization_1/moving_variance/ExponentialMovingAverage:0": {"name": "efficientnet-b0/blocks_3/tpu_batch_normalization_1/moving_variance/ExponentialMovingAverage:0", "dtype": "DT_RESOURCE", "tensorShape": {}}, "efficientnet-b0/blocks_2/tpu_batch_normalization/beta/ExponentialMovingAverage:0": {"name": "efficientnet-b0/blocks_2/tpu_batch_normalization/beta/ExponentialMovingAverage:0", "dtype": "DT_RESOURCE", "tensorShape": {}}, "efficientnet-b0/blocks_8/tpu_batch_normalization_1/moving_variance/ExponentialMovingAverage:0": {"name": "efficientnet-b0/blocks_8/tpu_batch_normalization_1/moving_variance/ExponentialMovingAverage:0", "dtype": "DT_RESOURCE", "tensorShape": {}}, "efficientnet-b0/blocks_5/tpu_batch_normalization_2/gamma/ExponentialMovingAverage:0": {"name": "efficientnet-b0/blocks_5/tpu_batch_normalization_2/gamma/ExponentialMovingAverage:0", "dtype": "DT_RESOURCE", "tensorShape": {}}, "fpn_cells/cell_0/fnode6/WSM/ExponentialMovingAverage:0": {"name": "fpn_cells/cell_0/fnode6/WSM/ExponentialMovingAverage:0", "dtype": "DT_RESOURCE", "tensorShape": {}}, "fpn_cells/cell_2/fnode3/op_after_combine8/conv/depthwise_kernel/ExponentialMovingAverage:0": {"name": "fpn_cells/cell_2/fnode3/op_after_combine8/conv/depthwise_kernel/ExponentialMovingAverage:0", "dtype": "DT_RESOURCE", "tensorShape": {}}, "efficientnet-b0/blocks_12/tpu_batch_normalization_2/moving_variance/ExponentialMovingAverage:0": {"name": "efficientnet-b0/blocks_12/tpu_batch_normalization_2/moving_variance/ExponentialMovingAverage:0", "dtype": "DT_RESOURCE", "tensorShape": {}}, "efficientnet-b0/blocks_4/se/conv2d/bias/ExponentialMovingAverage:0": {"name": "efficientnet-b0/blocks_4/se/conv2d/bias/ExponentialMovingAverage:0", "dtype": "DT_RESOURCE", "tensorShape": {}}, "class_net/class-2-bn-4/moving_variance/ExponentialMovingAverage:0": {"name": "class_net/class-2-bn-4/moving_variance/ExponentialMovingAverage:0", "dtype": "DT_RESOURCE", "tensorShape": {}}, "fpn_cells/cell_2/fnode6/op_after_combine11/conv/depthwise_kernel/ExponentialMovingAverage:0": {"name": "fpn_cells/cell_2/fnode6/op_after_combine11/conv/depthwise_kernel/ExponentialMovingAverage:0", "dtype": "DT_RESOURCE", "tensorShape": {}}, "efficientnet-b0/blocks_10/se/conv2d/bias/ExponentialMovingAverage:0": {"name": "efficientnet-b0/blocks_10/se/conv2d/bias/ExponentialMovingAverage:0", "dtype": "DT_RESOURCE", "tensorShape": {}}, "fpn_cells/cell_1/fnode1/WSM_1/ExponentialMovingAverage:0": {"name": "fpn_cells/cell_1/fnode1/WSM_1/ExponentialMovingAverage:0", "dtype": "DT_RESOURCE", "tensorShape": {}}, "fpn_cells/cell_0/fnode3/op_after_combine8/bn/gamma/ExponentialMovingAverage:0": {"name": "fpn_cells/cell_0/fnode3/op_after_combine8/bn/gamma/ExponentialMovingAverage:0", "dtype": "DT_RESOURCE", "tensorShape": {}}, "fpn_cells/cell_0/fnode3/op_after_combine8/conv/depthwise_kernel/ExponentialMovingAverage:0": {"name": "fpn_cells/cell_0/fnode3/op_after_combine8/conv/depthwise_kernel/ExponentialMovingAverage:0", "dtype": "DT_RESOURCE", "tensorShape": {}}, "fpn_cells/cell_2/fnode0/op_after_combine5/conv/pointwise_kernel/ExponentialMovingAverage:0": {"name": "fpn_cells/cell_2/fnode0/op_after_combine5/conv/pointwise_kernel/ExponentialMovingAverage:0", "dtype": "DT_RESOURCE", "tensorShape": {}}, "efficientnet-b0/blocks_13/tpu_batch_normalization_2/gamma/ExponentialMovingAverage:0": {"name": "efficientnet-b0/blocks_13/tpu_batch_normalization_2/gamma/ExponentialMovingAverage:0", "dtype": "DT_RESOURCE", "tensorShape": {}}, "efficientnet-b0/blocks_4/conv2d_1/kernel/ExponentialMovingAverage:0": {"name": "efficientnet-b0/blocks_4/conv2d_1/kernel/ExponentialMovingAverage:0", "dtype": "DT_RESOURCE", "tensorShape": {}}, "efficientnet-b0/blocks_7/tpu_batch_normalization/moving_variance/ExponentialMovingAverage:0": {"name": "efficientnet-b0/blocks_7/tpu_batch_normalization/moving_variance/ExponentialMovingAverage:0", "dtype": "DT_RESOURCE", "tensorShape": {}}, "efficientnet-b0/blocks_1/tpu_batch_normalization/moving_mean/ExponentialMovingAverage:0": {"name": "efficientnet-b0/blocks_1/tpu_batch_normalization/moving_mean/ExponentialMovingAverage:0", "dtype": "DT_RESOURCE", "tensorShape": {}}, "efficientnet-b0/blocks_1/depthwise_conv2d/depthwise_kernel/ExponentialMovingAverage:0": {"name": "efficientnet-b0/blocks_1/depthwise_conv2d/depthwise_kernel/ExponentialMovingAverage:0", "dtype": "DT_RESOURCE", "tensorShape": {}}, "fpn_cells/cell_0/fnode2/resample_0_1_7/bn/gamma/ExponentialMovingAverage:0": {"name": "fpn_cells/cell_0/fnode2/resample_0_1_7/bn/gamma/ExponentialMovingAverage:0", "dtype": "DT_RESOURCE", "tensorShape": {}}, "fpn_cells/cell_0/fnode6/op_after_combine11/bn/gamma/ExponentialMovingAverage:0": {"name": "fpn_cells/cell_0/fnode6/op_after_combine11/bn/gamma/ExponentialMovingAverage:0", "dtype": "DT_RESOURCE", "tensorShape": {}}, "efficientnet-b0/blocks_10/tpu_batch_normalization_2/moving_mean/ExponentialMovingAverage:0": {"name": "efficientnet-b0/blocks_10/tpu_batch_normalization_2/moving_mean/ExponentialMovingAverage:0", "dtype": "DT_RESOURCE", "tensorShape": {}}, "class_net/class-2-bn-4/gamma/ExponentialMovingAverage:0": {"name": "class_net/class-2-bn-4/gamma/ExponentialMovingAverage:0", "dtype": "DT_RESOURCE", "tensorShape": {}}, "efficientnet-b0/blocks_8/tpu_batch_normalization_1/beta/ExponentialMovingAverage:0": {"name": "efficientnet-b0/blocks_8/tpu_batch_normalization_1/beta/ExponentialMovingAverage:0", "dtype": "DT_RESOURCE", "tensorShape": {}}, "efficientnet-b0/blocks_10/se/conv2d_1/kernel/ExponentialMovingAverage:0": {"name": "efficientnet-b0/blocks_10/se/conv2d_1/kernel/ExponentialMovingAverage:0", "dtype": "DT_RESOURCE", "tensorShape": {}}, "fpn_cells/cell_1/fnode4/op_after_combine9/bn/gamma/ExponentialMovingAverage:0": {"name": "fpn_cells/cell_1/fnode4/op_after_combine9/bn/gamma/ExponentialMovingAverage:0", "dtype": "DT_RESOURCE", "tensorShape": {}}, "fpn_cells/cell_0/fnode0/op_after_combine5/conv/pointwise_kernel/ExponentialMovingAverage:0": {"name": "fpn_cells/cell_0/fnode0/op_after_combine5/conv/pointwise_kernel/ExponentialMovingAverage:0", "dtype": "DT_RESOURCE", "tensorShape": {}}, "class_net/class-1-bn-7/gamma/ExponentialMovingAverage:0": {"name": "class_net/class-1-bn-7/gamma/ExponentialMovingAverage:0", "dtype": "DT_RESOURCE", "tensorShape": {}}, "efficientnet-b0/blocks_7/se/conv2d_1/kernel/ExponentialMovingAverage:0": {"name": "efficientnet-b0/blocks_7/se/conv2d_1/kernel/ExponentialMovingAverage:0", "dtype": "DT_RESOURCE", "tensorShape": {}}, "box_net/box-2-bn-3/gamma/ExponentialMovingAverage:0": {"name": "box_net/box-2-bn-3/gamma/ExponentialMovingAverage:0", "dtype": "DT_RESOURCE", "tensorShape": {}}, "box_net/box-1-bn-6/gamma/ExponentialMovingAverage:0": {"name": "box_net/box-1-bn-6/gamma/ExponentialMovingAverage:0", "dtype": "DT_RESOURCE", "tensorShape": {}}, "efficientnet-b0/blocks_14/tpu_batch_normalization_2/moving_mean/ExponentialMovingAverage:0": {"name": "efficientnet-b0/blocks_14/tpu_batch_normalization_2/moving_mean/ExponentialMovingAverage:0", "dtype": "DT_RESOURCE", "tensorShape": {}}, "efficientnet-b0/blocks_10/conv2d_1/kernel/ExponentialMovingAverage:0": {"name": "efficientnet-b0/blocks_10/conv2d_1/kernel/ExponentialMovingAverage:0", "dtype": "DT_RESOURCE", "tensorShape": {}}, "fpn_cells/cell_0/fnode2/WSM_1/ExponentialMovingAverage:0": {"name": "fpn_cells/cell_0/fnode2/WSM_1/ExponentialMovingAverage:0", "dtype": "DT_RESOURCE", "tensorShape": {}}, "class_net/class-0/bias/ExponentialMovingAverage:0": {"name": "class_net/class-0/bias/ExponentialMovingAverage:0", "dtype": "DT_RESOURCE", "tensorShape": {}}, "efficientnet-b0/blocks_10/tpu_batch_normalization/gamma/ExponentialMovingAverage:0": {"name": "efficientnet-b0/blocks_10/tpu_batch_normalization/gamma/ExponentialMovingAverage:0", "dtype": "DT_RESOURCE", "tensorShape": {}}, "fpn_cells/cell_1/fnode4/WSM_2/ExponentialMovingAverage:0": {"name": "fpn_cells/cell_1/fnode4/WSM_2/ExponentialMovingAverage:0", "dtype": "DT_RESOURCE", "tensorShape": {}}, "box_net/box-2-bn-7/moving_variance/ExponentialMovingAverage:0": {"name": "box_net/box-2-bn-7/moving_variance/ExponentialMovingAverage:0", "dtype": "DT_RESOURCE", "tensorShape": {}}, "fpn_cells/cell_0/fnode3/resample_0_0_8/bn/gamma/ExponentialMovingAverage:0": {"name": "fpn_cells/cell_0/fnode3/resample_0_0_8/bn/gamma/ExponentialMovingAverage:0", "dtype": "DT_RESOURCE", "tensorShape": {}}, "fpn_cells/cell_0/fnode2/resample_0_1_7/conv2d/kernel/ExponentialMovingAverage:0": {"name": "fpn_cells/cell_0/fnode2/resample_0_1_7/conv2d/kernel/ExponentialMovingAverage:0", "dtype": "DT_RESOURCE", "tensorShape": {}}, "fpn_cells/cell_2/fnode2/op_after_combine7/conv/depthwise_kernel/ExponentialMovingAverage:0": {"name": "fpn_cells/cell_2/fnode2/op_after_combine7/conv/depthwise_kernel/ExponentialMovingAverage:0", "dtype": "DT_RESOURCE", "tensorShape": {}}, "efficientnet-b0/blocks_3/tpu_batch_normalization_1/gamma/ExponentialMovingAverage:0": {"name": "efficientnet-b0/blocks_3/tpu_batch_normalization_1/gamma/ExponentialMovingAverage:0", "dtype": "DT_RESOURCE", "tensorShape": {}}, "box_net/box-1-bn-5/moving_variance/ExponentialMovingAverage:0": {"name": "box_net/box-1-bn-5/moving_variance/ExponentialMovingAverage:0", "dtype": "DT_RESOURCE", "tensorShape": {}}, "class_net/class-2-bn-3/beta/ExponentialMovingAverage:0": {"name": "class_net/class-2-bn-3/beta/ExponentialMovingAverage:0", "dtype": "DT_RESOURCE", "tensorShape": {}}, "fpn_cells/cell_0/fnode5/resample_0_2_10/conv2d/bias/ExponentialMovingAverage:0": {"name": "fpn_cells/cell_0/fnode5/resample_0_2_10/conv2d/bias/ExponentialMovingAverage:0", "dtype": "DT_RESOURCE", "tensorShape": {}}, "efficientnet-b0/blocks_0/depthwise_conv2d/depthwise_kernel/ExponentialMovingAverage:0": {"name": "efficientnet-b0/blocks_0/depthwise_conv2d/depthwise_kernel/ExponentialMovingAverage:0", "dtype": "DT_RESOURCE", "tensorShape": {}}, "box_net/box-1-bn-5/beta/ExponentialMovingAverage:0": {"name": "box_net/box-1-bn-5/beta/ExponentialMovingAverage:0", "dtype": "DT_RESOURCE", "tensorShape": {}}, "box_net/box-0-bn-3/moving_variance/ExponentialMovingAverage:0": {"name": "box_net/box-0-bn-3/moving_variance/ExponentialMovingAverage:0", "dtype": "DT_RESOURCE", "tensorShape": {}}, "box_net/box-0/pointwise_kernel/ExponentialMovingAverage:0": {"name": "box_net/box-0/pointwise_kernel/ExponentialMovingAverage:0", "dtype": "DT_RESOURCE", "tensorShape": {}}, "class_net/class-0/pointwise_kernel/ExponentialMovingAverage:0": {"name": "class_net/class-0/pointwise_kernel/ExponentialMovingAverage:0", "dtype": "DT_RESOURCE", "tensorShape": {}}, "fpn_cells/cell_0/fnode1/op_after_combine6/conv/bias/ExponentialMovingAverage:0": {"name": "fpn_cells/cell_0/fnode1/op_after_combine6/conv/bias/ExponentialMovingAverage:0", "dtype": "DT_RESOURCE", "tensorShape": {}}, "fpn_cells/cell_0/fnode4/op_after_combine9/bn/gamma/ExponentialMovingAverage:0": {"name": "fpn_cells/cell_0/fnode4/op_after_combine9/bn/gamma/ExponentialMovingAverage:0", "dtype": "DT_RESOURCE", "tensorShape": {}}, "efficientnet-b0/blocks_0/tpu_batch_normalization/moving_mean/ExponentialMovingAverage:0": {"name": "efficientnet-b0/blocks_0/tpu_batch_normalization/moving_mean/ExponentialMovingAverage:0", "dtype": "DT_RESOURCE", "tensorShape": {}}, "fpn_cells/cell_0/fnode4/resample_0_1_9/conv2d/kernel/ExponentialMovingAverage:0": {"name": "fpn_cells/cell_0/fnode4/resample_0_1_9/conv2d/kernel/ExponentialMovingAverage:0", "dtype": "DT_RESOURCE", "tensorShape": {}}, "efficientnet-b0/blocks_14/tpu_batch_normalization/moving_variance/ExponentialMovingAverage:0": {"name": "efficientnet-b0/blocks_14/tpu_batch_normalization/moving_variance/ExponentialMovingAverage:0", "dtype": "DT_RESOURCE", "tensorShape": {}}, "efficientnet-b0/blocks_14/tpu_batch_normalization/beta/ExponentialMovingAverage:0": {"name": "efficientnet-b0/blocks_14/tpu_batch_normalization/beta/ExponentialMovingAverage:0", "dtype": "DT_RESOURCE", "tensorShape": {}}, "fpn_cells/cell_0/fnode6/op_after_combine11/conv/depthwise_kernel/ExponentialMovingAverage:0": {"name": "fpn_cells/cell_0/fnode6/op_after_combine11/conv/depthwise_kernel/ExponentialMovingAverage:0", "dtype": "DT_RESOURCE", "tensorShape": {}}, "fpn_cells/cell_0/fnode2/op_after_combine7/conv/depthwise_kernel/ExponentialMovingAverage:0": {"name": "fpn_cells/cell_0/fnode2/op_after_combine7/conv/depthwise_kernel/ExponentialMovingAverage:0", "dtype": "DT_RESOURCE", "tensorShape": {}}, "efficientnet-b0/blocks_3/tpu_batch_normalization_2/moving_variance/ExponentialMovingAverage:0": {"name": "efficientnet-b0/blocks_3/tpu_batch_normalization_2/moving_variance/ExponentialMovingAverage:0", "dtype": "DT_RESOURCE", "tensorShape": {}}, "efficientnet-b0/blocks_9/tpu_batch_normalization_1/beta/ExponentialMovingAverage:0": {"name": "efficientnet-b0/blocks_9/tpu_batch_normalization_1/beta/ExponentialMovingAverage:0", "dtype": "DT_RESOURCE", "tensorShape": {}}, "efficientnet-b0/blocks_11/tpu_batch_normalization_1/gamma/ExponentialMovingAverage:0": {"name": "efficientnet-b0/blocks_11/tpu_batch_normalization_1/gamma/ExponentialMovingAverage:0", "dtype": "DT_RESOURCE", "tensorShape": {}}, "efficientnet-b0/blocks_13/se/conv2d_1/kernel/ExponentialMovingAverage:0": {"name": "efficientnet-b0/blocks_13/se/conv2d_1/kernel/ExponentialMovingAverage:0", "dtype": "DT_RESOURCE", "tensorShape": {}}, "efficientnet-b0/blocks_4/conv2d/kernel/ExponentialMovingAverage:0": {"name": "efficientnet-b0/blocks_4/conv2d/kernel/ExponentialMovingAverage:0", "dtype": "DT_RESOURCE", "tensorShape": {}}, "efficientnet-b0/blocks_10/conv2d/kernel/ExponentialMovingAverage:0": {"name": "efficientnet-b0/blocks_10/conv2d/kernel/ExponentialMovingAverage:0", "dtype": "DT_RESOURCE", "tensorShape": {}}, "class_net/class-0-bn-4/beta/ExponentialMovingAverage:0": {"name": "class_net/class-0-bn-4/beta/ExponentialMovingAverage:0", "dtype": "DT_RESOURCE", "tensorShape": {}}, "efficientnet-b0/blocks_8/tpu_batch_normalization_2/moving_variance/ExponentialMovingAverage:0": {"name": "efficientnet-b0/blocks_8/tpu_batch_normalization_2/moving_variance/ExponentialMovingAverage:0", "dtype": "DT_RESOURCE", "tensorShape": {}}, "fpn_cells/cell_0/fnode5/WSM_2/ExponentialMovingAverage:0": {"name": "fpn_cells/cell_0/fnode5/WSM_2/ExponentialMovingAverage:0", "dtype": "DT_RESOURCE", "tensorShape": {}}, "efficientnet-b0/blocks_9/se/conv2d/bias/ExponentialMovingAverage:0": {"name": "efficientnet-b0/blocks_9/se/conv2d/bias/ExponentialMovingAverage:0", "dtype": "DT_RESOURCE", "tensorShape": {}}, "class_net/class-2-bn-5/moving_variance/ExponentialMovingAverage:0": {"name": "class_net/class-2-bn-5/moving_variance/ExponentialMovingAverage:0", "dtype": "DT_RESOURCE", "tensorShape": {}}, "box_net/box-2-bn-4/moving_mean/ExponentialMovingAverage:0": {"name": "box_net/box-2-bn-4/moving_mean/ExponentialMovingAverage:0", "dtype": "DT_RESOURCE", "tensorShape": {}}, "efficientnet-b0/blocks_8/se/conv2d/kernel/ExponentialMovingAverage:0": {"name": "efficientnet-b0/blocks_8/se/conv2d/kernel/ExponentialMovingAverage:0", "dtype": "DT_RESOURCE", "tensorShape": {}}, "efficientnet-b0/blocks_15/se/conv2d/bias/ExponentialMovingAverage:0": {"name": "efficientnet-b0/blocks_15/se/conv2d/bias/ExponentialMovingAverage:0", "dtype": "DT_RESOURCE", "tensorShape": {}}, "class_net/class-2-bn-4/moving_mean/ExponentialMovingAverage:0": {"name": "class_net/class-2-bn-4/moving_mean/ExponentialMovingAverage:0", "dtype": "DT_RESOURCE", "tensorShape": {}}, "class_net/class-1-bn-3/moving_variance/ExponentialMovingAverage:0": {"name": "class_net/class-1-bn-3/moving_variance/ExponentialMovingAverage:0", "dtype": "DT_RESOURCE", "tensorShape": {}}, "fpn_cells/cell_0/fnode0/op_after_combine5/bn/beta/ExponentialMovingAverage:0": {"name": "fpn_cells/cell_0/fnode0/op_after_combine5/bn/beta/ExponentialMovingAverage:0", "dtype": "DT_RESOURCE", "tensorShape": {}}, "efficientnet-b0/blocks_15/tpu_batch_normalization/gamma/ExponentialMovingAverage:0": {"name": "efficientnet-b0/blocks_15/tpu_batch_normalization/gamma/ExponentialMovingAverage:0", "dtype": "DT_RESOURCE", "tensorShape": {}}, "box_net/box-2-bn-7/moving_mean/ExponentialMovingAverage:0": {"name": "box_net/box-2-bn-7/moving_mean/ExponentialMovingAverage:0", "dtype": "DT_RESOURCE", "tensorShape": {}}, "class_net/class-2-bn-7/moving_mean/ExponentialMovingAverage:0": {"name": "class_net/class-2-bn-7/moving_mean/ExponentialMovingAverage:0", "dtype": "DT_RESOURCE", "tensorShape": {}}, "efficientnet-b0/blocks_2/tpu_batch_normalization_2/moving_mean/ExponentialMovingAverage:0": {"name": "efficientnet-b0/blocks_2/tpu_batch_normalization_2/moving_mean/ExponentialMovingAverage:0", "dtype": "DT_RESOURCE", "tensorShape": {}}, "fpn_cells/cell_1/fnode1/op_after_combine6/bn/beta/ExponentialMovingAverage:0": {"name": "fpn_cells/cell_1/fnode1/op_after_combine6/bn/beta/ExponentialMovingAverage:0", "dtype": "DT_RESOURCE", "tensorShape": {}}, "efficientnet-b0/blocks_11/tpu_batch_normalization_1/moving_mean/ExponentialMovingAverage:0": {"name": "efficientnet-b0/blocks_11/tpu_batch_normalization_1/moving_mean/ExponentialMovingAverage:0", "dtype": "DT_RESOURCE", "tensorShape": {}}, "fpn_cells/cell_2/fnode2/op_after_combine7/bn/beta/ExponentialMovingAverage:0": {"name": "fpn_cells/cell_2/fnode2/op_after_combine7/bn/beta/ExponentialMovingAverage:0", "dtype": "DT_RESOURCE", "tensorShape": {}}, "efficientnet-b0/blocks_11/tpu_batch_normalization_1/moving_variance/ExponentialMovingAverage:0": {"name": "efficientnet-b0/blocks_11/tpu_batch_normalization_1/moving_variance/ExponentialMovingAverage:0", "dtype": "DT_RESOURCE", "tensorShape": {}}, "efficientnet-b0/blocks_5/conv2d_1/kernel/ExponentialMovingAverage:0": {"name": "efficientnet-b0/blocks_5/conv2d_1/kernel/ExponentialMovingAverage:0", "dtype": "DT_RESOURCE", "tensorShape": {}}, "efficientnet-b0/blocks_4/tpu_batch_normalization/gamma/ExponentialMovingAverage:0": {"name": "efficientnet-b0/blocks_4/tpu_batch_normalization/gamma/ExponentialMovingAverage:0", "dtype": "DT_RESOURCE", "tensorShape": {}}, "efficientnet-b0/blocks_9/tpu_batch_normalization_2/gamma/ExponentialMovingAverage:0": {"name": "efficientnet-b0/blocks_9/tpu_batch_normalization_2/gamma/ExponentialMovingAverage:0", "dtype": "DT_RESOURCE", "tensorShape": {}}, "fpn_cells/cell_1/fnode5/op_after_combine10/conv/depthwise_kernel/ExponentialMovingAverage:0": {"name": "fpn_cells/cell_1/fnode5/op_after_combine10/conv/depthwise_kernel/ExponentialMovingAverage:0", "dtype": "DT_RESOURCE", "tensorShape": {}}, "fpn_cells/cell_2/fnode3/WSM_1/ExponentialMovingAverage:0": {"name": "fpn_cells/cell_2/fnode3/WSM_1/ExponentialMovingAverage:0", "dtype": "DT_RESOURCE", "tensorShape": {}}, "fpn_cells/cell_2/fnode4/WSM/ExponentialMovingAverage:0": {"name": "fpn_cells/cell_2/fnode4/WSM/ExponentialMovingAverage:0", "dtype": "DT_RESOURCE", "tensorShape": {}}, "resample_p6/bn/moving_mean/ExponentialMovingAverage:0": {"name": "resample_p6/bn/moving_mean/ExponentialMovingAverage:0", "dtype": "DT_RESOURCE", "tensorShape": {}}, "efficientnet-b0/blocks_6/tpu_batch_normalization/beta/ExponentialMovingAverage:0": {"name": "efficientnet-b0/blocks_6/tpu_batch_normalization/beta/ExponentialMovingAverage:0", "dtype": "DT_RESOURCE", "tensorShape": {}}, "fpn_cells/cell_2/fnode1/op_after_combine6/conv/depthwise_kernel/ExponentialMovingAverage:0": {"name": "fpn_cells/cell_2/fnode1/op_after_combine6/conv/depthwise_kernel/ExponentialMovingAverage:0", "dtype": "DT_RESOURCE", "tensorShape": {}}, "fpn_cells/cell_0/fnode1/WSM/ExponentialMovingAverage:0": {"name": "fpn_cells/cell_0/fnode1/WSM/ExponentialMovingAverage:0", "dtype": "DT_RESOURCE", "tensorShape": {}}, "efficientnet-b0/blocks_6/tpu_batch_normalization_2/moving_mean/ExponentialMovingAverage:0": {"name": "efficientnet-b0/blocks_6/tpu_batch_normalization_2/moving_mean/ExponentialMovingAverage:0", "dtype": "DT_RESOURCE", "tensorShape": {}}, "efficientnet-b0/blocks_15/tpu_batch_normalization_1/moving_mean/ExponentialMovingAverage:0": {"name": "efficientnet-b0/blocks_15/tpu_batch_normalization_1/moving_mean/ExponentialMovingAverage:0", "dtype": "DT_RESOURCE", "tensorShape": {}}, "efficientnet-b0/blocks_11/conv2d_1/kernel/ExponentialMovingAverage:0": {"name": "efficientnet-b0/blocks_11/conv2d_1/kernel/ExponentialMovingAverage:0", "dtype": "DT_RESOURCE", "tensorShape": {}}, "fpn_cells/cell_1/fnode6/WSM/ExponentialMovingAverage:0": {"name": "fpn_cells/cell_1/fnode6/WSM/ExponentialMovingAverage:0", "dtype": "DT_RESOURCE", "tensorShape": {}}, "fpn_cells/cell_0/fnode1/op_after_combine6/conv/depthwise_kernel/ExponentialMovingAverage:0": {"name": "fpn_cells/cell_0/fnode1/op_after_combine6/conv/depthwise_kernel/ExponentialMovingAverage:0", "dtype": "DT_RESOURCE", "tensorShape": {}}, "class_net/class-0-bn-5/gamma/ExponentialMovingAverage:0": {"name": "class_net/class-0-bn-5/gamma/ExponentialMovingAverage:0", "dtype": "DT_RESOURCE", "tensorShape": {}}, "fpn_cells/cell_2/fnode7/op_after_combine12/bn/moving_mean/ExponentialMovingAverage:0": {"name": "fpn_cells/cell_2/fnode7/op_after_combine12/bn/moving_mean/ExponentialMovingAverage:0", "dtype": "DT_RESOURCE", "tensorShape": {}}, "class_net/class-1-bn-7/beta/ExponentialMovingAverage:0": {"name": "class_net/class-1-bn-7/beta/ExponentialMovingAverage:0", "dtype": "DT_RESOURCE", "tensorShape": {}}, "box_net/box-2/depthwise_kernel/ExponentialMovingAverage:0": {"name": "box_net/box-2/depthwise_kernel/ExponentialMovingAverage:0", "dtype": "DT_RESOURCE", "tensorShape": {}}, "fpn_cells/cell_1/fnode2/op_after_combine7/conv/bias/ExponentialMovingAverage:0": {"name": "fpn_cells/cell_1/fnode2/op_after_combine7/conv/bias/ExponentialMovingAverage:0", "dtype": "DT_RESOURCE", "tensorShape": {}}, "class_net/class-2/depthwise_kernel/ExponentialMovingAverage:0": {"name": "class_net/class-2/depthwise_kernel/ExponentialMovingAverage:0", "dtype": "DT_RESOURCE", "tensorShape": {}}, "box_net/box-0-bn-4/gamma/ExponentialMovingAverage:0": {"name": "box_net/box-0-bn-4/gamma/ExponentialMovingAverage:0", "dtype": "DT_RESOURCE", "tensorShape": {}}, "fpn_cells/cell_0/fnode1/resample_0_2_6/conv2d/kernel/ExponentialMovingAverage:0": {"name": "fpn_cells/cell_0/fnode1/resample_0_2_6/conv2d/kernel/ExponentialMovingAverage:0", "dtype": "DT_RESOURCE", "tensorShape": {}}, "fpn_cells/cell_0/fnode3/resample_0_0_8/bn/beta/ExponentialMovingAverage:0": {"name": "fpn_cells/cell_0/fnode3/resample_0_0_8/bn/beta/ExponentialMovingAverage:0", "dtype": "DT_RESOURCE", "tensorShape": {}}, "efficientnet-b0/blocks_6/tpu_batch_normalization/moving_variance/ExponentialMovingAverage:0": {"name": "efficientnet-b0/blocks_6/tpu_batch_normalization/moving_variance/ExponentialMovingAverage:0", "dtype": "DT_RESOURCE", "tensorShape": {}}, "efficientnet-b0/blocks_1/se/conv2d/bias/ExponentialMovingAverage:0": {"name": "efficientnet-b0/blocks_1/se/conv2d/bias/ExponentialMovingAverage:0", "dtype": "DT_RESOURCE", "tensorShape": {}}, "fpn_cells/cell_1/fnode4/WSM_1/ExponentialMovingAverage:0": {"name": "fpn_cells/cell_1/fnode4/WSM_1/ExponentialMovingAverage:0", "dtype": "DT_RESOURCE", "tensorShape": {}}, "box_net/box-1-bn-6/moving_variance/ExponentialMovingAverage:0": {"name": "box_net/box-1-bn-6/moving_variance/ExponentialMovingAverage:0", "dtype": "DT_RESOURCE", "tensorShape": {}}, "fpn_cells/cell_0/fnode5/op_after_combine10/bn/moving_variance/ExponentialMovingAverage:0": {"name": "fpn_cells/cell_0/fnode5/op_after_combine10/bn/moving_variance/ExponentialMovingAverage:0", "dtype": "DT_RESOURCE", "tensorShape": {}}, "fpn_cells/cell_1/fnode7/op_after_combine12/bn/gamma/ExponentialMovingAverage:0": {"name": "fpn_cells/cell_1/fnode7/op_after_combine12/bn/gamma/ExponentialMovingAverage:0", "dtype": "DT_RESOURCE", "tensorShape": {}}, "box_net/box-0-bn-4/moving_variance/ExponentialMovingAverage:0": {"name": "box_net/box-0-bn-4/moving_variance/ExponentialMovingAverage:0", "dtype": "DT_RESOURCE", "tensorShape": {}}, "fpn_cells/cell_2/fnode6/WSM_2/ExponentialMovingAverage:0": {"name": "fpn_cells/cell_2/fnode6/WSM_2/ExponentialMovingAverage:0", "dtype": "DT_RESOURCE", "tensorShape": {}}, "efficientnet-b0/blocks_2/tpu_batch_normalization_2/gamma/ExponentialMovingAverage:0": {"name": "efficientnet-b0/blocks_2/tpu_batch_normalization_2/gamma/ExponentialMovingAverage:0", "dtype": "DT_RESOURCE", "tensorShape": {}}, "class_net/class-2-bn-7/gamma/ExponentialMovingAverage:0": {"name": "class_net/class-2-bn-7/gamma/ExponentialMovingAverage:0", "dtype": "DT_RESOURCE", "tensorShape": {}}, "efficientnet-b0/blocks_9/tpu_batch_normalization/gamma/ExponentialMovingAverage:0": {"name": "efficientnet-b0/blocks_9/tpu_batch_normalization/gamma/ExponentialMovingAverage:0", "dtype": "DT_RESOURCE", "tensorShape": {}}, "efficientnet-b0/blocks_8/se/conv2d_1/bias/ExponentialMovingAverage:0": {"name": "efficientnet-b0/blocks_8/se/conv2d_1/bias/ExponentialMovingAverage:0", "dtype": "DT_RESOURCE", "tensorShape": {}}, "box_net/box-2-bn-6/gamma/ExponentialMovingAverage:0": {"name": "box_net/box-2-bn-6/gamma/ExponentialMovingAverage:0", "dtype": "DT_RESOURCE", "tensorShape": {}}, "efficientnet-b0/blocks_7/tpu_batch_normalization_1/gamma/ExponentialMovingAverage:0": {"name": "efficientnet-b0/blocks_7/tpu_batch_normalization_1/gamma/ExponentialMovingAverage:0", "dtype": "DT_RESOURCE", "tensorShape": {}}, "fpn_cells/cell_2/fnode0/op_after_combine5/conv/depthwise_kernel/ExponentialMovingAverage:0": {"name": "fpn_cells/cell_2/fnode0/op_after_combine5/conv/depthwise_kernel/ExponentialMovingAverage:0", "dtype": "DT_RESOURCE", "tensorShape": {}}, "efficientnet-b0/blocks_10/tpu_batch_normalization_2/gamma/ExponentialMovingAverage:0": {"name": "efficientnet-b0/blocks_10/tpu_batch_normalization_2/gamma/ExponentialMovingAverage:0", "dtype": "DT_RESOURCE", "tensorShape": {}}, "fpn_cells/cell_0/fnode5/WSM_1/ExponentialMovingAverage:0": {"name": "fpn_cells/cell_0/fnode5/WSM_1/ExponentialMovingAverage:0", "dtype": "DT_RESOURCE", "tensorShape": {}}, "efficientnet-b0/blocks_2/tpu_batch_normalization_1/moving_variance/ExponentialMovingAverage:0": {"name": "efficientnet-b0/blocks_2/tpu_batch_normalization_1/moving_variance/ExponentialMovingAverage:0", "dtype": "DT_RESOURCE", "tensorShape": {}}, "class_net/class-2-bn-6/moving_variance/ExponentialMovingAverage:0": {"name": "class_net/class-2-bn-6/moving_variance/ExponentialMovingAverage:0", "dtype": "DT_RESOURCE", "tensorShape": {}}, "box_net/box-0-bn-4/moving_mean/ExponentialMovingAverage:0": {"name": "box_net/box-0-bn-4/moving_mean/ExponentialMovingAverage:0", "dtype": "DT_RESOURCE", "tensorShape": {}}, "efficientnet-b0/blocks_0/conv2d/kernel/ExponentialMovingAverage:0": {"name": "efficientnet-b0/blocks_0/conv2d/kernel/ExponentialMovingAverage:0", "dtype": "DT_RESOURCE", "tensorShape": {}}, "box_net/box-1-bn-4/beta/ExponentialMovingAverage:0": {"name": "box_net/box-1-bn-4/beta/ExponentialMovingAverage:0", "dtype": "DT_RESOURCE", "tensorShape": {}}, "efficientnet-b0/blocks_6/se/conv2d/kernel/ExponentialMovingAverage:0": {"name": "efficientnet-b0/blocks_6/se/conv2d/kernel/ExponentialMovingAverage:0", "dtype": "DT_RESOURCE", "tensorShape": {}}, "class_net/class-0-bn-4/moving_mean/ExponentialMovingAverage:0": {"name": "class_net/class-0-bn-4/moving_mean/ExponentialMovingAverage:0", "dtype": "DT_RESOURCE", "tensorShape": {}}, "efficientnet-b0/blocks_3/tpu_batch_normalization_1/moving_mean/ExponentialMovingAverage:0": {"name": "efficientnet-b0/blocks_3/tpu_batch_normalization_1/moving_mean/ExponentialMovingAverage:0", "dtype": "DT_RESOURCE", "tensorShape": {}}, "class_net/class-1-bn-4/moving_variance/ExponentialMovingAverage:0": {"name": "class_net/class-1-bn-4/moving_variance/ExponentialMovingAverage:0", "dtype": "DT_RESOURCE", "tensorShape": {}}, "efficientnet-b0/blocks_15/tpu_batch_normalization_1/gamma/ExponentialMovingAverage:0": {"name": "efficientnet-b0/blocks_15/tpu_batch_normalization_1/gamma/ExponentialMovingAverage:0", "dtype": "DT_RESOURCE", "tensorShape": {}}, "fpn_cells/cell_0/fnode0/op_after_combine5/conv/depthwise_kernel/ExponentialMovingAverage:0": {"name": "fpn_cells/cell_0/fnode0/op_after_combine5/conv/depthwise_kernel/ExponentialMovingAverage:0", "dtype": "DT_RESOURCE", "tensorShape": {}}, "box_net/box-0-bn-7/moving_mean/ExponentialMovingAverage:0": {"name": "box_net/box-0-bn-7/moving_mean/ExponentialMovingAverage:0", "dtype": "DT_RESOURCE", "tensorShape": {}}, "efficientnet-b0/blocks_7/tpu_batch_normalization_1/moving_variance/ExponentialMovingAverage:0": {"name": "efficientnet-b0/blocks_7/tpu_batch_normalization_1/moving_variance/ExponentialMovingAverage:0", "dtype": "DT_RESOURCE", "tensorShape": {}}, "class_net/class-0-bn-7/moving_mean/ExponentialMovingAverage:0": {"name": "class_net/class-0-bn-7/moving_mean/ExponentialMovingAverage:0", "dtype": "DT_RESOURCE", "tensorShape": {}}, "efficientnet-b0/blocks_6/conv2d_1/kernel/ExponentialMovingAverage:0": {"name": "efficientnet-b0/blocks_6/conv2d_1/kernel/ExponentialMovingAverage:0", "dtype": "DT_RESOURCE", "tensorShape": {}}, "efficientnet-b0/blocks_11/tpu_batch_normalization_2/moving_variance/ExponentialMovingAverage:0": {"name": "efficientnet-b0/blocks_11/tpu_batch_normalization_2/moving_variance/ExponentialMovingAverage:0", "dtype": "DT_RESOURCE", "tensorShape": {}}, "fpn_cells/cell_1/fnode6/op_after_combine11/bn/moving_mean/ExponentialMovingAverage:0": {"name": "fpn_cells/cell_1/fnode6/op_after_combine11/bn/moving_mean/ExponentialMovingAverage:0", "dtype": "DT_RESOURCE", "tensorShape": {}}, "efficientnet-b0/blocks_13/tpu_batch_normalization/moving_variance/ExponentialMovingAverage:0": {"name": "efficientnet-b0/blocks_13/tpu_batch_normalization/moving_variance/ExponentialMovingAverage:0", "dtype": "DT_RESOURCE", "tensorShape": {}}, "class_net/class-0-bn-3/beta/ExponentialMovingAverage:0": {"name": "class_net/class-0-bn-3/beta/ExponentialMovingAverage:0", "dtype": "DT_RESOURCE", "tensorShape": {}}, "fpn_cells/cell_0/fnode5/resample_0_2_10/bn/beta/ExponentialMovingAverage:0": {"name": "fpn_cells/cell_0/fnode5/resample_0_2_10/bn/beta/ExponentialMovingAverage:0", "dtype": "DT_RESOURCE", "tensorShape": {}}, "efficientnet-b0/blocks_7/tpu_batch_normalization_1/moving_mean/ExponentialMovingAverage:0": {"name": "efficientnet-b0/blocks_7/tpu_batch_normalization_1/moving_mean/ExponentialMovingAverage:0", "dtype": "DT_RESOURCE", "tensorShape": {}}, "fpn_cells/cell_2/fnode3/op_after_combine8/conv/bias/ExponentialMovingAverage:0": {"name": "fpn_cells/cell_2/fnode3/op_after_combine8/conv/bias/ExponentialMovingAverage:0", "dtype": "DT_RESOURCE", "tensorShape": {}}, "efficientnet-b0/blocks_14/se/conv2d/kernel/ExponentialMovingAverage:0": {"name": "efficientnet-b0/blocks_14/se/conv2d/kernel/ExponentialMovingAverage:0", "dtype": "DT_RESOURCE", "tensorShape": {}}, "efficientnet-b0/blocks_12/conv2d_1/kernel/ExponentialMovingAverage:0": {"name": "efficientnet-b0/blocks_12/conv2d_1/kernel/ExponentialMovingAverage:0", "dtype": "DT_RESOURCE", "tensorShape": {}}, "efficientnet-b0/blocks_11/tpu_batch_normalization/beta/ExponentialMovingAverage:0": {"name": "efficientnet-b0/blocks_11/tpu_batch_normalization/beta/ExponentialMovingAverage:0", "dtype": "DT_RESOURCE", "tensorShape": {}}, "fpn_cells/cell_2/fnode0/op_after_combine5/bn/moving_mean/ExponentialMovingAverage:0": {"name": "fpn_cells/cell_2/fnode0/op_after_combine5/bn/moving_mean/ExponentialMovingAverage:0", "dtype": "DT_RESOURCE", "tensorShape": {}}, "efficientnet-b0/blocks_0/tpu_batch_normalization_1/gamma/ExponentialMovingAverage:0": {"name": "efficientnet-b0/blocks_0/tpu_batch_normalization_1/gamma/ExponentialMovingAverage:0", "dtype": "DT_RESOURCE", "tensorShape": {}}, "box_net/box-0/depthwise_kernel/ExponentialMovingAverage:0": {"name": "box_net/box-0/depthwise_kernel/ExponentialMovingAverage:0", "dtype": "DT_RESOURCE", "tensorShape": {}}, "efficientnet-b0/blocks_15/depthwise_conv2d/depthwise_kernel/ExponentialMovingAverage:0": {"name": "efficientnet-b0/blocks_15/depthwise_conv2d/depthwise_kernel/ExponentialMovingAverage:0", "dtype": "DT_RESOURCE", "tensorShape": {}}, "fpn_cells/cell_2/fnode1/op_after_combine6/bn/moving_mean/ExponentialMovingAverage:0": {"name": "fpn_cells/cell_2/fnode1/op_after_combine6/bn/moving_mean/ExponentialMovingAverage:0", "dtype": "DT_RESOURCE", "tensorShape": {}}, "class_net/class-0/depthwise_kernel/ExponentialMovingAverage:0": {"name": "class_net/class-0/depthwise_kernel/ExponentialMovingAverage:0", "dtype": "DT_RESOURCE", "tensorShape": {}}, "efficientnet-b0/blocks_6/se/conv2d/bias/ExponentialMovingAverage:0": {"name": "efficientnet-b0/blocks_6/se/conv2d/bias/ExponentialMovingAverage:0", "dtype": "DT_RESOURCE", "tensorShape": {}}, "box_net/box-1-bn-7/moving_variance/ExponentialMovingAverage:0": {"name": "box_net/box-1-bn-7/moving_variance/ExponentialMovingAverage:0", "dtype": "DT_RESOURCE", "tensorShape": {}}, "efficientnet-b0/blocks_12/se/conv2d/bias/ExponentialMovingAverage:0": {"name": "efficientnet-b0/blocks_12/se/conv2d/bias/ExponentialMovingAverage:0", "dtype": "DT_RESOURCE", "tensorShape": {}}, "box_net/box-2-bn-7/beta/ExponentialMovingAverage:0": {"name": "box_net/box-2-bn-7/beta/ExponentialMovingAverage:0", "dtype": "DT_RESOURCE", "tensorShape": {}}, "fpn_cells/cell_2/fnode2/op_after_combine7/bn/moving_mean/ExponentialMovingAverage:0": {"name": "fpn_cells/cell_2/fnode2/op_after_combine7/bn/moving_mean/ExponentialMovingAverage:0", "dtype": "DT_RESOURCE", "tensorShape": {}}, "box_net/box-0-bn-5/moving_variance/ExponentialMovingAverage:0": {"name": "box_net/box-0-bn-5/moving_variance/ExponentialMovingAverage:0", "dtype": "DT_RESOURCE", "tensorShape": {}}, "efficientnet-b0/blocks_7/conv2d/kernel/ExponentialMovingAverage:0": {"name": "efficientnet-b0/blocks_7/conv2d/kernel/ExponentialMovingAverage:0", "dtype": "DT_RESOURCE", "tensorShape": {}}, "fpn_cells/cell_2/fnode6/WSM_1/ExponentialMovingAverage:0": {"name": "fpn_cells/cell_2/fnode6/WSM_1/ExponentialMovingAverage:0", "dtype": "DT_RESOURCE", "tensorShape": {}}, "fpn_cells/cell_2/fnode3/op_after_combine8/bn/moving_mean/ExponentialMovingAverage:0": {"name": "fpn_cells/cell_2/fnode3/op_after_combine8/bn/moving_mean/ExponentialMovingAverage:0", "dtype": "DT_RESOURCE", "tensorShape": {}}, "efficientnet-b0/blocks_13/conv2d/kernel/ExponentialMovingAverage:0": {"name": "efficientnet-b0/blocks_13/conv2d/kernel/ExponentialMovingAverage:0", "dtype": "DT_RESOURCE", "tensorShape": {}}, "fpn_cells/cell_1/fnode1/WSM/ExponentialMovingAverage:0": {"name": "fpn_cells/cell_1/fnode1/WSM/ExponentialMovingAverage:0", "dtype": "DT_RESOURCE", "tensorShape": {}}, "efficientnet-b0/blocks_6/se/conv2d_1/bias/ExponentialMovingAverage:0": {"name": "efficientnet-b0/blocks_6/se/conv2d_1/bias/ExponentialMovingAverage:0", "dtype": "DT_RESOURCE", "tensorShape": {}}, "fpn_cells/cell_2/fnode5/op_after_combine10/bn/gamma/ExponentialMovingAverage:0": {"name": "fpn_cells/cell_2/fnode5/op_after_combine10/bn/gamma/ExponentialMovingAverage:0", "dtype": "DT_RESOURCE", "tensorShape": {}}, "fpn_cells/cell_0/fnode6/op_after_combine11/bn/moving_variance/ExponentialMovingAverage:0": {"name": "fpn_cells/cell_0/fnode6/op_after_combine11/bn/moving_variance/ExponentialMovingAverage:0", "dtype": "DT_RESOURCE", "tensorShape": {}}, "fpn_cells/cell_0/fnode2/resample_0_1_7/bn/moving_variance/ExponentialMovingAverage:0": {"name": "fpn_cells/cell_0/fnode2/resample_0_1_7/bn/moving_variance/ExponentialMovingAverage:0", "dtype": "DT_RESOURCE", "tensorShape": {}}, "fpn_cells/cell_0/fnode0/op_after_combine5/bn/moving_variance/ExponentialMovingAverage:0": {"name": "fpn_cells/cell_0/fnode0/op_after_combine5/bn/moving_variance/ExponentialMovingAverage:0", "dtype": "DT_RESOURCE", "tensorShape": {}}, "class_net/class-1-bn-6/beta/ExponentialMovingAverage:0": {"name": "class_net/class-1-bn-6/beta/ExponentialMovingAverage:0", "dtype": "DT_RESOURCE", "tensorShape": {}}, "fpn_cells/cell_0/fnode5/op_after_combine10/bn/moving_mean/ExponentialMovingAverage:0": {"name": "fpn_cells/cell_0/fnode5/op_after_combine10/bn/moving_mean/ExponentialMovingAverage:0", "dtype": "DT_RESOURCE", "tensorShape": {}}, "class_net/class-predict/pointwise_kernel/ExponentialMovingAverage:0": {"name": "class_net/class-predict/pointwise_kernel/ExponentialMovingAverage:0", "dtype": "DT_RESOURCE", "tensorShape": {}}, "fpn_cells/cell_0/fnode1/resample_0_2_6/bn/moving_mean/ExponentialMovingAverage:0": {"name": "fpn_cells/cell_0/fnode1/resample_0_2_6/bn/moving_mean/ExponentialMovingAverage:0", "dtype": "DT_RESOURCE", "tensorShape": {}}, "fpn_cells/cell_2/fnode4/op_after_combine9/bn/moving_mean/ExponentialMovingAverage:0": {"name": "fpn_cells/cell_2/fnode4/op_after_combine9/bn/moving_mean/ExponentialMovingAverage:0", "dtype": "DT_RESOURCE", "tensorShape": {}}, "fpn_cells/cell_2/fnode7/op_after_combine12/conv/pointwise_kernel/ExponentialMovingAverage:0": {"name": "fpn_cells/cell_2/fnode7/op_after_combine12/conv/pointwise_kernel/ExponentialMovingAverage:0", "dtype": "DT_RESOURCE", "tensorShape": {}}, "fpn_cells/cell_2/fnode6/WSM/ExponentialMovingAverage:0": {"name": "fpn_cells/cell_2/fnode6/WSM/ExponentialMovingAverage:0", "dtype": "DT_RESOURCE", "tensorShape": {}}, "efficientnet-b0/blocks_2/se/conv2d_1/kernel/ExponentialMovingAverage:0": {"name": "efficientnet-b0/blocks_2/se/conv2d_1/kernel/ExponentialMovingAverage:0", "dtype": "DT_RESOURCE", "tensorShape": {}}, "class_net/class-1-bn-5/gamma/ExponentialMovingAverage:0": {"name": "class_net/class-1-bn-5/gamma/ExponentialMovingAverage:0", "dtype": "DT_RESOURCE", "tensorShape": {}}, "efficientnet-b0/blocks_3/tpu_batch_normalization/beta/ExponentialMovingAverage:0": {"name": "efficientnet-b0/blocks_3/tpu_batch_normalization/beta/ExponentialMovingAverage:0", "dtype": "DT_RESOURCE", "tensorShape": {}}, "fpn_cells/cell_0/fnode3/WSM/ExponentialMovingAverage:0": {"name": "fpn_cells/cell_0/fnode3/WSM/ExponentialMovingAverage:0", "dtype": "DT_RESOURCE", "tensorShape": {}}, "efficientnet-b0/blocks_5/tpu_batch_normalization/moving_variance/ExponentialMovingAverage:0": {"name": "efficientnet-b0/blocks_5/tpu_batch_normalization/moving_variance/ExponentialMovingAverage:0", "dtype": "DT_RESOURCE", "tensorShape": {}}, "efficientnet-b0/blocks_14/depthwise_conv2d/depthwise_kernel/ExponentialMovingAverage:0": {"name": "efficientnet-b0/blocks_14/depthwise_conv2d/depthwise_kernel/ExponentialMovingAverage:0", "dtype": "DT_RESOURCE", "tensorShape": {}}, "efficientnet-b0/blocks_6/tpu_batch_normalization_2/gamma/ExponentialMovingAverage:0": {"name": "efficientnet-b0/blocks_6/tpu_batch_normalization_2/gamma/ExponentialMovingAverage:0", "dtype": "DT_RESOURCE", "tensorShape": {}}, "class_net/class-2-bn-7/moving_variance/ExponentialMovingAverage:0": {"name": "class_net/class-2-bn-7/moving_variance/ExponentialMovingAverage:0", "dtype": "DT_RESOURCE", "tensorShape": {}}, "efficientnet-b0/blocks_2/tpu_batch_normalization_2/moving_variance/ExponentialMovingAverage:0": {"name": "efficientnet-b0/blocks_2/tpu_batch_normalization_2/moving_variance/ExponentialMovingAverage:0", "dtype": "DT_RESOURCE", "tensorShape": {}}, "box_net/box-1-bn-4/gamma/ExponentialMovingAverage:0": {"name": "box_net/box-1-bn-4/gamma/ExponentialMovingAverage:0", "dtype": "DT_RESOURCE", "tensorShape": {}}, "fpn_cells/cell_1/fnode4/op_after_combine9/conv/pointwise_kernel/ExponentialMovingAverage:0": {"name": "fpn_cells/cell_1/fnode4/op_after_combine9/conv/pointwise_kernel/ExponentialMovingAverage:0", "dtype": "DT_RESOURCE", "tensorShape": {}}, "efficientnet-b0/blocks_13/tpu_batch_normalization/gamma/ExponentialMovingAverage:0": {"name": "efficientnet-b0/blocks_13/tpu_batch_normalization/gamma/ExponentialMovingAverage:0", "dtype": "DT_RESOURCE", "tensorShape": {}}, "class_net/class-1-bn-5/moving_variance/ExponentialMovingAverage:0": {"name": "class_net/class-1-bn-5/moving_variance/ExponentialMovingAverage:0", "dtype": "DT_RESOURCE", "tensorShape": {}}, "efficientnet-b0/blocks_4/se/conv2d/kernel/ExponentialMovingAverage:0": {"name": "efficientnet-b0/blocks_4/se/conv2d/kernel/ExponentialMovingAverage:0", "dtype": "DT_RESOURCE", "tensorShape": {}}, "box_net/box-0-bn-7/gamma/ExponentialMovingAverage:0": {"name": "box_net/box-0-bn-7/gamma/ExponentialMovingAverage:0", "dtype": "DT_RESOURCE", "tensorShape": {}}, "fpn_cells/cell_0/fnode0/WSM_1/ExponentialMovingAverage:0": {"name": "fpn_cells/cell_0/fnode0/WSM_1/ExponentialMovingAverage:0", "dtype": "DT_RESOURCE", "tensorShape": {}}, "efficientnet-b0/blocks_7/tpu_batch_normalization_2/moving_variance/ExponentialMovingAverage:0": {"name": "efficientnet-b0/blocks_7/tpu_batch_normalization_2/moving_variance/ExponentialMovingAverage:0", "dtype": "DT_RESOURCE", "tensorShape": {}}, "fpn_cells/cell_0/fnode5/resample_0_2_10/bn/moving_variance/ExponentialMovingAverage:0": {"name": "fpn_cells/cell_0/fnode5/resample_0_2_10/bn/moving_variance/ExponentialMovingAverage:0", "dtype": "DT_RESOURCE", "tensorShape": {}}, "class_net/class-0-bn-3/moving_variance/ExponentialMovingAverage:0": {"name": "class_net/class-0-bn-3/moving_variance/ExponentialMovingAverage:0", "dtype": "DT_RESOURCE", "tensorShape": {}}, "efficientnet-b0/blocks_2/tpu_batch_normalization/gamma/ExponentialMovingAverage:0": {"name": "efficientnet-b0/blocks_2/tpu_batch_normalization/gamma/ExponentialMovingAverage:0", "dtype": "DT_RESOURCE", "tensorShape": {}}, "efficientnet-b0/blocks_13/tpu_batch_normalization_2/moving_mean/ExponentialMovingAverage:0": {"name": "efficientnet-b0/blocks_13/tpu_batch_normalization_2/moving_mean/ExponentialMovingAverage:0", "dtype": "DT_RESOURCE", "tensorShape": {}}, "efficientnet-b0/blocks_14/se/conv2d_1/bias/ExponentialMovingAverage:0": {"name": "efficientnet-b0/blocks_14/se/conv2d_1/bias/ExponentialMovingAverage:0", "dtype": "DT_RESOURCE", "tensorShape": {}}, "efficientnet-b0/blocks_7/conv2d_1/kernel/ExponentialMovingAverage:0": {"name": "efficientnet-b0/blocks_7/conv2d_1/kernel/ExponentialMovingAverage:0", "dtype": "DT_RESOURCE", "tensorShape": {}}, "fpn_cells/cell_1/fnode7/WSM_1/ExponentialMovingAverage:0": {"name": "fpn_cells/cell_1/fnode7/WSM_1/ExponentialMovingAverage:0", "dtype": "DT_RESOURCE", "tensorShape": {}}, "fpn_cells/cell_2/fnode7/op_after_combine12/conv/bias/ExponentialMovingAverage:0": {"name": "fpn_cells/cell_2/fnode7/op_after_combine12/conv/bias/ExponentialMovingAverage:0", "dtype": "DT_RESOURCE", "tensorShape": {}}, "efficientnet-b0/blocks_14/tpu_batch_normalization_2/gamma/ExponentialMovingAverage:0": {"name": "efficientnet-b0/blocks_14/tpu_batch_normalization_2/gamma/ExponentialMovingAverage:0", "dtype": "DT_RESOURCE", "tensorShape": {}}, "image_arrays:0": {"name": "image_arrays:0", "dtype": "DT_UINT8", "tensorShape": {"dim": [{"size": "-1"}, {"size": "-1"}, {"size": "-1"}, {"size": "-1"}]}}, "fpn_cells/cell_1/fnode0/op_after_combine5/bn/moving_variance/ExponentialMovingAverage:0": {"name": "fpn_cells/cell_1/fnode0/op_after_combine5/bn/moving_variance/ExponentialMovingAverage:0", "dtype": "DT_RESOURCE", "tensorShape": {}}, "efficientnet-b0/blocks_10/tpu_batch_normalization_1/moving_variance/ExponentialMovingAverage:0": {"name": "efficientnet-b0/blocks_10/tpu_batch_normalization_1/moving_variance/ExponentialMovingAverage:0", "dtype": "DT_RESOURCE", "tensorShape": {}}, "box_net/box-1-bn-5/moving_mean/ExponentialMovingAverage:0": {"name": "box_net/box-1-bn-5/moving_mean/ExponentialMovingAverage:0", "dtype": "DT_RESOURCE", "tensorShape": {}}, "efficientnet-b0/blocks_12/se/conv2d/kernel/ExponentialMovingAverage:0": {"name": "efficientnet-b0/blocks_12/se/conv2d/kernel/ExponentialMovingAverage:0", "dtype": "DT_RESOURCE", "tensorShape": {}}, "box_net/box-1-bn-3/beta/ExponentialMovingAverage:0": {"name": "box_net/box-1-bn-3/beta/ExponentialMovingAverage:0", "dtype": "DT_RESOURCE", "tensorShape": {}}, "class_net/class-1-bn-5/moving_mean/ExponentialMovingAverage:0": {"name": "class_net/class-1-bn-5/moving_mean/ExponentialMovingAverage:0", "dtype": "DT_RESOURCE", "tensorShape": {}}, "efficientnet-b0/blocks_13/conv2d_1/kernel/ExponentialMovingAverage:0": {"name": "efficientnet-b0/blocks_13/conv2d_1/kernel/ExponentialMovingAverage:0", "dtype": "DT_RESOURCE", "tensorShape": {}}, "efficientnet-b0/blocks_15/tpu_batch_normalization_1/moving_variance/ExponentialMovingAverage:0": {"name": "efficientnet-b0/blocks_15/tpu_batch_normalization_1/moving_variance/ExponentialMovingAverage:0", "dtype": "DT_RESOURCE", "tensorShape": {}}, "efficientnet-b0/blocks_13/depthwise_conv2d/depthwise_kernel/ExponentialMovingAverage:0": {"name": "efficientnet-b0/blocks_13/depthwise_conv2d/depthwise_kernel/ExponentialMovingAverage:0", "dtype": "DT_RESOURCE", "tensorShape": {}}, "efficientnet-b0/blocks_15/tpu_batch_normalization/moving_mean/ExponentialMovingAverage:0": {"name": "efficientnet-b0/blocks_15/tpu_batch_normalization/moving_mean/ExponentialMovingAverage:0", "dtype": "DT_RESOURCE", "tensorShape": {}}, "fpn_cells/cell_0/fnode2/op_after_combine7/bn/beta/ExponentialMovingAverage:0": {"name": "fpn_cells/cell_0/fnode2/op_after_combine7/bn/beta/ExponentialMovingAverage:0", "dtype": "DT_RESOURCE", "tensorShape": {}}, "efficientnet-b0/blocks_5/se/conv2d_1/kernel/ExponentialMovingAverage:0": {"name": "efficientnet-b0/blocks_5/se/conv2d_1/kernel/ExponentialMovingAverage:0", "dtype": "DT_RESOURCE", "tensorShape": {}}, "fpn_cells/cell_1/fnode3/op_after_combine8/bn/beta/ExponentialMovingAverage:0": {"name": "fpn_cells/cell_1/fnode3/op_after_combine8/bn/beta/ExponentialMovingAverage:0", "dtype": "DT_RESOURCE", "tensorShape": {}}, "efficientnet-b0/blocks_12/tpu_batch_normalization/moving_variance/ExponentialMovingAverage:0": {"name": "efficientnet-b0/blocks_12/tpu_batch_normalization/moving_variance/ExponentialMovingAverage:0", "dtype": "DT_RESOURCE", "tensorShape": {}}, "fpn_cells/cell_2/fnode4/op_after_combine9/bn/beta/ExponentialMovingAverage:0": {"name": "fpn_cells/cell_2/fnode4/op_after_combine9/bn/beta/ExponentialMovingAverage:0", "dtype": "DT_RESOURCE", "tensorShape": {}}, "fpn_cells/cell_0/fnode1/resample_0_2_6/bn/beta/ExponentialMovingAverage:0": {"name": "fpn_cells/cell_0/fnode1/resample_0_2_6/bn/beta/ExponentialMovingAverage:0", "dtype": "DT_RESOURCE", "tensorShape": {}}, "box_net/box-predict/bias/ExponentialMovingAverage:0": {"name": "box_net/box-predict/bias/ExponentialMovingAverage:0", "dtype": "DT_RESOURCE", "tensorShape": {}}, "fpn_cells/cell_0/fnode7/op_after_combine12/conv/pointwise_kernel/ExponentialMovingAverage:0": {"name": "fpn_cells/cell_0/fnode7/op_after_combine12/conv/pointwise_kernel/ExponentialMovingAverage:0", "dtype": "DT_RESOURCE", "tensorShape": {}}, "box_net/box-0-bn-6/moving_variance/ExponentialMovingAverage:0": {"name": "box_net/box-0-bn-6/moving_variance/ExponentialMovingAverage:0", "dtype": "DT_RESOURCE", "tensorShape": {}}, "fpn_cells/cell_1/fnode7/op_after_combine12/conv/bias/ExponentialMovingAverage:0": {"name": "fpn_cells/cell_1/fnode7/op_after_combine12/conv/bias/ExponentialMovingAverage:0", "dtype": "DT_RESOURCE", "tensorShape": {}}, "efficientnet-b0/blocks_4/tpu_batch_normalization_1/gamma/ExponentialMovingAverage:0": {"name": "efficientnet-b0/blocks_4/tpu_batch_normalization_1/gamma/ExponentialMovingAverage:0", "dtype": "DT_RESOURCE", "tensorShape": {}}, "fpn_cells/cell_1/fnode3/op_after_combine8/conv/pointwise_kernel/ExponentialMovingAverage:0": {"name": "fpn_cells/cell_1/fnode3/op_after_combine8/conv/pointwise_kernel/ExponentialMovingAverage:0", "dtype": "DT_RESOURCE", "tensorShape": {}}, "efficientnet-b0/blocks_7/tpu_batch_normalization/gamma/ExponentialMovingAverage:0": {"name": "efficientnet-b0/blocks_7/tpu_batch_normalization/gamma/ExponentialMovingAverage:0", "dtype": "DT_RESOURCE", "tensorShape": {}}, "fpn_cells/cell_2/fnode0/op_after_combine5/bn/moving_variance/ExponentialMovingAverage:0": {"name": "fpn_cells/cell_2/fnode0/op_after_combine5/bn/moving_variance/ExponentialMovingAverage:0", "dtype": "DT_RESOURCE", "tensorShape": {}}, "efficientnet-b0/blocks_1/tpu_batch_normalization_2/moving_mean/ExponentialMovingAverage:0": {"name": "efficientnet-b0/blocks_1/tpu_batch_normalization_2/moving_mean/ExponentialMovingAverage:0", "dtype": "DT_RESOURCE", "tensorShape": {}}, "efficientnet-b0/blocks_4/se/conv2d_1/bias/ExponentialMovingAverage:0": {"name": "efficientnet-b0/blocks_4/se/conv2d_1/bias/ExponentialMovingAverage:0", "dtype": "DT_RESOURCE", "tensorShape": {}}, "fpn_cells/cell_1/fnode0/op_after_combine5/bn/moving_mean/ExponentialMovingAverage:0": {"name": "fpn_cells/cell_1/fnode0/op_after_combine5/bn/moving_mean/ExponentialMovingAverage:0", "dtype": "DT_RESOURCE", "tensorShape": {}}, "efficientnet-b0/blocks_10/tpu_batch_normalization_1/moving_mean/ExponentialMovingAverage:0": {"name": "efficientnet-b0/blocks_10/tpu_batch_normalization_1/moving_mean/ExponentialMovingAverage:0", "dtype": "DT_RESOURCE", "tensorShape": {}}, "fpn_cells/cell_0/fnode2/op_after_combine7/conv/bias/ExponentialMovingAverage:0": {"name": "fpn_cells/cell_0/fnode2/op_after_combine7/conv/bias/ExponentialMovingAverage:0", "dtype": "DT_RESOURCE", "tensorShape": {}}, "fpn_cells/cell_0/fnode4/resample_0_1_9/conv2d/bias/ExponentialMovingAverage:0": {"name": "fpn_cells/cell_0/fnode4/resample_0_1_9/conv2d/bias/ExponentialMovingAverage:0", "dtype": "DT_RESOURCE", "tensorShape": {}}, "efficientnet-b0/blocks_15/tpu_batch_normalization/beta/ExponentialMovingAverage:0": {"name": "efficientnet-b0/blocks_15/tpu_batch_normalization/beta/ExponentialMovingAverage:0", "dtype": "DT_RESOURCE", "tensorShape": {}}, "fpn_cells/cell_2/fnode1/WSM_1/ExponentialMovingAverage:0": {"name": "fpn_cells/cell_2/fnode1/WSM_1/ExponentialMovingAverage:0", "dtype": "DT_RESOURCE", "tensorShape": {}}, "fpn_cells/cell_0/fnode1/resample_0_2_6/conv2d/bias/ExponentialMovingAverage:0": {"name": "fpn_cells/cell_0/fnode1/resample_0_2_6/conv2d/bias/ExponentialMovingAverage:0", "dtype": "DT_RESOURCE", "tensorShape": {}}, "efficientnet-b0/blocks_12/tpu_batch_normalization_1/gamma/ExponentialMovingAverage:0": {"name": "efficientnet-b0/blocks_12/tpu_batch_normalization_1/gamma/ExponentialMovingAverage:0", "dtype": "DT_RESOURCE", "tensorShape": {}}, "efficientnet-b0/blocks_12/depthwise_conv2d/depthwise_kernel/ExponentialMovingAverage:0": {"name": "efficientnet-b0/blocks_12/depthwise_conv2d/depthwise_kernel/ExponentialMovingAverage:0", "dtype": "DT_RESOURCE", "tensorShape": {}}, "efficientnet-b0/blocks_3/conv2d/kernel/ExponentialMovingAverage:0": {"name": "efficientnet-b0/blocks_3/conv2d/kernel/ExponentialMovingAverage:0", "dtype": "DT_RESOURCE", "tensorShape": {}}, "fpn_cells/cell_0/fnode4/resample_0_1_9/bn/gamma/ExponentialMovingAverage:0": {"name": "fpn_cells/cell_0/fnode4/resample_0_1_9/bn/gamma/ExponentialMovingAverage:0", "dtype": "DT_RESOURCE", "tensorShape": {}}, "fpn_cells/cell_1/fnode1/op_after_combine6/bn/moving_mean/ExponentialMovingAverage:0": {"name": "fpn_cells/cell_1/fnode1/op_after_combine6/bn/moving_mean/ExponentialMovingAverage:0", "dtype": "DT_RESOURCE", "tensorShape": {}}, "fpn_cells/cell_0/fnode7/op_after_combine12/bn/gamma/ExponentialMovingAverage:0": {"name": "fpn_cells/cell_0/fnode7/op_after_combine12/bn/gamma/ExponentialMovingAverage:0", "dtype": "DT_RESOURCE", "tensorShape": {}}, "fpn_cells/cell_0/fnode1/op_after_combine6/bn/moving_variance/ExponentialMovingAverage:0": {"name": "fpn_cells/cell_0/fnode1/op_after_combine6/bn/moving_variance/ExponentialMovingAverage:0", "dtype": "DT_RESOURCE", "tensorShape": {}}, "fpn_cells/cell_2/fnode0/op_after_combine5/conv/bias/ExponentialMovingAverage:0": {"name": "fpn_cells/cell_2/fnode0/op_after_combine5/conv/bias/ExponentialMovingAverage:0", "dtype": "DT_RESOURCE", "tensorShape": {}}, "box_net/box-2-bn-6/beta/ExponentialMovingAverage:0": {"name": "box_net/box-2-bn-6/beta/ExponentialMovingAverage:0", "dtype": "DT_RESOURCE", "tensorShape": {}}, "fpn_cells/cell_0/fnode7/op_after_combine12/bn/moving_variance/ExponentialMovingAverage:0": {"name": "fpn_cells/cell_0/fnode7/op_after_combine12/bn/moving_variance/ExponentialMovingAverage:0", "dtype": "DT_RESOURCE", "tensorShape": {}}, "efficientnet-b0/blocks_14/tpu_batch_normalization/moving_mean/ExponentialMovingAverage:0": {"name": "efficientnet-b0/blocks_14/tpu_batch_normalization/moving_mean/ExponentialMovingAverage:0", "dtype": "DT_RESOURCE", "tensorShape": {}}, "efficientnet-b0/blocks_5/tpu_batch_normalization_2/moving_mean/ExponentialMovingAverage:0": {"name": "efficientnet-b0/blocks_5/tpu_batch_normalization_2/moving_mean/ExponentialMovingAverage:0", "dtype": "DT_RESOURCE", "tensorShape": {}}, "efficientnet-b0/blocks_10/tpu_batch_normalization_2/beta/ExponentialMovingAverage:0": {"name": "efficientnet-b0/blocks_10/tpu_batch_normalization_2/beta/ExponentialMovingAverage:0", "dtype": "DT_RESOURCE", "tensorShape": {}}, "fpn_cells/cell_1/fnode6/op_after_combine11/conv/pointwise_kernel/ExponentialMovingAverage:0": {"name": "fpn_cells/cell_1/fnode6/op_after_combine11/conv/pointwise_kernel/ExponentialMovingAverage:0", "dtype": "DT_RESOURCE", "tensorShape": {}}, "class_net/class-1-bn-6/moving_variance/ExponentialMovingAverage:0": {"name": "class_net/class-1-bn-6/moving_variance/ExponentialMovingAverage:0", "dtype": "DT_RESOURCE", "tensorShape": {}}, "fpn_cells/cell_1/fnode2/op_after_combine7/bn/moving_mean/ExponentialMovingAverage:0": {"name": "fpn_cells/cell_1/fnode2/op_after_combine7/bn/moving_mean/ExponentialMovingAverage:0", "dtype": "DT_RESOURCE", "tensorShape": {}}, "efficientnet-b0/blocks_14/tpu_batch_normalization_1/moving_mean/ExponentialMovingAverage:0": {"name": "efficientnet-b0/blocks_14/tpu_batch_normalization_1/moving_mean/ExponentialMovingAverage:0", "dtype": "DT_RESOURCE", "tensorShape": {}}, "fpn_cells/cell_1/fnode5/op_after_combine10/bn/moving_variance/ExponentialMovingAverage:0": {"name": "fpn_cells/cell_1/fnode5/op_after_combine10/bn/moving_variance/ExponentialMovingAverage:0", "dtype": "DT_RESOURCE", "tensorShape": {}}, "efficientnet-b0/blocks_2/se/conv2d/kernel/ExponentialMovingAverage:0": {"name": "efficientnet-b0/blocks_2/se/conv2d/kernel/ExponentialMovingAverage:0", "dtype": "DT_RESOURCE", "tensorShape": {}}, "fpn_cells/cell_0/fnode5/resample_0_2_10/bn/gamma/ExponentialMovingAverage:0": {"name": "fpn_cells/cell_0/fnode5/resample_0_2_10/bn/gamma/ExponentialMovingAverage:0", "dtype": "DT_RESOURCE", "tensorShape": {}}, "class_net/class-0-bn-3/gamma/ExponentialMovingAverage:0": {"name": "class_net/class-0-bn-3/gamma/ExponentialMovingAverage:0", "dtype": "DT_RESOURCE", "tensorShape": {}}, "efficientnet-b0/blocks_11/se/conv2d_1/kernel/ExponentialMovingAverage:0": {"name": "efficientnet-b0/blocks_11/se/conv2d_1/kernel/ExponentialMovingAverage:0", "dtype": "DT_RESOURCE", "tensorShape": {}}, "class_net/class-0-bn-4/moving_variance/ExponentialMovingAverage:0": {"name": "class_net/class-0-bn-4/moving_variance/ExponentialMovingAverage:0", "dtype": "DT_RESOURCE", "tensorShape": {}}, "efficientnet-b0/blocks_12/se/conv2d_1/bias/ExponentialMovingAverage:0": {"name": "efficientnet-b0/blocks_12/se/conv2d_1/bias/ExponentialMovingAverage:0", "dtype": "DT_RESOURCE", "tensorShape": {}}, "efficientnet-b0/blocks_8/conv2d_1/kernel/ExponentialMovingAverage:0": {"name": "efficientnet-b0/blocks_8/conv2d_1/kernel/ExponentialMovingAverage:0", "dtype": "DT_RESOURCE", "tensorShape": {}}, "fpn_cells/cell_1/fnode3/op_after_combine8/bn/moving_mean/ExponentialMovingAverage:0": {"name": "fpn_cells/cell_1/fnode3/op_after_combine8/bn/moving_mean/ExponentialMovingAverage:0", "dtype": "DT_RESOURCE", "tensorShape": {}}, "efficientnet-b0/blocks_8/se/conv2d_1/kernel/ExponentialMovingAverage:0": {"name": "efficientnet-b0/blocks_8/se/conv2d_1/kernel/ExponentialMovingAverage:0", "dtype": "DT_RESOURCE", "tensorShape": {}}, "efficientnet-b0/blocks_3/se/conv2d/bias/ExponentialMovingAverage:0": {"name": "efficientnet-b0/blocks_3/se/conv2d/bias/ExponentialMovingAverage:0", "dtype": "DT_RESOURCE", "tensorShape": {}}, "efficientnet-b0/blocks_1/tpu_batch_normalization_1/moving_variance/ExponentialMovingAverage:0": {"name": "efficientnet-b0/blocks_1/tpu_batch_normalization_1/moving_variance/ExponentialMovingAverage:0", "dtype": "DT_RESOURCE", "tensorShape": {}}, "class_net/class-1-bn-5/beta/ExponentialMovingAverage:0": {"name": "class_net/class-1-bn-5/beta/ExponentialMovingAverage:0", "dtype": "DT_RESOURCE", "tensorShape": {}}, "fpn_cells/cell_0/fnode7/op_after_combine12/conv/bias/ExponentialMovingAverage:0": {"name": "fpn_cells/cell_0/fnode7/op_after_combine12/conv/bias/ExponentialMovingAverage:0", "dtype": "DT_RESOURCE", "tensorShape": {}}, "efficientnet-b0/blocks_9/tpu_batch_normalization_2/moving_mean/ExponentialMovingAverage:0": {"name": "efficientnet-b0/blocks_9/tpu_batch_normalization_2/moving_mean/ExponentialMovingAverage:0", "dtype": "DT_RESOURCE", "tensorShape": {}}, "box_net/box-0-bn-7/beta/ExponentialMovingAverage:0": {"name": "box_net/box-0-bn-7/beta/ExponentialMovingAverage:0", "dtype": "DT_RESOURCE", "tensorShape": {}}, "fpn_cells/cell_2/fnode1/WSM/ExponentialMovingAverage:0": {"name": "fpn_cells/cell_2/fnode1/WSM/ExponentialMovingAverage:0", "dtype": "DT_RESOURCE", "tensorShape": {}}, "fpn_cells/cell_1/fnode2/WSM_1/ExponentialMovingAverage:0": {"name": "fpn_cells/cell_1/fnode2/WSM_1/ExponentialMovingAverage:0", "dtype": "DT_RESOURCE", "tensorShape": {}}, "fpn_cells/cell_0/fnode3/resample_0_0_8/conv2d/bias/ExponentialMovingAverage:0": {"name": "fpn_cells/cell_0/fnode3/resample_0_0_8/conv2d/bias/ExponentialMovingAverage:0", "dtype": "DT_RESOURCE", "tensorShape": {}}, "fpn_cells/cell_1/fnode4/op_after_combine9/bn/moving_mean/ExponentialMovingAverage:0": {"name": "fpn_cells/cell_1/fnode4/op_after_combine9/bn/moving_mean/ExponentialMovingAverage:0", "dtype": "DT_RESOURCE", "tensorShape": {}}, "efficientnet-b0/blocks_6/tpu_batch_normalization_1/moving_variance/ExponentialMovingAverage:0": {"name": "efficientnet-b0/blocks_6/tpu_batch_normalization_1/moving_variance/ExponentialMovingAverage:0", "dtype": "DT_RESOURCE", "tensorShape": {}}, "efficientnet-b0/blocks_10/tpu_batch_normalization_2/moving_variance/ExponentialMovingAverage:0": {"name": "efficientnet-b0/blocks_10/tpu_batch_normalization_2/moving_variance/ExponentialMovingAverage:0", "dtype": "DT_RESOURCE", "tensorShape": {}}, "fpn_cells/cell_2/fnode4/WSM_2/ExponentialMovingAverage:0": {"name": "fpn_cells/cell_2/fnode4/WSM_2/ExponentialMovingAverage:0", "dtype": "DT_RESOURCE", "tensorShape": {}}, "fpn_cells/cell_1/fnode2/op_after_combine7/conv/pointwise_kernel/ExponentialMovingAverage:0": {"name": "fpn_cells/cell_1/fnode2/op_after_combine7/conv/pointwise_kernel/ExponentialMovingAverage:0", "dtype": "DT_RESOURCE", "tensorShape": {}}, "efficientnet-b0/blocks_7/tpu_batch_normalization/beta/ExponentialMovingAverage:0": {"name": "efficientnet-b0/blocks_7/tpu_batch_normalization/beta/ExponentialMovingAverage:0", "dtype": "DT_RESOURCE", "tensorShape": {}}, "efficientnet-b0/blocks_11/depthwise_conv2d/depthwise_kernel/ExponentialMovingAverage:0": {"name": "efficientnet-b0/blocks_11/depthwise_conv2d/depthwise_kernel/ExponentialMovingAverage:0", "dtype": "DT_RESOURCE", "tensorShape": {}}, "class_net/class-2-bn-5/gamma/ExponentialMovingAverage:0": {"name": "class_net/class-2-bn-5/gamma/ExponentialMovingAverage:0", "dtype": "DT_RESOURCE", "tensorShape": {}}, "efficientnet-b0/blocks_4/tpu_batch_normalization/moving_variance/ExponentialMovingAverage:0": {"name": "efficientnet-b0/blocks_4/tpu_batch_normalization/moving_variance/ExponentialMovingAverage:0", "dtype": "DT_RESOURCE", "tensorShape": {}}, "efficientnet-b0/blocks_10/se/conv2d/kernel/ExponentialMovingAverage:0": {"name": "efficientnet-b0/blocks_10/se/conv2d/kernel/ExponentialMovingAverage:0", "dtype": "DT_RESOURCE", "tensorShape": {}}, "efficientnet-b0/blocks_14/conv2d_1/kernel/ExponentialMovingAverage:0": {"name": "efficientnet-b0/blocks_14/conv2d_1/kernel/ExponentialMovingAverage:0", "dtype": "DT_RESOURCE", "tensorShape": {}}, "efficientnet-b0/blocks_15/tpu_batch_normalization_2/moving_variance/ExponentialMovingAverage:0": {"name": "efficientnet-b0/blocks_15/tpu_batch_normalization_2/moving_variance/ExponentialMovingAverage:0", "dtype": "DT_RESOURCE", "tensorShape": {}}, "fpn_cells/cell_0/fnode4/resample_0_1_9/bn/beta/ExponentialMovingAverage:0": {"name": "fpn_cells/cell_0/fnode4/resample_0_1_9/bn/beta/ExponentialMovingAverage:0", "dtype": "DT_RESOURCE", "tensorShape": {}}, "fpn_cells/cell_1/fnode3/WSM/ExponentialMovingAverage:0": {"name": "fpn_cells/cell_1/fnode3/WSM/ExponentialMovingAverage:0", "dtype": "DT_RESOURCE", "tensorShape": {}}, "fpn_cells/cell_2/fnode5/op_after_combine10/conv/pointwise_kernel/ExponentialMovingAverage:0": {"name": "fpn_cells/cell_2/fnode5/op_after_combine10/conv/pointwise_kernel/ExponentialMovingAverage:0", "dtype": "DT_RESOURCE", "tensorShape": {}}, "fpn_cells/cell_1/fnode1/op_after_combine6/bn/moving_variance/ExponentialMovingAverage:0": {"name": "fpn_cells/cell_1/fnode1/op_after_combine6/bn/moving_variance/ExponentialMovingAverage:0", "dtype": "DT_RESOURCE", "tensorShape": {}}, "box_net/box-2-bn-4/gamma/ExponentialMovingAverage:0": {"name": "box_net/box-2-bn-4/gamma/ExponentialMovingAverage:0", "dtype": "DT_RESOURCE", "tensorShape": {}}, "fpn_cells/cell_0/fnode3/resample_0_0_8/bn/moving_mean/ExponentialMovingAverage:0": {"name": "fpn_cells/cell_0/fnode3/resample_0_0_8/bn/moving_mean/ExponentialMovingAverage:0", "dtype": "DT_RESOURCE", "tensorShape": {}}, "fpn_cells/cell_0/fnode7/op_after_combine12/bn/moving_mean/ExponentialMovingAverage:0": {"name": "fpn_cells/cell_0/fnode7/op_after_combine12/bn/moving_mean/ExponentialMovingAverage:0", "dtype": "DT_RESOURCE", "tensorShape": {}}, "box_net/box-1-bn-7/gamma/ExponentialMovingAverage:0": {"name": "box_net/box-1-bn-7/gamma/ExponentialMovingAverage:0", "dtype": "DT_RESOURCE", "tensorShape": {}}, "efficientnet-b0/blocks_13/tpu_batch_normalization/moving_mean/ExponentialMovingAverage:0": {"name": "efficientnet-b0/blocks_13/tpu_batch_normalization/moving_mean/ExponentialMovingAverage:0", "dtype": "DT_RESOURCE", "tensorShape": {}}, "efficientnet-b0/stem/tpu_batch_normalization/moving_mean/ExponentialMovingAverage:0": {"name": "efficientnet-b0/stem/tpu_batch_normalization/moving_mean/ExponentialMovingAverage:0", "dtype": "DT_RESOURCE", "tensorShape": {}}, "fpn_cells/cell_0/fnode5/WSM/ExponentialMovingAverage:0": {"name": "fpn_cells/cell_0/fnode5/WSM/ExponentialMovingAverage:0", "dtype": "DT_RESOURCE", "tensorShape": {}}, "fpn_cells/cell_0/fnode3/WSM_1/ExponentialMovingAverage:0": {"name": "fpn_cells/cell_0/fnode3/WSM_1/ExponentialMovingAverage:0", "dtype": "DT_RESOURCE", "tensorShape": {}}, "efficientnet-b0/blocks_11/tpu_batch_normalization_2/beta/ExponentialMovingAverage:0": {"name": "efficientnet-b0/blocks_11/tpu_batch_normalization_2/beta/ExponentialMovingAverage:0", "dtype": "DT_RESOURCE", "tensorShape": {}}, "fpn_cells/cell_1/fnode3/op_after_combine8/conv/bias/ExponentialMovingAverage:0": {"name": "fpn_cells/cell_1/fnode3/op_after_combine8/conv/bias/ExponentialMovingAverage:0", "dtype": "DT_RESOURCE", "tensorShape": {}}, "efficientnet-b0/blocks_0/tpu_batch_normalization/beta/ExponentialMovingAverage:0": {"name": "efficientnet-b0/blocks_0/tpu_batch_normalization/beta/ExponentialMovingAverage:0", "dtype": "DT_RESOURCE", "tensorShape": {}}, "box_net/box-2-bn-3/moving_mean/ExponentialMovingAverage:0": {"name": "box_net/box-2-bn-3/moving_mean/ExponentialMovingAverage:0", "dtype": "DT_RESOURCE", "tensorShape": {}}, "class_net/class-2-bn-3/moving_mean/ExponentialMovingAverage:0": {"name": "class_net/class-2-bn-3/moving_mean/ExponentialMovingAverage:0", "dtype": "DT_RESOURCE", "tensorShape": {}}, "box_net/box-0-bn-7/moving_variance/ExponentialMovingAverage:0": {"name": "box_net/box-0-bn-7/moving_variance/ExponentialMovingAverage:0", "dtype": "DT_RESOURCE", "tensorShape": {}}, "class_net/class-predict/depthwise_kernel/ExponentialMovingAverage:0": {"name": "class_net/class-predict/depthwise_kernel/ExponentialMovingAverage:0", "dtype": "DT_RESOURCE", "tensorShape": {}}, "fpn_cells/cell_2/fnode7/op_after_combine12/conv/depthwise_kernel/ExponentialMovingAverage:0": {"name": "fpn_cells/cell_2/fnode7/op_after_combine12/conv/depthwise_kernel/ExponentialMovingAverage:0", "dtype": "DT_RESOURCE", "tensorShape": {}}, "fpn_cells/cell_1/fnode5/WSM_2/ExponentialMovingAverage:0": {"name": "fpn_cells/cell_1/fnode5/WSM_2/ExponentialMovingAverage:0", "dtype": "DT_RESOURCE", "tensorShape": {}}, "box_net/box-2-bn-6/moving_mean/ExponentialMovingAverage:0": {"name": "box_net/box-2-bn-6/moving_mean/ExponentialMovingAverage:0", "dtype": "DT_RESOURCE", "tensorShape": {}}, "efficientnet-b0/stem/tpu_batch_normalization/beta/ExponentialMovingAverage:0": {"name": "efficientnet-b0/stem/tpu_batch_normalization/beta/ExponentialMovingAverage:0", "dtype": "DT_RESOURCE", "tensorShape": {}}, "efficientnet-b0/blocks_14/se/conv2d_1/kernel/ExponentialMovingAverage:0": {"name": "efficientnet-b0/blocks_14/se/conv2d_1/kernel/ExponentialMovingAverage:0", "dtype": "DT_RESOURCE", "tensorShape": {}}, "efficientnet-b0/blocks_2/tpu_batch_normalization_1/moving_mean/ExponentialMovingAverage:0": {"name": "efficientnet-b0/blocks_2/tpu_batch_normalization_1/moving_mean/ExponentialMovingAverage:0", "dtype": "DT_RESOURCE", "tensorShape": {}}, "class_net/class-2-bn-6/moving_mean/ExponentialMovingAverage:0": {"name": "class_net/class-2-bn-6/moving_mean/ExponentialMovingAverage:0", "dtype": "DT_RESOURCE", "tensorShape": {}}, "efficientnet-b0/blocks_3/tpu_batch_normalization_2/gamma/ExponentialMovingAverage:0": {"name": "efficientnet-b0/blocks_3/tpu_batch_normalization_2/gamma/ExponentialMovingAverage:0", "dtype": "DT_RESOURCE", "tensorShape": {}}, "efficientnet-b0/blocks_2/se/conv2d_1/bias/ExponentialMovingAverage:0": {"name": "efficientnet-b0/blocks_2/se/conv2d_1/bias/ExponentialMovingAverage:0", "dtype": "DT_RESOURCE", "tensorShape": {}}, "efficientnet-b0/blocks_10/depthwise_conv2d/depthwise_kernel/ExponentialMovingAverage:0": {"name": "efficientnet-b0/blocks_10/depthwise_conv2d/depthwise_kernel/ExponentialMovingAverage:0", "dtype": "DT_RESOURCE", "tensorShape": {}}, "fpn_cells/cell_1/fnode4/op_after_combine9/conv/depthwise_kernel/ExponentialMovingAverage:0": {"name": "fpn_cells/cell_1/fnode4/op_after_combine9/conv/depthwise_kernel/ExponentialMovingAverage:0", "dtype": "DT_RESOURCE", "tensorShape": {}}, "efficientnet-b0/blocks_8/tpu_batch_normalization_1/gamma/ExponentialMovingAverage:0": {"name": "efficientnet-b0/blocks_8/tpu_batch_normalization_1/gamma/ExponentialMovingAverage:0", "dtype": "DT_RESOURCE", "tensorShape": {}}, "box_net/box-2/bias/ExponentialMovingAverage:0": {"name": "box_net/box-2/bias/ExponentialMovingAverage:0", "dtype": "DT_RESOURCE", "tensorShape": {}}, "fpn_cells/cell_2/fnode1/op_after_combine6/bn/moving_variance/ExponentialMovingAverage:0": {"name": "fpn_cells/cell_2/fnode1/op_after_combine6/bn/moving_variance/ExponentialMovingAverage:0", "dtype": "DT_RESOURCE", "tensorShape": {}}, "efficientnet-b0/blocks_11/tpu_batch_normalization/moving_variance/ExponentialMovingAverage:0": {"name": "efficientnet-b0/blocks_11/tpu_batch_normalization/moving_variance/ExponentialMovingAverage:0", "dtype": "DT_RESOURCE", "tensorShape": {}}, "efficientnet-b0/blocks_6/tpu_batch_normalization_1/moving_mean/ExponentialMovingAverage:0": {"name": "efficientnet-b0/blocks_6/tpu_batch_normalization_1/moving_mean/ExponentialMovingAverage:0", "dtype": "DT_RESOURCE", "tensorShape": {}}, "efficientnet-b0/blocks_11/tpu_batch_normalization/gamma/ExponentialMovingAverage:0": {"name": "efficientnet-b0/blocks_11/tpu_batch_normalization/gamma/ExponentialMovingAverage:0", "dtype": "DT_RESOURCE", "tensorShape": {}}, "efficientnet-b0/blocks_11/tpu_batch_normalization_2/gamma/ExponentialMovingAverage:0": {"name": "efficientnet-b0/blocks_11/tpu_batch_normalization_2/gamma/ExponentialMovingAverage:0", "dtype": "DT_RESOURCE", "tensorShape": {}}, "fpn_cells/cell_1/fnode1/op_after_combine6/conv/pointwise_kernel/ExponentialMovingAverage:0": {"name": "fpn_cells/cell_1/fnode1/op_after_combine6/conv/pointwise_kernel/ExponentialMovingAverage:0", "dtype": "DT_RESOURCE", "tensorShape": {}}, "class_net/class-1-bn-7/moving_variance/ExponentialMovingAverage:0": {"name": "class_net/class-1-bn-7/moving_variance/ExponentialMovingAverage:0", "dtype": "DT_RESOURCE", "tensorShape": {}}, "efficientnet-b0/blocks_0/tpu_batch_normalization/gamma/ExponentialMovingAverage:0": {"name": "efficientnet-b0/blocks_0/tpu_batch_normalization/gamma/ExponentialMovingAverage:0", "dtype": "DT_RESOURCE", "tensorShape": {}}, "efficientnet-b0/blocks_0/se/conv2d/kernel/ExponentialMovingAverage:0": {"name": "efficientnet-b0/blocks_0/se/conv2d/kernel/ExponentialMovingAverage:0", "dtype": "DT_RESOURCE", "tensorShape": {}}, "class_net/class-0-bn-5/moving_variance/ExponentialMovingAverage:0": {"name": "class_net/class-0-bn-5/moving_variance/ExponentialMovingAverage:0", "dtype": "DT_RESOURCE", "tensorShape": {}}, "efficientnet-b0/blocks_12/tpu_batch_normalization/moving_mean/ExponentialMovingAverage:0": {"name": "efficientnet-b0/blocks_12/tpu_batch_normalization/moving_mean/ExponentialMovingAverage:0", "dtype": "DT_RESOURCE", "tensorShape": {}}, "fpn_cells/cell_0/fnode6/WSM_2/ExponentialMovingAverage:0": {"name": "fpn_cells/cell_0/fnode6/WSM_2/ExponentialMovingAverage:0", "dtype": "DT_RESOURCE", "tensorShape": {}}, "fpn_cells/cell_0/fnode2/op_after_combine7/bn/moving_variance/ExponentialMovingAverage:0": {"name": "fpn_cells/cell_0/fnode2/op_after_combine7/bn/moving_variance/ExponentialMovingAverage:0", "dtype": "DT_RESOURCE", "tensorShape": {}}, "fpn_cells/cell_1/fnode5/op_after_combine10/bn/gamma/ExponentialMovingAverage:0": {"name": "fpn_cells/cell_1/fnode5/op_after_combine10/bn/gamma/ExponentialMovingAverage:0", "dtype": "DT_RESOURCE", "tensorShape": {}}, "efficientnet-b0/blocks_9/conv2d_1/kernel/ExponentialMovingAverage:0": {"name": "efficientnet-b0/blocks_9/conv2d_1/kernel/ExponentialMovingAverage:0", "dtype": "DT_RESOURCE", "tensorShape": {}}, "efficientnet-b0/blocks_10/se/conv2d_1/bias/ExponentialMovingAverage:0": {"name": "efficientnet-b0/blocks_10/se/conv2d_1/bias/ExponentialMovingAverage:0", "dtype": "DT_RESOURCE", "tensorShape": {}}, "efficientnet-b0/blocks_8/se/conv2d/bias/ExponentialMovingAverage:0": {"name": "efficientnet-b0/blocks_8/se/conv2d/bias/ExponentialMovingAverage:0", "dtype": "DT_RESOURCE", "tensorShape": {}}, "efficientnet-b0/blocks_1/tpu_batch_normalization_2/moving_variance/ExponentialMovingAverage:0": {"name": "efficientnet-b0/blocks_1/tpu_batch_normalization_2/moving_variance/ExponentialMovingAverage:0", "dtype": "DT_RESOURCE", "tensorShape": {}}, "fpn_cells/cell_0/fnode5/op_after_combine10/conv/pointwise_kernel/ExponentialMovingAverage:0": {"name": "fpn_cells/cell_0/fnode5/op_after_combine10/conv/pointwise_kernel/ExponentialMovingAverage:0", "dtype": "DT_RESOURCE", "tensorShape": {}}, "efficientnet-b0/blocks_14/se/conv2d/bias/ExponentialMovingAverage:0": {"name": "efficientnet-b0/blocks_14/se/conv2d/bias/ExponentialMovingAverage:0", "dtype": "DT_RESOURCE", "tensorShape": {}}, "fpn_cells/cell_0/fnode0/op_after_combine5/bn/moving_mean/ExponentialMovingAverage:0": {"name": "fpn_cells/cell_0/fnode0/op_after_combine5/bn/moving_mean/ExponentialMovingAverage:0", "dtype": "DT_RESOURCE", "tensorShape": {}}, "fpn_cells/cell_1/fnode6/op_after_combine11/bn/moving_variance/ExponentialMovingAverage:0": {"name": "fpn_cells/cell_1/fnode6/op_after_combine11/bn/moving_variance/ExponentialMovingAverage:0", "dtype": "DT_RESOURCE", "tensorShape": {}}, "efficientnet-b0/blocks_12/tpu_batch_normalization_2/beta/ExponentialMovingAverage:0": {"name": "efficientnet-b0/blocks_12/tpu_batch_normalization_2/beta/ExponentialMovingAverage:0", "dtype": "DT_RESOURCE", "tensorShape": {}}, "efficientnet-b0/blocks_6/tpu_batch_normalization_2/moving_variance/ExponentialMovingAverage:0": {"name": "efficientnet-b0/blocks_6/tpu_batch_normalization_2/moving_variance/ExponentialMovingAverage:0", "dtype": "DT_RESOURCE", "tensorShape": {}}, "fpn_cells/cell_0/fnode1/op_after_combine6/bn/moving_mean/ExponentialMovingAverage:0": {"name": "fpn_cells/cell_0/fnode1/op_after_combine6/bn/moving_mean/ExponentialMovingAverage:0", "dtype": "DT_RESOURCE", "tensorShape": {}}, "box_net/box-2-bn-5/beta/ExponentialMovingAverage:0": {"name": "box_net/box-2-bn-5/beta/ExponentialMovingAverage:0", "dtype": "DT_RESOURCE", "tensorShape": {}}, "efficientnet-b0/blocks_10/tpu_batch_normalization_1/beta/ExponentialMovingAverage:0": {"name": "efficientnet-b0/blocks_10/tpu_batch_normalization_1/beta/ExponentialMovingAverage:0", "dtype": "DT_RESOURCE", "tensorShape": {}}, "fpn_cells/cell_1/fnode0/op_after_combine5/bn/beta/ExponentialMovingAverage:0": {"name": "fpn_cells/cell_1/fnode0/op_after_combine5/bn/beta/ExponentialMovingAverage:0", "dtype": "DT_RESOURCE", "tensorShape": {}}, "fpn_cells/cell_2/fnode4/WSM_1/ExponentialMovingAverage:0": {"name": "fpn_cells/cell_2/fnode4/WSM_1/ExponentialMovingAverage:0", "dtype": "DT_RESOURCE", "tensorShape": {}}, "efficientnet-b0/blocks_15/conv2d_1/kernel/ExponentialMovingAverage:0": {"name": "efficientnet-b0/blocks_15/conv2d_1/kernel/ExponentialMovingAverage:0", "dtype": "DT_RESOURCE", "tensorShape": {}}, "fpn_cells/cell_2/fnode1/op_after_combine6/bn/beta/ExponentialMovingAverage:0": {"name": "fpn_cells/cell_2/fnode1/op_after_combine6/bn/beta/ExponentialMovingAverage:0", "dtype": "DT_RESOURCE", "tensorShape": {}}}, "outputs": {"detections:0": {"name": "detections:0", "dtype": "DT_FLOAT", "tensorShape": {"dim": [{"size": "1"}, {"size": "-1"}, {"size": "7"}]}}}}}, "modelTopology": {"node": [{"name": "box_net/box-0-bn-3/beta/ExponentialMovingAverage", "op": "Placeholder", "attr": {"dtype": {"type": "DT_RESOURCE"}, "shape": {"shape": {}}}}, {"name": "box_net/box-0-bn-3/gamma/ExponentialMovingAverage", "op": "Placeholder", "attr": {"dtype": {"type": "DT_RESOURCE"}, "shape": {"shape": {}}}}, {"name": "box_net/box-0-bn-3/moving_mean/ExponentialMovingAverage", "op": "Placeholder", "attr": {"shape": {"shape": {}}, "dtype": {"type": "DT_RESOURCE"}}}, {"name": "box_net/box-0-bn-3/moving_variance/ExponentialMovingAverage", "op": "Placeholder", "attr": {"shape": {"shape": {}}, "dtype": {"type": "DT_RESOURCE"}}}, {"name": "box_net/box-0-bn-4/beta/ExponentialMovingAverage", "op": "Placeholder", "attr": {"dtype": {"type": "DT_RESOURCE"}, "shape": {"shape": {}}}}, {"name": "box_net/box-0-bn-4/gamma/ExponentialMovingAverage", "op": "Placeholder", "attr": {"dtype": {"type": "DT_RESOURCE"}, "shape": {"shape": {}}}}, {"name": "box_net/box-0-bn-4/moving_mean/ExponentialMovingAverage", "op": "Placeholder", "attr": {"dtype": {"type": "DT_RESOURCE"}, "shape": {"shape": {}}}}, {"name": "box_net/box-0-bn-4/moving_variance/ExponentialMovingAverage", "op": "Placeholder", "attr": {"dtype": {"type": "DT_RESOURCE"}, "shape": {"shape": {}}}}, {"name": "box_net/box-0-bn-5/beta/ExponentialMovingAverage", "op": "Placeholder", "attr": {"dtype": {"type": "DT_RESOURCE"}, "shape": {…
"type": "DT_FLOAT"}, "N": {"i": "5"}, "Tidx": {"type": "DT_INT32"}}}, {"name": "concat", "op": "ConcatV2", "input": ["Reshape", "Reshape_2", "Reshape_4", "Reshape_6", "Reshape_8", "concat_1/axis"], "attr": {"N": {"i": "5"}, "Tidx": {"type": "DT_INT32"}, "T": {"type": "DT_FLOAT"}}}, {"name": "strided_slice_8", "op": "StridedSlice", "input": ["concat_1", "Tile_1/input", "strided_slice_11/stack_1", "strided_slice_11/stack_1"], "attr": {"Index": {"type": "DT_INT32"}, "T": {"type": "DT_FLOAT"}, "shrink_axis_mask": {"i": "1"}, "ellipsis_mask": {"i": "0"}, "begin_mask": {"i": "0"}, "new_axis_mask": {"i": "0"}, "end_mask": {"i": "0"}}}, {"name": "ArgMax", "op": "ArgMax", "input": ["concat", "ArgMax/dimension"], "attr": {"output_type": {"type": "DT_INT32"}, "Tidx": {"type": "DT_INT32"}, "T": {"type": "DT_FLOAT"}}}, {"name": "Max", "op": "Max", "input": ["concat", "ArgMax/dimension"], "attr": {"T": {"type": "DT_FLOAT"}, "Tidx": {"type": "DT_INT32"}, "keep_dims": {"b": false}}}, {"name": "unstack", "op": "Unpack", "input": ["strided_slice_8"], "attr": {"T": {"type": "DT_FLOAT"}, "num": {"i": "4"}, "axis": {"i": "-1"}}}, {"name": "strided_slice_10", "op": "StridedSlice", "input": ["ArgMax", "Tile_1/input", "strided_slice_11/stack_1", "strided_slice_11/stack_1"], "attr": {"Index": {"type": "DT_INT32"}, "T": {"type": "DT_INT32"}, "shrink_axis_mask": {"i": "1"}, "begin_mask": {"i": "0"}, "ellipsis_mask": {"i": "0"}, "new_axis_mask": {"i": "0"}, "end_mask": {"i": "0"}}}, {"name": "strided_slice_7", "op": "StridedSlice", "input": ["Max", "Tile_1/input", "strided_slice_11/stack_1", "strided_slice_11/stack_1"], "attr": {"shrink_axis_mask": {"i": "1"}, "begin_mask": {"i": "0"}, "ellipsis_mask": {"i": "0"}, "new_axis_mask": {"i": "0"}, "end_mask": {"i": "0"}, "Index": {"type": "DT_INT32"}, "T": {"type": "DT_FLOAT"}}}, {"name": "mul_4", "op": "Mul", "input": ["sub_2", "unstack"], "attr": {"T": {"type": "DT_FLOAT"}}}, {"name": "mul_5", "op": "Mul", "input": ["sub_3", "unstack:1"], "attr": {"T": {"type": "DT_FLOAT"}}}, {"name": "Exp_1", "op": "Exp", "input": ["unstack:2"], "attr": {"T": {"type": "DT_FLOAT"}}}, {"name": "Exp", "op": "Exp", "input": ["unstack:3"], "attr": {"T": {"type": "DT_FLOAT"}}}, {"name": "Sigmoid", "op": "Sigmoid", "input": ["strided_slice_7"], "attr": {"T": {"type": "DT_FLOAT"}}}, {"name": "add_5", "op": "AddV2", "input": ["mul_4", "truediv_4"], "attr": {"T": {"type": "DT_FLOAT"}}}, {"name": "add_6", "op": "AddV2", "input": ["mul_5", "truediv_5"], "attr": {"T": {"type": "DT_FLOAT"}}}, {"name": "truediv_6", "op": "Mul", "input": ["Exp_1", "mul_3"], "attr": {"T": {"type": "DT_FLOAT"}, "_grappler_ArithmeticOptimizer_MinimizeBroadcasts": {"b": true}}}, {"name": "truediv_7", "op": "Mul", "input": ["Exp", "mul_2"], "attr": {"_grappler_ArithmeticOptimizer_MinimizeBroadcasts": {"b": true}, "T": {"type": "DT_FLOAT"}}}, {"name": "sub_4", "op": "Sub", "input": ["add_5", "truediv_6"], "attr": {"T": {"type": "DT_FLOAT"}}}, {"name": "add_7", "op": "AddV2", "input": ["add_5", "truediv_6"], "attr": {"T": {"type": "DT_FLOAT"}}}, {"name": "sub_5", "op": "Sub", "input": ["add_6", "truediv_7"], "attr": {"T": {"type": "DT_FLOAT"}}}, {"name": "add_8", "op": "AddV2", "input": ["add_6", "truediv_7"], "attr": {"T": {"type": "DT_FLOAT"}}}, {"name": "stack_2", "op": "Pack", "input": ["sub_4", "sub_5", "add_7", "add_8"], "attr": {"T": {"type": "DT_FLOAT"}, "axis": {"i": "-1"}, "N": {"i": "4"}}}, {"name": "non_max_suppression_with_scores/NonMaxSuppressionV5", "op": "NonMaxSuppressionV5", "input": ["stack_2", "Sigmoid", "non_max_suppression_with_scores/NonMaxSuppressionV5/max_output_size", "non_max_suppression_with_scores/iou_threshold", "non_max_suppression_with_scores/score_threshold", "clip_by_value/y"], "attr": {"pad_to_max_output_size": {"b": false}, "T": {"type": "DT_FLOAT"}}}, {"name": "GatherV2_2", "op": "GatherV2", "input": ["strided_slice_10", "non_max_suppression_with_scores/NonMaxSuppressionV5", "GatherV2_1/axis"], "attr": {"Taxis": {"type": "DT_INT32"}, "batch_dims": {"i": "0"}, "Tindices": {"type": "DT_INT32"}, "Tparams": {"type": "DT_INT32"}}}, {"name": "Shape_5", "op": "Shape", "input": ["non_max_suppression_with_scores/NonMaxSuppressionV5"], "attr": {"T": {"type": "DT_INT32"}, "out_type": {"type": "DT_INT32"}}}, {"name": "GatherV2_1", "op": "GatherV2", "input": ["stack_2", "non_max_suppression_with_scores/NonMaxSuppressionV5", "GatherV2_1/axis"], "attr": {"Taxis": {"type": "DT_INT32"}, "batch_dims": {"i": "0"}, "Tindices": {"type": "DT_INT32"}, "Tparams": {"type": "DT_FLOAT"}}}, {"name": "add_9", "op": "AddV2", "input": ["GatherV2_2", "concat_1/axis"], "attr": {"T": {"type": "DT_INT32"}}}, {"name": "Tile_1", "op": "Tile", "input": ["Tile_1/input", "Shape_5"], "attr": {"T": {"type": "DT_INT32"}, "Tmultiples": {"type": "DT_INT32"}}}, {"name": "strided_slice_22", "op": "StridedSlice", "input": ["GatherV2_1", "strided_slice_21/stack_1", "strided_slice_22/stack_1", "strided_slice_20/stack_2"], "attr": {"shrink_axis_mask": {"i": "2"}, "begin_mask": {"i": "1"}, "ellipsis_mask": {"i": "0"}, "new_axis_mask": {"i": "0"}, "end_mask": {"i": "1"}, "Index": {"type": "DT_INT32"}, "T": {"type": "DT_FLOAT"}}}, {"name": "strided_slice_23", "op": "StridedSlice", "input": ["GatherV2_1", "strided_slice_22/stack_1", "strided_slice_23/stack_1", "strided_slice_20/stack_2"], "attr": {"end_mask": {"i": "1"}, "Index": {"type": "DT_INT32"}, "T": {"type": "DT_FLOAT"}, "shrink_axis_mask": {"i": "2"}, "ellipsis_mask": {"i": "0"}, "begin_mask": {"i": "1"}, "new_axis_mask": {"i": "0"}}}, {"name": "strided_slice_20", "op": "StridedSlice", "input": ["GatherV2_1", "strided_slice_20/stack", "strided_slice_20/stack_1", "strided_slice_20/stack_2"], "attr": {"shrink_axis_mask": {"i": "2"}, "begin_mask": {"i": "1"}, "ellipsis_mask": {"i": "0"}, "new_axis_mask": {"i": "0"}, "end_mask": {"i": "1"}, "Index": {"type": "DT_INT32"}, "T": {"type": "DT_FLOAT"}}}, {"name": "strided_slice_21", "op": "StridedSlice", "input": ["GatherV2_1", "strided_slice_20/stack_1", "strided_slice_21/stack_1", "strided_slice_20/stack_2"], "attr": {"shrink_axis_mask": {"i": "2"}, "begin_mask": {"i": "1"}, "ellipsis_mask": {"i": "0"}, "new_axis_mask": {"i": "0"}, "end_mask": {"i": "1"}, "Index": {"type": "DT_INT32"}, "T": {"type": "DT_FLOAT"}}}, {"name": "Cast_8", "op": "Cast", "input": ["add_9"], "attr": {"SrcT": {"type": "DT_INT32"}, "Truncate": {"b": false}, "DstT": {"type": "DT_FLOAT"}}}, {"name": "Cast_7", "op": "Cast", "input": ["Tile_1"], "attr": {"SrcT": {"type": "DT_INT32"}, "Truncate": {"b": false}, "DstT": {"type": "DT_FLOAT"}}}, {"name": "clip_by_value_2/Minimum", "op": "Minimum", "input": ["strided_slice_22", "clip_by_value/Minimum/y"], "attr": {"T": {"type": "DT_FLOAT"}}}, {"name": "clip_by_value_3/Minimum", "op": "Minimum", "input": ["strided_slice_23", "clip_by_value/Minimum/y"], "attr": {"T": {"type": "DT_FLOAT"}}}, {"name": "clip_by_value/Minimum", "op": "Minimum", "input": ["strided_slice_20", "clip_by_value/Minimum/y"], "attr": {"T": {"type": "DT_FLOAT"}}}, {"name": "clip_by_value_1/Minimum", "op": "Minimum", "input": ["strided_slice_21", "clip_by_value/Minimum/y"], "attr": {"T": {"type": "DT_FLOAT"}}}, {"name": "clip_by_value_2", "op": "Maximum", "input": ["clip_by_value_2/Minimum", "clip_by_value/y"], "attr": {"T": {"type": "DT_FLOAT"}}}, {"name": "clip_by_value_3", "op": "Maximum", "input": ["clip_by_value_3/Minimum", "clip_by_value/y"], "attr": {"T": {"type": "DT_FLOAT"}}}, {"name": "clip_by_value", "op": "Maximum", "input": ["clip_by_value/Minimum", "clip_by_value/y"], "attr": {"T": {"type": "DT_FLOAT"}}}, {"name": "clip_by_value_1", "op": "Maximum", "input": ["clip_by_value_1/Minimum", "clip_by_value/y"], "attr": {"T": {"type": "DT_FLOAT"}}}, {"name": "mul_8", "op": "Mul", "input": ["clip_by_value_2", "mul_6/y"], "attr": {"T": {"type": "DT_FLOAT"}}}, {"name": "mul_9", "op": "Mul", "input": ["clip_by_value_3", "mul_6/y"], "attr": {"T": {"type": "DT_FLOAT"}}}, {"name": "mul_6", "op": "Mul", "input": ["clip_by_value", "mul_6/y"], "attr": {"T": {"type": "DT_FLOAT"}}}, {"name": "mul_7", "op": "Mul", "input": ["clip_by_value_1", "mul_6/y"], "attr": {"T": {"type": "DT_FLOAT"}}}, {"name": "stack_3", "op": "Pack", "input": ["Cast_7", "mul_6", "mul_7", "mul_8", "mul_9", "non_max_suppression_with_scores/NonMaxSuppressionV5:1", "Cast_8"], "attr": {"T": {"type": "DT_FLOAT"}, "axis": {"i": "1"}, "N": {"i": "7"}}}, {"name": "ConstantFolding/detections_const_axis", "op": "Const", "input": ["^stack_3"], "attr": {"value": {"tensor": {"dtype": "DT_INT32", "tensorShape": {}}}, "dtype": {"type": "DT_INT32"}}}, {"name": "detections", "op": "ExpandDims", "input": ["stack_3", "ConstantFolding/detections_const_axis"], "attr": {"Tdim": {"type": "DT_INT32"}, "T": {"type": "DT_FLOAT"}}}], "versions": {"producer": 175}}, "weightsManifest": [{"paths": ["group1-shard1of5.bin", "group1-shard2of5.bin", "group1-shard3of5.bin", "group1-shard4of5.bin", "group1-shard5of5.bin"], "weights": [{"name": "strided_slice_20/stack", "shape": [2], "dtype": "int32"}, {"name": "strided_slice_20/stack_1", "shape": [2], "dtype": "int32"}, {"name": "strided_slice_21/stack_1", "shape": [2], "dtype": "int32"}, {"name": "strided_slice_22/stack_1", "shape": [2], "dtype": "int32"}, {"name": "strided_slice_23/stack_1", "shape": [2], "dtype": "int32"}, {"name": "strided_slice_20/stack_2", "shape": [2], "dtype": "int32"}, {"name": "sub_2", "shape": [49104], "dtype": "float32"}, {"name": "truediv_4", "shape": [49104], "dtype": "float32"}, {"name": "mul_3", "shape": [49104], "dtype": "float32"}, {"name": "sub_3", "shape": [49104], "dtype": "float32"}, {"name": "truediv_5", "shape": [49104], "dtype": "float32"}, {"name": "box_net/box-0/depthwise_kernel", "shape": [3, 3, 64, 1], "dtype": "float32"}, {"name": "box_net/box-1/depthwise_kernel", "shape": [3, 3, 64, 1], "dtype": "float32"}, {"name": "box_net/box-2/depthwise_kernel", "shape": [3, 3, 64, 1], "dtype": "float32"}, {"name": "box_net/box-predict/depthwise_kernel", "shape": [3, 3, 64, 1], "dtype": "float32"}, {"name": "box_net/box-predict/pointwise_kernel", "shape": [1, 1, 64, 36], "dtype": "float32"}, {"name": "box_net/box-predict/bias", "shape": [36], "dtype": "float32"}, {"name": "Reshape_1/shape", "shape": [3], "dtype": "int32"}, {"name": "mul_2", "shape": [49104], "dtype": "float32"}, {"name": "fpn_cells/cell_2/fnode7/mul", "shape": [], "dtype": "float32"}, {"name": "fpn_cells/cell_2/fnode7/mul_1", "shape": [], "dtype": "float32"}, {"name": "fpn_cells/cell_2/fnode6/mul", "shape": [], "dtype": "float32"}, {"name": "fpn_cells/cell_2/fnode6/mul_1", "shape": [], "dtype": "float32"}, {"name": "fpn_cells/cell_2/fnode6/mul_2", "shape": [], "dtype": "float32"}, {"name": "fpn_cells/cell_2/fnode5/mul", "shape": [], "dtype": "float32"}, {"name": "fpn_cells/cell_2/fnode5/mul_1", "shape": [], "dtype": "float32"}, {"name": "fpn_cells/cell_2/fnode5/mul_2", "shape": [], "dtype": "float32"}, {"name": "fpn_cells/cell_2/fnode4/mul", "shape": [], "dtype": "float32"}, {"name": "fpn_cells/cell_2/fnode4/mul_1", "shape": [], "dtype": "float32"}, {"name": "fpn_cells/cell_2/fnode4/mul_2", "shape": [], "dtype": "float32"}, {"name": "fpn_cells/cell_2/fnode3/mul", "shape": [], "dtype": "float32"}, {"name": "fpn_cells/cell_2/fnode3/mul_1", "shape": [], "dtype": "float32"}, {"name": "fpn_cells/cell_2/fnode2/mul", "shape": [], "dtype": "float32"}, {"name": "fpn_cells/cell_2/fnode2/mul_1", "shape": [], "dtype": "float32"}, {"name": "fpn_cells/cell_2/fnode1/mul", "shape": [], "dtype": "float32"}, {"name": "fpn_cells/cell_2/fnode1/mul_1", "shape": [], "dtype": "float32"}, {"name": "fpn_cells/cell_2/fnode0/mul", "shape": [], "dtype": "float32"}, {"name": "fpn_cells/cell_2/fnode0/mul_1", "shape": [], "dtype": "float32"}, {"name": "fpn_cells/cell_1/fnode7/mul", "shape": [], "dtype": "float32"}, {"name": "fpn_cells/cell_1/fnode7/mul_1", "shape": [], "dtype": "float32"}, {"name": "fpn_cells/cell_1/fnode6/mul", "shape": [], "dtype": "float32"}, {"name": "fpn_cells/cell_1/fnode6/mul_1", "shape": [], "dtype": "float32"}, {"name": "fpn_cells/cell_1/fnode6/mul_2", "shape": [], "dtype": "float32"}, {"name": "fpn_cells/cell_1/fnode5/mul", "shape": [], "dtype": "float32"}, {"name": "fpn_cells/cell_1/fnode5/mul_1", "shape": [], "dtype": "float32"}, {"name": "fpn_cells/cell_1/fnode5/mul_2", "shape": [], "dtype": "float32"}, {"name": "fpn_cells/cell_1/fnode4/mul", "shape": [], "dtype": "float32"}, {"name": "fpn_cells/cell_1/fnode4/mul_1", "shape": [], "dtype": "float32"}, {"name": "fpn_cells/cell_1/fnode4/mul_2", "shape": [], "dtype": "float32"}, {"name": "fpn_cells/cell_1/fnode3/mul", "shape": [], "dtype": "float32"}, {"name": "fpn_cells/cell_1/fnode3/mul_1", "shape": [], "dtype": "float32"}, {"name": "fpn_cells/cell_1/fnode2/mul", "shape": [], "dtype": "float32"}, {"name": "fpn_cells/cell_1/fnode2/mul_1", "shape": [], "dtype": "float32"}, {"name": "fpn_cells/cell_1/fnode1/mul", "shape": [], "dtype": "float32"}, {"name": "fpn_cells/cell_1/fnode1/mul_1", "shape": [], "dtype": "float32"}, {"name": "fpn_cells/cell_1/fnode0/mul", "shape": [], "dtype": "float32"}, {"name": "fpn_cells/cell_1/fnode0/mul_1", "shape": [], "dtype": "float32"}, {"name": "fpn_cells/cell_0/fnode7/mul", "shape": [], "dtype": "float32"}, {"name": "fpn_cells/cell_0/fnode7/mul_1", "shape": [], "dtype": "float32"}, {"name": "fpn_cells/cell_0/fnode6/mul", "shape": [], "dtype": "float32"}, {"name": "fpn_cells/cell_0/fnode6/mul_1", "shape": [], "dtype": "float32"}, {"name": "fpn_cells/cell_0/fnode4/mul", "shape": [], "dtype": "float32"}, {"name": "fpn_cells/cell_0/fnode4/mul_1", "shape": [], "dtype": "float32"}, {"name": "fpn_cells/cell_0/fnode4/mul_2", "shape": [], "dtype": "float32"}, {"name": "fpn_cells/cell_0/fnode3/mul", "shape": [], "dtype": "float32"}, {"name": "fpn_cells/cell_0/fnode3/mul_1", "shape": [], "dtype": "float32"}, {"name": "fpn_cells/cell_0/fnode2/mul", "shape": [], "dtype": "float32"}, {"name": "fpn_cells/cell_0/fnode2/mul_1", "shape": [], "dtype": "float32"}, {"name": "fpn_cells/cell_0/fnode1/mul", "shape": [], "dtype": "float32"}, {"name": "fpn_cells/cell_0/fnode1/mul_1", "shape": [], "dtype": "float32"}, {"name": "fpn_cells/cell_0/fnode0/mul_1", "shape": [], "dtype": "float32"}, {"name": "fpn_cells/cell_0/fnode0/op_after_combine5/conv/depthwise_kernel", "shape": [3, 3, 64, 1], "dtype": "float32"}, {"name": "fpn_cells/cell_0/fnode1/op_after_combine6/conv/depthwise_kernel", "shape": [3, 3, 64, 1], "dtype": "float32"}, {"name": "fpn_cells/cell_0/fnode2/op_after_combine7/conv/depthwise_kernel", "shape": [3, 3, 64, 1], "dtype": "float32"}, {"name": "fpn_cells/cell_0/fnode3/op_after_combine8/conv/depthwise_kernel", "shape": [3, 3, 64, 1], "dtype": "float32"}, {"name": "fpn_cells/cell_0/fnode4/op_after_combine9/conv/depthwise_kernel", "shape": [3, 3, 64, 1], "dtype": "float32"}, {"name": "fpn_cells/cell_0/fnode5/mul", "shape": [], "dtype": "float32"}, {"name": "efficientnet-b0/blocks_10/se/conv2d/kernel", "shape": [1, 1, 672, 28], "dtype": "float32"}, {"name": "efficientnet-b0/blocks_10/se/conv2d/bias", "shape": [28], "dtype": "float32"}, {"name": "efficientnet-b0/blocks_10/se/conv2d_1/kernel", "shape": [1, 1, 28, 672], "dtype": "float32"}, {"name": "efficientnet-b0/blocks_10/se/conv2d_1/bias", "shape": [672], "dtype": "float32"}, {"name": "pad_to_bounding_box/sub_1/x", "shape": [], "dtype": "int32"}, {"name": "strided_slice_5/stack_1", "shape": [1], "dtype": "int32"}, {"name": "clip_by_value/Minimum/y", "shape": [], "dtype": "float32"}, {"name": "ConstantFolding/truediv_recip", "shape": [1, 1, 3], "dtype": "float32"}, {"name": "convert_image/y", "shape": [], "dtype": "float32"}, {"name": "ExpandDims_1", "shape": [1, 1, 3], "dtype": "float32"}, {"name": "strided_slice_6/stack", "shape": [3], "dtype": "int32"}, {"name": "strided_slice_6/stack_1", "shape": [3], "dtype": "int32"}, {"name": "strided_slice_6/stack_2", "shape": [3], "dtype": "int32"}, {"name": "pad_to_bounding_box/Reshape/shape", "shape": [2], "dtype": "int32"}, {"name": "efficientnet-b0/blocks_0/se/conv2d/kernel", "shape": [1, 1, 32, 8], "dtype": "float32"}, {"name": "efficientnet-b0/blocks_0/se/conv2d/bias", "shape": [8], "dtype": "float32"}, {"name": "efficientnet-b0/blocks_0/se/conv2d_1/kernel", "shape": [1, 1, 8, 32], "dtype": "float32"}, {"name": "efficientnet-b0/blocks_0/se/conv2d_1/bias", "shape": [32], "dtype": "float32"}, {"name": "efficientnet-b0/blocks_1/se/conv2d/kernel", "shape": [1, 1, 96, 4], "dtype": "float32"}, {"name": "efficientnet-b0/blocks_1/se/conv2d/bias", "shape": [4], "dtype": "float32"}, {"name": "efficientnet-b0/blocks_1/se/conv2d_1/kernel", "shape": [1, 1, 4, 96], "dtype": "float32"}, {"name": "efficientnet-b0/blocks_1/se/conv2d_1/bias", "shape": [96], "dtype": "float32"}, {"name": "efficientnet-b0/blocks_2/se/conv2d/kernel", "shape": [1, 1, 144, 6], "dtype": "float32"}, {"name": "efficientnet-b0/blocks_2/se/conv2d/bias", "shape": [6], "dtype": "float32"}, {"name": "efficientnet-b0/blocks_2/se/conv2d_1/kernel", "shape": [1, 1, 6, 144], "dtype": "float32"}, {"name": "efficientnet-b0/blocks_2/se/conv2d_1/bias", "shape": [144], "dtype": "float32"}, {"name": "efficientnet-b0/blocks_3/se/conv2d/kernel", "shape": [1, 1, 144, 6], "dtype": "float32"}, {"name": "efficientnet-b0/blocks_3/se/conv2d/bias", "shape": [6], "dtype": "float32"}, {"name": "efficientnet-b0/blocks_3/se/conv2d_1/kernel", "shape": [1, 1, 6, 144], "dtype": "float32"}, {"name": "efficientnet-b0/blocks_3/se/conv2d_1/bias", "shape": [144], "dtype": "float32"}, {"name": "efficientnet-b0/blocks_4/se/conv2d/kernel", "shape": [1, 1, 240, 10], "dtype": "float32"}, {"name": "efficientnet-b0/blocks_4/se/conv2d/bias", "shape": [10], "dtype": "float32"}, {"name": "efficientnet-b0/blocks_4/se/conv2d_1/kernel", "shape": [1, 1, 10, 240], "dtype": "float32"}, {"name": "efficientnet-b0/blocks_4/se/conv2d_1/bias", "shape": [240], "dtype": "float32"}, {"name": "efficientnet-b0/blocks_5/se/conv2d/kernel", "shape": [1, 1, 240, 10], "dtype": "float32"}, {"name": "efficientnet-b0/blocks_5/se/conv2d/bias", "shape": [10], "dtype": "float32"}, {"name": "efficientnet-b0/blocks_5/se/conv2d_1/kernel", "shape": [1, 1, 10, 240], "dtype": "float32"}, {"name": "efficientnet-b0/blocks_5/se/conv2d_1/bias", "shape": [240], "dtype": "float32"}, {"name": "efficientnet-b0/blocks_6/se/conv2d/kernel", "shape": [1, 1, 480, 20], "dtype": "float32"}, {"name": "efficientnet-b0/blocks_6/se/conv2d/bias", "shape": [20], "dtype": "float32"}, {"name": "efficientnet-b0/blocks_6/se/conv2d_1/kernel", "shape": [1, 1, 20, 480], "dtype": "float32"}, {"name": "efficientnet-b0/blocks_6/se/conv2d_1/bias", "shape": [480], "dtype": "float32"}, {"name": "efficientnet-b0/blocks_7/se/conv2d/kernel", "shape": [1, 1, 480, 20], "dtype": "float32"}, {"name": "efficientnet-b0/blocks_7/se/conv2d/bias", "shape": [20], "dtype": "float32"}, {"name": "efficientnet-b0/blocks_7/se/conv2d_1/kernel", "shape": [1, 1, 20, 480], "dtype": "float32"}, {"name": "efficientnet-b0/blocks_7/se/conv2d_1/bias", "shape": [480], "dtype": "float32"}, {"name": "efficientnet-b0/blocks_8/se/conv2d/kernel", "shape": [1, 1, 480, 20], "dtype": "float32"}, {"name": "efficientnet-b0/blocks_8/se/conv2d/bias", "shape": [20], "dtype": "float32"}, {"name": "efficientnet-b0/blocks_8/se/conv2d_1/kernel", "shape": [1, 1, 20, 480], "dtype": "float32"}, {"name": "efficientnet-b0/blocks_8/se/conv2d_1/bias", "shape": [480], "dtype": "float32"}, {"name": "efficientnet-b0/blocks_9/se/conv2d/kernel", "shape": [1, 1, 672, 28], "dtype": "float32"}, {"name": "efficientnet-b0/blocks_9/se/conv2d/bias", "shape": [28], "dtype": "float32"}, {"name": "efficientnet-b0/blocks_9/se/conv2d_1/kernel", "shape": [1, 1, 28, 672], "dtype": "float32"}, {"name": "efficientnet-b0/blocks_9/se/conv2d_1/bias", "shape": [672], "dtype": "float32"}, {"name": "efficientnet-b0/blocks_11/se/conv2d/kernel", "shape": [1, 1, 672, 28], "dtype": "float32"}, {"name": "efficientnet-b0/blocks_11/se/conv2d/bias", "shape": [28], "dtype": "float32"}, {"name": "efficientnet-b0/blocks_11/se/conv2d_1/kernel", "shape": [1, 1, 28, 672], "dtype": "float32"}, {"name": "efficientnet-b0/blocks_11/se/conv2d_1/bias", "shape": [672], "dtype": "float32"}, {"name": "efficientnet-b0/blocks_12/se/conv2d/kernel", "shape": [1, 1, 1152, 48], "dtype": "float32"}, {"name": "efficientnet-b0/blocks_12/se/conv2d/bias", "shape": [48], "dtype": "float32"}, {"name": "efficientnet-b0/blocks_12/se/conv2d_1/kernel", "shape": [1, 1, 48, 1152], "dtype": "float32"}, {"name": "efficientnet-b0/blocks_12/se/conv2d_1/bias", "shape": [1152], "dtype": "float32"}, {"name": "efficientnet-b0/blocks_13/se/conv2d/kernel", "shape": [1, 1, 1152, 48], "dtype": "float32"}, {"name": "efficientnet-b0/blocks_13/se/conv2d/bias", "shape": [48], "dtype": "float32"}, {"name": "efficientnet-b0/blocks_13/se/conv2d_1/kernel", "shape": [1, 1, 48, 1152], "dtype": "float32"}, {"name": "efficientnet-b0/blocks_13/se/conv2d_1/bias", "shape": [1152], "dtype": "float32"}, {"name": "efficientnet-b0/blocks_14/se/conv2d/kernel", "shape": [1, 1, 1152, 48], "dtype": "float32"}, {"name": "efficientnet-b0/blocks_14/se/conv2d/bias", "shape": [48], "dtype": "float32"}, {"name": "efficientnet-b0/blocks_14/se/conv2d_1/kernel", "shape": [1, 1, 48, 1152], "dtype": "float32"}, {"name": "efficientnet-b0/blocks_14/se/conv2d_1/bias", "shape": [1152], "dtype": "float32"}, {"name": "efficientnet-b0/blocks_15/se/Mean/reduction_indices", "shape": [2], "dtype": "int32"}, {"name": "efficientnet-b0/blocks_15/se/conv2d/kernel", "shape": [1, 1, 1152, 48], "dtype": "float32"}, {"name": "efficientnet-b0/blocks_15/se/conv2d/bias", "shape": [48], "dtype": "float32"}, {"name": "efficientnet-b0/blocks_15/se/conv2d_1/kernel", "shape": [1, 1, 48, 1152], "dtype": "float32"}, {"name": "efficientnet-b0/blocks_15/se/conv2d_1/bias", "shape": [1152], "dtype": "float32"}, {"name": "fpn_cells/cell_0/fnode5/op_after_combine10/conv/depthwise_kernel", "shape": [3, 3, 64, 1], "dtype": "float32"}, {"name": "fpn_cells/cell_0/fnode6/op_after_combine11/conv/depthwise_kernel", "shape": [3, 3, 64, 1], "dtype": "float32"}, {"name": "fpn_cells/cell_0/fnode7/op_after_combine12/conv/depthwise_kernel", "shape": [3, 3, 64, 1], "dtype": "float32"}, {"name": "fpn_cells/cell_1/fnode0/op_after_combine5/conv/depthwise_kernel", "shape": [3, 3, 64, 1], "dtype": "float32"}, {"name": "fpn_cells/cell_1/fnode1/op_after_combine6/conv/depthwise_kernel", "shape": [3, 3, 64, 1], "dtype": "float32"}, {"name": "fpn_cells/cell_1/fnode2/op_after_combine7/conv/depthwise_kernel", "shape": [3, 3, 64, 1], "dtype": "float32"}, {"name": "fpn_cells/cell_1/fnode3/op_after_combine8/conv/depthwise_kernel", "shape": [3, 3, 64, 1], "dtype": "float32"}, {"name": "fpn_cells/cell_1/fnode4/op_after_combine9/conv/depthwise_kernel", "shape": [3, 3, 64, 1], "dtype": "float32"}, {"name": "fpn_cells/cell_1/fnode5/op_after_combine10/conv/depthwise_kernel", "shape": [3, 3, 64, 1], "dtype": "float32"}, {"name": "fpn_cells/cell_1/fnode6/op_after_combine11/conv/depthwise_kernel", "shape": [3, 3, 64, 1], "dtype": "float32"}, {"name": "fpn_cells/cell_1/fnode7/op_after_combine12/conv/depthwise_kernel", "shape": [3, 3, 64, 1], "dtype": "float32"}, {"name": "fpn_cells/cell_0/fnode0/resample_1_4_5/ResizeNearestNeighbor/size", "shape": [2], "dtype": "int32"}, {"name": "fpn_cells/cell_2/fnode0/op_after_combine5/conv/depthwise_kernel", "shape": [3, 3, 64, 1], "dtype": "float32"}, {"name": "fpn_cells/cell_0/fnode1/resample_1_5_6/ResizeNearestNeighbor/size", "shape": [2], "dtype": "int32"}, {"name": "fpn_cells/cell_2/fnode1/op_after_combine6/conv/depthwise_kernel", "shape": [3, 3, 64, 1], "dtype": "float32"}, {"name": "fpn_cells/cell_0/fnode2/resample_1_6_7/ResizeNearestNeighbor/size", "shape": [2], "dtype": "int32"}, {"name": "fpn_cells/cell_2/fnode2/op_after_combine7/conv/depthwise_kernel", "shape": [3, 3, 64, 1], "dtype": "float32"}, {"name": "fpn_cells/cell_0/fnode3/resample_1_7_8/ResizeNearestNeighbor/size", "shape": [2], "dtype": "int32"}, {"name": "fpn_cells/cell_2/fnode3/op_after_combine8/conv/depthwise_kernel", "shape": [3, 3, 64, 1], "dtype": "float32"}, {"name": "fpn_cells/cell_2/fnode4/op_after_combine9/conv/depthwise_kernel", "shape": [3, 3, 64, 1], "dtype": "float32"}, {"name": "fpn_cells/cell_2/fnode5/op_after_combine10/conv/depthwise_kernel", "shape": [3, 3, 64, 1], "dtype": "float32"}, {"name": "fpn_cells/cell_2/fnode6/op_after_combine11/conv/depthwise_kernel", "shape": [3, 3, 64, 1], "dtype": "float32"}, {"name": "fpn_cells/cell_2/fnode7/op_after_combine12/conv/depthwise_kernel", "shape": [3, 3, 64, 1], "dtype": "float32"}, {"name": "class_net/class-0/depthwise_kernel", "shape": [3, 3, 64, 1], "dtype": "float32"}, {"name": "class_net/class-1/depthwise_kernel", "shape": [3, 3, 64, 1], "dtype": "float32"}, {"name": "class_net/class-2/depthwise_kernel", "shape": [3, 3, 64, 1], "dtype": "float32"}, {"name": "class_net/class-predict/depthwise_kernel", "shape": [3, 3, 64, 1], "dtype": "float32"}, {"name": "class_net/class-predict/pointwise_kernel", "shape": [1, 1, 64, 810], "dtype": "float32"}, {"name": "class_net/class-predict/bias", "shape": [810], "dtype": "float32"}, {"name": "Reshape/shape", "shape": [3], "dtype": "int32"}, {"name": "ArgMax/dimension", "shape": [], "dtype": "int32"}, {"name": "Tile_1/input", "shape": [1], "dtype": "int32"}, {"name": "strided_slice_11/stack_1", "shape": [1], "dtype": "int32"}, {"name": "non_max_suppression_with_scores/NonMaxSuppressionV5/max_output_size", "shape": [], "dtype": "int32"}, {"name": "non_max_suppression_with_scores/iou_threshold", "shape": [], "dtype": "float32"}, {"name": "non_max_suppression_with_scores/score_threshold", "shape": [], "dtype": "float32"}, {"name": "clip_by_value/y", "shape": [], "dtype": "float32"}, {"name": "GatherV2_1/axis", "shape": [], "dtype": "int32"}, {"name": "concat_1/axis", "shape": [], "dtype": "int32"}, {"name": "ConstantFolding/fpn_cells/cell_0/fnode5/AddN_1_partial_split_2", "shape": [1, 16, 16, 64], "dtype": "float32"}, {"name": "fpn_cells/cell_0/fnode6/truediv_2", "shape": [1, 8, 8, 64], "dtype": "float32"}, {"name": "efficientnet-b0/stem/conv2d/Conv2D_weights", "shape": [3, 3, 3, 32], "dtype": "float32"}, {"name": "efficientnet-b0/stem/conv2d/Conv2D_bn_offset", "shape": [32], "dtype": "float32"}, {"name": "efficientnet-b0/blocks_0/depthwise_conv2d/depthwise_weights", "shape": [3, 3, 32, 1], "dtype": "float32"}, {"name": "efficientnet-b0/blocks_0/depthwise_conv2d/depthwise_bn_offset", "shape": [32], "dtype": "float32"}, {"name": "efficientnet-b0/blocks_0/conv2d/Conv2D_weights", "shape": [1, 1, 32, 16], "dtype": "float32"}, {"name": "box_net/box-1_3/separable_conv2d_weights", "shape": [1, 1, 64, 64], "dtype": "float32"}, {"name": "efficientnet-b0/blocks_0/conv2d/Conv2D_bn_offset", "shape": [16], "dtype": "float32"}, {"name": "efficientnet-b0/blocks_1/conv2d/Conv2D_weights", "shape": [1, 1, 16, 96], "dtype": "float32"}, {"name": "efficientnet-b0/blocks_1/conv2d/Conv2D_bn_offset", "shape": [96], "dtype": "float32"}, {"name": "efficientnet-b0/blocks_1/depthwise_conv2d/depthwise_weights", "shape": [3, 3, 96, 1], "dtype": "float32"}, {"name": "efficientnet-b0/blocks_1/depthwise_conv2d/depthwise_bn_offset", "shape": [96], "dtype": "float32"}, {"name": "box_net/box-1_3/separable_conv2d_bn_offset", "shape": [64], "dtype": "float32"}, {"name": "efficientnet-b0/blocks_1/conv2d_1/Conv2D_weights", "shape": [1, 1, 96, 24], "dtype": "float32"}, {"name": "efficientnet-b0/blocks_1/conv2d_1/Conv2D_bn_offset", "shape": [24], "dtype": "float32"}, {"name": "efficientnet-b0/blocks_2/conv2d/Conv2D_weights", "shape": [1, 1, 24, 144], "dtype": "float32"}, {"name": "efficientnet-b0/blocks_2/conv2d/Conv2D_bn_offset", "shape": [144], "dtype": "float32"}, {"name": "efficientnet-b0/blocks_2/depthwise_conv2d/depthwise_weights", "shape": [3, 3, 144, 1], "dtype": "float32"}, {"name": "efficientnet-b0/blocks_2/depthwise_conv2d/depthwise_bn_offset", "shape": [144], "dtype": "float32"}, {"name": "class_net/class-1_3/separable_conv2d_weights", "shape": [1, 1, 64, 64], "dtype": "float32"}, {"name": "efficientnet-b0/blocks_2/conv2d_1/Conv2D_weights", "shape": [1, 1, 144, 24], "dtype": "float32"}, {"name": "efficientnet-b0/blocks_2/conv2d_1/Conv2D_bn_offset", "shape": [24], "dtype": "float32"}, {"name": "efficientnet-b0/blocks_3/conv2d/Conv2D_weights", "shape": [1, 1, 24, 144], "dtype": "float32"}, {"name": "class_net/class-1_3/separable_conv2d_bn_offset", "shape": [64], "dtype": "float32"}, {"name": "efficientnet-b0/blocks_3/conv2d/Conv2D_bn_offset", "shape": [144], "dtype": "float32"}, {"name": "efficientnet-b0/blocks_3/depthwise_conv2d/depthwise_weights", "shape": [5, 5, 144, 1], "dtype": "float32"}, {"name": "efficientnet-b0/blocks_3/depthwise_conv2d/depthwise_bn_offset", "shape": [144], "dtype": "float32"}, {"name": "efficientnet-b0/blocks_3/conv2d_1/Conv2D_weights", "shape": [1, 1, 144, 40], "dtype": "float32"}, {"name": "efficientnet-b0/blocks_3/conv2d_1/Conv2D_bn_offset", "shape": [40], "dtype": "float32"}, {"name": "efficientnet-b0/blocks_4/conv2d/Conv2D_weights", "shape": [1, 1, 40, 240], "dtype": "float32"}, {"name": "efficientnet-b0/blocks_4/conv2d/Conv2D_bn_offset", "shape": [240], "dtype": "float32"}, {"name": "efficientnet-b0/blocks_4/depthwise_conv2d/depthwise_weights", "shape": [5, 5, 240, 1], "dtype": "float32"}, {"name": "efficientnet-b0/blocks_4/depthwise_conv2d/depthwise_bn_offset", "shape": [240], "dtype": "float32"}, {"name": "box_net/box-0_4/separable_conv2d_weights", "shape": [1, 1, 64, 64], "dtype": "float32"}, {"name": "efficientnet-b0/blocks_4/conv2d_1/Conv2D_weights", "shape": [1, 1, 240, 40], "dtype": "float32"}, {"name": "box_net/box-0_4/separable_conv2d_bn_offset", "shape": [64], "dtype": "float32"}, {"name": "efficientnet-b0/blocks_4/conv2d_1/Conv2D_bn_offset", "shape": [40], "dtype": "float32"}, {"name": "efficientnet-b0/blocks_5/conv2d/Conv2D_weights", "shape": [1, 1, 40, 240], "dtype": "float32"}, {"name": "efficientnet-b0/blocks_5/conv2d/Conv2D_bn_offset", "shape": [240], "dtype": "float32"}, {"name": "fpn_cells/cell_0/fnode3/resample_0_0_8/conv2d/Conv2D_weights", "shape": [1, 1, 40, 64], "dtype": "float32"}, {"name": "fpn_cells/cell_0/fnode3/resample_0_0_8/conv2d/Conv2D_bn_offset", "shape": [64], "dtype": "float32"}, {"name": "efficientnet-b0/blocks_5/depthwise_conv2d/depthwise_weights", "shape": [3, 3, 240, 1], "dtype": "float32"}, {"name": "efficientnet-b0/blocks_5/depthwise_conv2d/depthwise_bn_offset", "shape": [240], "dtype": "float32"}, {"name": "efficientnet-b0/blocks_5/conv2d_1/Conv2D_weights", "shape": [1, 1, 240, 80], "dtype": "float32"}, {"name": "class_net/class-0_4/separable_conv2d_weights", "shape": [1, 1, 64, 64], "dtype": "float32"}, {"name": "efficientnet-b0/blocks_5/conv2d_1/Conv2D_bn_offset", "shape": [80], "dtype": "float32"}, {"name": "efficientnet-b0/blocks_6/conv2d/Conv2D_weights", "shape": [1, 1, 80, 480], "dtype": "float32"}, {"name": "efficientnet-b0/blocks_6/conv2d/Conv2D_bn_offset", "shape": [480], "dtype": "float32"}, {"name": "efficientnet-b0/blocks_6/depthwise_conv2d/depthwise_weights", "shape": [3, 3, 480, 1], "dtype": "float32"}, {"name": "efficientnet-b0/blocks_6/depthwise_conv2d/depthwise_bn_offset", "shape": [480], "dtype": "float32"}, {"name": "class_net/class-0_4/separable_conv2d_bn_offset", "shape": [64], "dtype": "float32"}, {"name": "efficientnet-b0/blocks_6/conv2d_1/Conv2D_weights", "shape": [1, 1, 480, 80], "dtype": "float32"}, {"name": "efficientnet-b0/blocks_6/conv2d_1/Conv2D_bn_offset", "shape": [80], "dtype": "float32"}, {"name": "efficientnet-b0/blocks_7/conv2d/Conv2D_weights", "shape": [1, 1, 80, 480], "dtype": "float32"}, {"name": "efficientnet-b0/blocks_7/conv2d/Conv2D_bn_offset", "shape": [480], "dtype": "float32"}, {"name": "efficientnet-b0/blocks_7/depthwise_conv2d/depthwise_weights", "shape": [3, 3, 480, 1], "dtype": "float32"}, {"name": "efficientnet-b0/blocks_7/depthwise_conv2d/depthwise_bn_offset", "shape": [480], "dtype": "float32"}, {"name": "box_net/box-2_3/separable_conv2d_weights", "shape": [1, 1, 64, 64], "dtype": "float32"}, {"name": "efficientnet-b0/blocks_7/conv2d_1/Conv2D_weights", "shape": [1, 1, 480, 80], "dtype": "float32"}, {"name": "efficientnet-b0/blocks_7/conv2d_1/Conv2D_bn_offset", "shape": [80], "dtype": "float32"}, {"name": "efficientnet-b0/blocks_8/conv2d/Conv2D_weights", "shape": [1, 1, 80, 480], "dtype": "float32"}, {"name": "box_net/box-2_3/separable_conv2d_bn_offset", "shape": [64], "dtype": "float32"}, {"name": "efficientnet-b0/blocks_8/conv2d/Conv2D_bn_offset", "shape": [480], "dtype": "float32"}, {"name": "efficientnet-b0/blocks_8/depthwise_conv2d/depthwise_weights", "shape": [5, 5, 480, 1], "dtype": "float32"}, {"name": "efficientnet-b0/blocks_8/depthwise_conv2d/depthwise_bn_offset", "shape": [480], "dtype": "float32"}, {"name": "efficientnet-b0/blocks_8/conv2d_1/Conv2D_weights", "shape": [1, 1, 480, 112], "dtype": "float32"}, {"name": "efficientnet-b0/blocks_8/conv2d_1/Conv2D_bn_offset", "shape": [112], "dtype": "float32"}, {"name": "efficientnet-b0/blocks_9/conv2d/Conv2D_weights", "shape": [1, 1, 112, 672], "dtype": "float32"}, {"name": "efficientnet-b0/blocks_9/conv2d/Conv2D_bn_offset", "shape": [672], "dtype": "float32"}, {"name": "efficientnet-b0/blocks_9/depthwise_conv2d/depthwise_weights", "shape": [5, 5, 672, 1], "dtype": "float32"}, {"name": "efficientnet-b0/blocks_9/depthwise_conv2d/depthwise_bn_offset", "shape": [672], "dtype": "float32"}, {"name": "efficientnet-b0/blocks_9/conv2d_1/Conv2D_weights", "shape": [1, 1, 672, 112], "dtype": "float32"}, {"name": "efficientnet-b0/blocks_9/conv2d_1/Conv2D_bn_offset", "shape": [112], "dtype": "float32"}, {"name": "efficientnet-b0/blocks_10/conv2d/Conv2D_weights", "shape": [1, 1, 112, 672], "dtype": "float32"}, {"name": "class_net/class-2_3/separable_conv2d_weights", "shape": [1, 1, 64, 64], "dtype": "float32"}, {"name": "efficientnet-b0/blocks_10/conv2d/Conv2D_bn_offset", "shape": [672], "dtype": "float32"}, {"name": "efficientnet-b0/blocks_10/depthwise_conv2d/depthwise_weights", "shape": [5, 5, 672, 1], "dtype": "float32"}, {"name": "efficientnet-b0/blocks_10/depthwise_conv2d/depthwise_bn_offset", "shape": [672], "dtype": "float32"}, {"name": "class_net/class-2_3/separable_conv2d_bn_offset", "shape": [64], "dtype": "float32"}, {"name": "efficientnet-b0/blocks_10/conv2d_1/Conv2D_weights", "shape": [1, 1, 672, 112], "dtype": "float32"}, {"name": "efficientnet-b0/blocks_10/conv2d_1/Conv2D_bn_offset", "shape": [112], "dtype": "float32"}, {"name": "efficientnet-b0/blocks_11/conv2d/Conv2D_weights", "shape": [1, 1, 112, 672], "dtype": "float32"}, {"name": "efficientnet-b0/blocks_11/conv2d/Conv2D_bn_offset", "shape": [672], "dtype": "float32"}, {"name": "fpn_cells/cell_0/fnode4/resample_0_1_9/conv2d/Conv2D_weights", "shape": [1, 1, 112, 64], "dtype": "float32"}, {"name": "fpn_cells/cell_0/fnode4/resample_0_1_9/conv2d/Conv2D_bn_offset", "shape": [64], "dtype": "float32"}, {"name": "fpn_cells/cell_0/fnode2/resample_0_1_7/conv2d/Conv2D_weights", "shape": [1, 1, 112, 64], "dtype": "float32"}, {"name": "fpn_cells/cell_0/fnode2/resample_0_1_7/conv2d/Conv2D_bn_offset", "shape": [64], "dtype": "float32"}, {"name": "efficientnet-b0/blocks_11/depthwise_conv2d/depthwise_weights", "shape": [5, 5, 672, 1], "dtype": "float32"}, {"name": "efficientnet-b0/blocks_11/depthwise_conv2d/depthwise_bn_offset", "shape": [672], "dtype": "float32"}, {"name": "efficientnet-b0/blocks_11/conv2d_1/Conv2D_weights", "shape": [1, 1, 672, 192], "dtype": "float32"}, {"name": "efficientnet-b0/blocks_11/conv2d_1/Conv2D_bn_offset", "shape": [192], "dtype": "float32"}, {"name": "efficientnet-b0/blocks_12/conv2d/Conv2D_weights", "shape": [1, 1, 192, 1152], "dtype": "float32"}, {"name": "box_net/box-1_4/separable_conv2d_weights", "shape": [1, 1, 64, 64], "dtype": "float32"}, {"name": "efficientnet-b0/blocks_12/conv2d/Conv2D_bn_offset", "shape": [1152], "dtype": "float32"}, {"name": "efficientnet-b0/blocks_12/depthwise_conv2d/depthwise_weights", "shape": [5, 5, 1152, 1], "dtype": "float32"}, {"name": "efficientnet-b0/blocks_12/depthwise_conv2d/depthwise_bn_offset", "shape": [1152], "dtype": "float32"}, {"name": "box_net/box-1_4/separable_conv2d_bn_offset", "shape": [64], "dtype": "float32"}, {"name": "efficientnet-b0/blocks_12/conv2d_1/Conv2D_weights", "shape": [1, 1, 1152, 192], "dtype": "float32"}, {"name": "efficientnet-b0/blocks_12/conv2d_1/Conv2D_bn_offset", "shape": [192], "dtype": "float32"}, {"name": "efficientnet-b0/blocks_13/conv2d/Conv2D_weights", "shape": [1, 1, 192, 1152], "dtype": "float32"}, {"name": "efficientnet-b0/blocks_13/conv2d/Conv2D_bn_offset", "shape": [1152], "dtype": "float32"}, {"name": "efficientnet-b0/blocks_13/depthwise_conv2d/depthwise_weights", "shape": [5, 5, 1152, 1], "dtype": "float32"}, {"name": "efficientnet-b0/blocks_13/depthwise_conv2d/depthwise_bn_offset", "shape": [1152], "dtype": "float32"}, {"name": "efficientnet-b0/blocks_13/conv2d_1/Conv2D_weights", "shape": [1, 1, 1152, 192], "dtype": "float32"}, {"name": "class_net/class-1_4/separable_conv2d_weights", "shape": [1, 1, 64, 64], "dtype": "float32"}, {"name": "efficientnet-b0/blocks_13/conv2d_1/Conv2D_bn_offset", "shape": [192], "dtype": "float32"}, {"name": "efficientnet-b0/blocks_14/conv2d/Conv2D_weights", "shape": [1, 1, 192, 1152], "dtype": "float32"}, {"name": "efficientnet-b0/blocks_14/conv2d/Conv2D_bn_offset", "shape": [1152], "dtype": "float32"}, {"name": "efficientnet-b0/blocks_14/depthwise_conv2d/depthwise_weights", "shape": [5, 5, 1152, 1], "dtype": "float32"}, {"name": "efficientnet-b0/blocks_14/depthwise_conv2d/depthwise_bn_offset", "shape": [1152], "dtype": "float32"}, {"name": "class_net/class-1_4/separable_conv2d_bn_offset", "shape": [64], "dtype": "float32"}, {"name": "efficientnet-b0/blocks_14/conv2d_1/Conv2D_weights", "shape": [1, 1, 1152, 192], "dtype": "float32"}, {"name": "efficientnet-b0/blocks_14/conv2d_1/Conv2D_bn_offset", "shape": [192], "dtype": "float32"}, {"name": "efficientnet-b0/blocks_15/conv2d/Conv2D_weights", "shape": [1, 1, 192, 1152], "dtype": "float32"}, {"name": "efficientnet-b0/blocks_15/conv2d/Conv2D_bn_offset", "shape": [1152], "dtype": "float32"}, {"name": "efficientnet-b0/blocks_15/depthwise_conv2d/depthwise_weights", "shape": [3, 3, 1152, 1], "dtype": "float32"}, {"name": "efficientnet-b0/blocks_15/depthwise_conv2d/depthwise_bn_offset", "shape": [1152], "dtype": "float32"}, {"name": "box_net/box-2_4/separable_conv2d_weights", "shape": [1, 1, 64, 64], "dtype": "float32"}, {"name": "efficientnet-b0/blocks_15/conv2d_1/Conv2D_weights", "shape": [1, 1, 1152, 320], "dtype": "float32"}, {"name": "efficientnet-b0/blocks_15/conv2d_1/Conv2D_bn_offset", "shape": [320], "dtype": "float32"}, {"name": "fpn_cells/cell_0/fnode1/resample_0_2_6/conv2d/Conv2D_weights", "shape": [1, 1, 320, 64], "dtype": "float32"}, {"name": "box_net/box-2_4/separable_conv2d_bn_offset", "shape": [64], "dtype": "float32"}, {"name": "fpn_cells/cell_0/fnode1/resample_0_2_6/conv2d/Conv2D_bn_offset", "shape": [64], "dtype": "float32"}, {"name": "resample_p6/conv2d/Conv2D_weights", "shape": [1, 1, 320, 64], "dtype": "float32"}, {"name": "resample_p6/conv2d/Conv2D_bn_offset", "shape": [64], "dtype": "float32"}, {"name": "fpn_cells/cell_0/fnode5/resample_0_2_10/conv2d/Conv2D_weights", "shape": [1, 1, 320, 64], "dtype": "float32"}, {"name": "fpn_cells/cell_0/fnode5/resample_0_2_10/conv2d/Conv2D_bn_offset", "shape": [64], "dtype": "float32"}, {"name": "fpn_cells/cell_0/fnode0/op_after_combine5/conv/separable_conv2d_weights", "shape": [1, 1, 64, 64], "dtype": "float32"}, {"name": "fpn_cells/cell_0/fnode0/op_after_combine5/conv/separable_conv2d_bn_offset", "shape": [64], "dtype": "float32"}, {"name": "fpn_cells/cell_0/fnode1/op_after_combine6/conv/separable_conv2d_weights", "shape": [1, 1, 64, 64], "dtype": "float32"}, {"name": "fpn_cells/cell_0/fnode1/op_after_combine6/conv/separable_conv2d_bn_offset", "shape": [64], "dtype": "float32"}, {"name": "fpn_cells/cell_0/fnode2/op_after_combine7/conv/separable_conv2d_weights", "shape": [1, 1, 64, 64], "dtype": "float32"}, {"name": "fpn_cells/cell_0/fnode2/op_after_combine7/conv/separable_conv2d_bn_offset", "shape": [64], "dtype": "float32"}, {"name": "fpn_cells/cell_0/fnode3/op_after_combine8/conv/separable_conv2d_weights", "shape": [1, 1, 64, 64], "dtype": "float32"}, {"name": "fpn_cells/cell_0/fnode3/op_after_combine8/conv/separable_conv2d_bn_offset", "shape": [64], "dtype": "float32"}, {"name": "fpn_cells/cell_0/fnode4/op_after_combine9/conv/separable_conv2d_weights", "shape": [1, 1, 64, 64], "dtype": "float32"}, {"name": "fpn_cells/cell_0/fnode4/op_after_combine9/conv/separable_conv2d_bn_offset", "shape": [64], "dtype": "float32"}, {"name": "fpn_cells/cell_0/fnode5/op_after_combine10/conv/separable_conv2d_weights", "shape": [1, 1, 64, 64], "dtype": "float32"}, {"name": "fpn_cells/cell_0/fnode5/op_after_combine10/conv/separable_conv2d_bn_offset", "shape": [64], "dtype": "float32"}, {"name": "fpn_cells/cell_0/fnode6/op_after_combine11/conv/separable_conv2d_weights", "shape": [1, 1, 64, 64], "dtype": "float32"}, {"name": "fpn_cells/cell_0/fnode6/op_after_combine11/conv/separable_conv2d_bn_offset", "shape": [64], "dtype": "float32"}, {"name": "fpn_cells/cell_0/fnode7/op_after_combine12/conv/separable_conv2d_weights", "shape": [1, 1, 64, 64], "dtype": "float32"}, {"name": "fpn_cells/cell_0/fnode7/op_after_combine12/conv/separable_conv2d_bn_offset", "shape": [64], "dtype": "float32"}, {"name": "fpn_cells/cell_1/fnode0/op_after_combine5/conv/separable_conv2d_weights", "shape": [1, 1, 64, 64], "dtype": "float32"}, {"name": "fpn_cells/cell_1/fnode0/op_after_combine5/conv/separable_conv2d_bn_offset", "shape": [64], "dtype": "float32"}, {"name": "fpn_cells/cell_1/fnode1/op_after_combine6/conv/separable_conv2d_weights", "shape": [1, 1, 64, 64], "dtype": "float32"}, {"name": "fpn_cells/cell_1/fnode1/op_after_combine6/conv/separable_conv2d_bn_offset", "shape": [64], "dtype": "float32"}, {"name": "fpn_cells/cell_1/fnode2/op_after_combine7/conv/separable_conv2d_weights", "shape": [1, 1, 64, 64], "dtype": "float32"}, {"name": "fpn_cells/cell_1/fnode2/op_after_combine7/conv/separable_conv2d_bn_offset", "shape": [64], "dtype": "float32"}, {"name": "fpn_cells/cell_1/fnode3/op_after_combine8/conv/separable_conv2d_weights", "shape": [1, 1, 64, 64], "dtype": "float32"}, {"name": "fpn_cells/cell_1/fnode3/op_after_combine8/conv/separable_conv2d_bn_offset", "shape": [64], "dtype": "float32"}, {"name": "fpn_cells/cell_1/fnode4/op_after_combine9/conv/separable_conv2d_weights", "shape": [1, 1, 64, 64], "dtype": "float32"}, {"name": "fpn_cells/cell_1/fnode4/op_after_combine9/conv/separable_conv2d_bn_offset", "shape": [64], "dtype": "float32"}, {"name": "fpn_cells/cell_1/fnode5/op_after_combine10/conv/separable_conv2d_weights", "shape": [1, 1, 64, 64], "dtype": "float32"}, {"name": "fpn_cells/cell_1/fnode5/op_after_combine10/conv/separable_conv2d_bn_offset", "shape": [64], "dtype": "float32"}, {"name": "fpn_cells/cell_1/fnode6/op_after_combine11/conv/separable_conv2d_weights", "shape": [1, 1, 64, 64], "dtype": "float32"}, {"name": "fpn_cells/cell_1/fnode6/op_after_combine11/conv/separable_conv2d_bn_offset", "shape": [64], "dtype": "float32"}, {"name": "fpn_cells/cell_1/fnode7/op_after_combine12/conv/separable_conv2d_weights", "shape": [1, 1, 64, 64], "dtype": "float32"}, {"name": "fpn_cells/cell_1/fnode7/op_after_combine12/conv/separable_conv2d_bn_offset", "shape": [64], "dtype": "float32"}, {"name": "fpn_cells/cell_2/fnode0/op_after_combine5/conv/separable_conv2d_weights", "shape": [1, 1, 64, 64], "dtype": "float32"}, {"name": "fpn_cells/cell_2/fnode0/op_after_combine5/conv/separable_conv2d_bn_offset", "shape": [64], "dtype": "float32"}, {"name": "fpn_cells/cell_2/fnode1/op_after_combine6/conv/separable_conv2d_weights", "shape": [1, 1, 64, 64], "dtype": "float32"}, {"name": "fpn_cells/cell_2/fnode1/op_after_combine6/conv/separable_conv2d_bn_offset", "shape": [64], "dtype": "float32"}, {"name": "fpn_cells/cell_2/fnode2/op_after_combine7/conv/separable_conv2d_weights", "shape": [1, 1, 64, 64], "dtype": "float32"}, {"name": "fpn_cells/cell_2/fnode2/op_after_combine7/conv/separable_conv2d_bn_offset", "shape": [64], "dtype": "float32"}, {"name": "fpn_cells/cell_2/fnode3/op_after_combine8/conv/separable_conv2d_weights", "shape": [1, 1, 64, 64], "dtype": "float32"}, {"name": "fpn_cells/cell_2/fnode3/op_after_combine8/conv/separable_conv2d_bn_offset", "shape": [64], "dtype": "float32"}, {"name": "box_net/box-0/separable_conv2d_weights", "shape": [1, 1, 64, 64], "dtype": "float32"}, {"name": "box_net/box-0/separable_conv2d_bn_offset", "shape": [64], "dtype": "float32"}, {"name": "class_net/class-0/separable_conv2d_weights", "shape": [1, 1, 64, 64], "dtype": "float32"}, {"name": "class_net/class-2_4/separable_conv2d_weights", "shape": [1, 1, 64, 64], "dtype": "float32"}, {"name": "class_net/class-0/separable_conv2d_bn_offset", "shape": [64], "dtype": "float32"}, {"name": "fpn_cells/cell_2/fnode4/op_after_combine9/conv/separable_conv2d_weights", "shape": [1, 1, 64, 64], "dtype": "float32"}, {"name": "fpn_cells/cell_2/fnode4/op_after_combine9/conv/separable_conv2d_bn_offset", "shape": [64], "dtype": "float32"}, {"name": "box_net/box-1/separable_conv2d_weights", "shape": [1, 1, 64, 64], "dtype": "float32"}, {"name": "class_net/class-2_4/separable_conv2d_bn_offset", "shape": [64], "dtype": "float32"}, {"name": "box_net/box-1/separable_conv2d_bn_offset", "shape": [64], "dtype": "float32"}, {"name": "class_net/class-1/separable_conv2d_weights", "shape": [1, 1, 64, 64], "dtype": "float32"}, {"name": "class_net/class-1/separable_conv2d_bn_offset", "shape": [64], "dtype": "float32"}, {"name": "box_net/box-0_1/separable_conv2d_weights", "shape": [1, 1, 64, 64], "dtype": "float32"}, {"name": "box_net/box-0_1/separable_conv2d_bn_offset", "shape": [64], "dtype": "float32"}, {"name": "class_net/class-0_1/separable_conv2d_weights", "shape": [1, 1, 64, 64], "dtype": "float32"}, {"name": "class_net/class-0_1/separable_conv2d_bn_offset", "shape": [64], "dtype": "float32"}, {"name": "box_net/box-2/separable_conv2d_weights", "shape": [1, 1, 64, 64], "dtype": "float32"}, {"name": "box_net/box-2/separable_conv2d_bn_offset", "shape": [64], "dtype": "float32"}, {"name": "class_net/class-2/separable_conv2d_weights", "shape": [1, 1, 64, 64], "dtype": "float32"}, {"name": "class_net/class-2/separable_conv2d_bn_offset", "shape": [64], "dtype": "float32"}, {"name": "fpn_cells/cell_2/fnode5/op_after_combine10/conv/separable_conv2d_weights", "shape": [1, 1, 64, 64], "dtype": "float32"}, {"name": "fpn_cells/cell_2/fnode5/op_after_combine10/conv/separable_conv2d_bn_offset", "shape": [64], "dtype": "float32"}, {"name": "box_net/box-1_1/separable_conv2d_weights", "shape": [1, 1, 64, 64], "dtype": "float32"}, {"name": "box_net/box-1_1/separable_conv2d_bn_offset", "shape": [64], "dtype": "float32"}, {"name": "class_net/class-1_1/separable_conv2d_weights", "shape": [1, 1, 64, 64], "dtype": "float32"}, {"name": "class_net/class-1_1/separable_conv2d_bn_offset", "shape": [64], "dtype": "float32"}, {"name": "box_net/box-0_2/separable_conv2d_weights", "shape": [1, 1, 64, 64], "dtype": "float32"}, {"name": "box_net/box-0_2/separable_conv2d_bn_offset", "shape": [64], "dtype": "float32"}, {"name": "class_net/class-0_2/separable_conv2d_weights", "shape": [1, 1, 64, 64], "dtype": "float32"}, {"name": "class_net/class-0_2/separable_conv2d_bn_offset", "shape": [64], "dtype": "float32"}, {"name": "box_net/box-2_1/separable_conv2d_weights", "shape": [1, 1, 64, 64], "dtype": "float32"}, {"name": "box_net/box-2_1/separable_conv2d_bn_offset", "shape": [64], "dtype": "float32"}, {"name": "class_net/class-2_1/separable_conv2d_weights", "shape": [1, 1, 64, 64], "dtype": "float32"}, {"name": "class_net/class-2_1/separable_conv2d_bn_offset", "shape": [64], "dtype": "float32"}, {"name": "fpn_cells/cell_2/fnode6/op_after_combine11/conv/separable_conv2d_weights", "shape": [1, 1, 64, 64], "dtype": "float32"}, {"name": "fpn_cells/cell_2/fnode6/op_after_combine11/conv/separable_conv2d_bn_offset", "shape": [64], "dtype": "float32"}, {"name": "box_net/box-1_2/separable_conv2d_weights", "shape": [1, 1, 64, 64], "dtype": "float32"}, {"name": "box_net/box-1_2/separable_conv2d_bn_offset", "shape": [64], "dtype": "float32"}, {"name": "class_net/class-1_2/separable_conv2d_weights", "shape": [1, 1, 64, 64], "dtype": "float32"}, {"name": "class_net/class-1_2/separable_conv2d_bn_offset", "shape": [64], "dtype": "float32"}, {"name": "box_net/box-0_3/separable_conv2d_weights", "shape": [1, 1, 64, 64], "dtype": "float32"}, {"name": "box_net/box-0_3/separable_conv2d_bn_offset", "shape": [64], "dtype": "float32"}, {"name": "class_net/class-0_3/separable_conv2d_weights", "shape": [1, 1, 64, 64], "dtype": "float32"}, {"name": "class_net/class-0_3/separable_conv2d_bn_offset", "shape": [64], "dtype": "float32"}, {"name": "box_net/box-2_2/separable_conv2d_weights", "shape": [1, 1, 64, 64], "dtype": "float32"}, {"name": "box_net/box-2_2/separable_conv2d_bn_offset", "shape": [64], "dtype": "float32"}, {"name": "class_net/class-2_2/separable_conv2d_weights", "shape": [1, 1, 64, 64], "dtype": "float32"}, {"name": "class_net/class-2_2/separable_conv2d_bn_offset", "shape": [64], "dtype": "float32"}, {"name": "fpn_cells/cell_2/fnode7/op_after_combine12/conv/separable_conv2d_weights", "shape": [1, 1, 64, 64], "dtype": "float32"}, {"name": "fpn_cells/cell_2/fnode7/op_after_combine12/conv/separable_conv2d_bn_offset", "shape": [64], "dtype": "float32"}, {"name": "ConstantFolding/stack_1_const_axis", "shape": [], "dtype": "int32"}, {"name": "ConstantFolding/mul_6/y_const_axis", "shape": [], "dtype": "int32"}, {"name": "ConstantFolding/stack_const_axis", "shape": [], "dtype": "int32"}, {"name": "fpn_cells/cell_0/fnode0/truediv", "shape": [1, 8, 8, 64], "dtype": "float32"}, {"name": "ConstantFolding/detections_const_axis", "shape": [], "dtype": "int32"}]}]}