{"format": "graph-model", "generatedBy": "2.3.0", "convertedBy": "TensorFlow.js Converter v2.7.0", "userDefinedMetadata": {"signature": {"inputs": {"input:0": {"name": "input:0", "dtype": "DT_FLOAT", "tensorShape": {"dim": [{"size": "1"}, {"size": "512"}, {"size": "512"}, {"size": "3"}]}}}, "outputs": {"class_net/class-predict_3/BiasAdd:0": {"name": "class_net/class-predict_3/BiasAdd:0", "dtype": "DT_FLOAT", "tensorShape": {"dim": [{"size": "1"}, {"size": "8"}, {"size": "8"}, {"size": "810"}]}}, "box_net/box-predict_2/BiasAdd:0": {"name": "box_net/box-predict_2/BiasAdd:0", "dtype": "DT_FLOAT", "tensorShape": {"dim": [{"size": "1"}, {"size": "16"}, {"size": "16"}, {"size": "36"}]}}, "class_net/class-predict_2/BiasAdd:0": {"name": "class_net/class-predict_2/BiasAdd:0", "dtype": "DT_FLOAT", "tensorShape": {"dim": [{"size": "1"}, {"size": "16"}, {"size": "16"}, {"size": "810"}]}}, "box_net/box-predict_4/BiasAdd:0": {"name": "box_net/box-predict_4/BiasAdd:0", "dtype": "DT_FLOAT", "tensorShape": {"dim": [{"size": "1"}, {"size": "4"}, {"size": "4"}, {"size": "36"}]}}, "box_net/box-predict/BiasAdd:0": {"name": "box_net/box-predict/BiasAdd:0", "dtype": "DT_FLOAT", "tensorShape": {"dim": [{"size": "1"}, {"size": "64"}, {"size": "64"}, {"size": "36"}]}}, "class_net/class-predict_4/BiasAdd:0": {"name": "class_net/class-predict_4/BiasAdd:0", "dtype": "DT_FLOAT", "tensorShape": {"dim": [{"size": "1"}, {"size": "4"}, {"size": "4"}, {"size": "810"}]}}, "class_net/class-predict/BiasAdd:0": {"name": "class_net/class-predict/BiasAdd:0", "dtype": "DT_FLOAT", "tensorShape": {"dim": [{"size": "1"}, {"size": "64"}, {"size": "64"}, {"size": "810"}]}}, "box_net/box-predict_1/BiasAdd:0": {"name": "box_net/box-predict_1/BiasAdd:0", "dtype": "DT_FLOAT", "tensorShape": {"dim": [{"size": "1"}, {"size": "32"}, {"size": "32"}, {"size": "36"}]}}, "class_net/class-predict_1/BiasAdd:0": {"name": "class_net/class-predict_1/BiasAdd:0", "dtype": "DT_FLOAT", "tensorShape": {"dim": [{"size": "1"}, {"size": "32"}, {"size": "32"}, {"size": "810"}]}}, "box_net/box-predict_3/BiasAdd:0": {"name": "box_net/box-predict_3/BiasAdd:0", "dtype": "DT_FLOAT", "tensorShape": {"dim": [{"size": "1"}, {"size": "8"}, {"size": "8"}, {"size": "36"}]}}}}}, "modelTopology": {"node": [{"name": "box_net/box-0/depthwise_kernel", "op": "Const", "attr": {"value": {"tensor": {"dtype": "DT_FLOAT", "tensorShape": {"dim": [{"size": "3"}, {"size": "3"}, {"size": "64"}, {"size": "1"}]}}}, "dtype": {"type": "DT_FLOAT"}}}, {"name": "box_net/box-1/depthwise_kernel", "op": "Const", "attr": {"value": {"tensor": {"dtype": "DT_FLOAT", "tensorShape": {"dim": [{"size": "3"}, {"size": "3"}, {"size": "64"}, {"size": "1"}]}}}, "dtype": {"type": "DT_FLOAT"}}}, {"name": "box_net/box-2/depthwise_kernel", "op": "Const", "attr": {"value": {"tensor": {"dtype": "DT_FLOAT", "tensorShape": {"dim": [{"size": "3"}, {"size": "3"}, {"size": "64"}, {"size": "1"}]}}}, "dtype": {"type": "DT_FLOAT"}}}, {"name": "box_net/box-predict/depthwise_kernel", "op": "Const", "attr": {"value": {"tensor": {"dtype": "DT_FLOAT", "tensorShape": {"dim": [{"size": "3"}, {"size": "3"}, {"size": "64"}, {"size": "1"}]}}}, "dtype": {"type": "DT_FLOAT"}}}, {"name": "box_net/box-predict/pointwise_kernel", "op": "Const", "attr": {"value": {"tensor": {"dtype": "DT_FLOAT", "tensorShape": {"dim": [{"size": "1"}, {"size": "1"}, {"size": "64"}, {"size": "36"}]}}}, "dtype": {"type": "DT_FLOAT"}}}, {"name": "box_net/box-predict/bias", "op": "Const", "attr": {"value": {"tensor": {"dtype": "DT_FLOAT", "tensorShape": {"dim": [{"size": "36"}]}}}, "dtype": {"type": "DT_FLOAT"}}}, {"name": "fpn_cells/cell_2/fnode7/mul", "op": "Const", "attr": {"value": {"tensor": {"dtype": "DT_FLOAT", "tensorShape": {}}}, "dtype": {"type": "DT_FLOAT"}}}, {"name": "fpn_cells/cell_2/fnode6/mul", "op": "Const", "attr": {"value": {"tensor": {"dtype": "DT_FLOAT", "tensorShape": {}}}, "dtype": {"type": "DT_FLOAT"}}}, {"name": "fpn_cells/cell_2/fnode6/mul_1", "op": "Const", "attr": {"value": {"tensor": {"dtype": "DT_FLOAT", "tensorShape": {}}}, "dtype": {"type": "DT_FLOAT"}}}, {"name": "fpn_cells/cell_2/fnode5/mul", "op": "Const", "attr": {"value": {"tensor": {"dtype": "DT_FLOAT", "tensorShape": {}}}, "dtype": {"type": "DT_FLOAT"}}}, {"name": "fpn_cells/cell_2/fnode5/mul_1", "op": "Const", "attr": {"dtype": {"type": "DT_FLOAT"}, "value": {"tensor": {"dtype": "DT_FLOAT", "tensorShape": {}}}}}, {"name": "fpn_cells/cell_2/fnode4/mul", "op": "Const", "attr": {"value": {"tensor": {"dtype": "DT_FLOAT", "tensorShape": {}}}, "dtype": {"type": "DT_FLOAT"}}}, {"name": "fpn_cells/cell_2/fnode4/mul_1", "op": "Const", "attr": {"dtype": {"type": "DT_FLOAT"}, "value": {"tensor": {"dtype": "DT_FLOAT", "tensorShape": {}}}}}, {"name": "fpn_cells/cell_2/fnode3/mul", "op": "Const", "attr": {"value": {"tensor": {"dtype": "DT_FLOAT", "tensorShape": {}}}, "dtype": {"type": "DT_FLOAT"}}}, {"name": "fpn_cells/cell_2/fnode2/mul", "op": "Const", "attr": {"value": {"tensor": {"dtype": "DT_FLOAT", "tensorShape": {}}}, "dtype": {"type": "DT_FLOAT"}}}, {"name": "fpn_cells/cell_2/fnode1/mul", "op": "Const", "attr": {"value": {"tensor": {"dtype": "DT_FLOAT", "tensorShape": {}}}, "dtype": {"type": "DT_FLOAT"}}}, {"name": "fpn_cells/cell_2/fnode0/mul", "op": "Const", "attr": {"value": {"tensor": {"dtype": "DT_FLOAT", "tensorShape": {}}}, "dtype": {"type": "DT_FLOAT"}}}, {"name": "fpn_cells/cell_1/fnode7/mul", "op": "Const", "attr": {"value": {"tensor": {"dtype": "DT_FLOAT", "tensorShape": {}}}, "dtype": {"type": "DT_FLOAT"}}}, {"name": "fpn_cells/cell_1/fnode6/mul", "op": "Const", "attr": {"value": {"tensor": {"dtype": "DT_FLOAT", "tensorShape": {}}}, "dtype": {"type": "DT_FLOAT"}}}, {"name": "fpn_cells/cell_1/fnode6/mul_1", "op": "Const", "attr": {"value": {"tensor": {"dtype": "DT_FLOAT", "tensorShape": {}}}, "dtype": {"type": "DT_FLOAT"}}}, {"name": "fpn_cells/cell_1/fnode5/mul", "op": "Const", "attr": {"dtype": {"type": "DT_FLOAT"}, "value": {"tensor": {"dtype": "DT_FLOAT", "tensorShape": {}}}}}, {"name": "fpn_cells/cell_1/fnode5/mul_1", "op": "Const", "attr": {"dtype": {"type": "DT_FLOAT"}, "value": {"tensor": {"dtype": "DT_FLOAT", "tensorShape": {}}}}}, {"name": "fpn_cells/cell_1/fnode4/mul", "op": "Const", "attr": {"value": {"tensor": {"dtype": "DT_FLOAT", "tensorShape": {}}}, "dtype": {"type": "DT_FLOAT"}}}, {"name": "fpn_cells/cell_1/fnode4/mul_1", "op": "Const", "attr": {"value": {"tensor": {"dtype": "DT_FLOAT", "tensorShape": {}}}, "dtype": {"type": "DT_FLOAT"}}}, {"name": "fpn_cells/cell_1/fnode3/mul", "op": "Const", "attr": {"value": {"tensor": {"dtype": "DT_FLOAT", "tensorShape": {}}}, "dtype": {"type": "DT_FLOAT"}}}, {"name": "fpn_cells/cell_1/fnode2/mul", "op": "Const", "attr": {"value": {"tensor": {"dtype": "DT_FLOAT", "tensorShape": {}}}, "dtype": {"type": "DT_FLOAT"}}}, {"name": "fpn_cells/cell_1/fnode1/mul", "op": "Const", "attr": {"value": {"tensor": {"dtype": "DT_FLOAT", "tensorShape": {}}}, "dtype": {"type": "DT_FLOAT"}}}, {"name": "fpn_cells/cell_1/fnode0/mul", "op": "Const", "attr": {"value": {"tensor": {"dtype": "DT_FLOAT", "tensorShape": {}}}, "dtype": {"type": "DT_FLOAT"}}}, {"name": "fpn_cells/cell_0/fnode7/mul", "op": "Const", "attr": {"value": {"tensor": {"dtype": "DT_FLOAT", "tensorShape": {}}}, "dtype": {"type": "DT_FLOAT"}}}, {"name": "fpn_cells/cell_0/fnode6/mul", "op": "Const", "attr": {"value": {"tensor": {"dtype": "DT_FLOAT", "tensorShape": {}}}, "dtype": {"type": "DT_FLOAT"}}}, {"name": "fpn_cells/cell_0/fnode6/mul_1", "op": "Const", "attr": {"value": {"tensor": {"dtype": "DT_FLOAT", "tensorShape": {}}}, "dtype": {"type": "DT_FLOAT"}}}, {"name": "fpn_cells/cell_0/fnode5/mul", "op": "Const", "attr": {"value": {"tensor": {"dtype": "DT_FLOAT", "tensorShape": {}}}, "dtype": {"type": "DT_FLOAT"}}}, {"name": "fpn_cells/cell_0/fnode5/mul_1", "op": "Const", "attr": {"dtype": {"type": "DT_FLOAT"}, "value": {"tensor": {"dtype": "DT_FLOAT", "tensorShape": {}}}}}, {"name": "fpn_cells/cell_0/fnode4/mul", "op": "Const", "attr": {"dtype": {"type": "DT_FLOAT"}, "value": {"tensor": {"dtype": "DT_FLOAT", "tensorShape": {}}}}}, {"name": "fpn_cells/cell_0/fnode4/mul_1", "op": "Const", "attr": {"dtype": {"type": "DT_FLOAT"}, "value": {"tensor": {"dtype": "DT_FLOAT", "tensorShape": {}}}}}, {"name": "fpn_cells/cell_0/fnode3/mul", "op": "Const", "attr": {"value": {"tensor": {"dtype": "DT_FLOAT", "tensorShape": {}}}, "dtype": {"type": "DT_FLOAT"}}}, {"name": "fpn_cells/cell_0/fnode2/mul", "op": "Const", "attr": {"value": {"tensor": {"dtype": "DT_FLOAT", "tensorShape": {}}}, "dtype": {"type": "DT_FLOAT"}}}, {"name": "fpn_cells/cell_0/fnode1/mul", "op": "Const", "attr": {"value": {"tensor": {"dtype": "DT_FLOAT", "tensorShape": {}}}, "dtype": {"type": "DT_FLOAT"}}}, {"name": "fpn_cells/cell_0/fnode0/mul", "op": "Const", "attr": {"value": {"tensor": {"dtype": "DT_FLOAT", "tensorShape": {}}}, "dtype": {"type": "DT_FLOAT"}}}, {"name": "efficientnet-b0/blocks_15/se/Mean/reduction_indices", "op": "Const", "attr": {"value": {"tensor": {"dtype": "DT_INT32", "tensorShape": {"dim": [{"size": "2"}]}}}, "dtype": {"type": "DT_INT32"}}}, {"name": "efficientnet-b0/blocks_15/se/conv2d/kernel", "op": "Const", "attr": {"value": {"tensor": {"dtype": "DT_FLOAT", "tensorShape": {"dim": [{"size": "1"}, {"size": "1"}, {"size": "1152"}, {"size": "48"}]}}}, "dtype": {"type": "DT_FLOAT"}}}, {"name": "efficientnet-b0/blocks_15/se/conv2d/bias", "op": "Const", "attr": {"value": {"tensor": {"dtype": "DT_FLOAT", "tensorShape": {"dim": [{"size": "48"}]}}}, "dtype": {"type": "DT_FLOAT"}}}, {"name": "efficientnet-b0/blocks_15/se/conv2d_1/kernel", "op": "Const", "attr": {"value": {"tensor": {"dtype": "DT_FLOAT", "tensorShape": {"dim": [{"size": "1"}, {"size": "1"}, {"size": "48"}, {"size": "1152"}]}}}, "dtype": {"type": "DT_FLOAT"}}}, {"name": "efficientnet-b0/blocks_15/se/conv2d_1/bias", "op": "Const", "attr": {"value": {"tensor": {"dtype": "DT_FLOAT", "tensorShape": {"dim": [{"size": "1152"}]}}}, "dtype": {"type": "DT_FLOAT"}}}, {"name": "efficientnet-b0/blocks_14/se/Mean/reduction_indices", "op": "Const", "attr": {"dtype": {"type": "DT_INT32"}, "value": {"tensor": {"dtype": "DT_INT32", "tensorShape": {"dim": [{"size": "2"}]}}}}}, {"name": "efficientnet-b0/blocks_14/se/conv2d/kernel", "op": "Const", "attr": {"value": {"tensor": {"dtype": "DT_FLOAT", "tensorShape": {"dim": [{"size": "1"}, {"size": "1"}, {"size": "1152"}, {"size": "48"}]}}}, "dtype": {"type": "DT_FLOAT"}}}, {"name": "efficientnet-b0/blocks_14/se/conv2d/bias", "op": "Const", "attr": {"value": {"tensor": {"dtype": "DT_FLOAT", "tensorShape": {"dim": [{"size": "48"}]}}}, "dtype": {"type": "DT_FLOAT"}}}, {"name": "efficientnet-b0/blocks_14/se/conv2d_1/kernel", "op": "Const", "attr": {"dtype": {"type": "DT_FLOAT"}, "value": {"tensor": {"dtype": "DT_FLOAT", "tensorShape": {"dim": [{"size": "1"}, {"size": "1"}, {"size": "48"}, {"size": "1152"}]}}}}}, {"name": "efficientnet-b0/blocks_14/se/conv2d_1/bias", "op": "Const", "attr": {"value": {"tensor": {"dtype": "DT_FLOAT", "tensorShape": {"dim": [{"size": "1152"}]}}}, "dtype": {"type": "DT_FLOAT"}}}, {"name": "efficientnet-b0/blocks_13/se/Mean/reduction_indices", "op": "Const", "attr": {"value": {"tensor": {"dtype": "DT_INT32", "tensorShape": {"dim": [{"size": "2"}]}}}, "dtype": {"type": "DT_INT32"}}}, {"name": "efficientnet-b0/blocks_13/se/conv2d/kernel", "op": "Const", "attr": {"value": {"tensor": {"dtype": "DT_FLOAT", "tensorShape": {"dim": [{"size": "1"}, {"size": "1"}, {"size": "1152"}, {"size": "48"}]}}}, "dtype": {"type": "DT_FLOAT"}}}, {"name": "efficientnet-b0/blocks_13/se/conv2d/bias", "op": "Const", "attr": {"value": {"tensor": {"dtype": "DT_FLOAT", "tensorShape": {"dim": [{"size": "48"}]}}}, "dtype": {"type": "DT_FLOAT"}}}, {"name": "efficientnet-b0/blocks_13/se/conv2d_1/kernel", "op": "Const", "attr": {"dtype": {"type": "DT_FLOAT"}, "value": {"tensor": {"dtype": "DT_FLOAT", "tensorShape": {"dim": [{"size": "1"}, {"size": "1"}, {"size": "48"}, {"size": "1152"}]}}}}}, {"name": "efficientnet-b0/blocks_13/se/conv2d_1/bias", "op": "Const", "attr": {"dtype": {"type": "DT_FLOAT"}, "value": {"tensor": {"dtype": "DT_FLOAT", "tensorShape": {"dim": [{"size": "1152"}]}}}}}, {"name": "efficientnet-b0/blocks_12/se/Mean/reduction_indices", "op": "Const", "attr": {"value": {"tensor": {"dtype": "DT_INT32", "tensorShape": {"dim": [{"size": "2"}]}}}, "dtype": {"type": "DT_INT32"}}}, {"name": "efficientnet-b0/blocks_12/se/conv2d/kernel", "op": "Const", "attr": {"dtype": {"type": "DT_FLOAT"}, "value": {"tensor": {"dtype": "DT_FLOAT", "tensorShape": {"dim": [{"size": "1"}, {"size": "1"}, {"size": "1152"}, {"size": "48"}]}}}}}, {"name": "efficientnet-b0/blocks_12/se/conv2d/bias", "op": "Const", "attr": {"value": {"tensor": {"dtype": "DT_FLOAT", "tensorShape": {"dim": [{"size": "48"}]}}}, "dtype": {"type": "DT_FLOAT"}}}, {"name": "efficientnet-b0/blocks_12/se/conv2d_1/kernel", "op": "Const", "attr": {"value": {"tensor": {"dtype": "DT_FLOAT", "tensorShape": {"dim": [{"size": "1"}, {"size": "1"}, {"size": "48"}, {"size": "1152"}]}}}, "dtype": {"type": "DT_FLOAT"}}}, {"name": "efficientnet-b0/blocks_12/se/conv2d_1/bias", "op": "Const", "attr": {"value": {"tensor": {"dtype": "DT_FLOAT", "tensorShape": {"dim": [{"size": "1152"}]}}}, "dtype": {"type": "DT_FLOAT"}}}, {"name": "efficientnet-b0/blocks_11/se/Mean/reduction_indices", "op": "Const", "attr": {"dtype": {"type": "DT_INT32"}, "value": {"tensor": {"dtype": "DT_INT32", "tensorShape": {"dim": [{"size": "2"}]}}}}}, {"name": "efficientnet-b0/blocks_11/se/conv2d/kernel", "op": "Const", "attr": {"value": {"tensor": {"dtype": "DT_FLOAT", "tensorShape": {"dim": [{"size": "1"}, {"size": "1"}, {"size": "672"}, {"size": "28"}]}}}, "dtype": {"type": "DT_FLOAT"}}}, {"name": "efficientnet-b0/blocks_11/se/conv2d/bias", "op": "Const", "attr": {"value": {"tensor": {"dtype": "DT_FLOAT", "tensorShape": {"dim": [{"size": "28"}]}}}, "dtype": {"type": "DT_FLOAT"}}}, {"name": "efficientnet-b0/blocks_11/se/conv2d_1/kernel", "op": "Const", "attr": {"value": {"tensor": {"dtype": "DT_FLOAT", "tensorShape": {"dim": [{"size": "1"}, {"size": "1"}, {"size": "28"}, {"size": "672"}]}}}, "dtype": {"type": "DT_FLOAT"}}}, {"name": "efficientnet-b0/blocks_11/se/conv2d_1/bias", "op": "Const", "attr": {"dtype": {"type": "DT_FLOAT"}, "value": {"tensor": {"dtype": "DT_FLOAT", "tensorShape": {"dim": [{"size": "672"}]}}}}}, {"name": "efficientnet-b0/blocks_10/se/Mean/reduction_indices", "op": "Const", "attr": {"value": {"tensor": {"dtype": "DT_INT32", "tensorShape": {"dim": [{"size": "2"}]}}}, "dtype": {"type": "DT_INT32"}}}, {"name": "efficientnet-b0/blocks_10/se/conv2d/kernel", "op": "Const", "attr": {"value": {"tensor": {"dtype": "DT_FLOAT", "tensorShape": {"dim": [{"size": "1"}, {"size": "1"}, {"size": "672"}, {"size": "28"}]}}}, "dtype": {"type": "DT_FLOAT"}}}, {"name": "efficientnet-b0/blocks_10/se/conv2d/bias", "op": "Const", "attr": {"value": {"tensor": {"dtype": "DT_FLOAT", "tensorShape": {"dim": [{"size": "28"}]}}}, "dtype": {"type": "DT_FLOAT"}}}, {"name": "efficientnet-b0/blocks_10/se/conv2d_1/kernel", "op": "Const", "attr": {"dtype": {"type": "DT_FLOAT"}, "value": {"tensor": {"dtype": "DT_FLOAT", "tensorShape": {"dim": [{"size": "1"}, {"size": "1"}, {"size": "28"}, {"size": "672"}]}}}}}, {"name": "efficientnet-b0/blocks_10/se/conv2d_1/bias", "op": "Const", "attr": {"value": {"tensor": {"dtype": "DT_FLOAT", "tensorShape": {"dim": [{"size": "672"}]}}}, "dtype": {"type": "DT_FLOAT"}}}, {"name": "efficientnet-b0/blocks_9/se/Mean/reduction_indices", "op": "Const", "attr": {"value": {"tensor": {"dtype": "DT_INT32", "tensorShape": {"dim": [{"size": "2"}]}}}, "dtype": {"type": "DT_INT32"}}}, {"name": "efficientnet-b0/blocks_9/se/conv2d/kernel", "op": "Const", "attr": {"value": {"tensor": {"dtype": "DT_FLOAT", "tensorShape": {"dim": [{"size": "1"}, {"size": "1"}, {"size": "672"}, {"size": "28"}]}}}, "dtype": {"type": "DT_FLOAT"}}}, {"name": "efficientnet-b0/blocks_9/se/conv2d/bias", "op": "Const", "attr": {"value": {"tensor": {"dtype": "DT_FLOAT", "tensorShape": {"dim": [{"size": "28"}]}}}, "dtype": {"type": "DT_FLOAT"}}}, {"name": "efficientnet-b0/blocks_9/se/conv2d_1/kernel", "op": "Const", "attr": {"value": {"tensor": {"dtype": "DT_FLOAT", "tensorShape": {"dim": [{"size": "1"}, {"size": "1"}, {"size": "28"}, {"size": "672"}]}}}, "dtype": {"type": "DT_FLOAT"}}}, {"name": "efficientnet-b0/blocks_9/se/conv2d_1/bias", "op": "Const", "attr": {"value": {"tensor": {"dtype": "DT_FLOAT", "tensorShape": {"dim": [{"size": "672"}]}}}, "dtype": {"type": "DT_FLOAT"}}}, {"name": "efficientnet-b0/blocks_8/se/Mean/reduction_indices", "op": "Const", "attr": {"value": {"tensor": {"dtype": "DT_INT32", "tensorShape": {"dim": [{"size": "2"}]}}}, "dtype": {"type": "DT_INT32"}}}, {"name": "efficientnet-b0/blocks_8/se/conv2d/kernel", "op": "Const", "attr": {"value": {"tensor": {"dtype": "DT_FLOAT", "tensorShape": {"dim": [{"size": "1"}, {"size": "1"}, {"size": "480"}, {"size": "20"}]}}}, "dtype": {"type": "DT_FLOAT"}}}, {"name": "efficientnet-b0/blocks_8/se/conv2d/bias", "op": "Const", "attr": {"value": {"tensor": {"dtype": "DT_FLOAT", "tensorShape": {"dim": [{"size": "20"}]}}}, "dtype": {"type": "DT_FLOAT"}}}, {"name": "efficientnet-b0/blocks_8/se/conv2d_1/kernel", "op": "Const", "attr": {"value": {"tensor": {"dtype": "DT_FLOAT", "tensorShape": {"dim": [{"size": "1"}, {"size": "1"}, {"size": "20"}, {"size": "480"}]}}}, "dtype": {"type": "DT_FLOAT"}}}, {"name": "efficientnet-b0/blocks_8/se/conv2d_1/bias", "op": "Const", "attr": {"value": {"tensor": {"dtype": "DT_FLOAT", "tensorShape": {"dim": [{"size": "480"}]}}}, "dtype": {"type": "DT_FLOAT"}}}, {"name": "efficientnet-b0/blocks_7/se/Mean/reduction_indices", "op": "Const", "attr": {"value": {"tensor": {"dtype": "DT_INT32", "tensorShape": {"dim": [{"size": "2"}]}}}, "dtype": {"type": "DT_INT32"}}}, {"name": "efficientnet-b0/blocks_7/se/conv2d/kernel", "op": "Const", "attr": {"value": {"tensor": {"dtype": "DT_FLOAT", "tensorShape": {"dim": [{"size": "1"}, {"size": "1"}, {"size": "480"}, {"size": "20"}]}}}, "dtype": {"type": "DT_FLOAT"}}}, {"name": "efficientnet-b0/blocks_7/se/conv2d/bias", "op": "Const", "attr": {"value": {"tensor": {"dtype": "DT_FLOAT", "tensorShape": {"dim": [{"size": "20"}]}}}, "dtype": {"type": "DT_FLOAT"}}}, {"name": "efficientnet-b0/blocks_7/se/conv2d_1/kernel", "op": "Const", "attr": {"value": {"tensor": {"dtype": "DT_FLOAT", "tensorShape": {"dim": [{"size": "1"}, {"size": "1"}, {"size": "20"}, {"size": "480"}]}}}, "dtype": {"type": "DT_FLOAT"}}}, {"name": "efficientnet-b0/blocks_7/se/conv2d_1/bias", "op": "Const", "attr": {"dtype": {"type": "DT_FLOAT"}, "value": {"tensor": {"dtype": "DT_FLOAT", "tensorShape": {"dim": [{"size": "480"}]}}}}}, {"name": "efficientnet-b0/blocks_6/se/Mean/reduction_indices", "op": "Const", "attr": {"value": {"tensor": {"dtype": "DT_INT32", "tensorShape": {"dim": [{"size": "2"}]}}}, "dtype": {"type": "DT_INT32"}}}, {"name": "efficientnet-b0/blocks_6/se/conv2d/kernel", "op": "Const", "attr": {"dtype": {"type": "DT_FLOAT"}, "value": {"tensor": {"dtype": "DT_FLOAT", "tensorShape": {"dim": [{"size": "1"}, {"size": "1"}, {"size": "480"}, {"size": "20"}]}}}}}, {"name": "efficientnet-b0/blocks_6/se/conv2d/bias", "op": "Const", "attr": {"value": {"tensor": {"dtype": "DT_FLOAT", "tensorShape": {"dim": [{"size": "20"}]}}}, "dtype": {"type": "DT_FLOAT"}}}, {"name": "efficientnet-b0/blocks_6/se/conv2d_1/kernel", "op": "Const", "attr": {"dtype": {"type": "DT_FLOAT"}, "value": {"tensor": {"dtype": "DT_FLOAT", "tensorShape": {"dim": [{"size": "1"}, {"size": "1"}, {"size": "20"}, {"size": "480"}]}}}}}, {"name": "efficientnet-b0/blocks_6/se/conv2d_1/bias", "op": "Const", "attr": {"dtype": {"type": "DT_FLOAT"}, "value": {"tensor": {"dtype": "DT_FLOAT", "tensorShape": {"dim": [{"size": "480"}]}}}}}, {"name": "efficientnet-b0/blocks_5/se/Mean/reduction_indices", "op": "Const", "attr": {"value": {"tensor": {"dtype": "DT_INT32", "tensorShape": {"dim": [{"size": "2"}]}}}, "dtype": {"type": "DT_INT32"}}}, {"name": "efficientnet-b0/blocks_5/se/conv2d/kernel", "op": "Const", "attr": {"value": {"tensor": {"dtype": "DT_FLOAT", "tensorShape": {"dim": [{"size": "1"}, {"size": "1"}, {"size": "240"}, {"size": "10"}]}}}, "dtype": {"type": "DT_FLOAT"}}}, {"name": "efficientnet-b0/blocks_5/se/conv2d/bias", "op": "Const", "attr": {"value": {"tensor": {"dtype": "DT_FLOAT", "tensorShape": {"dim": [{"size": "10"}]}}}, "dtype": {"type": "DT_FLOAT"}}}, {"name": "efficientnet-b0/blocks_5/se/conv2d_1/kernel", "op": "Const", "attr": {"dtype": {"type": "DT_FLOAT"}, "value": {"tensor": {"dtype": "DT_FLOAT", "tensorShape": {"dim": [{"size": "1"}, {"size": "1"}, {"size": "10"}, {"size": "240"}]}}}}}, {"name": "efficientnet-b0/blocks_5/se/conv2d_1/bias", "op": "Const", "attr": {"value": {"tensor": {"dtype": "DT_FLOAT", "tensorShape": {"dim": [{"size": "240"}]}}}, "dtype": {"type": "DT_FLOAT"}}}, {"name": "efficientnet-b0/blocks_4/se/Mean/reduction_indices", "op": "Const", "attr": {"value": {"tensor": {"dtype": "DT_INT32", "tensorShape": {"dim": [{"size": "2"}]}}}, "dtype": {"type": "DT_INT32"}}}, {"name": "efficientnet-b0/blocks_4/se/conv2d/kernel", "op": "Const", "attr": {"value": {"tensor": {"dtype": "DT_FLOAT", "tensorShape": {"dim": [{"size": "1"}, {"size": "1"}, {"size": "240"}, {"size": "10"}]}}}, "dtype": {"type": "DT_FLOAT"}}}, {"name": "efficientnet-b0/blocks_4/se/conv2d/bias", "op": "Const", "attr": {"value": {"tensor": {"dtype": "DT_FLOAT", "tensorShape": {"dim": [{"size": "10"}]}}}, "dtype": {"type": "DT_FLOAT"}}}, {"name": "efficientnet-b0/blocks_4/se/conv2d_1/kernel", "op": "Const", "attr": {"dtype": {"type": "DT_FLOAT"}, "value": {"tensor": {"dtype": "DT_FLOAT", "tensorShape": {"dim": [{"size": "1"}, {"size": "1"}, {"size": "10"}, {"size": "240"}]}}}}}, {"name": "efficientnet-b0/blocks_4/se/conv2d_1/bias", "op": "Const", "attr": {"dtype": {"type": "DT_FLOAT"}, "value": {"tensor": {"dtype": "DT_FLOAT", "tensorShape": {"dim": [{"size": "240"}]}}}}}, {"name": "efficientnet-b0/blocks_3/se/Mean/reduction_indices", "op": "Const", "attr": {"value": {"tensor": {"dtype": "DT_INT32", "tensorShape": {"dim": [{"size": "2"}]}}}, "dtype": {"type": "DT_INT32"}}}, {"name": "efficientnet-b0/blocks_3/se/conv2d/kernel", "op": "Const", "attr": {"value": {"tensor": {"dtype": "DT_FLOAT", "tensorShape": {"dim": [{"size": "1"}, {"size": "1"}, {"size": "144"}, {"size": "6"}]}}}, "dtype": {"type": "DT_FLOAT"}}}, {"name": "efficientnet-b0/blocks_3/se/conv2d/bias", "op": "Const", "attr": {"value": {"tensor": {"dtype": "DT_FLOAT", "tensorShape": {"dim": [{"size": "6"}]}}}, "dtype": {"type": "DT_FLOAT"}}}, {"name": "efficientnet-b0/blocks_3/se/conv2d_1/kernel", "op": "Const", "attr": {"dtype": {"type": "DT_FLOAT"}, "value": {"tensor": {"dtype": "DT_FLOAT", "tensorShape": {"dim": [{"size": "1"}, {"size": "1"}, {"size": "6"}, {"size": "144"}]}}}}}, {"name": "efficientnet-b0/blocks_3/se/conv2d_1/bias", "op": "Const", "attr": {"value": {"tensor": {"dtype": "DT_FLOAT", "tensorShape": {"dim": [{"size": "144"}]}}}, "dtype": {"type": "DT_FLOAT"}}}, {"name": "efficientnet-b0/blocks_2/se/Mean/reduction_indices", "op": "Const", "attr": {"value": {"tensor": {"dtype": "DT_INT32", "tensorShape": {"dim": [{"size": "2"}]}}}, "dtype": {"type": "DT_INT32"}}}, {"name": "efficientnet-b0/blocks_2/se/conv2d/kernel", "op": "Const", "attr": {"value": {"tensor": {"dtype": "DT_FLOAT", "tensorShape": {"dim": [{"size": "1"}, {"size": "1"}, {"size": "144"}, {"size": "6"}]}}}, "dtype": {"type": "DT_FLOAT"}}}, {"name": "efficientnet-b0/blocks_2/se/conv2d/bias", "op": "Const", "attr": {"dtype": {"type": "DT_FLOAT"}, "value": {"tensor": {"dtype": "DT_FLOAT", "tensorShape": {"dim": [{"size": "6"}]}}}}}, {"name": "efficientnet-b0/blocks_2/se/conv2d_1/kernel", "op": "Const", "attr": {"value": {"tensor": {"dtype": "DT_FLOAT", "tensorShape": {"dim": [{"size": "1"}, {"size": "1"}, {"size": "6"}, {"size": "144"}]}}}, "dtype": {"type": "DT_FLOAT"}}}, {"name": "efficientnet-b0/blocks_2/se/conv2d_1/bias", "op": "Const", "attr": {"value": {"tensor": {"dtype": "DT_FLOAT", "tensorShape": {"dim": [{"size": "144"}]}}}, "dtype": {"type": "DT_FLOAT"}}}, {"name": "efficientnet-b0/blocks_1/se/Mean/reduction_indices", "op": "Const", "attr": {"value": {"tensor": {"dtype": "DT_INT32", "tensorShape": {"dim": [{"size": "2"}]}}}, "dtype": {"type": "DT_INT32"}}}, {"name": "efficientnet-b0/blocks_1/se/conv2d/kernel", "op": "Const", "attr": {"value": {"tensor": {"dtype": "DT_FLOAT", "tensorShape": {"dim": [{"size": "1"}, {"size": "1"}, {"size": "96"}, {"size": "4"}]}}}, "dtype": {"type": "DT_FLOAT"}}}, {"name": "efficientnet-b0/blocks_1/se/conv2d/bias", "op": "Const", "attr": {"value": {"tensor": {"dtype": "DT_FLOAT", "tensorShape": {"dim": [{"size": "4"}]}}}, "dtype": {"type": "DT_FLOAT"}}}, {"name": "efficientnet-b0/blocks_1/se/conv2d_1/kernel", "op": "Const", "attr": {"value": {"tensor": {"dtype": "DT_FLOAT", "tensorShape": {"dim": [{"size": "1"}, {"size": "1"}, {"size": "4"}, {"size": "96"}]}}}, "dtype": {"type": "DT_FLOAT"}}}, {"name": "efficientnet-b0/blocks_1/se/conv2d_1/bias", "op": "Const", "attr": {"value": {"tensor": {"dtype": "DT_FLOAT", "tensorShape": {"dim": [{"size": "96"}]}}}, "dtype": {"type": "DT_FLOAT"}}}, {"name": "efficientnet-b0/blocks_0/se/Mean/reduction_indices", "op": "Const", "attr": {"value": {"tensor": {"dtype": "DT_INT32", "tensorShape": {"dim": [{"size": "2"}]}}}, "dtype": {"type": "DT_INT32"}}}, {"name": "efficientnet-b0/blocks_0/se/conv2d/kernel", "op": "Const", "attr": {"value": {"tensor": {"dtype": "DT_FLOAT", "tensorShape": {"dim": [{"size": "1"}, {"size": "1"}, {"size": "32"}, {"size": "8"}]}}}, "dtype": {"type": "DT_FLOAT"}}}, {"name": "efficientnet-b0/blocks_0/se/conv2d/bias", "op": "Const", "attr": {"value": {"tensor": {"dtype": "DT_FLOAT", "tensorShape": {"dim": [{"size": "8"}]}}}, "dtype": {"type": "DT_FLOAT"}}}, {"name": "efficientnet-b0/blocks_0/se/conv2d_1/kernel", "op": "Const", "attr": {"value": {"tensor": {"dtype": "DT_FLOAT", "tensorShape": {"dim": [{"size": "1"}, {"size": "1"}, {"size": "8"}, {"size": "32"}]}}}, "dtype": {"type": "DT_FLOAT"}}}, {"name": "efficientnet-b0/blocks_0/se/conv2d_1/bias", "op": "Const", "attr": {"value": {"tensor": {"dtype": "DT_FLOAT", "tensorShape": {"dim": [{"size": "32"}]}}}, "dtype": {"type": "DT_FLOAT"}}}, {"name": "fpn_cells/cell_0/fnode0/resample_1_4_5/resize/size", "op": "Const", "attr": {"value": {"tensor": {"dtype": "DT_INT32", "tensorShape": {"dim": [{"size": "2"}]}}}, "dtype": {"type": "DT_INT32"}}}, {"name": "fpn_cells/cell_0/fnode0/mul_1", "op": "Const", "attr": {"value": {"tensor": {"dtype": "DT_FLOAT", "tensorShape": {}}}, "dtype": {"type": "DT_FLOAT"}}}, {"name": "fpn_cells/cell_0/fnode0/op_after_combine5/conv/depthwise_kernel", "op": "Const", "attr": {"value": {"tensor": {"dtype": "DT_FLOAT", "tensorShape": {"dim": [{"size": "3"}, {"size": "3"}, {"size": "64"}, {"size": "1"}]}}}, "dtype": {"type": "DT_FLOAT"}}}, {"name": "fpn_cells/cell_0/fnode1/resample_1_5_6/resize/size", "op": "Const", "attr": {"value": {"tensor": {"dtype": "DT_INT32", "tensorShape": {"dim": [{"size": "2"}]}}}, "dtype": {"type": "DT_INT32"}}}, {"name": "fpn_cells/cell_0/fnode1/mul_1", "op": "Const", "attr": {"value": {"tensor": {"dtype": "DT_FLOAT", "tensorShape": {}}}, "dtype": {"type": "DT_FLOAT"}}}, {"name": "fpn_cells/cell_0/fnode1/op_after_combine6/conv/depthwise_kernel", "op": "Const", "attr": {"dtype": {"type": "DT_FLOAT"}, "value": {"tensor": {"dtype": "DT_FLOAT", "tensorShape": {"dim": [{"size": "3"}, {"size": "3"}, {"size": "64"}, {"size": "1"}]}}}}}, {"name": "fpn_cells/cell_0/fnode2/resample_1_6_7/resize/size", "op": "Const", "attr": {"value": {"tensor": {"dtype": "DT_INT32", "tensorShape": {"dim": [{"size": "2"}]}}}, "dtype": {"type": "DT_INT32"}}}, {"name": "fpn_cells/cell_0/fnode2/mul_1", "op": "Const", "attr": {"value": {"tensor": {"dtype": "DT_FLOAT", "tensorShape": {}}}, "dtype": {"type": "DT_FLOAT"}}}, {"name": "fpn_cells/cell_0/fnode2/op_after_combine7/conv/depthwise_kernel", "op": "Const", "attr": {"value": {"tensor": {"dtype": "DT_FLOAT", "tensorShape": {"dim": [{"size": "3"}, {"size": "3"}, {"size": "64"}, {"size": "1"}]}}}, "dtype": {"type": "DT_FLOAT"}}}, {"name": "fpn_cells/cell_0/fnode3/resample_1_7_8/resize/size", "op": "Const", "attr": {"value": {"tensor": {"dtype": "DT_INT32", "tensorShape": {"dim": [{"size": "2"}]}}}, "dtype": {"type": "DT_INT32"}}}, {"name": "fpn_cells/cell_0/fnode3/mul_1", "op": "Const", "attr": {"value": {"tensor": {"dtype": "DT_FLOAT", "tensorShape": {}}}, "dtype": {"type": "DT_FLOAT"}}}, {"name": "fpn_cells/cell_0/fnode3/op_after_combine8/conv/depthwise_kernel", "op": "Const", "attr": {"value": {"tensor": {"dtype": "DT_FLOAT", "tensorShape": {"dim": [{"size": "3"}, {"size": "3"}, {"size": "64"}, {"size": "1"}]}}}, "dtype": {"type": "DT_FLOAT"}}}, {"name": "fpn_cells/cell_0/fnode4/mul_2", "op": "Const", "attr": {"value": {"tensor": {"dtype": "DT_FLOAT", "tensorShape": {}}}, "dtype": {"type": "DT_FLOAT"}}}, {"name": "fpn_cells/cell_0/fnode4/op_after_combine9/conv/depthwise_kernel", "op": "Const", "attr": {"dtype": {"type": "DT_FLOAT"}, "value": {"tensor": {"dtype": "DT_FLOAT", "tensorShape": {"dim": [{"size": "3"}, {"size": "3"}, {"size": "64"}, {"size": "1"}]}}}}}, {"name": "fpn_cells/cell_0/fnode5/mul_2", "op": "Const", "attr": {"dtype": {"type": "DT_FLOAT"}, "value": {"tensor": {"dtype": "DT_FLOAT", "tensorShape": {}}}}}, {"name": "fpn_cells/cell_0/fnode5/op_after_combine10/conv/depthwise_kernel", "op": "Const", "attr": {"value": {"tensor": {"dtype": "DT_FLOAT", "tensorShape": {"dim": [{"size": "3"}, {"size": "3"}, {"size": "64"}, {"size": "1"}]}}}, "dtype": {"type": "DT_FLOAT"}}}, {"name": "fpn_cells/cell_0/fnode6/mul_2", "op": "Const", "attr": {"value": {"tensor": {"dtype": "DT_FLOAT", "tensorShape": {}}}, "dtype": {"type": "DT_FLOAT"}}}, {"name": "fpn_cells/cell_0/fnode6/op_after_combine11/conv/depthwise_kernel", "op": "Const", "attr": {"dtype": {"type": "DT_FLOAT"}, "value": {"tensor": {"dtype": "DT_FLOAT", "tensorShape": {"dim": [{"size": "3"}, {"size": "3"}, {"size": "64"}, {"size": "1"}]}}}}}, {"name": "fpn_cells/cell_0/fnode7/mul_1", "op": "Const", "attr": {"value": {"tensor": {"dtype": "DT_FLOAT", "tensorShape": {}}}, "dtype": {"type": "DT_FLOAT"}}}, {"name": "fpn_cells/cell_0/fnode7/op_after_combine12/conv/depthwise_kernel", "op": "Const", "attr": {"value": {"tensor": {"dtype": "DT_FLOAT", "tensorShape": {"dim": [{"size": "3"}, {"size": "3"}, {"size": "64"}, {"size": "1"}]}}}, "dtype": {"type": "DT_FLOAT"}}}, {"name": "fpn_cells/cell_1/fnode0/resample_1_4_5/resize/size", "op": "Const", "attr": {"value": {"tensor": {"dtype": "DT_INT32", "tensorShape": {"dim": [{"size": "2"}]}}}, "dtype": {"type": "DT_INT32"}}}, {"name": "fpn_cells/cell_1/fnode0/mul_1", "op": "Const", "attr": {"value": {"tensor": {"dtype": "DT_FLOAT", "tensorShape": {}}}, "dtype": {"type": "DT_FLOAT"}}}, {"name": "fpn_cells/cell_1/fnode0/op_after_combine5/conv/depthwise_kernel", "op": "Const", "attr": {"value": {"tensor": {"dtype": "DT_FLOAT", "tensorShape": {"dim": [{"size": "3"}, {"size": "3"}, {"size": "64"}, {"size": "1"}]}}}, "dtype": {"type": "DT_FLOAT"}}}, {"name": "fpn_cells/cell_1/fnode1/resample_1_5_6/resize/size", "op": "Const", "attr": {"value": {"tensor": {"dtype": "DT_INT32", "tensorShape": {"dim": [{"size": "2"}]}}}, "dtype": {"type": "DT_INT32"}}}, {"name": "fpn_cells/cell_1/fnode1/mul_1", "op": "Const", "attr": {"value": {"tensor": {"dtype": "DT_FLOAT", "tensorShape": {}}}, "dtype": {"type": "DT_FLOAT"}}}, {"name": "fpn_cells/cell_1/fnode1/op_after_combine6/conv/depthwise_kernel", "op": "Const", "attr": {"value": {"tensor": {"dtype": "DT_FLOAT", "tensorShape": {"dim": [{"size": "3"}, {"size": "3"}, {"size": "64"}, {"size": "1"}]}}}, "dtype": {"type": "DT_FLOAT"}}}, {"name": "fpn_cells/cell_1/fnode2/resample_1_6_7/resize/size", "op": "Const", "attr": {"value": {"tensor": {"dtype": "DT_INT32", "tensorShape": {"dim": [{"size": "2"}]}}}, "dtype": {"type": "DT_INT32"}}}, {"name": "fpn_cells/cell_1/fnode2/mul_1", "op": "Const", "attr": {"value": {"tensor": {"dtype": "DT_FLOAT", "tensorShape": {}}}, "dtype": {"type": "DT_FLOAT"}}}, {"name": "fpn_cells/cell_1/fnode2/op_after_combine7/conv/depthwise_kernel", "op": "Const", "attr": {"dtype": {"type": "DT_FLOAT"}, "value": {"tensor": {"dtype": "DT_FLOAT", "tensorShape": {"dim": [{"size": "3"}, {"size": "3"}, {"size": "64"}, {"size": "1"}]}}}}}, {"name": "fpn_cells/cell_1/fnode3/resample_1_7_8/resize/size", "op": "Const", "attr": {"value": {"tensor": {"dtype": "DT_INT32", "tensorShape": {"dim": [{"size": "2"}]}}}, "dtype": {"type": "DT_INT32"}}}, {"name": "fpn_cells/cell_1/fnode3/mul_1", "op": "Const", "attr": {"value": {"tensor": {"dtype": "DT_FLOAT", "tensorShape": {}}}, "dtype": {"type": "DT_FLOAT"}}}, {"name": "fpn_cells/cell_1/fnode3/op_after_combine8/conv/depthwise_kernel", "op": "Const", "attr": {"value": {"tensor": {"dtype": "DT_FLOAT", "tensorShape": {"dim": [{"size": "3"}, {"size": "3"}, {"size": "64"}, {"size": "1"}]}}}, "dtype": {"type": "DT_FLOAT"}}}, {"name": "fpn_cells/cell_1/fnode4/mul_2", "op": "Const", "attr": {"value": {"tensor": {"dtype": "DT_FLOAT", "tensorShape": {}}}, "dtype": {"type": "DT_FLOAT"}}}, {"name": "fpn_cells/cell_1/fnode4/op_after_combine9/conv/depthwise_kernel", "op": "Const", "attr": {"dtype": {"type": "DT_FLOAT"}, "value": {"tensor": {"dtype": "DT_FLOAT", "tensorShape": {"dim": [{"size": "3"}, {"size": "3"}, {"size": "64"}, {"size": "1"}]}}}}}, {"name": "fpn_cells/cell_1/fnode5/mul_2", "op": "Const", "attr": {"dtype": {"type": "DT_FLOAT"}, "value": {"tensor": {"dtype": "DT_FLOAT", "tensorShape": {}}}}}, {"name": "fpn_cells/cell_1/fnode5/op_after_combine10/conv/depthwise_kernel", "op": "Const", "attr": {"dtype": {"type": "DT_FLOAT"}, "value": {"tensor": {"dtype": "DT_FLOAT", "tensorShape": {"dim": [{"size": "3"}, {"size": "3"}, {"size": "64"}, {"size": "1"}]}}}}}, {"name": "fpn_cells/cell_1/fnode6/mul_2", "op": "Const", "attr": {"value": {"tensor": {"dtype": "DT_FLOAT", "tensorShape": {}}}, "dtype": {"type": "DT_FLOAT"}}}, {"name": "fpn_cells/cell_1/fnode6/op_after_combine11/conv/depthwise_kernel", "op": "Const", "attr": {"value": {"tensor": {"dtype": "DT_FLOAT", "tensorShape": {"dim": [{"size": "3"}, {"size": "3"}, {"size": "64"}, {"size": "1"}]}}}, "dtype": {"type": "DT_FLOAT"}}}, {"name": "fpn_cells/cell_1/fnode7/mul_1", "op": "Const", "attr": {"value": {"tensor": {"dtype": "DT_FLOAT", "tensorShape": {}}}, "dtype": {"type": "DT_FLOAT"}}}, {"name": "fpn_cells/cell_1/fnode7/op_after_combine12/conv/depthwise_kernel", "op": "Const", "attr": {"dtype": {"type": "DT_FLOAT"}, "value": {"tensor": {"dtype": "DT_FLOAT", "tensorShape": {"dim": [{"size": "3"}, {"size": "3"}, {"size": "64"}, {"size": "1"}]}}}}}, {"name": "fpn_cells/cell_2/fnode0/resample_1_4_5/resize/size", "op": "Const", "attr": {"value": {"tensor": {"dtype": "DT_INT32", "tensorShape": {"dim": [{"size": "2"}]}}}, "dtype": {"type": "DT_INT32"}}}, {"name": "fpn_cells/cell_2/fnode0/mul_1", "op": "Const", "attr": {"value": {"tensor": {"dtype": "DT_FLOAT", "tensorShape": {}}}, "dtype": {"type": "DT_FLOAT"}}}, {"name": "fpn_cells/cell_2/fnode0/op_after_combine5/conv/depthwise_kernel", "op": "Const", "attr": {"value": {"tensor": {"dtype": "DT_FLOAT", "tensorShape": {"dim": [{"size": "3"}, {"size": "3"}, {"size": "64"}, {"size": "1"}]}}}, "dtype": {"type": "DT_FLOAT"}}}, {"name": "fpn_cells/cell_2/fnode1/resample_1_5_6/resize/size", "op": "Const", "attr": {"value": {"tensor": {"dtype": "DT_INT32", "tensorShape": {"dim": [{"size": "2"}]}}}, "dtype": {"type": "DT_INT32"}}}, {"name": "fpn_cells/cell_2/fnode1/mul_1", "op": "Const", "attr": {"value": {"tensor": {"dtype": "DT_FLOAT", "tensorShape": {}}}, "dtype": {"type": "DT_FLOAT"}}}, {"name": "fpn_cells/cell_2/fnode1/op_after_combine6/conv/depthwise_kernel", "op": "Const", "attr": {"dtype": {"type": "DT_FLOAT"}, "value": {"tensor": {"dtype": "DT_FLOAT", "tensorShape": {"dim": [{"size": "3"}, {"size": "3"}, {"size": "64"}, {"size": "1"}]}}}}}, {"name": "fpn_cells/cell_2/fnode2/resample_1_6_7/resize/size", "op": "Const", "attr": {"value": {"tensor": {"dtype": "DT_INT32", "tensorShape": {"dim": [{"size": "2"}]}}}, "dtype": {"type": "DT_INT32"}}}, {"name": "fpn_cells/cell_2/fnode2/mul_1", "op": "Const", "attr": {"value": {"tensor": {"dtype": "DT_FLOAT", "tensorShape": {}}}, "dtype": {"type": "DT_FLOAT"}}}, {"name": "fpn_cells/cell_2/fnode2/op_after_combine7/conv/depthwise_kernel", "op": "Const", "attr": {"value": {"tensor": {"dtype": "DT_FLOAT", "tensorShape": {"dim": [{"size": "3"}, {"size": "3"}, {"size": "64"}, {"size": "1"}]}}}, "dtype": {"type": "DT_FLOAT"}}}, {"name": "fpn_cells/cell_2/fnode3/resample_1_7_8/resize/size", "op": "Const", "attr": {"value": {"tensor": {"dtype": "DT_INT32", "tensorShape": {"dim": [{"size": "2"}]}}}, "dtype": {"type": "DT_INT32"}}}, {"name": "fpn_cells/cell_2/fnode3/mul_1", "op": "Const", "attr": {"dtype": {"type": "DT_FLOAT"}, "value": {"tensor": {"dtype": "DT_FLOAT", "tensorShape": {}}}}}, {"name": "fpn_cells/cell_2/fnode3/op_after_combine8/conv/depthwise_kernel", "op": "Const", "attr": {"value": {"tensor": {"dtype": "DT_FLOAT", "tensorShape": {"dim": [{"size": "3"}, {"size": "3"}, {"size": "64"}, {"size": "1"}]}}}, "dtype": {"type": "DT_FLOAT"}}}, {"name": "fpn_cells/cell_2/fnode4/mul_2", "op": "Const", "attr": {"dtype": {"type": "DT_FLOAT"}, "value": {"tensor": {"dtype": "DT_FLOAT", "tensorShape": {}}}}}, {"name": "fpn_cells/cell_2/fnode4/op_after_combine9/conv/depthwise_kernel", "op": "Const", "attr": {"value": {"tensor": {"dtype": "DT_FLOAT", "tensorShape": {"dim": [{"size": "3"}, {"size": "3"}, {"size": "64"}, {"size": "1"}]}}}, "dtype": {"type": "DT_FLOAT"}}}, {"name": "fpn_cells/cell_2/fnode5/mul_2", "op": "Const", "attr": {"value": {"tensor": {"dtype": "DT_FLOAT", "tensorShape": {}}}, "dtype": {"type": "DT_FLOAT"}}}, {"name": "fpn_cells/cell_2/fnode5/op_after_combine10/conv/depthwise_kernel", "op": "Const", "attr": {"value": {"tensor": {"dtype": "DT_FLOAT", "tensorShape": {"dim": [{"size": "3"}, {"size": "3"}, {"size": "64"}, {"size": "1"}]}}}, "dtype": {"type": "DT_FLOAT"}}}, {"name": "fpn_cells/cell_2/fnode6/mul_2", "op": "Const", "attr": {"value": {"tensor": {"dtype": "DT_FLOAT", "tensorShape": {}}}, "dtype": {"type": "DT_FLOAT"}}}, {"name": "fpn_cells/cell_2/fnode6/op_after_combine11/conv/depthwise_kernel", "op": "Const", "attr": {"value": {"tensor": {"dtype": "DT_FLOAT", "tensorShape": {"dim": [{"size": "3"}, {"size": "3"}, {"size": "64"}, {"size": "1"}]}}}, "dtype": {"type": "DT_FLOAT"}}}, {"name": "fpn_cells/cell_2/fnode7/mul_1", "op": "Const", "attr": {"value": {"tensor": {"dtype": "DT_FLOAT", "tensorShape": {}}}, "dtype": {"type": "DT_FLOAT"}}}, {"name": "fpn_cells/cell_2/fnode7/op_after_combine12/conv/depthwise_kernel", "op": "Const", "attr": {"value": {"tensor": {"dtype": "DT_FLOAT", "tensorShape": {"dim": [{"size": "3"}, {"size": "3"}, {"size": "64"}, {"size": "1"}]}}}, "dtype": {"type": "DT_FLOAT"}}}, {"name": "class_net/class-0/depthwise_kernel", "op": "Const", "attr": {"value": {"tensor": {"dtype": "DT_FLOAT", "tensorShape": {"dim": [{"size": "3"}, {"size": "3"}, {"size": "64"}, {"size": "1"}]}}}, "dtype": {"type": "DT_FLOAT"}}}, {"name": "class_net/class-1/depthwise_kernel", "op": "Const", "attr": {"value": {"tensor": {"dtype": "DT_FLOAT", "tensorShape": {"dim": [{"size": "3"}, {"size": "3"}, {"size": "64"}, {"size": "1"}]}}}, "dtype": {"type": "DT_FLOAT"}}}, {"name": "class_net/class-2/depthwise_kernel", "op": "Const", "attr": {"value": {"tensor": {"dtype": "DT_FLOAT", "tensorShape": {"dim": [{"size": "3"}, {"size": "3"}, {"size": "64"}, {"size": "1"}]}}}, "dtype": {"type": "DT_FLOAT"}}}, {"name": "class_net/class-predict/depthwise_kernel", "op": "Const", "attr": {"value": {"tensor": {"dtype": "DT_FLOAT", "tensorShape": {"dim": [{"size": "3"}, {"size": "3"}, {"size": "64"}, {"size": "1"}]}}}, "dtype": {"type": "DT_FLOAT"}}}, {"name": "class_net/class-predict/pointwise_kernel", "op": "Const", "attr": {"value": {"tensor": {"dtype": "DT_FLOAT", "tensorShape": {"dim": [{"size": "1"}, {"size": "1"}, {"size": "64"}, {"size": "810"}]}}}, "dtype": {"type": "DT_FLOAT"}}}, {"name": "class_net/class-predict/bias", "op": "Const", "attr": {"dtype": {"type": "DT_FLOAT"}, "value": {"tensor": {"dtype": "DT_FLOAT", "tensorShape": {"dim": [{"size": "810"}]}}}}}, {"name": "input", "op": "Placeholder", "attr": {"shape": {"shape": {"dim": [{"size": "1"}, {"size": "512"}, {"size": "512"}, {"size": "3"}]}}, "dtype": {"type": "DT_FLOAT"}}}, {"name": "efficientnet-b0/stem/conv2d/Conv2D_weights", "op": "Const", "attr": {"value": {"tensor": {"dtype": "DT_FLOAT", "tensorShape": {"dim": [{"size": "3"}, {"size": "3"}, {"size": "3"}, {"size": "32"}]}}}, "dtype": {"type": "DT_FLOAT"}}}, {"name": "efficientnet-b0/stem/conv2d/Conv2D_bn_offset", "op": "Const", "attr": {"value": {"tensor": {"dtype": "DT_FLOAT", "tensorShape": {"dim": [{"size": "32"}]}}}, "dtype": {"type": "DT_FLOAT"}}}, {"name": "efficientnet-b0/blocks_0/depthwise_conv2d/depthwise_weights", "op": "Const", "attr": {"value": {"tensor": {"dtype": "DT_FLOAT", "tensorShape": {"dim": [{"size": "3"}, {"size": "3"}, {"size": "32"}, {"size": "1"}]}}}, "dtype": {"type": "DT_FLOAT"}}}, {"name": "efficientnet-b0/blocks_0/depthwise_conv2d/depthwise_bn_offset", "op": "Const", "attr": {"dtype": {"type": "DT_FLOAT"}, "value": {"tensor": {"dtype": "DT_FLOAT", "tensorShape": {"dim": [{"size": "32"}]}}}}}, {"name": "efficientnet-b0/blocks_0/conv2d/Conv2D_weights", "op": "Const", "attr": {"value": {"tensor": {"dtype": "DT_FLOAT", "tensorShape": {"dim": [{"size": "1"}, {"size": "1"}, {"size": "32"}, {"size": "16"}]}}}, "dtype": {"type": "DT_FLOAT"}}}, {"name": "efficientnet-b0/blocks_0/conv2d/Conv2D_bn_offset", "op": "Const", "attr": {"value": {"tensor": {"dtype": "DT_FLOAT", "tensorShape": {"dim": [{"size": "16"}]}}}, "dtype": {"type": "DT_FLOAT"}}}, {"name": "efficientnet-b0/blocks_1/conv2d/Conv2D_weights", "op": "Const", "attr": {"value": {"tensor": {"dtype": "DT_FLOAT", "tensorShape": {"dim": [{"size": "1"}, {"size": "1"}, {"size": "16"}, {"size": "96"}]}}}, "dtype": {"type": "DT_FLOAT"}}}, {"name": "box_net/box-1_2/separable_conv2d_weights", "op": "Const", "attr": {"value": {"tensor": {"dtype": "DT_FLOAT", "tensorShape": {"dim": [{"size": "1"}, {"size": "1"}, {"size": "64"}, {"size": "64"}]}}}, "dtype": {"type": "DT_FLOAT"}}}, {"name": "efficientnet-b0/blocks_1/conv2d/Conv2D_bn_offset", "op": "Const", "attr": {"dtype": {"type": "DT_FLOAT"}, "value": {"tensor": {"dtype": "DT_FLOAT", "tensorShape": {"dim": [{"size": "96"}]}}}}}, {"name": "efficientnet-b0/blocks_1/depthwise_conv2d/depthwise_weights", "op": "Const", "attr": {"value": {"tensor": {"dtype": "DT_FLOAT", "tensorShape": {"dim": [{"size": "3"}, {"size": "3"}, {"size": "96"}, {"size": "1"}]}}}, "dtype": {"type": "DT_FLOAT"}}}, {"name": "efficientnet-b0/blocks_1/depthwise_conv2d/depthwise_bn_offset", "op": "Const", "attr": {"value": {"tensor": {"dtype": "DT_FLOAT", "tensorShape": {"dim": [{"size": "96"}]}}}, "dtype": {"type": "DT_FLOAT"}}}, {"name": "class_net/class-1_4/separable_conv2d_bn_offset", "op": "Const", "attr": {"value": {"tensor": {"dtype": "DT_FLOAT", "tensorShape": {"dim": [{"size": "64"}]}}}, "dtype": {"type": "DT_FLOAT"}}}, {"name": "box_net/box-1_2/separable_conv2d_bn_offset", "op": "Const", "attr": {"dtype": {"type": "DT_FLOAT"}, "value": {"tensor": {"dtype": "DT_FLOAT", "tensorShape": {"dim": [{"size": "64"}]}}}}}, {"name": "efficientnet-b0/blocks_1/conv2d_1/Conv2D_weights", "op": "Const", "attr": {"value": {"tensor": {"dtype": "DT_FLOAT", "tensorShape": {"dim": [{"size": "1"}, {"size": "1"}, {"size": "96"}, {"size": "24"}]}}}, "dtype": {"type": "DT_FLOAT"}}}, {"name": "efficientnet-b0/blocks_1/conv2d_1/Conv2D_bn_offset", "op": "Const", "attr": {"value": {"tensor": {"dtype": "DT_FLOAT", "tensorShape": {"dim": [{"size": "24"}]}}}, "dtype": {"type": "DT_FLOAT"}}}, {"name": "efficientnet-b0/blocks_2/conv2d/Conv2D_weights", "op": "Const", "attr": {"value": {"tensor": {"dtype": "DT_FLOAT", "tensorShape": {"dim": [{"size": "1"}, {"size": "1"}, {"size": "24"}, {"size": "144"}]}}}, "dtype": {"type": "DT_FLOAT"}}}, {"name": "efficientnet-b0/blocks_2/conv2d/Conv2D_bn_offset", "op": "Const", "attr": {"value": {"tensor": {"dtype": "DT_FLOAT", "tensorShape": {"dim": [{"size": "144"}]}}}, "dtype": {"type": "DT_FLOAT"}}}, {"name": "efficientnet-b0/blocks_2/depthwise_conv2d/depthwise_weights", "op": "Const", "attr": {"value": {"tensor": {"dtype": "DT_FLOAT", "tensorShape": {"dim": [{"size": "3"}, {"size": "3"}, {"size": "144"}, {"size": "1"}]}}}, "dtype": {"type": "DT_FLOAT"}}}, {"name": "efficientnet-b0/blocks_2/depthwise_conv2d/depthwise_bn_offset", "op": "Const", "attr": {"value": {"tensor": {"dtype": "DT_FLOAT", "tensorShape": {"dim": [{"size": "144"}]}}}, "dtype": {"type": "DT_FLOAT"}}}, {"name": "efficientnet-b0/blocks_2/conv2d_1/Conv2D_weights", "op": "Const", "attr": {"value": {"tensor": {"dtype": "DT_FLOAT", "tensorShape": {"dim": [{"size": "1"}, {"size": "1"}, {"size": "144"}, {"size": "24"}]}}}, "dtype": {"type": "DT_FLOAT"}}}, {"name": "class_net/class-1_2/separable_conv2d_weights", "op": "Const", "attr": {"value": {"tensor": {"dtype": "DT_FLOAT", "tensorShape": {"dim": [{"size": "1"}, {"size": "1"}, {"size": "64"}, {"size": "64"}]}}}, "dtype": {"type": "DT_FLOAT"}}}, {"name": "efficientnet-b0/blocks_2/conv2d_1/Conv2D_bn_offset", "op": "Const", "attr": {"value": {"tensor": {"dtype": "DT_FLOAT", "tensorShape": {"dim": [{"size": "24"}]}}}, "dtype": {"type": "DT_FLOAT"}}}, {"name": "efficientnet-b0/blocks_3/conv2d/Conv2D_weights", "op": "Const", "attr": {"dtype": {"type": "DT_FLOAT"}, "value": {"tensor": {"dtype": "DT_FLOAT", "tensorShape": {"dim": [{"size": "1"}, {"size": "1"}, {"size": "24"}, {"size": "144"}]}}}}}, {"name": "efficientnet-b0/blocks_3/conv2d/Conv2D_bn_offset", "op": "Const", "attr": {"value": {"tensor": {"dtype": "DT_FLOAT", "tensorShape": {"dim": [{"size": "144"}]}}}, "dtype": {"type": "DT_FLOAT"}}}, {"name": "efficientnet-b0/blocks_3/depthwise_conv2d/depthwise_weights", "op": "Const", "attr": {"value": {"tensor": {"dtype": "DT_FLOAT", "tensorShape": {"dim": [{"size": "5"}, {"size": "5"}, {"size": "144"}, {"size": "1"}]}}}, "dtype": {"type": "DT_FLOAT"}}}, {"name": "efficientnet-b0/blocks_3/depthwise_conv2d/depthwise_bn_offset", "op": "Const", "attr": {"value": {"tensor": {"dtype": "DT_FLOAT", "tensorShape": {"dim": [{"size": "144"}]}}}, "dtype": {"type": "DT_FLOAT"}}}, {"name": "class_net/class-1_2/separable_conv2d_bn_offset", "op": "Const", "attr": {"value": {"tensor": {"dtype": "DT_FLOAT", "tensorShape": {"dim": [{"size": "64"}]}}}, "dtype": {"type": "DT_FLOAT"}}}, {"name": "efficientnet-b0/blocks_3/conv2d_1/Conv2D_weights", "op": "Const", "attr": {"dtype": {"type": "DT_FLOAT"}, "value": {"tensor": {"dtype": "DT_FLOAT", "tensorShape": {"dim": [{"size": "1"}, {"size": "1"}, {"size": "144"}, {"size": "40"}]}}}}}, {"name": "efficientnet-b0/blocks_3/conv2d_1/Conv2D_bn_offset", "op": "Const", "attr": {"value": {"tensor": {"dtype": "DT_FLOAT", "tensorShape": {"dim": [{"size": "40"}]}}}, "dtype": {"type": "DT_FLOAT"}}}, {"name": "efficientnet-b0/blocks_4/conv2d/Conv2D_weights", "op": "Const", "attr": {"value": {"tensor": {"dtype": "DT_FLOAT", "tensorShape": {"dim": [{"size": "1"}, {"size": "1"}, {"size": "40"}, {"size": "240"}]}}}, "dtype": {"type": "DT_FLOAT"}}}, {"name": "efficientnet-b0/blocks_4/conv2d/Conv2D_bn_offset", "op": "Const", "attr": {"value": {"tensor": {"dtype": "DT_FLOAT", "tensorShape": {"dim": [{"size": "240"}]}}}, "dtype": {"type": "DT_FLOAT"}}}, {"name": "efficientnet-b0/blocks_4/depthwise_conv2d/depthwise_weights", "op": "Const", "attr": {"value": {"tensor": {"dtype": "DT_FLOAT", "tensorShape": {"dim": [{"size": "5"}, {"size": "5"}, {"size": "240"}, {"size": "1"}]}}}, "dtype": {"type": "DT_FLOAT"}}}, {"name": "efficientnet-b0/blocks_4/depthwise_conv2d/depthwise_bn_offset", "op": "Const", "attr": {"dtype": {"type": "DT_FLOAT"}, "value": {"tensor": {"dtype": "DT_FLOAT", "tensorShape": {"dim": [{"size": "240"}]}}}}}, {"name": "box_net/box-0_3/separable_conv2d_weights", "op": "Const", "attr": {"value": {"tensor": {"dtype": "DT_FLOAT", "tensorShape": {"dim": [{"size": "1"}, {"size": "1"}, {"size": "64"}, {"size": "64"}]}}}, "dtype": {"type": "DT_FLOAT"}}}, {"name": "efficientnet-b0/blocks_4/conv2d_1/Conv2D_weights", "op": "Const", "attr": {"value": {"tensor": {"dtype": "DT_FLOAT", "tensorShape": {"dim": [{"size": "1"}, {"size": "1"}, {"size": "240"}, {"size": "40"}]}}}, "dtype": {"type": "DT_FLOAT"}}}, {"name": "efficientnet-b0/blocks_4/conv2d_1/Conv2D_bn_offset", "op": "Const", "attr": {"value": {"tensor": {"dtype": "DT_FLOAT", "tensorShape": {"dim": [{"size": "40"}]}}}, "dtype": {"type": "DT_FLOAT"}}}, {"name": "efficientnet-b0/blocks_5/conv2d/Conv2D_weights", "op": "Const", "attr": {"dtype": {"type": "DT_FLOAT"}, "value": {"tensor": {"dtype": "DT_FLOAT", "tensorShape": {"dim": [{"size": "1"}, {"size": "1"}, {"size": "40"}, {"size": "240"}]}}}}}, {"name": "box_net/box-0_3/separable_conv2d_bn_offset", "op": "Const", "attr": {"value": {"tensor": {"dtype": "DT_FLOAT", "tensorShape": {"dim": [{"size": "64"}]}}}, "dtype": {"type": "DT_FLOAT"}}}, {"name": "efficientnet-b0/blocks_5/conv2d/Conv2D_bn_offset", "op": "Const", "attr": {"value": {"tensor": {"dtype": "DT_FLOAT", "tensorShape": {"dim": [{"size": "240"}]}}}, "dtype": {"type": "DT_FLOAT"}}}, {"name": "fpn_cells/cell_0/fnode3/resample_0_0_8/conv2d/Conv2D_weights", "op": "Const", "attr": {"dtype": {"type": "DT_FLOAT"}, "value": {"tensor": {"dtype": "DT_FLOAT", "tensorShape": {"dim": [{"size": "1"}, {"size": "1"}, {"size": "40"}, {"size": "64"}]}}}}}, {"name": "fpn_cells/cell_0/fnode3/resample_0_0_8/conv2d/Conv2D_bn_offset", "op": "Const", "attr": {"value": {"tensor": {"dtype": "DT_FLOAT", "tensorShape": {"dim": [{"size": "64"}]}}}, "dtype": {"type": "DT_FLOAT"}}}, {"name": "efficientnet-b0/blocks_5/depthwise_conv2d/depthwise_weights", "op": "Const", "attr": {"dtype": {"type": "DT_FLOAT"}, "value": {"tensor": {"dtype": "DT_FLOAT", "tensorShape": {"dim": [{"size": "3"}, {"size": "3"}, {"size": "240"}, {"size": "1"}]}}}}}, {"name": "efficientnet-b0/blocks_5/depthwise_conv2d/depthwise_bn_offset", "op": "Const", "attr": {"value": {"tensor": {"dtype": "DT_FLOAT", "tensorShape": {"dim": [{"size": "240"}]}}}, "dtype": {"type": "DT_FLOAT"}}}, {"name": "efficientnet-b0/blocks_5/conv2d_1/Conv2D_weights", "op": "Const", "attr": {"value": {"tensor": {"dtype": "DT_FLOAT", "tensorShape": {"dim": [{"size": "1"}, {"size": "1"}, {"size": "240"}, {"size": "80"}]}}}, "dtype": {"type": "DT_FLOAT"}}}, {"name": "efficientnet-b0/blocks_5/conv2d_1/Conv2D_bn_offset", "op": "Const", "attr": {"value": {"tensor": {"dtype": "DT_FLOAT", "tensorShape": {"dim": [{"size": "80"}]}}}, "dtype": {"type": "DT_FLOAT"}}}, {"name": "efficientnet-b0/blocks_6/conv2d/Conv2D_weights", "op": "Const", "attr": {"dtype": {"type": "DT_FLOAT"}, "value": {"tensor": {"dtype": "DT_FLOAT", "tensorShape": {"dim": [{"size": "1"}, {"size": "1"}, {"size": "80"}, {"size": "480"}]}}}}}, {"name": "class_net/class-0_3/separable_conv2d_weights", "op": "Const", "attr": {"value": {"tensor": {"dtype": "DT_FLOAT", "tensorShape": {"dim": [{"size": "1"}, {"size": "1"}, {"size": "64"}, {"size": "64"}]}}}, "dtype": {"type": "DT_FLOAT"}}}, {"name": "efficientnet-b0/blocks_6/conv2d/Conv2D_bn_offset", "op": "Const", "attr": {"value": {"tensor": {"dtype": "DT_FLOAT", "tensorShape": {"dim": [{"size": "480"}]}}}, "dtype": {"type": "DT_FLOAT"}}}, {"name": "efficientnet-b0/blocks_6/depthwise_conv2d/depthwise_weights", "op": "Const", "attr": {"value": {"tensor": {"dtype": "DT_FLOAT", "tensorShape": {"dim": [{"size": "3"}, {"size": "3"}, {"size": "480"}, {"size": "1"}]}}}, "dtype": {"type": "DT_FLOAT"}}}, {"name": "efficientnet-b0/blocks_6/depthwise_conv2d/depthwise_bn_offset", "op": "Const", "attr": {"value": {"tensor": {"dtype": "DT_FLOAT", "tensorShape": {"dim": [{"size": "480"}]}}}, "dtype": {"type": "DT_FLOAT"}}}, {"name": "class_net/class-0_3/separable_conv2d_bn_offset", "op": "Const", "attr": {"value": {"tensor": {"dtype": "DT_FLOAT", "tensorShape": {"dim": [{"size": "64"}]}}}, "dtype": {"type": "DT_FLOAT"}}}, {"name": "efficientnet-b0/blocks_6/conv2d_1/Conv2D_weights", "op": "Const", "attr": {"value": {"tensor": {"dtype": "DT_FLOAT", "tensorShape": {"dim": [{"size": "1"}, {"size": "1"}, {"size": "480"}, {"size": "80"}]}}}, "dtype": {"type": "DT_FLOAT"}}}, {"name": "efficientnet-b0/blocks_6/conv2d_1/Conv2D_bn_offset", "op": "Const", "attr": {"value": {"tensor": {"dtype": "DT_FLOAT", "tensorShape": {"dim": [{"size": "80"}]}}}, "dtype": {"type": "DT_FLOAT"}}}, {"name": "efficientnet-b0/blocks_7/conv2d/Conv2D_weights", "op": "Const", "attr": {"value": {"tensor": {"dtype": "DT_FLOAT", "tensorShape": {"dim": [{"size": "1"}, {"size": "1"}, {"size": "80"}, {"size": "480"}]}}}, "dtype": {"type": "DT_FLOAT"}}}, {"name": "efficientnet-b0/blocks_7/conv2d/Conv2D_bn_offset", "op": "Const", "attr": {"value": {"tensor": {"dtype": "DT_FLOAT", "tensorShape": {"dim": [{"size": "480"}]}}}, "dtype": {"type": "DT_FLOAT"}}}, {"name": "efficientnet-b0/blocks_7/depthwise_conv2d/depthwise_weights", "op": "Const", "attr": {"dtype": {"type": "DT_FLOAT"}, "value": {"tensor": {"dtype": "DT_FLOAT", "tensorShape": {"dim": [{"size": "3"}, {"size": "3"}, {"size": "480"}, {"size": "1"}]}}}}}, {"name": "efficientnet-b0/blocks_7/depthwise_conv2d/depthwise_bn_offset", "op": "Const", "attr": {"value": {"tensor": {"dtype": "DT_FLOAT", "tensorShape": {"dim": [{"size": "480"}]}}}, "dtype": {"type": "DT_FLOAT"}}}, {"name": "efficientnet-b0/blocks_7/conv2d_1/Conv2D_weights", "op": "Const", "attr": {"value": {"tensor": {"dtype": "DT_FLOAT", "tensorShape": {"dim": [{"size": "1"}, {"size": "1"}, {"size": "480"}, {"size": "80"}]}}}, "dtype": {"type": "DT_FLOAT"}}}, {"name": "box_net/box-2_2/separable_conv2d_weights", "op": "Const", "attr": {"value": {"tensor": {"dtype": "DT_FLOAT", "tensorShape": {"dim": [{"size": "1"}, {"size": "1"}, {"size": "64"}, {"size": "64"}]}}}, "dtype": {"type": "DT_FLOAT"}}}, {"name": "efficientnet-b0/blocks_7/conv2d_1/Conv2D_bn_offset", "op": "Const", "attr": {"value": {"tensor": {"dtype": "DT_FLOAT", "tensorShape": {"dim": [{"size": "80"}]}}}, "dtype": {"type": "DT_FLOAT"}}}, {"name": "efficientnet-b0/blocks_8/conv2d/Conv2D_weights", "op": "Const", "attr": {"value": {"tensor": {"dtype": "DT_FLOAT", "tensorShape": {"dim": [{"size": "1"}, {"size": "1"}, {"size": "80"}, {"size": "480"}]}}}, "dtype": {"type": "DT_FLOAT"}}}, {"name": "efficientnet-b0/blocks_8/conv2d/Conv2D_bn_offset", "op": "Const", "attr": {"value": {"tensor": {"dtype": "DT_FLOAT", "tensorShape": {"dim": [{"size": "480"}]}}}, "dtype": {"type": "DT_FLOAT"}}}, {"name": "efficientnet-b0/blocks_8/depthwise_conv2d/depthwise_weights", "op": "Const", "attr": {"value": {"tensor": {"dtype": "DT_FLOAT", "tensorShape": {"dim": [{"size": "5"}, {"size": "5"}, {"size": "480"}, {"size": "1"}]}}}, "dtype": {"type": "DT_FLOAT"}}}, {"name": "efficientnet-b0/blocks_8/depthwise_conv2d/depthwise_bn_offset", "op": "Const", "attr": {"value": {"tensor": {"dtype": "DT_FLOAT", "tensorShape": {"dim": [{"size": "480"}]}}}, "dtype": {"type": "DT_FLOAT"}}}, {"name": "box_net/box-2_2/separable_conv2d_bn_offset", "op": "Const", "attr": {"value": {"tensor": {"dtype": "DT_FLOAT", "tensorShape": {"dim": [{"size": "64"}]}}}, "dtype": {"type": "DT_FLOAT"}}}, {"name": "efficientnet-b0/blocks_8/conv2d_1/Conv2D_weights", "op": "Const", "attr": {"dtype": {"type": "DT_FLOAT"}, "value": {"tensor": {"dtype": "DT_FLOAT", "tensorShape": {"dim": [{"size": "1"}, {"size": "1"}, {"size": "480"}, {"size": "112"}]}}}}}, {"name": "efficientnet-b0/blocks_8/conv2d_1/Conv2D_bn_offset", "op": "Const", "attr": {"dtype": {"type": "DT_FLOAT"}, "value": {"tensor": {"dtype": "DT_FLOAT", "tensorShape": {"dim": [{"size": "112"}]}}}}}, {"name": "efficientnet-b0/blocks_9/conv2d/Conv2D_weights", "op": "Const", "attr": {"value": {"tensor": {"dtype": "DT_FLOAT", "tensorShape": {"dim": [{"size": "1"}, {"size": "1"}, {"size": "112"}, {"size": "672"}]}}}, "dtype": {"type": "DT_FLOAT"}}}, {"name": "efficientnet-b0/blocks_9/conv2d/Conv2D_bn_offset", "op": "Const", "attr": {"value": {"tensor": {"dtype": "DT_FLOAT", "tensorShape": {"dim": [{"size": "672"}]}}}, "dtype": {"type": "DT_FLOAT"}}}, {"name": "efficientnet-b0/blocks_9/depthwise_conv2d/depthwise_weights", "op": "Const", "attr": {"value": {"tensor": {"dtype": "DT_FLOAT", "tensorShape": {"dim": [{"size": "5"}, {"size": "5"}, {"size": "672"}, {"size": "1"}]}}}, "dtype": {"type": "DT_FLOAT"}}}, {"name": "efficientnet-b0/blocks_9/depthwise_conv2d/depthwise_bn_offset", "op": "Const", "attr": {"value": {"tensor": {"dtype": "DT_FLOAT", "tensorShape": {"dim": [{"size": "672"}]}}}, "dtype": {"type": "DT_FLOAT"}}}, {"name": "box_net/box-2_4/separable_conv2d_weights", "op": "Const", "attr": {"value": {"tensor": {"dtype": "DT_FLOAT", "tensorShape": {"dim": [{"size": "1"}, {"size": "1"}, {"size": "64"}, {"size": "64"}]}}}, "dtype": {"type": "DT_FLOAT"}}}, {"name": "efficientnet-b0/blocks_9/conv2d_1/Conv2D_weights", "op": "Const", "attr": {"value": {"tensor": {"dtype": "DT_FLOAT", "tensorShape": {"dim": [{"size": "1"}, {"size": "1"}, {"size": "672"}, {"size": "112"}]}}}, "dtype": {"type": "DT_FLOAT"}}}, {"name": "efficientnet-b0/blocks_9/conv2d_1/Conv2D_bn_offset", "op": "Const", "attr": {"value": {"tensor": {"dtype": "DT_FLOAT", "tensorShape": {"dim": [{"size": "112"}]}}}, "dtype": {"type": "DT_FLOAT"}}}, {"name": "efficientnet-b0/blocks_10/conv2d/Conv2D_weights", "op": "Const", "attr": {"value": {"tensor": {"dtype": "DT_FLOAT", "tensorShape": {"dim": [{"size": "1"}, {"size": "1"}, {"size": "112"}, {"size": "672"}]}}}, "dtype": {"type": "DT_FLOAT"}}}, {"name": "class_net/class-2_2/separable_conv2d_weights", "op": "Const", "attr": {"value": {"tensor": {"dtype": "DT_FLOAT", "tensorShape": {"dim": [{"size": "1"}, {"size": "1"}, {"size": "64"}, {"size": "64"}]}}}, "dtype": {"type": "DT_FLOAT"}}}, {"name": "efficientnet-b0/blocks_10/conv2d/Conv2D_bn_offset", "op": "Const", "attr": {"dtype": {"type": "DT_FLOAT"}, "value": {"tensor": {"dtype": "DT_FLOAT", "tensorShape": {"dim": [{"size": "672"}]}}}}}, {"name": "efficientnet-b0/blocks_10/depthwise_conv2d/depthwise_weights", "op": "Const", "attr": {"dtype": {"type": "DT_FLOAT"}, "value": {"tensor": {"dtype": "DT_FLOAT", "tensorShape": {"dim": [{"size": "5"}, {"size": "5"}, {"size": "672"}, {"size": "1"}]}}}}}, {"name": "efficientnet-b0/blocks_10/depthwise_conv2d/depthwise_bn_offset", "op": "Const", "attr": {"dtype": {"type": "DT_FLOAT"}, "value": {"tensor": {"dtype": "DT_FLOAT", "tensorShape": {"dim": [{"size": "672"}]}}}}}, {"name": "class_net/class-2_2/separable_conv2d_bn_offset", "op": "Const", "attr": {"value": {"tensor": {"dtype": "DT_FLOAT", "tensorShape": {"dim": [{"size": "64"}]}}}, "dtype": {"type": "DT_FLOAT"}}}, {"name": "efficientnet-b0/blocks_10/conv2d_1/Conv2D_weights", "op": "Const", "attr": {"dtype": {"type": "DT_FLOAT"}, "value": {"tensor": {"dtype": "DT_FLOAT", "tensorShape": {"dim": [{"size": "1"}, {"size": "1"}, {"size": "672"}, {"size": "112"}]}}}}}, {"name": "efficientnet-b0/blocks_10/conv2d_1/Conv2D_bn_offset", "op": "Const", "attr": {"value": {"tensor": {"dtype": "DT_FLOAT", "tensorShape": {"dim": [{"size": "112"}]}}}, "dtype": {"type": "DT_FLOAT"}}}, {"name": "efficientnet-b0/blocks_11/conv2d/Conv2D_weights", "op": "Const", "attr": {"value": {"tensor": {"dtype": "DT_FLOAT", "tensorShape": {"dim": [{"size": "1"}, {"size": "1"}, {"size": "112"}, {"size": "672"}]}}}, "dtype": {"type": "DT_FLOAT"}}}, {"name": "efficientnet-b0/blocks_11/conv2d/Conv2D_bn_offset", "op": "Const", "attr": {"dtype": {"type": "DT_FLOAT"}, "value": {"tensor": {"dtype": "DT_FLOAT", "tensorShape": {"dim": [{"size": "672"}]}}}}}, {"name": "fpn_cells/cell_0/fnode4/resample_0_1_9/conv2d/Conv2D_weights", "op": "Const", "attr": {"value": {"tensor": {"dtype": "DT_FLOAT", "tensorShape": {"dim": [{"size": "1"}, {"size": "1"}, {"size": "112"}, {"size": "64"}]}}}, "dtype": {"type": "DT_FLOAT"}}}, {"name": "fpn_cells/cell_0/fnode4/resample_0_1_9/conv2d/Conv2D_bn_offset", "op": "Const", "attr": {"value": {"tensor": {"dtype": "DT_FLOAT", "tensorShape": {"dim": [{"size": "64"}]}}}, "dtype": {"type": "DT_FLOAT"}}}, {"name": "fpn_cells/cell_0/fnode2/resample_0_1_7/conv2d/Conv2D_weights", "op": "Const", "attr": {"value": {"tensor": {"dtype": "DT_FLOAT", "tensorShape": {"dim": [{"size": "1"}, {"size": "1"}, {"size": "112"}, {"size": "64"}]}}}, "dtype": {"type": "DT_FLOAT"}}}, {"name": "fpn_cells/cell_0/fnode2/resample_0_1_7/conv2d/Conv2D_bn_offset", "op": "Const", "attr": {"dtype": {"type": "DT_FLOAT"}, "value": {"tensor": {"dtype": "DT_FLOAT", "tensorShape": {"dim": [{"size": "64"}]}}}}}, {"name": "efficientnet-b0/blocks_11/depthwise_conv2d/depthwise_weights", "op": "Const", "attr": {"value": {"tensor": {"dtype": "DT_FLOAT", "tensorShape": {"dim": [{"size": "5"}, {"size": "5"}, {"size": "672"}, {"size": "1"}]}}}, "dtype": {"type": "DT_FLOAT"}}}, {"name": "efficientnet-b0/blocks_11/depthwise_conv2d/depthwise_bn_offset", "op": "Const", "attr": {"value": {"tensor": {"dtype": "DT_FLOAT", "tensorShape": {"dim": [{"size": "672"}]}}}, "dtype": {"type": "DT_FLOAT"}}}, {"name": "box_net/box-2_4/separable_conv2d_bn_offset", "op": "Const", "attr": {"dtype": {"type": "DT_FLOAT"}, "value": {"tensor": {"dtype": "DT_FLOAT", "tensorShape": {"dim": [{"size": "64"}]}}}}}, {"name": "efficientnet-b0/blocks_11/conv2d_1/Conv2D_weights", "op": "Const", "attr": {"value": {"tensor": {"dtype": "DT_FLOAT", "tensorShape": {"dim": [{"size": "1"}, {"size": "1"}, {"size": "672"}, {"size": "192"}]}}}, "dtype": {"type": "DT_FLOAT"}}}, {"name": "fpn_cells/cell_2/fnode7/op_after_combine12/conv/separable_conv2d_weights", "op": "Const", "attr": {"dtype": {"type": "DT_FLOAT"}, "value": {"tensor": {"dtype": "DT_FLOAT", "tensorShape": {"dim": [{"size": "1"}, {"size": "1"}, {"size": "64"}, {"size": "64"}]}}}}}, {"name": "efficientnet-b0/blocks_11/conv2d_1/Conv2D_bn_offset", "op": "Const", "attr": {"value": {"tensor": {"dtype": "DT_FLOAT", "tensorShape": {"dim": [{"size": "192"}]}}}, "dtype": {"type": "DT_FLOAT"}}}, {"name": "efficientnet-b0/blocks_12/conv2d/Conv2D_weights", "op": "Const", "attr": {"value": {"tensor": {"dtype": "DT_FLOAT", "tensorShape": {"dim": [{"size": "1"}, {"size": "1"}, {"size": "192"}, {"size": "1152"}]}}}, "dtype": {"type": "DT_FLOAT"}}}, {"name": "efficientnet-b0/blocks_12/conv2d/Conv2D_bn_offset", "op": "Const", "attr": {"value": {"tensor": {"dtype": "DT_FLOAT", "tensorShape": {"dim": [{"size": "1152"}]}}}, "dtype": {"type": "DT_FLOAT"}}}, {"name": "efficientnet-b0/blocks_12/depthwise_conv2d/depthwise_weights", "op": "Const", "attr": {"dtype": {"type": "DT_FLOAT"}, "value": {"tensor": {"dtype": "DT_FLOAT", "tensorShape": {"dim": [{"size": "5"}, {"size": "5"}, {"size": "1152"}, {"size": "1"}]}}}}}, {"name": "efficientnet-b0/blocks_12/depthwise_conv2d/depthwise_bn_offset", "op": "Const", "attr": {"value": {"tensor": {"dtype": "DT_FLOAT", "tensorShape": {"dim": [{"size": "1152"}]}}}, "dtype": {"type": "DT_FLOAT"}}}, {"name": "fpn_cells/cell_2/fnode7/op_after_combine12/conv/separable_conv2d_bn_offset", "op": "Const", "attr": {"dtype": {"type": "DT_FLOAT"}, "value": {"tensor": {"dtype": "DT_FLOAT", "tensorShape": {"dim": [{"size": "64"}]}}}}}, {"name": "efficientnet-b0/blocks_12/conv2d_1/Conv2D_weights", "op": "Const", "attr": {"value": {"tensor": {"dtype": "DT_FLOAT", "tensorShape": {"dim": [{"size": "1"}, {"size": "1"}, {"size": "1152"}, {"size": "192"}]}}}, "dtype": {"type": "DT_FLOAT"}}}, {"name": "efficientnet-b0/blocks_12/conv2d_1/Conv2D_bn_offset", "op": "Const", "attr": {"dtype": {"type": "DT_FLOAT"}, "value": {"tensor": {"dtype": "DT_FLOAT", "tensorShape": {"dim": [{"size": "192"}]}}}}}, {"name": "efficientnet-b0/blocks_13/conv2d/Conv2D_weights", "op": "Const", "attr": {"dtype": {"type": "DT_FLOAT"}, "value": {"tensor": {"dtype": "DT_FLOAT", "tensorShape": {"dim": [{"size": "1"}, {"size": "1"}, {"size": "192"}, {"size": "1152"}]}}}}}, {"name": "efficientnet-b0/blocks_13/conv2d/Conv2D_bn_offset", "op": "Const", "attr": {"dtype": {"type": "DT_FLOAT"}, "value": {"tensor": {"dtype": "DT_FLOAT", "tensorShape": {"dim": [{"size": "1152"}]}}}}}, {"name": "efficientnet-b0/blocks_13/depthwise_conv2d/depthwise_weights", "op": "Const", "attr": {"value": {"tensor": {"dtype": "DT_FLOAT", "tensorShape": {"dim": [{"size": "5"}, {"size": "5"}, {"size": "1152"}, {"size": "1"}]}}}, "dtype": {"type": "DT_FLOAT"}}}, {"name": "efficientnet-b0/blocks_13/depthwise_conv2d/depthwise_bn_offset", "op": "Const", "attr": {"dtype": {"type": "DT_FLOAT"}, "value": {"tensor": {"dtype": "DT_FLOAT", "tensorShape": {"dim": [{"size": "1152"}]}}}}}, {"name": "box_net/box-1_3/separable_conv2d_weights", "op": "Const", "attr": {"value": {"tensor": {"dtype": "DT_FLOAT", "tensorShape": {"dim": [{"size": "1"}, {"size": "1"}, {"size": "64"}, {"size": "64"}]}}}, "dtype": {"type": "DT_FLOAT"}}}, {"name": "efficientnet-b0/blocks_13/conv2d_1/Conv2D_weights", "op": "Const", "attr": {"value": {"tensor": {"dtype": "DT_FLOAT", "tensorShape": {"dim": [{"size": "1"}, {"size": "1"}, {"size": "1152"}, {"size": "192"}]}}}, "dtype": {"type": "DT_FLOAT"}}}, {"name": "box_net/box-1_3/separable_conv2d_bn_offset", "op": "Const", "attr": {"dtype": {"type": "DT_FLOAT"}, "value": {"tensor": {"dtype": "DT_FLOAT", "tensorShape": {"dim": [{"size": "64"}]}}}}}, {"name": "efficientnet-b0/blocks_13/conv2d_1/Conv2D_bn_offset", "op": "Const", "attr": {"dtype": {"type": "DT_FLOAT"}, "value": {"tensor": {"dtype": "DT_FLOAT", "tensorShape": {"dim": [{"size": "192"}]}}}}}, {"name": "efficientnet-b0/blocks_14/conv2d/Conv2D_weights", "op": "Const", "attr": {"value": {"tensor": {"dtype": "DT_FLOAT", "tensorShape": {"dim": [{"size": "1"}, {"size": "1"}, {"size": "192"}, {"size": "1152"}]}}}, "dtype": {"type": "DT_FLOAT"}}}, {"name": "efficientnet-b0/blocks_14/conv2d/Conv2D_bn_offset", "op": "Const", "attr": {"value": {"tensor": {"dtype": "DT_FLOAT", "tensorShape": {"dim": [{"size": "1152"}]}}}, "dtype": {"type": "DT_FLOAT"}}}, {"name": "efficientnet-b0/blocks_14/depthwise_conv2d/depthwise_weights", "op": "Const", "attr": {"value": {"tensor": {"dtype": "DT_FLOAT", "tensorShape": {"dim": [{"size": "5"}, {"size": "5"}, {"size": "1152"}, {"size": "1"}]}}}, "dtype": {"type": "DT_FLOAT"}}}, {"name": "efficientnet-b0/blocks_14/depthwise_conv2d/depthwise_bn_offset", "op": "Const", "attr": {"value": {"tensor": {"dtype": "DT_FLOAT", "tensorShape": {"dim": [{"size": "1152"}]}}}, "dtype": {"type": "DT_FLOAT"}}}, {"name": "efficientnet-b0/blocks_14/conv2d_1/Conv2D_weights", "op": "Const", "attr": {"value": {"tensor": {"dtype": "DT_FLOAT", "tensorShape": {"dim": [{"size": "1"}, {"size": "1"}, {"size": "1152"}, {"size": "192"}]}}}, "dtype": {"type": "DT_FLOAT"}}}, {"name": "efficientnet-b0/blocks_14/conv2d_1/Conv2D_bn_offset", "op": "Const", "attr": {"value": {"tensor": {"dtype": "DT_FLOAT", "tensorShape": {"dim": [{"size": "192"}]}}}, "dtype": {"type": "DT_FLOAT"}}}, {"name": "efficientnet-b0/blocks_15/conv2d/Conv2D_weights", "op": "Const", "attr": {"value": {"tensor": {"dtype": "DT_FLOAT", "tensorShape": {"dim": [{"size": "1"}, {"size": "1"}, {"size": "192"}, {"size": "1152"}]}}}, "dtype": {"type": "DT_FLOAT"}}}, {"name": "class_net/class-1_3/separable_conv2d_weights", "op": "Const", "attr": {"value": {"tensor": {"dtype": "DT_FLOAT", "tensorShape": {"dim": [{"size": "1"}, {"size": "1"}, {"size": "64"}, {"size": "64"}]}}}, "dtype": {"type": "DT_FLOAT"}}}, {"name": "efficientnet-b0/blocks_15/conv2d/Conv2D_bn_offset", "op": "Const", "attr": {"value": {"tensor": {"dtype": "DT_FLOAT", "tensorShape": {"dim": [{"size": "1152"}]}}}, "dtype": {"type": "DT_FLOAT"}}}, {"name": "efficientnet-b0/blocks_15/depthwise_conv2d/depthwise_weights", "op": "Const", "attr": {"dtype": {"type": "DT_FLOAT"}, "value": {"tensor": {"dtype": "DT_FLOAT", "tensorShape": {"dim": [{"size": "3"}, {"size": "3"}, {"size": "1152"}, {"size": "1"}]}}}}}, {"name": "efficientnet-b0/blocks_15/depthwise_conv2d/depthwise_bn_offset", "op": "Const", "attr": {"value": {"tensor": {"dtype": "DT_FLOAT", "tensorShape": {"dim": [{"size": "1152"}]}}}, "dtype": {"type": "DT_FLOAT"}}}, {"name": "class_net/class-1_3/separable_conv2d_bn_offset", "op": "Const", "attr": {"dtype": {"type": "DT_FLOAT"}, "value": {"tensor": {"dtype": "DT_FLOAT", "tensorShape": {"dim": [{"size": "64"}]}}}}}, {"name": "efficientnet-b0/blocks_15/conv2d_1/Conv2D_weights", "op": "Const", "attr": {"value": {"tensor": {"dtype": "DT_FLOAT", "tensorShape": {"dim": [{"size": "1"}, {"size": "1"}, {"size": "1152"}, {"size": "320"}]}}}, "dtype": {"type": "DT_FLOAT"}}}, {"name": "efficientnet-b0/blocks_15/conv2d_1/Conv2D_bn_offset", "op": "Const", "attr": {"value": {"tensor": {"dtype": "DT_FLOAT", "tensorShape": {"dim": [{"size": "320"}]}}}, "dtype": {"type": "DT_FLOAT"}}}, {"name": "fpn_cells/cell_0/fnode5/resample_0_2_10/conv2d/Conv2D_weights", "op": "Const", "attr": {"value": {"tensor": {"dtype": "DT_FLOAT", "tensorShape": {"dim": [{"size": "1"}, {"size": "1"}, {"size": "320"}, {"size": "64"}]}}}, "dtype": {"type": "DT_FLOAT"}}}, {"name": "fpn_cells/cell_0/fnode5/resample_0_2_10/conv2d/Conv2D_bn_offset", "op": "Const", "attr": {"dtype": {"type": "DT_FLOAT"}, "value": {"tensor": {"dtype": "DT_FLOAT", "tensorShape": {"dim": [{"size": "64"}]}}}}}, {"name": "fpn_cells/cell_0/fnode1/resample_0_2_6/conv2d/Conv2D_weights", "op": "Const", "attr": {"dtype": {"type": "DT_FLOAT"}, "value": {"tensor": {"dtype": "DT_FLOAT", "tensorShape": {"dim": [{"size": "1"}, {"size": "1"}, {"size": "320"}, {"size": "64"}]}}}}}, {"name": "fpn_cells/cell_0/fnode1/resample_0_2_6/conv2d/Conv2D_bn_offset", "op": "Const", "attr": {"dtype": {"type": "DT_FLOAT"}, "value": {"tensor": {"dtype": "DT_FLOAT", "tensorShape": {"dim": [{"size": "64"}]}}}}}, {"name": "resample_p6/conv2d/Conv2D_weights", "op": "Const", "attr": {"value": {"tensor": {"dtype": "DT_FLOAT", "tensorShape": {"dim": [{"size": "1"}, {"size": "1"}, {"size": "320"}, {"size": "64"}]}}}, "dtype": {"type": "DT_FLOAT"}}}, {"name": "resample_p6/conv2d/Conv2D_bn_offset", "op": "Const", "attr": {"value": {"tensor": {"dtype": "DT_FLOAT", "tensorShape": {"dim": [{"size": "64"}]}}}, "dtype": {"type": "DT_FLOAT"}}}, {"name": "fpn_cells/cell_0/fnode0/op_after_combine5/conv/separable_conv2d_weights", "op": "Const", "attr": {"dtype": {"type": "DT_FLOAT"}, "value": {"tensor": {"dtype": "DT_FLOAT", "tensorShape": {"dim": [{"size": "1"}, {"size": "1"}, {"size": "64"}, {"size": "64"}]}}}}}, {"name": "box_net/box-0_4/separable_conv2d_weights", "op": "Const", "attr": {"value": {"tensor": {"dtype": "DT_FLOAT", "tensorShape": {"dim": [{"size": "1"}, {"size": "1"}, {"size": "64"}, {"size": "64"}]}}}, "dtype": {"type": "DT_FLOAT"}}}, {"name": "fpn_cells/cell_0/fnode0/op_after_combine5/conv/separable_conv2d_bn_offset", "op": "Const", "attr": {"value": {"tensor": {"dtype": "DT_FLOAT", "tensorShape": {"dim": [{"size": "64"}]}}}, "dtype": {"type": "DT_FLOAT"}}}, {"name": "fpn_cells/cell_0/fnode1/op_after_combine6/conv/separable_conv2d_weights", "op": "Const", "attr": {"dtype": {"type": "DT_FLOAT"}, "value": {"tensor": {"dtype": "DT_FLOAT", "tensorShape": {"dim": [{"size": "1"}, {"size": "1"}, {"size": "64"}, {"size": "64"}]}}}}}, {"name": "fpn_cells/cell_0/fnode1/op_after_combine6/conv/separable_conv2d_bn_offset", "op": "Const", "attr": {"value": {"tensor": {"dtype": "DT_FLOAT", "tensorShape": {"dim": [{"size": "64"}]}}}, "dtype": {"type": "DT_FLOAT"}}}, {"name": "fpn_cells/cell_0/fnode2/op_after_combine7/conv/separable_conv2d_weights", "op": "Const", "attr": {"value": {"tensor": {"dtype": "DT_FLOAT", "tensorShape": {"dim": [{"size": "1"}, {"size": "1"}, {"size": "64"}, {"size": "64"}]}}}, "dtype": {"type": "DT_FLOAT"}}}, {"name": "box_net/box-0_4/separable_conv2d_bn_offset", "op": "Const", "attr": {"value": {"tensor": {"dtype": "DT_FLOAT", "tensorShape": {"dim": [{"size": "64"}]}}}, "dtype": {"type": "DT_FLOAT"}}}, {"name": "fpn_cells/cell_0/fnode2/op_after_combine7/conv/separable_conv2d_bn_offset", "op": "Const", "attr": {"value": {"tensor": {"dtype": "DT_FLOAT", "tensorShape": {"dim": [{"size": "64"}]}}}, "dtype": {"type": "DT_FLOAT"}}}, {"name": "fpn_cells/cell_0/fnode3/op_after_combine8/conv/separable_conv2d_weights", "op": "Const", "attr": {"value": {"tensor": {"dtype": "DT_FLOAT", "tensorShape": {"dim": [{"size": "1"}, {"size": "1"}, {"size": "64"}, {"size": "64"}]}}}, "dtype": {"type": "DT_FLOAT"}}}, {"name": "fpn_cells/cell_0/fnode3/op_after_combine8/conv/separable_conv2d_bn_offset", "op": "Const", "attr": {"value": {"tensor": {"dtype": "DT_FLOAT", "tensorShape": {"dim": [{"size": "64"}]}}}, "dtype": {"type": "DT_FLOAT"}}}, {"name": "fpn_cells/cell_0/fnode4/op_after_combine9/conv/separable_conv2d_weights", "op": "Const", "attr": {"value": {"tensor": {"dtype": "DT_FLOAT", "tensorShape": {"dim": [{"size": "1"}, {"size": "1"}, {"size": "64"}, {"size": "64"}]}}}, "dtype": {"type": "DT_FLOAT"}}}, {"name": "fpn_cells/cell_0/fnode4/op_after_combine9/conv/separable_conv2d_bn_offset", "op": "Const", "attr": {"dtype": {"type": "DT_FLOAT"}, "value": {"tensor": {"dtype": "DT_FLOAT", "tensorShape": {"dim": [{"size": "64"}]}}}}}, {"name": "fpn_cells/cell_0/fnode5/op_after_combine10/conv/separable_conv2d_weights", "op": "Const", "attr": {"value": {"tensor": {"dtype": "DT_FLOAT", "tensorShape": {"dim": [{"size": "1"}, {"size": "1"}, {"size": "64"}, {"size": "64"}]}}}, "dtype": {"type": "DT_FLOAT"}}}, {"name": "fpn_cells/cell_0/fnode5/op_after_combine10/conv/separable_conv2d_bn_offset", "op": "Const", "attr": {"dtype": {"type": "DT_FLOAT"}, "value": {"tensor": {"dtype": "DT_FLOAT", "tensorShape": {"dim": [{"size": "64"}]}}}}}, {"name": "fpn_cells/cell_0/fnode6/op_after_combine11/conv/separable_conv2d_weights", "op": "Const", "attr": {"value": {"tensor": {"dtype": "DT_FLOAT", "tensorShape": {"dim": [{"size": "1"}, {"size": "1"}, {"size": "64"}, {"size": "64"}]}}}, "dtype": {"type": "DT_FLOAT"}}}, {"name": "fpn_cells/cell_0/fnode6/op_after_combine11/conv/separable_conv2d_bn_offset", "op": "Const", "attr": {"dtype": {"type": "DT_FLOAT"}, "value": {"tensor": {"dtype": "DT_FLOAT", "tensorShape": {"dim": [{"size": "64"}]}}}}}, {"name": "fpn_cells/cell_0/fnode7/op_after_combine12/conv/separable_conv2d_weights", "op": "Const", "attr": {"value": {"tensor": {"dtype": "DT_FLOAT", "tensorShape": {"dim": [{"size": "1"}, {"size": "1"}, {"size": "64"}, {"size": "64"}]}}}, "dtype": {"type": "DT_FLOAT"}}}, {"name": "class_net/class-0_4/separable_conv2d_weights", "op": "Const", "attr": {"value": {"tensor": {"dtype": "DT_FLOAT", "tensorShape": {"dim": [{"size": "1"}, {"size": "1"}, {"size": "64"}, {"size": "64"}]}}}, "dtype": {"type": "DT_FLOAT"}}}, {"name": "fpn_cells/cell_0/fnode7/op_after_combine12/conv/separable_conv2d_bn_offset", "op": "Const", "attr": {"value": {"tensor": {"dtype": "DT_FLOAT", "tensorShape": {"dim": [{"size": "64"}]}}}, "dtype": {"type": "DT_FLOAT"}}}, {"name": "fpn_cells/cell_1/fnode0/op_after_combine5/conv/separable_conv2d_weights", "op": "Const", "attr": {"value": {"tensor": {"dtype": "DT_FLOAT", "tensorShape": {"dim": [{"size": "1"}, {"size": "1"}, {"size": "64"}, {"size": "64"}]}}}, "dtype": {"type": "DT_FLOAT"}}}, {"name": "fpn_cells/cell_1/fnode0/op_after_combine5/conv/separable_conv2d_bn_offset", "op": "Const", "attr": {"dtype": {"type": "DT_FLOAT"}, "value": {"tensor": {"dtype": "DT_FLOAT", "tensorShape": {"dim": [{"size": "64"}]}}}}}, {"name": "fpn_cells/cell_1/fnode1/op_after_combine6/conv/separable_conv2d_weights", "op": "Const", "attr": {"value": {"tensor": {"dtype": "DT_FLOAT", "tensorShape": {"dim": [{"size": "1"}, {"size": "1"}, {"size": "64"}, {"size": "64"}]}}}, "dtype": {"type": "DT_FLOAT"}}}, {"name": "class_net/class-0_4/separable_conv2d_bn_offset", "op": "Const", "attr": {"value": {"tensor": {"dtype": "DT_FLOAT", "tensorShape": {"dim": [{"size": "64"}]}}}, "dtype": {"type": "DT_FLOAT"}}}, {"name": "fpn_cells/cell_1/fnode1/op_after_combine6/conv/separable_conv2d_bn_offset", "op": "Const", "attr": {"dtype": {"type": "DT_FLOAT"}, "value": {"tensor": {"dtype": "DT_FLOAT", "tensorShape": {"dim": [{"size": "64"}]}}}}}, {"name": "fpn_cells/cell_1/fnode2/op_after_combine7/conv/separable_conv2d_weights", "op": "Const", "attr": {"dtype": {"type": "DT_FLOAT"}, "value": {"tensor": {"dtype": "DT_FLOAT", "tensorShape": {"dim": [{"size": "1"}, {"size": "1"}, {"size": "64"}, {"size": "64"}]}}}}}, {"name": "fpn_cells/cell_1/fnode2/op_after_combine7/conv/separable_conv2d_bn_offset", "op": "Const", "attr": {"value": {"tensor": {"dtype": "DT_FLOAT", "tensorShape": {"dim": [{"size": "64"}]}}}, "dtype": {"type": "DT_FLOAT"}}}, {"name": "fpn_cells/cell_1/fnode3/op_after_combine8/conv/separable_conv2d_weights", "op": "Const", "attr": {"dtype": {"type": "DT_FLOAT"}, "value": {"tensor": {"dtype": "DT_FLOAT", "tensorShape": {"dim": [{"size": "1"}, {"size": "1"}, {"size": "64"}, {"size": "64"}]}}}}}, {"name": "fpn_cells/cell_1/fnode3/op_after_combine8/conv/separable_conv2d_bn_offset", "op": "Const", "attr": {"value": {"tensor": {"dtype": "DT_FLOAT", "tensorShape": {"dim": [{"size": "64"}]}}}, "dtype": {"type": "DT_FLOAT"}}}, {"name": "fpn_cells/cell_1/fnode4/op_after_combine9/conv/separable_conv2d_weights", "op": "Const", "attr": {"value": {"tensor": {"dtype": "DT_FLOAT", "tensorShape": {"dim": [{"size": "1"}, {"size": "1"}, {"size": "64"}, {"size": "64"}]}}}, "dtype": {"type": "DT_FLOAT"}}}, {"name": "fpn_cells/cell_1/fnode4/op_after_combine9/conv/separable_conv2d_bn_offset", "op": "Const", "attr": {"value": {"tensor": {"dtype": "DT_FLOAT", "tensorShape": {"dim": [{"size": "64"}]}}}, "dtype": {"type": "DT_FLOAT"}}}, {"name": "fpn_cells/cell_1/fnode5/op_after_combine10/conv/separable_conv2d_weights", "op": "Const", "attr": {"value": {"tensor": {"dtype": "DT_FLOAT", "tensorShape": {"dim": [{"size": "1"}, {"size": "1"}, {"size": "64"}, {"size": "64"}]}}}, "dtype": {"type": "DT_FLOAT"}}}, {"name": "fpn_cells/cell_1/fnode5/op_after_combine10/conv/separable_conv2d_bn_offset", "op": "Const", "attr": {"value": {"tensor": {"dtype": "DT_FLOAT", "tensorShape": {"dim": [{"size": "64"}]}}}, "dtype": {"type": "DT_FLOAT"}}}, {"name": "fpn_cells/cell_1/fnode6/op_after_combine11/conv/separable_conv2d_weights", "op": "Const", "attr": {"dtype": {"type": "DT_FLOAT"}, "value": {"tensor": {"dtype": "DT_FLOAT", "tensorShape": {"dim": [{"size": "1"}, {"size": "1"}, {"size": "64"}, {"size": "64"}]}}}}}, {"name": "box_net/box-2_3/separable_conv2d_weights", "op": "Const", "attr": {"value": {"tensor": {"dtype": "DT_FLOAT", "tensorShape": {"dim": [{"size": "1"}, {"size": "1"}, {"size": "64"}, {"size": "64"}]}}}, "dtype": {"type": "DT_FLOAT"}}}, {"name": "fpn_cells/cell_1/fnode6/op_after_combine11/conv/separable_conv2d_bn_offset", "op": "Const", "attr": {"value": {"tensor": {"dtype": "DT_FLOAT", "tensorShape": {"dim": [{"size": "64"}]}}}, "dtype": {"type": "DT_FLOAT"}}}, {"name": "fpn_cells/cell_1/fnode7/op_after_combine12/conv/separable_conv2d_weights", "op": "Const", "attr": {"value": {"tensor": {"dtype": "DT_FLOAT", "tensorShape": {"dim": [{"size": "1"}, {"size": "1"}, {"size": "64"}, {"size": "64"}]}}}, "dtype": {"type": "DT_FLOAT"}}}, {"name": "fpn_cells/cell_1/fnode7/op_after_combine12/conv/separable_conv2d_bn_offset", "op": "Const", "attr": {"value": {"tensor": {"dtype": "DT_FLOAT", "tensorShape": {"dim": [{"size": "64"}]}}}, "dtype": {"type": "DT_FLOAT"}}}, {"name": "fpn_cells/cell_2/fnode0/op_after_combine5/conv/separable_conv2d_weights", "op": "Const", "attr": {"value": {"tensor": {"dtype": "DT_FLOAT", "tensorShape": {"dim": [{"size": "1"}, {"size": "1"}, {"size": "64"}, {"size": "64"}]}}}, "dtype": {"type": "DT_FLOAT"}}}, {"name": "box_net/box-2_3/separable_conv2d_bn_offset", "op": "Const", "attr": {"value": {"tensor": {"dtype": "DT_FLOAT", "tensorShape": {"dim": [{"size": "64"}]}}}, "dtype": {"type": "DT_FLOAT"}}}, {"name": "fpn_cells/cell_2/fnode0/op_after_combine5/conv/separable_conv2d_bn_offset", "op": "Const", "attr": {"value": {"tensor": {"dtype": "DT_FLOAT", "tensorShape": {"dim": [{"size": "64"}]}}}, "dtype": {"type": "DT_FLOAT"}}}, {"name": "fpn_cells/cell_2/fnode1/op_after_combine6/conv/separable_conv2d_weights", "op": "Const", "attr": {"value": {"tensor": {"dtype": "DT_FLOAT", "tensorShape": {"dim": [{"size": "1"}, {"size": "1"}, {"size": "64"}, {"size": "64"}]}}}, "dtype": {"type": "DT_FLOAT"}}}, {"name": "fpn_cells/cell_2/fnode1/op_after_combine6/conv/separable_conv2d_bn_offset", "op": "Const", "attr": {"value": {"tensor": {"dtype": "DT_FLOAT", "tensorShape": {"dim": [{"size": "64"}]}}}, "dtype": {"type": "DT_FLOAT"}}}, {"name": "fpn_cells/cell_2/fnode2/op_after_combine7/conv/separable_conv2d_weights", "op": "Const", "attr": {"value": {"tensor": {"dtype": "DT_FLOAT", "tensorShape": {"dim": [{"size": "1"}, {"size": "1"}, {"size": "64"}, {"size": "64"}]}}}, "dtype": {"type": "DT_FLOAT"}}}, {"name": "fpn_cells/cell_2/fnode2/op_after_combine7/conv/separable_conv2d_bn_offset", "op": "Const", "attr": {"value": {"tensor": {"dtype": "DT_FLOAT", "tensorShape": {"dim": [{"size": "64"}]}}}, "dtype": {"type": "DT_FLOAT"}}}, {"name": "fpn_cells/cell_2/fnode3/op_after_combine8/conv/separable_conv2d_weights", "op": "Const", "attr": {"value": {"tensor": {"dtype": "DT_FLOAT", "tensorShape": {"dim": [{"size": "1"}, {"size": "1"}, {"size": "64"}, {"size": "64"}]}}}, "dtype": {"type": "DT_FLOAT"}}}, {"name": "fpn_cells/cell_2/fnode3/op_after_combine8/conv/separable_conv2d_bn_offset", "op": "Const", "attr": {"value": {"tensor": {"dtype": "DT_FLOAT", "tensorShape": {"dim": [{"size": "64"}]}}}, "dtype": {"type": "DT_FLOAT"}}}, {"name": "box_net/box-0/separable_conv2d_weights", "op": "Const", "attr": {"dtype": {"type": "DT_FLOAT"}, "value": {"tensor": {"dtype": "DT_FLOAT", "tensorShape": {"dim": [{"size": "1"}, {"size": "1"}, {"size": "64"}, {"size": "64"}]}}}}}, {"name": "box_net/box-0/separable_conv2d_bn_offset", "op": "Const", "attr": {"value": {"tensor": {"dtype": "DT_FLOAT", "tensorShape": {"dim": [{"size": "64"}]}}}, "dtype": {"type": "DT_FLOAT"}}}, {"name": "class_net/class-0/separable_conv2d_weights", "op": "Const", "attr": {"value": {"tensor": {"dtype": "DT_FLOAT", "tensorShape": {"dim": [{"size": "1"}, {"size": "1"}, {"size": "64"}, {"size": "64"}]}}}, "dtype": {"type": "DT_FLOAT"}}}, {"name": "class_net/class-2_4/separable_conv2d_weights", "op": "Const", "attr": {"value": {"tensor": {"dtype": "DT_FLOAT", "tensorShape": {"dim": [{"size": "1"}, {"size": "1"}, {"size": "64"}, {"size": "64"}]}}}, "dtype": {"type": "DT_FLOAT"}}}, {"name": "class_net/class-0/separable_conv2d_bn_offset", "op": "Const", "attr": {"dtype": {"type": "DT_FLOAT"}, "value": {"tensor": {"dtype": "DT_FLOAT", "tensorShape": {"dim": [{"size": "64"}]}}}}}, {"name": "fpn_cells/cell_2/fnode4/op_after_combine9/conv/separable_conv2d_weights", "op": "Const", "attr": {"value": {"tensor": {"dtype": "DT_FLOAT", "tensorShape": {"dim": [{"size": "1"}, {"size": "1"}, {"size": "64"}, {"size": "64"}]}}}, "dtype": {"type": "DT_FLOAT"}}}, {"name": "fpn_cells/cell_2/fnode4/op_after_combine9/conv/separable_conv2d_bn_offset", "op": "Const", "attr": {"value": {"tensor": {"dtype": "DT_FLOAT", "tensorShape": {"dim": [{"size": "64"}]}}}, "dtype": {"type": "DT_FLOAT"}}}, {"name": "box_net/box-1/separable_conv2d_weights", "op": "Const", "attr": {"value": {"tensor": {"dtype": "DT_FLOAT", "tensorShape": {"dim": [{"size": "1"}, {"size": "1"}, {"size": "64"}, {"size": "64"}]}}}, "dtype": {"type": "DT_FLOAT"}}}, {"name": "class_net/class-2_3/separable_conv2d_weights", "op": "Const", "attr": {"value": {"tensor": {"dtype": "DT_FLOAT", "tensorShape": {"dim": [{"size": "1"}, {"size": "1"}, {"size": "64"}, {"size": "64"}]}}}, "dtype": {"type": "DT_FLOAT"}}}, {"name": "box_net/box-1/separable_conv2d_bn_offset", "op": "Const", "attr": {"dtype": {"type": "DT_FLOAT"}, "value": {"tensor": {"dtype": "DT_FLOAT", "tensorShape": {"dim": [{"size": "64"}]}}}}}, {"name": "class_net/class-1/separable_conv2d_weights", "op": "Const", "attr": {"value": {"tensor": {"dtype": "DT_FLOAT", "tensorShape": {"dim": [{"size": "1"}, {"size": "1"}, {"size": "64"}, {"size": "64"}]}}}, "dtype": {"type": "DT_FLOAT"}}}, {"name": "class_net/class-1/separable_conv2d_bn_offset", "op": "Const", "attr": {"value": {"tensor": {"dtype": "DT_FLOAT", "tensorShape": {"dim": [{"size": "64"}]}}}, "dtype": {"type": "DT_FLOAT"}}}, {"name": "box_net/box-0_1/separable_conv2d_weights", "op": "Const", "attr": {"dtype": {"type": "DT_FLOAT"}, "value": {"tensor": {"dtype": "DT_FLOAT", "tensorShape": {"dim": [{"size": "1"}, {"size": "1"}, {"size": "64"}, {"size": "64"}]}}}}}, {"name": "class_net/class-2_3/separable_conv2d_bn_offset", "op": "Const", "attr": {"value": {"tensor": {"dtype": "DT_FLOAT", "tensorShape": {"dim": [{"size": "64"}]}}}, "dtype": {"type": "DT_FLOAT"}}}, {"name": "box_net/box-0_1/separable_conv2d_bn_offset", "op": "Const", "attr": {"value": {"tensor": {"dtype": "DT_FLOAT", "tensorShape": {"dim": [{"size": "64"}]}}}, "dtype": {"type": "DT_FLOAT"}}}, {"name": "class_net/class-0_1/separable_conv2d_weights", "op": "Const", "attr": {"value": {"tensor": {"dtype": "DT_FLOAT", "tensorShape": {"dim": [{"size": "1"}, {"size": "1"}, {"size": "64"}, {"size": "64"}]}}}, "dtype": {"type": "DT_FLOAT"}}}, {"name": "class_net/class-0_1/separable_conv2d_bn_offset", "op": "Const", "attr": {"value": {"tensor": {"dtype": "DT_FLOAT", "tensorShape": {"dim": [{"size": "64"}]}}}, "dtype": {"type": "DT_FLOAT"}}}, {"name": "box_net/box-2/separable_conv2d_weights", "op": "Const", "attr": {"value": {"tensor": {"dtype": "DT_FLOAT", "tensorShape": {"dim": [{"size": "1"}, {"size": "1"}, {"size": "64"}, {"size": "64"}]}}}, "dtype": {"type": "DT_FLOAT"}}}, {"name": "box_net/box-2/separable_conv2d_bn_offset", "op": "Const", "attr": {"dtype": {"type": "DT_FLOAT"}, "value": {"tensor": {"dtype": "DT_FLOAT", "tensorShape": {"dim": [{"size": "64"}]}}}}}, {"name": "class_net/class-2/separable_conv2d_weights", "op": "Const", "attr": {"value": {"tensor": {"dtype": "DT_FLOAT", "tensorShape": {"dim": [{"size": "1"}, {"size": "1"}, {"size": "64"}, {"size": "64"}]}}}, "dtype": {"type": "DT_FLOAT"}}}, {"name": "class_net/class-2/separable_conv2d_bn_offset", "op": "Const", "attr": {"value": {"tensor": {"dtype": "DT_FLOAT", "tensorShape": {"dim": [{"size": "64"}]}}}, "dtype": {"type": "DT_FLOAT"}}}, {"name": "class_net/class-2_4/separable_conv2d_bn_offset", "op": "Const", "attr": {"value": {"tensor": {"dtype": "DT_FLOAT", "tensorShape": {"dim": [{"size": "64"}]}}}, "dtype": {"type": "DT_FLOAT"}}}, {"name": "fpn_cells/cell_2/fnode5/op_after_combine10/conv/separable_conv2d_weights", "op": "Const", "attr": {"value": {"tensor": {"dtype": "DT_FLOAT", "tensorShape": {"dim": [{"size": "1"}, {"size": "1"}, {"size": "64"}, {"size": "64"}]}}}, "dtype": {"type": "DT_FLOAT"}}}, {"name": "fpn_cells/cell_2/fnode5/op_after_combine10/conv/separable_conv2d_bn_offset", "op": "Const", "attr": {"value": {"tensor": {"dtype": "DT_FLOAT", "tensorShape": {"dim": [{"size": "64"}]}}}, "dtype": {"type": "DT_FLOAT"}}}, {"name": "box_net/box-1_1/separable_conv2d_weights", "op": "Const", "attr": {"value": {"tensor": {"dtype": "DT_FLOAT", "tensorShape": {"dim": [{"size": "1"}, {"size": "1"}, {"size": "64"}, {"size": "64"}]}}}, "dtype": {"type": "DT_FLOAT"}}}, {"name": "box_net/box-1_4/separable_conv2d_weights", "op": "Const", "attr": {"value": {"tensor": {"dtype": "DT_FLOAT", "tensorShape": {"dim": [{"size": "1"}, {"size": "1"}, {"size": "64"}, {"size": "64"}]}}}, "dtype": {"type": "DT_FLOAT"}}}, {"name": "box_net/box-1_1/separable_conv2d_bn_offset", "op": "Const", "attr": {"value": {"tensor": {"dtype": "DT_FLOAT", "tensorShape": {"dim": [{"size": "64"}]}}}, "dtype": {"type": "DT_FLOAT"}}}, {"name": "class_net/class-1_1/separable_conv2d_weights", "op": "Const", "attr": {"dtype": {"type": "DT_FLOAT"}, "value": {"tensor": {"dtype": "DT_FLOAT", "tensorShape": {"dim": [{"size": "1"}, {"size": "1"}, {"size": "64"}, {"size": "64"}]}}}}}, {"name": "class_net/class-1_1/separable_conv2d_bn_offset", "op": "Const", "attr": {"value": {"tensor": {"dtype": "DT_FLOAT", "tensorShape": {"dim": [{"size": "64"}]}}}, "dtype": {"type": "DT_FLOAT"}}}, {"name": "box_net/box-0_2/separable_conv2d_weights", "op": "Const", "attr": {"value": {"tensor": {"dtype": "DT_FLOAT", "tensorShape": {"dim": [{"size": "1"}, {"size": "1"}, {"size": "64"}, {"size": "64"}]}}}, "dtype": {"type": "DT_FLOAT"}}}, {"name": "box_net/box-1_4/separable_conv2d_bn_offset", "op": "Const", "attr": {"value": {"tensor": {"dtype": "DT_FLOAT", "tensorShape": {"dim": [{"size": "64"}]}}}, "dtype": {"type": "DT_FLOAT"}}}, {"name": "box_net/box-0_2/separable_conv2d_bn_offset", "op": "Const", "attr": {"value": {"tensor": {"dtype": "DT_FLOAT", "tensorShape": {"dim": [{"size": "64"}]}}}, "dtype": {"type": "DT_FLOAT"}}}, {"name": "class_net/class-0_2/separable_conv2d_weights", "op": "Const", "attr": {"value": {"tensor": {"dtype": "DT_FLOAT", "tensorShape": {"dim": [{"size": "1"}, {"size": "1"}, {"size": "64"}, {"size": "64"}]}}}, "dtype": {"type": "DT_FLOAT"}}}, {"name": "class_net/class-0_2/separable_conv2d_bn_offset", "op": "Const", "attr": {"dtype": {"type": "DT_FLOAT"}, "value": {"tensor": {"dtype": "DT_FLOAT", "tensorShape": {"dim": [{"size": "64"}]}}}}}, {"name": "box_net/box-2_1/separable_conv2d_weights", "op": "Const", "attr": {"value": {"tensor": {"dtype": "DT_FLOAT", "tensorShape": {"dim": [{"size": "1"}, {"size": "1"}, {"size": "64"}, {"size": "64"}]}}}, "dtype": {"type": "DT_FLOAT"}}}, {"name": "box_net/box-2_1/separable_conv2d_bn_offset", "op": "Const", "attr": {"value": {"tensor": {"dtype": "DT_FLOAT", "tensorShape": {"dim": [{"size": "64"}]}}}, "dtype": {"type": "DT_FLOAT"}}}, {"name": "class_net/class-2_1/separable_conv2d_weights", "op": "Const", "attr": {"value": {"tensor": {"dtype": "DT_FLOAT", "tensorShape": {"dim": [{"size": "1"}, {"size": "1"}, {"size": "64"}, {"size": "64"}]}}}, "dtype": {"type": "DT_FLOAT"}}}, {"name": "class_net/class-2_1/separable_conv2d_bn_offset", "op": "Const", "attr": {"value": {"tensor": {"dtype": "DT_FLOAT", "tensorShape": {"dim": [{"size": "64"}]}}}, "dtype": {"type": "DT_FLOAT"}}}, {"name": "class_net/class-1_4/separable_conv2d_weights", "op": "Const", "attr": {"dtype": {"type": "DT_FLOAT"}, "value": {"tensor": {"dtype": "DT_FLOAT", "tensorShape": {"dim": [{"size": "1"}, {"size": "1"}, {"size": "64"}, {"size": "64"}]}}}}}, {"name": "fpn_cells/cell_2/fnode6/op_after_combine11/conv/separable_conv2d_weights", "op": "Const", "attr": {"value": {"tensor": {"dtype": "DT_FLOAT", "tensorShape": {"dim": [{"size": "1"}, {"size": "1"}, {"size": "64"}, {"size": "64"}]}}}, "dtype": {"type": "DT_FLOAT"}}}, {"name": "fpn_cells/cell_2/fnode6/op_after_combine11/conv/separable_conv2d_bn_offset", "op": "Const", "attr": {"value": {"tensor": {"dtype": "DT_FLOAT", "tensorShape": {"dim": [{"size": "64"}]}}}, "dtype": {"type": "DT_FLOAT"}}}, {"name": "efficientnet-b0/stem/tpu_batch_normalization/FusedBatchNormV3", "op": "_FusedConv2D", "input": ["input", "efficientnet-b0/stem/conv2d/Conv2D_weights", "efficientnet-b0/stem/conv2d/Conv2D_bn_offset"], "device": "/device:CPU:0", "attr": {"num_args": {"i": "1"}, "epsilon": {"f": 0.0}, "padding": {"s": "U0FNRQ=="}, "fused_ops": {"list": {"s": ["Qmlhc0FkZA=="]}}, "dilations": {"list": {"i": ["1", "1", "1", "1"]}}, "T": {"type": "DT_FLOAT"}, "strides": {"list": {"i": ["1", "2", "2", "1"]}}, "data_format": {"s": "TkhXQw=="}, "explicit_paddings": {"list": {}}, "use_cudnn_on_gpu": {"b": true}}}, {"name": "efficientnet-b0/stem/Sigmoid", "op": "Sigmoid", "input": ["efficientnet-b0/stem/tpu_batch_normalization/FusedBatchNormV3"], "attr": {"T": {"type": "DT_FLOAT"}}}, {"name": "efficientnet-b0/stem/mul", "op": "Mul", "input": ["efficientnet-b0/stem/tpu_batch_normalization/FusedBatchNormV3", "efficientnet-b0/stem/Sigmoid"], "attr": {"T": {"type": "DT_FLOAT"}}}, {"name": "efficientnet-b0/blocks_0/depthwise_conv2d/depthwise", "op": "FusedDepthwiseConv2dNative", "input": ["efficientnet-b0/stem/mul", "efficientnet-b0/blocks_0/depthwise_conv2d/depthwise_weights", "efficientnet-b0/blocks_0/depthwise_conv2d/depthwise_bn_offset"], "attr": {"T": {"type": "DT_FLOAT"}, "strides": {"list": {"i": ["1", "1", "1", "1"]}}, "data_format": {"s": "TkhXQw=="}, "explicit_paddings": {"list": {}}, "num_args": {"i": "1"}, "padding": {"s": "U0FNRQ=="}, "fused_ops": {"list": {"s": ["Qmlhc0FkZA=="]}}, "dilations": {"list": {"i": ["1", "1", "1", "1"]}}}}, {"name": "efficientnet-b0/blocks_0/Sigmoid", "op": "Sigmoid", "input": ["efficientnet-b0/blocks_0/depthwise_conv2d/depthwise"], "attr": {"T": {"type": "DT_FLOAT"}}}, {"name": "efficientnet-b0/blocks_0/mul", "op": "Mul", "input": ["efficientnet-b0/blocks_0/depthwise_conv2d/depthwise", "efficientnet-b0/blocks_0/Sigmoid"], "attr": {"T": {"type": "DT_FLOAT"}}}, {"name": "efficientnet-b0/blocks_0/se/Mean", "op": "Mean", "input": ["efficientnet-b0/blocks_0/mul", "efficientnet-b0/blocks_0/se/Mean/reduction_indices"], "attr": {"keep_dims": {"b": true}, "Tidx": {"type": "DT_INT32"}, "T": {"type": "DT_FLOAT"}}}, {"name": "efficientnet-b0/blocks_0/se/conv2d/BiasAdd", "op": "_FusedConv2D", "input": ["efficientnet-b0/blocks_0/se/Mean", "efficientnet-b0/blocks_0/se/conv2d/kernel", "efficientnet-b0/blocks_0/se/conv2d/bias"], "device": "/device:CPU:0", "attr": {"dilations": {"list": {"i": ["1", "1", "1", "1"]}}, "T": {"type": "DT_FLOAT"}, "strides": {"list": {"i": ["1", "1", "1", "1"]}}, "data_format": {"s": "TkhXQw=="}, "use_cudnn_on_gpu": {"b": true}, "explicit_paddings": {"list": {}}, "num_args": {"i": "1"}, "epsilon": {"f": 0.0}, "padding": {"s": "U0FNRQ=="}, "fused_ops": {"list": {"s": ["Qmlhc0FkZA=="]}}}}, {"name": "efficientnet-b0/blocks_0/se/Sigmoid", "op": "Sigmoid", "input": ["efficientnet-b0/blocks_0/se/conv2d/BiasAdd"], "attr": {"T": {"type": "DT_FLOAT"}}}, {"name": "efficientnet-b0/blocks_0/se/mul", "op": "Mul", "input": ["efficientnet-b0/blocks_0/se/conv2d/BiasAdd", "efficientnet-b0/blocks_0/se/Sigmoid"], "attr": {"T": {"type": "DT_FLOAT"}}}, {"name": "efficientnet-b0/blocks_0/se/conv2d_1/BiasAdd", "op": "_FusedConv2D", "input": ["efficientnet-b0/blocks_0/se/mul", "efficientnet-b0/blocks_0/se/conv2d_1/kernel", "efficientnet-b0/blocks_0/se/conv2d_1/bias"], "device": "/device:CPU:0", "attr": {"fused_ops": {"list": {"s": ["Qmlhc0FkZA=="]}}, "dilations": {"list": {"i": ["1", "1", "1", "1"]}}, "T": {"type": "DT_FLOAT"}, "data_format": {"s": "TkhXQw=="}, "strides": {"list": {"i": ["1", "1", "1", "1"]}}, "explicit_paddings": {"list": {}}, "use_cudnn_on_gpu": {"b": true}, "num_args": {"i": "1"}, "epsilon": {"f": 0.0}, "padding": {"s": "U0FNRQ=="}}}, {"name": "efficientnet-b0/blocks_0/se/Sigmoid_1", "op": "Sigmoid", "input": ["efficientnet-b0/blocks_0/se/conv2d_1/BiasAdd"], "attr": {"T": {"type": "DT_FLOAT"}}}, {"name": "efficientnet-b0/blocks_0/se/mul_1", "op": "Mul", "input": ["efficientnet-b0/blocks_0/se/Sigmoid_1", "efficientnet-b0/blocks_0/mul"], "attr": {"T": {"type": "DT_FLOAT"}}}, {"name": "efficientnet-b0/blocks_0/tpu_batch_normalization_1/FusedBatchNormV3", "op": "_FusedConv2D", "input": ["efficientnet-b0/blocks_0/se/mul_1", "efficientnet-b0/blocks_0/conv2d/Conv2D_weights", "efficientnet-b0/blocks_0/conv2d/Conv2D_bn_offset"], "device": "/device:CPU:0", "attr": {"fused_ops": {"list": {"s": ["Qmlhc0FkZA=="]}}, "dilations": {"list": {"i": ["1", "1", "1", "1"]}}, "T": {"type": "DT_FLOAT"}, "data_format": {"s": "TkhXQw=="}, "strides": {"list": {"i": ["1", "1", "1", "1"]}}, "use_cudnn_on_gpu": {"b": true}, "explicit_paddings": {"list": {}}, "num_args": {"i": "1"}, "epsilon": {"f": 0.0}, "padding": {"s": "U0FNRQ=="}}}, {"name": "efficientnet-b0/blocks_1/tpu_batch_normalization/FusedBatchNormV3", "op": "_FusedConv2D", "input": ["efficientnet-b0/blocks_0/tpu_batch_normalization_1/FusedBatchNormV3", "efficientnet-b0/blocks_1/conv2d/Conv2D_weights", "efficientnet-b0/blocks_1/conv2d/Conv2D_bn_offset"], "device": "/device:CPU:0", "attr": {"dilations": {"list": {"i": ["1", "1", "1", "1"]}}, "T": {"type": "DT_FLOAT"}, "strides": {"list": {"i": ["1", "1", "1", "1"]}}, "data_format": {"s": "TkhXQw=="}, "explicit_paddings": {"list": {}}, "use_cudnn_on_gpu": {"b": true}, "num_args": {"i": "1"}, "epsilon": {"f": 0.0}, "padding": {"s": "U0FNRQ=="}, "fused_ops": {"list": {"s": ["Qmlhc0FkZA=="]}}}}, {"name": "efficientnet-b0/blocks_1/Sigmoid", "op": "Sigmoid", "input": ["efficientnet-b0/blocks_1/tpu_batch_normalization/FusedBatchNormV3"], "attr": {"T": {"type": "DT_FLOAT"}}}, {"name": "efficientnet-b0/blocks_1/mul", "op": "Mul", "input": ["efficientnet-b0/blocks_1/tpu_batch_normalization/FusedBatchNormV3", "efficientnet-b0/blocks_1/Sigmoid"], "attr": {"T": {"type": "DT_FLOAT"}}}, {"name": "efficientnet-b0/blocks_1/depthwise_conv2d/depthwise", "op": "FusedDepthwiseConv2dNative", "input": ["efficientnet-b0/blocks_1/mul", "efficientnet-b0/blocks_1/depthwise_conv2d/depthwise_weights", "efficientnet-b0/blocks_1/depthwise_conv2d/depthwise_bn_offset"], "attr": {"dilations": {"list": {"i": ["1", "1", "1", "1"]}}, "T": {"type": "DT_FLOAT"}, "data_format": {"s": "TkhXQw=="}, "strides": {"list": {"i": ["1", "2", "2", "1"]}}, "explicit_paddings": {"list": {}}, "num_args": {"i": "1"}, "padding": {"s": "U0FNRQ=="}, "fused_ops": {"list": {"s": ["Qmlhc0FkZA=="]}}}}, {"name": "efficientnet-b0/blocks_1/Sigmoid_1", "op": "Sigmoid", "input": ["efficientnet-b0/blocks_1/depthwise_conv2d/depthwise"], "attr": {"T": {"type": "DT_FLOAT"}}}, {"name": "efficientnet-b0/blocks_1/mul_1", "op": "Mul", "input": ["efficientnet-b0/blocks_1/depthwise_conv2d/depthwise", "efficientnet-b0/blocks_1/Sigmoid_1"], "attr": {"T": {"type": "DT_FLOAT"}}}, {"name": "efficientnet-b0/blocks_1/se/Mean", "op": "Mean", "input": ["efficientnet-b0/blocks_1/mul_1", "efficientnet-b0/blocks_1/se/Mean/reduction_indices"], "attr": {"keep_dims": {"b": true}, "Tidx": {"type": "DT_INT32"}, "T": {"type": "DT_FLOAT"}}}, {"name": "efficientnet-b0/blocks_1/se/conv2d/BiasAdd", "op": "_FusedConv2D", "input": ["efficientnet-b0/blocks_1/se/Mean", "efficientnet-b0/blocks_1/se/conv2d/kernel", "efficientnet-b0/blocks_1/se/conv2d/bias"], "device": "/device:CPU:0", "attr": {"num_args": {"i": "1"}, "epsilon": {"f": 0.0}, "padding": {"s": "U0FNRQ=="}, "fused_ops": {"list": {"s": ["Qmlhc0FkZA=="]}}, "dilations": {"list": {"i": ["1", "1", "1", "1"]}}, "T": {"type": "DT_FLOAT"}, "data_format": {"s": "TkhXQw=="}, "strides": {"list": {"i": ["1", "1", "1", "1"]}}, "use_cudnn_on_gpu": {"b": true}, "explicit_paddings": {"list": {}}}}, {"name": "efficientnet-b0/blocks_1/se/Sigmoid", "op": "Sigmoid", "input": ["efficientnet-b0/blocks_1/se/conv2d/BiasAdd"], "attr": {"T": {"type": "DT_FLOAT"}}}, {"name": "efficientnet-b0/blocks_1/se/mul", "op": "Mul", "input": ["efficientnet-b0/blocks_1/se/conv2d/BiasAdd", "efficientnet-b0/blocks_1/se/Sigmoid"], "attr": {"T": {"type": "DT_FLOAT"}}}, {"name": "efficientnet-b0/blocks_1/se/conv2d_1/BiasAdd", "op": "_FusedConv2D", "input": ["efficientnet-b0/blocks_1/se/mul", "efficientnet-b0/blocks_1/se/conv2d_1/kernel", "efficientnet-b0/blocks_1/se/conv2d_1/bias"], "device": "/device:CPU:0", "attr": {"num_args": {"i": "1"}, "epsilon": {"f": 0.0}, "padding": {"s": "U0FNRQ=="}, "fused_ops": {"list": {"s": ["Qmlhc0FkZA=="]}}, "dilations": {"list": {"i": ["1", "1", "1", "1"]}}, "T": {"type": "DT_FLOAT"}, "strides": {"list": {"i": ["1", "1", "1", "1"]}}, "data_format": {"s": "TkhXQw=="}, "use_cudnn_on_gpu": {"b": true}, "explicit_paddings": {"list": {}}}}, {"name": "efficientnet-b0/blocks_1/se/Sigmoid_1", "op": "Sigmoid", "input": ["efficientnet-b0/blocks_1/se/conv2d_1/BiasAdd"], "attr": {"T": {"type": "DT_FLOAT"}}}, {"name": "efficientnet-b0/blocks_1/se/mul_1", "op": "Mul", "input": ["efficientnet-b0/blocks_1/se/Sigmoid_1", "efficientnet-b0/blocks_1/mul_1"], "attr": {"T": {"type": "DT_FLOAT"}}}, {"name": "efficientnet-b0/blocks_1/tpu_batch_normalization_2/FusedBatchNormV3", "op": "_FusedConv2D", "input": ["efficientnet-b0/blocks_1/se/mul_1", "efficientnet-b0/blocks_1/conv2d_1/Conv2D_weights", "efficientnet-b0/blocks_1/conv2d_1/Conv2D_bn_offset"], "device": "/device:CPU:0", "attr": {"dilations": {"list": {"i": ["1", "1", "1", "1"]}}, "T": {"type": "DT_FLOAT"}, "strides": {"list": {"i": ["1", "1", "1", "1"]}}, "data_format": {"s": "TkhXQw=="}, "explicit_paddings": {"list": {}}, "use_cudnn_on_gpu": {"b": true}, "num_args": {"i": "1"}, "epsilon": {"f": 0.0}, "padding": {"s": "U0FNRQ=="}, "fused_ops": {"list": {"s": ["Qmlhc0FkZA=="]}}}}, {"name": "efficientnet-b0/blocks_2/tpu_batch_normalization/FusedBatchNormV3", "op": "_FusedConv2D", "input": ["efficientnet-b0/blocks_1/tpu_batch_normalization_2/FusedBatchNormV3", "efficientnet-b0/blocks_2/conv2d/Conv2D_weights", "efficientnet-b0/blocks_2/conv2d/Conv2D_bn_offset"], "device": "/device:CPU:0", "attr": {"T": {"type": "DT_FLOAT"}, "strides": {"list": {"i": ["1", "1", "1", "1"]}}, "data_format": {"s": "TkhXQw=="}, "use_cudnn_on_gpu": {"b": true}, "explicit_paddings": {"list": {}}, "num_args": {"i": "1"}, "epsilon": {"f": 0.0}, "padding": {"s": "U0FNRQ=="}, "fused_ops": {"list": {"s": ["Qmlhc0FkZA=="]}}, "dilations": {"list": {"i": ["1", "1", "1", "1"]}}}}, {"name": "efficientnet-b0/blocks_2/Sigmoid", "op": "Sigmoid", "input": ["efficientnet-b0/blocks_2/tpu_batch_normalization/FusedBatchNormV3"], "attr": {"T": {"type": "DT_FLOAT"}}}, {"name": "efficientnet-b0/blocks_2/mul", "op": "Mul", "input": ["efficientnet-b0/blocks_2/tpu_batch_normalization/FusedBatchNormV3", "efficientnet-b0/blocks_2/Sigmoid"], "attr": {"T": {"type": "DT_FLOAT"}}}, {"name": "efficientnet-b0/blocks_2/depthwise_conv2d/depthwise", "op": "FusedDepthwiseConv2dNative", "input": ["efficientnet-b0/blocks_2/mul", "efficientnet-b0/blocks_2/depthwise_conv2d/depthwise_weights", "efficientnet-b0/blocks_2/depthwise_conv2d/depthwise_bn_offset"], "attr": {"num_args": {"i": "1"}, "padding": {"s": "U0FNRQ=="}, "fused_ops": {"list": {"s": ["Qmlhc0FkZA=="]}}, "dilations": {"list": {"i": ["1", "1", "1", "1"]}}, "T": {"type": "DT_FLOAT"}, "data_format": {"s": "TkhXQw=="}, "strides": {"list": {"i": ["1", "1", "1", "1"]}}, "explicit_paddings": {"list": {}}}}, {"name": "efficientnet-b0/blocks_2/Sigmoid_1", "op": "Sigmoid", "input": ["efficientnet-b0/blocks_2/depthwise_conv2d/depthwise"], "attr": {"T": {"type": "DT_FLOAT"}}}, {"name": "efficientnet-b0/blocks_2/mul_1", "op": "Mul", "input": ["efficientnet-b0/blocks_2/depthwise_conv2d/depthwise", "efficientnet-b0/blocks_2/Sigmoid_1"], "attr": {"T": {"type": "DT_FLOAT"}}}, {"name": "efficientnet-b0/blocks_2/se/Mean", "op": "Mean", "input": ["efficientnet-b0/blocks_2/mul_1", "efficientnet-b0/blocks_2/se/Mean/reduction_indices"], "attr": {"keep_dims": {"b": true}, "Tidx": {"type": "DT_INT32"}, "T": {"type": "DT_FLOAT"}}}, {"name": "efficientnet-b0/blocks_2/se/conv2d/BiasAdd", "op": "_FusedConv2D", "input": ["efficientnet-b0/blocks_2/se/Mean", "efficientnet-b0/blocks_2/se/conv2d/kernel", "efficientnet-b0/blocks_2/se/conv2d/bias"], "device": "/device:CPU:0", "attr": {"num_args": {"i": "1"}, "epsilon": {"f": 0.0}, "padding": {"s": "U0FNRQ=="}, "fused_ops": {"list": {"s": ["Qmlhc0FkZA=="]}}, "dilations": {"list": {"i": ["1", "1", "1", "1"]}}, "T": {"type": "DT_FLOAT"}, "data_format": {"s": "TkhXQw=="}, "strides": {"list": {"i": ["1", "1", "1", "1"]}}, "use_cudnn_on_gpu": {"b": true}, "explicit_paddings": {"list": {}}}}, {"name": "efficientnet-b0/blocks_2/se/Sigmoid", "op": "Sigmoid", "input": ["efficientnet-b0/blocks_2/se/conv2d/BiasAdd"], "attr": {"T": {"type": "DT_FLOAT"}}}, {"name": "efficientnet-b0/blocks_2/se/mul", "op": "Mul", "input": ["efficientnet-b0/blocks_2/se/conv2d/BiasAdd", "efficientnet-b0/blocks_2/se/Sigmoid"], "attr": {"T": {"type": "DT_FLOAT"}}}, {"name": "efficientnet-b0/blocks_2/se/conv2d_1/BiasAdd", "op": "_FusedConv2D", "input": ["efficientnet-b0/blocks_2/se/mul", "efficientnet-b0/blocks_2/se/conv2d_1/kernel", "efficientnet-b0/blocks_2/se/conv2d_1/bias"], "device": "/device:CPU:0", "attr": {"fused_ops": {"list": {"s": ["Qmlhc0FkZA=="]}}, "dilations": {"list": {"i": ["1", "1", "1", "1"]}}, "T": {"type": "DT_FLOAT"}, "data_format": {"s": "TkhXQw=="}, "strides": {"list": {"i": ["1", "1", "1", "1"]}}, "explicit_paddings": {"list": {}}, "use_cudnn_on_gpu": {"b": true}, "num_args": {"i": "1"}, "epsilon": {"f": 0.0}, "padding": {"s": "U0FNRQ=="}}}, {"name": "efficientnet-b0/blocks_2/se/Sigmoid_1", "op": "Sigmoid", "input": ["efficientnet-b0/blocks_2/se/conv2d_1/BiasAdd"], "attr": {"T": {"type": "DT_FLOAT"}}}, {"name": "efficientnet-b0/blocks_2/se/mul_1", "op": "Mul", "input": ["efficientnet-b0/blocks_2/se/Sigmoid_1", "efficientnet-b0/blocks_2/mul_1"], "attr": {"T": {"type": "DT_FLOAT"}}}, {"name": "efficientnet-b0/blocks_2/tpu_batch_normalization_2/FusedBatchNormV3", "op": "_FusedConv2D", "input": ["efficientnet-b0/blocks_2/se/mul_1", "efficientnet-b0/blocks_2/conv2d_1/Conv2D_weights", "efficientnet-b0/blocks_2/conv2d_1/Conv2D_bn_offset"], "device": "/device:CPU:0", "attr": {"T": {"type": "DT_FLOAT"}, "data_format": {"s": "TkhXQw=="}, "strides": {"list": {"i": ["1", "1", "1", "1"]}}, "explicit_paddings": {"list": {}}, "use_cudnn_on_gpu": {"b": true}, "num_args": {"i": "1"}, "epsilon": {"f": 0.0}, "padding": {"s": "U0FNRQ=="}, "fused_ops": {"list": {"s": ["Qmlhc0FkZA=="]}}, "dilations": {"list": {"i": ["1", "1", "1", "1"]}}}}, {"name": "efficientnet-b0/blocks_2/Add", "op": "Add", "input": ["efficientnet-b0/blocks_2/tpu_batch_normalization_2/FusedBatchNormV3", "efficientnet-b0/blocks_1/tpu_batch_normalization_2/FusedBatchNormV3"], "attr": {"T": {"type": "DT_FLOAT"}}}, {"name": "efficientnet-b0/blocks_3/tpu_batch_normalization/FusedBatchNormV3", "op": "_FusedConv2D", "input": ["efficientnet-b0/blocks_2/Add", "efficientnet-b0/blocks_3/conv2d/Conv2D_weights", "efficientnet-b0/blocks_3/conv2d/Conv2D_bn_offset"], "device": "/device:CPU:0", "attr": {"epsilon": {"f": 0.0}, "padding": {"s": "U0FNRQ=="}, "fused_ops": {"list": {"s": ["Qmlhc0FkZA=="]}}, "dilations": {"list": {"i": ["1", "1", "1", "1"]}}, "T": {"type": "DT_FLOAT"}, "data_format": {"s": "TkhXQw=="}, "strides": {"list": {"i": ["1", "1", "1", "1"]}}, "use_cudnn_on_gpu": {"b": true}, "explicit_paddings": {"list": {}}, "num_args": {"i": "1"}}}, {"name": "efficientnet-b0/blocks_3/Sigmoid", "op": "Sigmoid", "input": ["efficientnet-b0/blocks_3/tpu_batch_normalization/FusedBatchNormV3"], "attr": {"T": {"type": "DT_FLOAT"}}}, {"name": "efficientnet-b0/blocks_3/mul", "op": "Mul", "input": ["efficientnet-b0/blocks_3/tpu_batch_normalization/FusedBatchNormV3", "efficientnet-b0/blocks_3/Sigmoid"], "attr": {"T": {"type": "DT_FLOAT"}}}, {"name": "efficientnet-b0/blocks_3/depthwise_conv2d/depthwise", "op": "FusedDepthwiseConv2dNative", "input": ["efficientnet-b0/blocks_3/mul", "efficientnet-b0/blocks_3/depthwise_conv2d/depthwise_weights", "efficientnet-b0/blocks_3/depthwise_conv2d/depthwise_bn_offset"], "attr": {"fused_ops": {"list": {"s": ["Qmlhc0FkZA=="]}}, "dilations": {"list": {"i": ["1", "1", "1", "1"]}}, "T": {"type": "DT_FLOAT"}, "data_format": {"s": "TkhXQw=="}, "strides": {"list": {"i": ["1", "2", "2", "1"]}}, "explicit_paddings": {"list": {}}, "num_args": {"i": "1"}, "padding": {"s": "U0FNRQ=="}}}, {"name": "efficientnet-b0/blocks_3/Sigmoid_1", "op": "Sigmoid", "input": ["efficientnet-b0/blocks_3/depthwise_conv2d/depthwise"], "attr": {"T": {"type": "DT_FLOAT"}}}, {"name": "efficientnet-b0/blocks_3/mul_1", "op": "Mul", "input": ["efficientnet-b0/blocks_3/depthwise_conv2d/depthwise", "efficientnet-b0/blocks_3/Sigmoid_1"], "attr": {"T": {"type": "DT_FLOAT"}}}, {"name": "efficientnet-b0/blocks_3/se/Mean", "op": "Mean", "input": ["efficientnet-b0/blocks_3/mul_1", "efficientnet-b0/blocks_3/se/Mean/reduction_indices"], "attr": {"T": {"type": "DT_FLOAT"}, "keep_dims": {"b": true}, "Tidx": {"type": "DT_INT32"}}}, {"name": "efficientnet-b0/blocks_3/se/conv2d/BiasAdd", "op": "_FusedConv2D", "input": ["efficientnet-b0/blocks_3/se/Mean", "efficientnet-b0/blocks_3/se/conv2d/kernel", "efficientnet-b0/blocks_3/se/conv2d/bias"], "device": "/device:CPU:0", "attr": {"epsilon": {"f": 0.0}, "padding": {"s": "U0FNRQ=="}, "fused_ops": {"list": {"s": ["Qmlhc0FkZA=="]}}, "dilations": {"list": {"i": ["1", "1", "1", "1"]}}, "T": {"type": "DT_FLOAT"}, "data_format": {"s": "TkhXQw=="}, "strides": {"list": {"i": ["1", "1", "1", "1"]}}, "use_cudnn_on_gpu": {"b": true}, "explicit_paddings": {"list": {}}, "num_args": {"i": "1"}}}, {"name": "efficientnet-b0/blocks_3/se/Sigmoid", "op": "Sigmoid", "input": ["efficientnet-b0/blocks_3/se/conv2d/BiasAdd"], "attr": {"T": {"type": "DT_FLOAT"}}}, {"name": "efficientnet-b0/blocks_3/se/mul", "op": "Mul", "input": ["efficientnet-b0/blocks_3/se/conv2d/BiasAdd", "efficientnet-b0/blocks_3/se/Sigmoid"], "attr": {"T": {"type": "DT_FLOAT"}}}, {"name": "efficientnet-b0/blocks_3/se/conv2d_1/BiasAdd", "op": "_FusedConv2D", "input": ["efficientnet-b0/blocks_3/se/mul", "efficientnet-b0/blocks_3/se/conv2d_1/kernel", "efficientnet-b0/blocks_3/se/conv2d_1/bias"], "device": "/device:CPU:0", "attr": {"fused_ops": {"list": {"s": ["Qmlhc0FkZA=="]}}, "dilations": {"list": {"i": ["1", "1", "1", "1"]}}, "T": {"type": "DT_FLOAT"}, "strides": {"list": {"i": ["1", "1", "1", "1"]}}, "data_format": {"s": "TkhXQw=="}, "use_cudnn_on_gpu": {"b": true}, "explicit_paddings": {"list": {}}, "num_args": {"i": "1"}, "epsilon": {"f": 0.0}, "padding": {"s": "U0FNRQ=="}}}, {"name": "efficientnet-b0/blocks_3/se/Sigmoid_1", "op": "Sigmoid", "input": ["efficientnet-b0/blocks_3/se/conv2d_1/BiasAdd"], "attr": {"T": {"type": "DT_FLOAT"}}}, {"name": "efficientnet-b0/blocks_3/se/mul_1", "op": "Mul", "input": ["efficientnet-b0/blocks_3/se/Sigmoid_1", "efficientnet-b0/blocks_3/mul_1"], "attr": {"T": {"type": "DT_FLOAT"}}}, {"name": "efficientnet-b0/blocks_3/tpu_batch_normalization_2/FusedBatchNormV3", "op": "_FusedConv2D", "input": ["efficientnet-b0/blocks_3/se/mul_1", "efficientnet-b0/blocks_3/conv2d_1/Conv2D_weights", "efficientnet-b0/blocks_3/conv2d_1/Conv2D_bn_offset"], "device": "/device:CPU:0", "attr": {"dilations": {"list": {"i": ["1", "1", "1", "1"]}}, "T": {"type": "DT_FLOAT"}, "strides": {"list": {"i": ["1", "1", "1", "1"]}}, "data_format": {"s": "TkhXQw=="}, "use_cudnn_on_gpu": {"b": true}, "explicit_paddings": {"list": {}}, "num_args": {"i": "1"}, "epsilon": {"f": 0.0}, "padding": {"s": "U0FNRQ=="}, "fused_ops": {"list": {"s": ["Qmlhc0FkZA=="]}}}}, {"name": "efficientnet-b0/blocks_4/tpu_batch_normalization/FusedBatchNormV3", "op": "_FusedConv2D", "input": ["efficientnet-b0/blocks_3/tpu_batch_normalization_2/FusedBatchNormV3", "efficientnet-b0/blocks_4/conv2d/Conv2D_weights", "efficientnet-b0/blocks_4/conv2d/Conv2D_bn_offset"], "device": "/device:CPU:0", "attr": {"dilations": {"list": {"i": ["1", "1", "1", "1"]}}, "T": {"type": "DT_FLOAT"}, "strides": {"list": {"i": ["1", "1", "1", "1"]}}, "data_format": {"s": "TkhXQw=="}, "use_cudnn_on_gpu": {"b": true}, "explicit_paddings": {"list": {}}, "num_args": {"i": "1"}, "epsilon": {"f": 0.0}, "padding": {"s": "U0FNRQ=="}, "fused_ops": {"list": {"s": ["Qmlhc0FkZA=="]}}}}, {"name": "efficientnet-b0/blocks_4/Sigmoid", "op": "Sigmoid", "input": ["efficientnet-b0/blocks_4/tpu_batch_normalization/FusedBatchNormV3"], "attr": {"T": {"type": "DT_FLOAT"}}}, {"name": "efficientnet-b0/blocks_4/mul", "op": "Mul", "input": ["efficientnet-b0/blocks_4/tpu_batch_normalization/FusedBatchNormV3", "efficientnet-b0/blocks_4/Sigmoid"], "attr": {"T": {"type": "DT_FLOAT"}}}, {"name": "efficientnet-b0/blocks_4/depthwise_conv2d/depthwise", "op": "FusedDepthwiseConv2dNative", "input": ["efficientnet-b0/blocks_4/mul", "efficientnet-b0/blocks_4/depthwise_conv2d/depthwise_weights", "efficientnet-b0/blocks_4/depthwise_conv2d/depthwise_bn_offset"], "attr": {"strides": {"list": {"i": ["1", "1", "1", "1"]}}, "data_format": {"s": "TkhXQw=="}, "explicit_paddings": {"list": {}}, "num_args": {"i": "1"}, "padding": {"s": "U0FNRQ=="}, "fused_ops": {"list": {"s": ["Qmlhc0FkZA=="]}}, "dilations": {"list": {"i": ["1", "1", "1", "1"]}}, "T": {"type": "DT_FLOAT"}}}, {"name": "efficientnet-b0/blocks_4/Sigmoid_1", "op": "Sigmoid", "input": ["efficientnet-b0/blocks_4/depthwise_conv2d/depthwise"], "attr": {"T": {"type": "DT_FLOAT"}}}, {"name": "efficientnet-b0/blocks_4/mul_1", "op": "Mul", "input": ["efficientnet-b0/blocks_4/depthwise_conv2d/depthwise", "efficientnet-b0/blocks_4/Sigmoid_1"], "attr": {"T": {"type": "DT_FLOAT"}}}, {"name": "efficientnet-b0/blocks_4/se/Mean", "op": "Mean", "input": ["efficientnet-b0/blocks_4/mul_1", "efficientnet-b0/blocks_4/se/Mean/reduction_indices"], "attr": {"T": {"type": "DT_FLOAT"}, "keep_dims": {"b": true}, "Tidx": {"type": "DT_INT32"}}}, {"name": "efficientnet-b0/blocks_4/se/conv2d/BiasAdd", "op": "_FusedConv2D", "input": ["efficientnet-b0/blocks_4/se/Mean", "efficientnet-b0/blocks_4/se/conv2d/kernel", "efficientnet-b0/blocks_4/se/conv2d/bias"], "device": "/device:CPU:0", "attr": {"epsilon": {"f": 0.0}, "padding": {"s": "U0FNRQ=="}, "fused_ops": {"list": {"s": ["Qmlhc0FkZA=="]}}, "dilations": {"list": {"i": ["1", "1", "1", "1"]}}, "T": {"type": "DT_FLOAT"}, "strides": {"list": {"i": ["1", "1", "1", "1"]}}, "data_format": {"s": "TkhXQw=="}, "use_cudnn_on_gpu": {"b": true}, "explicit_paddings": {"list": {}}, "num_args": {"i": "1"}}}, {"name": "efficientnet-b0/blocks_4/se/Sigmoid", "op": "Sigmoid", "input": ["efficientnet-b0/blocks_4/se/conv2d/BiasAdd"], "attr": {"T": {"type": "DT_FLOAT"}}}, {"name": "efficientnet-b0/blocks_4/se/mul", "op": "Mul", "input": ["efficientnet-b0/blocks_4/se/conv2d/BiasAdd", "efficientnet-b0/blocks_4/se/Sigmoid"], "attr": {"T": {"type": "DT_FLOAT"}}}, {"name": "efficientnet-b0/blocks_4/se/conv2d_1/BiasAdd", "op": "_FusedConv2D", "input": ["efficientnet-b0/blocks_4/se/mul", "efficientnet-b0/blocks_4/se/conv2d_1/kernel", "efficientnet-b0/blocks_4/se/conv2d_1/bias"], "device": "/device:CPU:0", "attr": {"num_args": {"i": "1"}, "epsilon": {"f": 0.0}, "padding": {"s": "U0FNRQ=="}, "fused_ops": {"list": {"s": ["Qmlhc0FkZA=="]}}, "dilations": {"list": {"i": ["1", "1", "1", "1"]}}, "T": {"type": "DT_FLOAT"}, "strides": {"list": {"i": ["1", "1", "1", "1"]}}, "data_format": {"s": "TkhXQw=="}, "use_cudnn_on_gpu": {"b": true}, "explicit_paddings": {"list": {}}}}, {"name": "efficientnet-b0/blocks_4/se/Sigmoid_1", "op": "Sigmoid", "input": ["efficientnet-b0/blocks_4/se/conv2d_1/BiasAdd"], "attr": {"T": {"type": "DT_FLOAT"}}}, {"name": "efficientnet-b0/blocks_4/se/mul_1", "op": "Mul", "input": ["efficientnet-b0/blocks_4/se/Sigmoid_1", "efficientnet-b0/blocks_4/mul_1"], "attr": {"T": {"type": "DT_FLOAT"}}}, {"name": "efficientnet-b0/blocks_4/tpu_batch_normalization_2/FusedBatchNormV3", "op": "_FusedConv2D", "input": ["efficientnet-b0/blocks_4/se/mul_1", "efficientnet-b0/blocks_4/conv2d_1/Conv2D_weights", "efficientnet-b0/blocks_4/conv2d_1/Conv2D_bn_offset"], "device": "/device:CPU:0", "attr": {"T": {"type": "DT_FLOAT"}, "strides": {"list": {"i": ["1", "1", "1", "1"]}}, "data_format": {"s": "TkhXQw=="}, "explicit_paddings": {"list": {}}, "use_cudnn_on_gpu": {"b": true}, "num_args": {"i": "1"}, "epsilon": {"f": 0.0}, "padding": {"s": "U0FNRQ=="}, "fused_ops": {"list": {"s": ["Qmlhc0FkZA=="]}}, "dilations": {"list": {"i": ["1", "1", "1", "1"]}}}}, {"name": "efficientnet-b0/blocks_4/Add", "op": "Add", "input": ["efficientnet-b0/blocks_4/tpu_batch_normalization_2/FusedBatchNormV3", "efficientnet-b0/blocks_3/tpu_batch_normalization_2/FusedBatchNormV3"], "attr": {"T": {"type": "DT_FLOAT"}}}, {"name": "efficientnet-b0/blocks_5/tpu_batch_normalization/FusedBatchNormV3", "op": "_FusedConv2D", "input": ["efficientnet-b0/blocks_4/Add", "efficientnet-b0/blocks_5/conv2d/Conv2D_weights", "efficientnet-b0/blocks_5/conv2d/Conv2D_bn_offset"], "device": "/device:CPU:0", "attr": {"dilations": {"list": {"i": ["1", "1", "1", "1"]}}, "T": {"type": "DT_FLOAT"}, "strides": {"list": {"i": ["1", "1", "1", "1"]}}, "data_format": {"s": "TkhXQw=="}, "use_cudnn_on_gpu": {"b": true}, "explicit_paddings": {"list": {}}, "num_args": {"i": "1"}, "epsilon": {"f": 0.0}, "padding": {"s": "U0FNRQ=="}, "fused_ops": {"list": {"s": ["Qmlhc0FkZA=="]}}}}, {"name": "fpn_cells/cell_0/fnode3/resample_0_0_8/bn/FusedBatchNormV3", "op": "_FusedConv2D", "input": ["efficientnet-b0/blocks_4/Add", "fpn_cells/cell_0/fnode3/resample_0_0_8/conv2d/Conv2D_weights", "fpn_cells/cell_0/fnode3/resample_0_0_8/conv2d/Conv2D_bn_offset"], "device": "/device:CPU:0", "attr": {"T": {"type": "DT_FLOAT"}, "strides": {"list": {"i": ["1", "1", "1", "1"]}}, "data_format": {"s": "TkhXQw=="}, "use_cudnn_on_gpu": {"b": true}, "explicit_paddings": {"list": {}}, "num_args": {"i": "1"}, "epsilon": {"f": 0.0}, "padding": {"s": "U0FNRQ=="}, "fused_ops": {"list": {"s": ["Qmlhc0FkZA=="]}}, "dilations": {"list": {"i": ["1", "1", "1", "1"]}}}}, {"name": "efficientnet-b0/blocks_5/Sigmoid", "op": "Sigmoid", "input": ["efficientnet-b0/blocks_5/tpu_batch_normalization/FusedBatchNormV3"], "attr": {"T": {"type": "DT_FLOAT"}}}, {"name": "fpn_cells/cell_0/fnode3/truediv", "op": "Mul", "input": ["fpn_cells/cell_0/fnode3/resample_0_0_8/bn/FusedBatchNormV3", "fpn_cells/cell_0/fnode3/mul"], "attr": {"T": {"type": "DT_FLOAT"}}}, {"name": "efficientnet-b0/blocks_5/mul", "op": "Mul", "input": ["efficientnet-b0/blocks_5/tpu_batch_normalization/FusedBatchNormV3", "efficientnet-b0/blocks_5/Sigmoid"], "attr": {"T": {"type": "DT_FLOAT"}}}, {"name": "efficientnet-b0/blocks_5/depthwise_conv2d/depthwise", "op": "FusedDepthwiseConv2dNative", "input": ["efficientnet-b0/blocks_5/mul", "efficientnet-b0/blocks_5/depthwise_conv2d/depthwise_weights", "efficientnet-b0/blocks_5/depthwise_conv2d/depthwise_bn_offset"], "attr": {"padding": {"s": "U0FNRQ=="}, "fused_ops": {"list": {"s": ["Qmlhc0FkZA=="]}}, "dilations": {"list": {"i": ["1", "1", "1", "1"]}}, "T": {"type": "DT_FLOAT"}, "data_format": {"s": "TkhXQw=="}, "strides": {"list": {"i": ["1", "2", "2", "1"]}}, "explicit_paddings": {"list": {}}, "num_args": {"i": "1"}}}, {"name": "efficientnet-b0/blocks_5/Sigmoid_1", "op": "Sigmoid", "input": ["efficientnet-b0/blocks_5/depthwise_conv2d/depthwise"], "attr": {"T": {"type": "DT_FLOAT"}}}, {"name": "efficientnet-b0/blocks_5/mul_1", "op": "Mul", "input": ["efficientnet-b0/blocks_5/depthwise_conv2d/depthwise", "efficientnet-b0/blocks_5/Sigmoid_1"], "attr": {"T": {"type": "DT_FLOAT"}}}, {"name": "efficientnet-b0/blocks_5/se/Mean", "op": "Mean", "input": ["efficientnet-b0/blocks_5/mul_1", "efficientnet-b0/blocks_5/se/Mean/reduction_indices"], "attr": {"T": {"type": "DT_FLOAT"}, "keep_dims": {"b": true}, "Tidx": {"type": "DT_INT32"}}}, {"name": "efficientnet-b0/blocks_5/se/conv2d/BiasAdd", "op": "_FusedConv2D", "input": ["efficientnet-b0/blocks_5/se/Mean", "efficientnet-b0/blocks_5/se/conv2d/kernel", "efficientnet-b0/blocks_5/se/conv2d/bias"], "device": "/device:CPU:0", "attr": {"dilations": {"list": {"i": ["1", "1", "1", "1"]}}, "T": {"type": "DT_FLOAT"}, "strides": {"list": {"i": ["1", "1", "1", "1"]}}, "data_format": {"s": "TkhXQw=="}, "use_cudnn_on_gpu": {"b": true}, "explicit_paddings": {"list": {}}, "num_args": {"i": "1"}, "epsilon": {"f": 0.0}, "padding": {"s": "U0FNRQ=="}, "fused_ops": {"list": {"s": ["Qmlhc0FkZA=="]}}}}, {"name": "efficientnet-b0/blocks_5/se/Sigmoid", "op": "Sigmoid", "input": ["efficientnet-b0/blocks_5/se/conv2d/BiasAdd"], "attr": {"T": {"type": "DT_FLOAT"}}}, {"name": "efficientnet-b0/blocks_5/se/mul", "op": "Mul", "input": ["efficientnet-b0/blocks_5/se/conv2d/BiasAdd", "efficientnet-b0/blocks_5/se/Sigmoid"], "attr": {"T": {"type": "DT_FLOAT"}}}, {"name": "efficientnet-b0/blocks_5/se/conv2d_1/BiasAdd", "op": "_FusedConv2D", "input": ["efficientnet-b0/blocks_5/se/mul", "efficientnet-b0/blocks_5/se/conv2d_1/kernel", "efficientnet-b0/blocks_5/se/conv2d_1/bias"], "device": "/device:CPU:0", "attr": {"num_args": {"i": "1"}, "epsilon": {"f": 0.0}, "padding": {"s": "U0FNRQ=="}, "fused_ops": {"list": {"s": ["Qmlhc0FkZA=="]}}, "dilations": {"list": {"i": ["1", "1", "1", "1"]}}, "T": {"type": "DT_FLOAT"}, "data_format": {"s": "TkhXQw=="}, "strides": {"list": {"i": ["1", "1", "1", "1"]}}, "use_cudnn_on_gpu": {"b": true}, "explicit_paddings": {"list": {}}}}, {"name": "efficientnet-b0/blocks_5/se/Sigmoid_1", "op": "Sigmoid", "input": ["efficientnet-b0/blocks_5/se/conv2d_1/BiasAdd"], "attr": {"T": {"type": "DT_FLOAT"}}}, {"name": "efficientnet-b0/blocks_5/se/mul_1", "op": "Mul", "input": ["efficientnet-b0/blocks_5/se/Sigmoid_1", "efficientnet-b0/blocks_5/mul_1"], "attr": {"T": {"type": "DT_FLOAT"}}}, {"name": "efficientnet-b0/blocks_5/tpu_batch_normalization_2/FusedBatchNormV3", "op": "_FusedConv2D", "input": ["efficientnet-b0/blocks_5/se/mul_1", "efficientnet-b0/blocks_5/conv2d_1/Conv2D_weights", "efficientnet-b0/blocks_5/conv2d_1/Conv2D_bn_offset"], "device": "/device:CPU:0", "attr": {"T": {"type": "DT_FLOAT"}, "strides": {"list": {"i": ["1", "1", "1", "1"]}}, "data_format": {"s": "TkhXQw=="}, "explicit_paddings": {"list": {}}, "use_cudnn_on_gpu": {"b": true}, "num_args": {"i": "1"}, "epsilon": {"f": 0.0}, "padding": {"s": "U0FNRQ=="}, "fused_ops": {"list": {"s": ["Qmlhc0FkZA=="]}}, "dilations": {"list": {"i": ["1", "1", "1", "1"]}}}}, {"name": "efficientnet-b0/blocks_6/tpu_batch_normalization/FusedBatchNormV3", "op": "_FusedConv2D", "input": ["efficientnet-b0/blocks_5/tpu_batch_normalization_2/FusedBatchNormV3", "efficientnet-b0/blocks_6/conv2d/Conv2D_weights", "efficientnet-b0/blocks_6/conv2d/Conv2D_bn_offset"], "device": "/device:CPU:0", "attr": {"dilations": {"list": {"i": ["1", "1", "1", "1"]}}, "T": {"type": "DT_FLOAT"}, "strides": {"list": {"i": ["1", "1", "1", "1"]}}, "data_format": {"s": "TkhXQw=="}, "explicit_paddings": {"list": {}}, "use_cudnn_on_gpu": {"b": true}, "num_args": {"i": "1"}, "epsilon": {"f": 0.0}, "padding": {"s": "U0FNRQ=="}, "fused_ops": {"list": {"s": ["Qmlhc0FkZA=="]}}}}, {"name": "efficientnet-b0/blocks_6/Sigmoid", "op": "Sigmoid", "input": ["efficientnet-b0/blocks_6/tpu_batch_normalization/FusedBatchNormV3"], "attr": {"T": {"type": "DT_FLOAT"}}}, {"name": "efficientnet-b0/blocks_6/mul", "op": "Mul", "input": ["efficientnet-b0/blocks_6/tpu_batch_normalization/FusedBatchNormV3", "efficientnet-b0/blocks_6/Sigmoid"], "attr": {"T": {"type": "DT_FLOAT"}}}, {"name": "efficientnet-b0/blocks_6/depthwise_conv2d/depthwise", "op": "FusedDepthwiseConv2dNative", "input": ["efficientnet-b0/blocks_6/mul", "efficientnet-b0/blocks_6/depthwise_conv2d/depthwise_weights", "efficientnet-b0/blocks_6/depthwise_conv2d/depthwise_bn_offset"], "attr": {"dilations": {"list": {"i": ["1", "1", "1", "1"]}}, "T": {"type": "DT_FLOAT"}, "data_format": {"s": "TkhXQw=="}, "strides": {"list": {"i": ["1", "1", "1", "1"]}}, "explicit_paddings": {"list": {}}, "num_args": {"i": "1"}, "padding": {"s": "U0FNRQ=="}, "fused_ops": {"list": {"s": ["Qmlhc0FkZA=="]}}}}, {"name": "efficientnet-b0/blocks_6/Sigmoid_1", "op": "Sigmoid", "input": ["efficientnet-b0/blocks_6/depthwise_conv2d/depthwise"], "attr": {"T": {"type": "DT_FLOAT"}}}, {"name": "efficientnet-b0/blocks_6/mul_1", "op": "Mul", "input": ["efficientnet-b0/blocks_6/depthwise_conv2d/depthwise", "efficientnet-b0/blocks_6/Sigmoid_1"], "attr": {"T": {"type": "DT_FLOAT"}}}, {"name": "efficientnet-b0/blocks_6/se/Mean", "op": "Mean", "input": ["efficientnet-b0/blocks_6/mul_1", "efficientnet-b0/blocks_6/se/Mean/reduction_indices"], "attr": {"keep_dims": {"b": true}, "Tidx": {"type": "DT_INT32"}, "T": {"type": "DT_FLOAT"}}}, {"name": "efficientnet-b0/blocks_6/se/conv2d/BiasAdd", "op": "_FusedConv2D", "input": ["efficientnet-b0/blocks_6/se/Mean", "efficientnet-b0/blocks_6/se/conv2d/kernel", "efficientnet-b0/blocks_6/se/conv2d/bias"], "device": "/device:CPU:0", "attr": {"num_args": {"i": "1"}, "epsilon": {"f": 0.0}, "padding": {"s": "U0FNRQ=="}, "fused_ops": {"list": {"s": ["Qmlhc0FkZA=="]}}, "dilations": {"list": {"i": ["1", "1", "1", "1"]}}, "T": {"type": "DT_FLOAT"}, "data_format": {"s": "TkhXQw=="}, "strides": {"list": {"i": ["1", "1", "1", "1"]}}, "use_cudnn_on_gpu": {"b": true}, "explicit_paddings": {"list": {}}}}, {"name": "efficientnet-b0/blocks_6/se/Sigmoid", "op": "Sigmoid", "input": ["efficientnet-b0/blocks_6/se/conv2d/BiasAdd"], "attr": {"T": {"type": "DT_FLOAT"}}}, {"name": "efficientnet-b0/blocks_6/se/mul", "op": "Mul", "input": ["efficientnet-b0/blocks_6/se/conv2d/BiasAdd", "efficientnet-b0/blocks_6/se/Sigmoid"], "attr": {"T": {"type": "DT_FLOAT"}}}, {"name": "efficientnet-b0/blocks_6/se/conv2d_1/BiasAdd", "op": "_FusedConv2D", "input": ["efficientnet-b0/blocks_6/se/mul", "efficientnet-b0/blocks_6/se/conv2d_1/kernel", "efficientnet-b0/blocks_6/se/conv2d_1/bias"], "device": "/device:CPU:0", "attr": {"epsilon": {"f": 0.0}, "padding": {"s": "U0FNRQ=="}, "fused_ops": {"list": {"s": ["Qmlhc0FkZA=="]}}, "dilations": {"list": {"i": ["1", "1", "1", "1"]}}, "T": {"type": "DT_FLOAT"}, "strides": {"list": {"i": ["1", "1", "1", "1"]}}, "data_format": {"s": "TkhXQw=="}, "explicit_paddings": {"list": {}}, "use_cudnn_on_gpu": {"b": true}, "num_args": {"i": "1"}}}, {"name": "efficientnet-b0/blocks_6/se/Sigmoid_1", "op": "Sigmoid", "input": ["efficientnet-b0/blocks_6/se/conv2d_1/BiasAdd"], "attr": {"T": {"type": "DT_FLOAT"}}}, {"name": "efficientnet-b0/blocks_6/se/mul_1", "op": "Mul", "input": ["efficientnet-b0/blocks_6/se/Sigmoid_1", "efficientnet-b0/blocks_6/mul_1"], "attr": {"T": {"type": "DT_FLOAT"}}}, {"name": "efficientnet-b0/blocks_6/tpu_batch_normalization_2/FusedBatchNormV3", "op": "_FusedConv2D", "input": ["efficientnet-b0/blocks_6/se/mul_1", "efficientnet-b0/blocks_6/conv2d_1/Conv2D_weights", "efficientnet-b0/blocks_6/conv2d_1/Conv2D_bn_offset"], "device": "/device:CPU:0", "attr": {"T": {"type": "DT_FLOAT"}, "strides": {"list": {"i": ["1", "1", "1", "1"]}}, "data_format": {"s": "TkhXQw=="}, "explicit_paddings": {"list": {}}, "use_cudnn_on_gpu": {"b": true}, "num_args": {"i": "1"}, "epsilon": {"f": 0.0}, "padding": {"s": "U0FNRQ=="}, "fused_ops": {"list": {"s": ["Qmlhc0FkZA=="]}}, "dilations": {"list": {"i": ["1", "1", "1", "1"]}}}}, {"name": "efficientnet-b0/blocks_6/Add", "op": "Add", "input": ["efficientnet-b0/blocks_6/tpu_batch_normalization_2/FusedBatchNormV3", "efficientnet-b0/blocks_5/tpu_batch_normalization_2/FusedBatchNormV3"], "attr": {"T": {"type": "DT_FLOAT"}}}, {"name": "efficientnet-b0/blocks_7/tpu_batch_normalization/FusedBatchNormV3", "op": "_FusedConv2D", "input": ["efficientnet-b0/blocks_6/Add", "efficientnet-b0/blocks_7/conv2d/Conv2D_weights", "efficientnet-b0/blocks_7/conv2d/Conv2D_bn_offset"], "device": "/device:CPU:0", "attr": {"data_format": {"s": "TkhXQw=="}, "strides": {"list": {"i": ["1", "1", "1", "1"]}}, "explicit_paddings": {"list": {}}, "use_cudnn_on_gpu": {"b": true}, "num_args": {"i": "1"}, "epsilon": {"f": 0.0}, "padding": {"s": "U0FNRQ=="}, "fused_ops": {"list": {"s": ["Qmlhc0FkZA=="]}}, "dilations": {"list": {"i": ["1", "1", "1", "1"]}}, "T": {"type": "DT_FLOAT"}}}, {"name": "efficientnet-b0/blocks_7/Sigmoid", "op": "Sigmoid", "input": ["efficientnet-b0/blocks_7/tpu_batch_normalization/FusedBatchNormV3"], "attr": {"T": {"type": "DT_FLOAT"}}}, {"name": "efficientnet-b0/blocks_7/mul", "op": "Mul", "input": ["efficientnet-b0/blocks_7/tpu_batch_normalization/FusedBatchNormV3", "efficientnet-b0/blocks_7/Sigmoid"], "attr": {"T": {"type": "DT_FLOAT"}}}, {"name": "efficientnet-b0/blocks_7/depthwise_conv2d/depthwise", "op": "FusedDepthwiseConv2dNative", "input": ["efficientnet-b0/blocks_7/mul", "efficientnet-b0/blocks_7/depthwise_conv2d/depthwise_weights", "efficientnet-b0/blocks_7/depthwise_conv2d/depthwise_bn_offset"], "attr": {"T": {"type": "DT_FLOAT"}, "data_format": {"s": "TkhXQw=="}, "strides": {"list": {"i": ["1", "1", "1", "1"]}}, "explicit_paddings": {"list": {}}, "num_args": {"i": "1"}, "padding": {"s": "U0FNRQ=="}, "fused_ops": {"list": {"s": ["Qmlhc0FkZA=="]}}, "dilations": {"list": {"i": ["1", "1", "1", "1"]}}}}, {"name": "efficientnet-b0/blocks_7/Sigmoid_1", "op": "Sigmoid", "input": ["efficientnet-b0/blocks_7/depthwise_conv2d/depthwise"], "attr": {"T": {"type": "DT_FLOAT"}}}, {"name": "efficientnet-b0/blocks_7/mul_1", "op": "Mul", "input": ["efficientnet-b0/blocks_7/depthwise_conv2d/depthwise", "efficientnet-b0/blocks_7/Sigmoid_1"], "attr": {"T": {"type": "DT_FLOAT"}}}, {"name": "efficientnet-b0/blocks_7/se/Mean", "op": "Mean", "input": ["efficientnet-b0/blocks_7/mul_1", "efficientnet-b0/blocks_7/se/Mean/reduction_indices"], "attr": {"T": {"type": "DT_FLOAT"}, "keep_dims": {"b": true}, "Tidx": {"type": "DT_INT32"}}}, {"name": "efficientnet-b0/blocks_7/se/conv2d/BiasAdd", "op": "_FusedConv2D", "input": ["efficientnet-b0/blocks_7/se/Mean", "efficientnet-b0/blocks_7/se/conv2d/kernel", "efficientnet-b0/blocks_7/se/conv2d/bias"], "device": "/device:CPU:0", "attr": {"num_args": {"i": "1"}, "epsilon": {"f": 0.0}, "padding": {"s": "U0FNRQ=="}, "fused_ops": {"list": {"s": ["Qmlhc0FkZA=="]}}, "dilations": {"list": {"i": ["1", "1", "1", "1"]}}, "T": {"type": "DT_FLOAT"}, "strides": {"list": {"i": ["1", "1", "1", "1"]}}, "data_format": {"s": "TkhXQw=="}, "explicit_paddings": {"list": {}}, "use_cudnn_on_gpu": {"b": true}}}, {"name": "efficientnet-b0/blocks_7/se/Sigmoid", "op": "Sigmoid", "input": ["efficientnet-b0/blocks_7/se/conv2d/BiasAdd"], "attr": {"T": {"type": "DT_FLOAT"}}}, {"name": "efficientnet-b0/blocks_7/se/mul", "op": "Mul", "input": ["efficientnet-b0/blocks_7/se/conv2d/BiasAdd", "efficientnet-b0/blocks_7/se/Sigmoid"], "attr": {"T": {"type": "DT_FLOAT"}}}, {"name": "efficientnet-b0/blocks_7/se/conv2d_1/BiasAdd", "op": "_FusedConv2D", "input": ["efficientnet-b0/blocks_7/se/mul", "efficientnet-b0/blocks_7/se/conv2d_1/kernel", "efficientnet-b0/blocks_7/se/conv2d_1/bias"], "device": "/device:CPU:0", "attr": {"epsilon": {"f": 0.0}, "padding": {"s": "U0FNRQ=="}, "fused_ops": {"list": {"s": ["Qmlhc0FkZA=="]}}, "dilations": {"list": {"i": ["1", "1", "1", "1"]}}, "T": {"type": "DT_FLOAT"}, "strides": {"list": {"i": ["1", "1", "1", "1"]}}, "data_format": {"s": "TkhXQw=="}, "explicit_paddings": {"list": {}}, "use_cudnn_on_gpu": {"b": true}, "num_args": {"i": "1"}}}, {"name": "efficientnet-b0/blocks_7/se/Sigmoid_1", "op": "Sigmoid", "input": ["efficientnet-b0/blocks_7/se/conv2d_1/BiasAdd"], "attr": {"T": {"type": "DT_FLOAT"}}}, {"name": "efficientnet-b0/blocks_7/se/mul_1", "op": "Mul", "input": ["efficientnet-b0/blocks_7/se/Sigmoid_1", "efficientnet-b0/blocks_7/mul_1"], "attr": {"T": {"type": "DT_FLOAT"}}}, {"name": "efficientnet-b0/blocks_7/tpu_batch_normalization_2/FusedBatchNormV3", "op": "_FusedConv2D", "input": ["efficientnet-b0/blocks_7/se/mul_1", "efficientnet-b0/blocks_7/conv2d_1/Conv2D_weights", "efficientnet-b0/blocks_7/conv2d_1/Conv2D_bn_offset"], "device": "/device:CPU:0", "attr": {"dilations": {"list": {"i": ["1", "1", "1", "1"]}}, "T": {"type": "DT_FLOAT"}, "data_format": {"s": "TkhXQw=="}, "strides": {"list": {"i": ["1", "1", "1", "1"]}}, "use_cudnn_on_gpu": {"b": true}, "explicit_paddings": {"list": {}}, "num_args": {"i": "1"}, "epsilon": {"f": 0.0}, "padding": {"s": "U0FNRQ=="}, "fused_ops": {"list": {"s": ["Qmlhc0FkZA=="]}}}}, {"name": "efficientnet-b0/blocks_7/Add", "op": "Add", "input": ["efficientnet-b0/blocks_7/tpu_batch_normalization_2/FusedBatchNormV3", "efficientnet-b0/blocks_6/Add"], "attr": {"T": {"type": "DT_FLOAT"}}}, {"name": "efficientnet-b0/blocks_8/tpu_batch_normalization/FusedBatchNormV3", "op": "_FusedConv2D", "input": ["efficientnet-b0/blocks_7/Add", "efficientnet-b0/blocks_8/conv2d/Conv2D_weights", "efficientnet-b0/blocks_8/conv2d/Conv2D_bn_offset"], "device": "/device:CPU:0", "attr": {"epsilon": {"f": 0.0}, "padding": {"s": "U0FNRQ=="}, "fused_ops": {"list": {"s": ["Qmlhc0FkZA=="]}}, "dilations": {"list": {"i": ["1", "1", "1", "1"]}}, "T": {"type": "DT_FLOAT"}, "data_format": {"s": "TkhXQw=="}, "strides": {"list": {"i": ["1", "1", "1", "1"]}}, "explicit_paddings": {"list": {}}, "use_cudnn_on_gpu": {"b": true}, "num_args": {"i": "1"}}}, {"name": "efficientnet-b0/blocks_8/Sigmoid", "op": "Sigmoid", "input": ["efficientnet-b0/blocks_8/tpu_batch_normalization/FusedBatchNormV3"], "attr": {"T": {"type": "DT_FLOAT"}}}, {"name": "efficientnet-b0/blocks_8/mul", "op": "Mul", "input": ["efficientnet-b0/blocks_8/tpu_batch_normalization/FusedBatchNormV3", "efficientnet-b0/blocks_8/Sigmoid"], "attr": {"T": {"type": "DT_FLOAT"}}}, {"name": "efficientnet-b0/blocks_8/depthwise_conv2d/depthwise", "op": "FusedDepthwiseConv2dNative", "input": ["efficientnet-b0/blocks_8/mul", "efficientnet-b0/blocks_8/depthwise_conv2d/depthwise_weights", "efficientnet-b0/blocks_8/depthwise_conv2d/depthwise_bn_offset"], "attr": {"padding": {"s": "U0FNRQ=="}, "fused_ops": {"list": {"s": ["Qmlhc0FkZA=="]}}, "dilations": {"list": {"i": ["1", "1", "1", "1"]}}, "T": {"type": "DT_FLOAT"}, "strides": {"list": {"i": ["1", "1", "1", "1"]}}, "data_format": {"s": "TkhXQw=="}, "explicit_paddings": {"list": {}}, "num_args": {"i": "1"}}}, {"name": "efficientnet-b0/blocks_8/Sigmoid_1", "op": "Sigmoid", "input": ["efficientnet-b0/blocks_8/depthwise_conv2d/depthwise"], "attr": {"T": {"type": "DT_FLOAT"}}}, {"name": "efficientnet-b0/blocks_8/mul_1", "op": "Mul", "input": ["efficientnet-b0/blocks_8/depthwise_conv2d/depthwise", "efficientnet-b0/blocks_8/Sigmoid_1"], "attr": {"T": {"type": "DT_FLOAT"}}}, {"name": "efficientnet-b0/blocks_8/se/Mean", "op": "Mean", "input": ["efficientnet-b0/blocks_8/mul_1", "efficientnet-b0/blocks_8/se/Mean/reduction_indices"], "attr": {"keep_dims": {"b": true}, "Tidx": {"type": "DT_INT32"}, "T": {"type": "DT_FLOAT"}}}, {"name": "efficientnet-b0/blocks_8/se/conv2d/BiasAdd", "op": "_FusedConv2D", "input": ["efficientnet-b0/blocks_8/se/Mean", "efficientnet-b0/blocks_8/se/conv2d/kernel", "efficientnet-b0/blocks_8/se/conv2d/bias"], "device": "/device:CPU:0", "attr": {"dilations": {"list": {"i": ["1", "1", "1", "1"]}}, "T": {"type": "DT_FLOAT"}, "data_format": {"s": "TkhXQw=="}, "strides": {"list": {"i": ["1", "1", "1", "1"]}}, "explicit_paddings": {"list": {}}, "use_cudnn_on_gpu": {"b": true}, "num_args": {"i": "1"}, "epsilon": {"f": 0.0}, "padding": {"s": "U0FNRQ=="}, "fused_ops": {"list": {"s": ["Qmlhc0FkZA=="]}}}}, {"name": "efficientnet-b0/blocks_8/se/Sigmoid", "op": "Sigmoid", "input": ["efficientnet-b0/blocks_8/se/conv2d/BiasAdd"], "attr": {"T": {"type": "DT_FLOAT"}}}, {"name": "efficientnet-b0/blocks_8/se/mul", "op": "Mul", "input": ["efficientnet-b0/blocks_8/se/conv2d/BiasAdd", "efficientnet-b0/blocks_8/se/Sigmoid"], "attr": {"T": {"type": "DT_FLOAT"}}}, {"name": "efficientnet-b0/blocks_8/se/conv2d_1/BiasAdd", "op": "_FusedConv2D", "input": ["efficientnet-b0/blocks_8/se/mul", "efficientnet-b0/blocks_8/se/conv2d_1/kernel", "efficientnet-b0/blocks_8/se/conv2d_1/bias"], "device": "/device:CPU:0", "attr": {"dilations": {"list": {"i": ["1", "1", "1", "1"]}}, "T": {"type": "DT_FLOAT"}, "strides": {"list": {"i": ["1", "1", "1", "1"]}}, "data_format": {"s": "TkhXQw=="}, "use_cudnn_on_gpu": {"b": true}, "explicit_paddings": {"list": {}}, "num_args": {"i": "1"}, "epsilon": {"f": 0.0}, "padding": {"s": "U0FNRQ=="}, "fused_ops": {"list": {"s": ["Qmlhc0FkZA=="]}}}}, {"name": "efficientnet-b0/blocks_8/se/Sigmoid_1", "op": "Sigmoid", "input": ["efficientnet-b0/blocks_8/se/conv2d_1/BiasAdd"], "attr": {"T": {"type": "DT_FLOAT"}}}, {"name": "efficientnet-b0/blocks_8/se/mul_1", "op": "Mul", "input": ["efficientnet-b0/blocks_8/se/Sigmoid_1", "efficientnet-b0/blocks_8/mul_1"], "attr": {"T": {"type": "DT_FLOAT"}}}, {"name": "efficientnet-b0/blocks_8/tpu_batch_normalization_2/FusedBatchNormV3", "op": "_FusedConv2D", "input": ["efficientnet-b0/blocks_8/se/mul_1", "efficientnet-b0/blocks_8/conv2d_1/Conv2D_weights", "efficientnet-b0/blocks_8/conv2d_1/Conv2D_bn_offset"], "device": "/device:CPU:0", "attr": {"dilations": {"list": {"i": ["1", "1", "1", "1"]}}, "T": {"type": "DT_FLOAT"}, "strides": {"list": {"i": ["1", "1", "1", "1"]}}, "data_format": {"s": "TkhXQw=="}, "explicit_paddings": {"list": {}}, "use_cudnn_on_gpu": {"b": true}, "num_args": {"i": "1"}, "epsilon": {"f": 0.0}, "padding": {"s": "U0FNRQ=="}, "fused_ops": {"list": {"s": ["Qmlhc0FkZA=="]}}}}, {"name": "efficientnet-b0/blocks_9/tpu_batch_normalization/FusedBatchNormV3", "op": "_FusedConv2D", "input": ["efficientnet-b0/blocks_8/tpu_batch_normalization_2/FusedBatchNormV3", "efficientnet-b0/blocks_9/conv2d/Conv2D_weights", "efficientnet-b0/blocks_9/conv2d/Conv2D_bn_offset"], "device": "/device:CPU:0", "attr": {"dilations": {"list": {"i": ["1", "1", "1", "1"]}}, "T": {"type": "DT_FLOAT"}, "data_format": {"s": "TkhXQw=="}, "strides": {"list": {"i": ["1", "1", "1", "1"]}}, "use_cudnn_on_gpu": {"b": true}, "explicit_paddings": {"list": {}}, "num_args": {"i": "1"}, "epsilon": {"f": 0.0}, "padding": {"s": "U0FNRQ=="}, "fused_ops": {"list": {"s": ["Qmlhc0FkZA=="]}}}}, {"name": "efficientnet-b0/blocks_9/Sigmoid", "op": "Sigmoid", "input": ["efficientnet-b0/blocks_9/tpu_batch_normalization/FusedBatchNormV3"], "attr": {"T": {"type": "DT_FLOAT"}}}, {"name": "efficientnet-b0/blocks_9/mul", "op": "Mul", "input": ["efficientnet-b0/blocks_9/tpu_batch_normalization/FusedBatchNormV3", "efficientnet-b0/blocks_9/Sigmoid"], "attr": {"T": {"type": "DT_FLOAT"}}}, {"name": "efficientnet-b0/blocks_9/depthwise_conv2d/depthwise", "op": "FusedDepthwiseConv2dNative", "input": ["efficientnet-b0/blocks_9/mul", "efficientnet-b0/blocks_9/depthwise_conv2d/depthwise_weights", "efficientnet-b0/blocks_9/depthwise_conv2d/depthwise_bn_offset"], "attr": {"dilations": {"list": {"i": ["1", "1", "1", "1"]}}, "T": {"type": "DT_FLOAT"}, "data_format": {"s": "TkhXQw=="}, "strides": {"list": {"i": ["1", "1", "1", "1"]}}, "explicit_paddings": {"list": {}}, "num_args": {"i": "1"}, "padding": {"s": "U0FNRQ=="}, "fused_ops": {"list": {"s": ["Qmlhc0FkZA=="]}}}}, {"name": "efficientnet-b0/blocks_9/Sigmoid_1", "op": "Sigmoid", "input": ["efficientnet-b0/blocks_9/depthwise_conv2d/depthwise"], "attr": {"T": {"type": "DT_FLOAT"}}}, {"name": "efficientnet-b0/blocks_9/mul_1", "op": "Mul", "input": ["efficientnet-b0/blocks_9/depthwise_conv2d/depthwise", "efficientnet-b0/blocks_9/Sigmoid_1"], "attr": {"T": {"type": "DT_FLOAT"}}}, {"name": "efficientnet-b0/blocks_9/se/Mean", "op": "Mean", "input": ["efficientnet-b0/blocks_9/mul_1", "efficientnet-b0/blocks_9/se/Mean/reduction_indices"], "attr": {"T": {"type": "DT_FLOAT"}, "keep_dims": {"b": true}, "Tidx": {"type": "DT_INT32"}}}, {"name": "efficientnet-b0/blocks_9/se/conv2d/BiasAdd", "op": "_FusedConv2D", "input": ["efficientnet-b0/blocks_9/se/Mean", "efficientnet-b0/blocks_9/se/conv2d/kernel", "efficientnet-b0/blocks_9/se/conv2d/bias"], "device": "/device:CPU:0", "attr": {"dilations": {"list": {"i": ["1", "1", "1", "1"]}}, "T": {"type": "DT_FLOAT"}, "strides": {"list": {"i": ["1", "1", "1", "1"]}}, "data_format": {"s": "TkhXQw=="}, "explicit_paddings": {"list": {}}, "use_cudnn_on_gpu": {"b": true}, "num_args": {"i": "1"}, "epsilon": {"f": 0.0}, "padding": {"s": "U0FNRQ=="}, "fused_ops": {"list": {"s": ["Qmlhc0FkZA=="]}}}}, {"name": "efficientnet-b0/blocks_9/se/Sigmoid", "op": "Sigmoid", "input": ["efficientnet-b0/blocks_9/se/conv2d/BiasAdd"], "attr": {"T": {"type": "DT_FLOAT"}}}, {"name": "efficientnet-b0/blocks_9/se/mul", "op": "Mul", "input": ["efficientnet-b0/blocks_9/se/conv2d/BiasAdd", "efficientnet-b0/blocks_9/se/Sigmoid"], "attr": {"T": {"type": "DT_FLOAT"}}}, {"name": "efficientnet-b0/blocks_9/se/conv2d_1/BiasAdd", "op": "_FusedConv2D", "input": ["efficientnet-b0/blocks_9/se/mul", "efficientnet-b0/blocks_9/se/conv2d_1/kernel", "efficientnet-b0/blocks_9/se/conv2d_1/bias"], "device": "/device:CPU:0", "attr": {"T": {"type": "DT_FLOAT"}, "data_format": {"s": "TkhXQw=="}, "strides": {"list": {"i": ["1", "1", "1", "1"]}}, "explicit_paddings": {"list": {}}, "use_cudnn_on_gpu": {"b": true}, "num_args": {"i": "1"}, "epsilon": {"f": 0.0}, "padding": {"s": "U0FNRQ=="}, "fused_ops": {"list": {"s": ["Qmlhc0FkZA=="]}}, "dilations": {"list": {"i": ["1", "1", "1", "1"]}}}}, {"name": "efficientnet-b0/blocks_9/se/Sigmoid_1", "op": "Sigmoid", "input": ["efficientnet-b0/blocks_9/se/conv2d_1/BiasAdd"], "attr": {"T": {"type": "DT_FLOAT"}}}, {"name": "efficientnet-b0/blocks_9/se/mul_1", "op": "Mul", "input": ["efficientnet-b0/blocks_9/se/Sigmoid_1", "efficientnet-b0/blocks_9/mul_1"], "attr": {"T": {"type": "DT_FLOAT"}}}, {"name": "efficientnet-b0/blocks_9/tpu_batch_normalization_2/FusedBatchNormV3", "op": "_FusedConv2D", "input": ["efficientnet-b0/blocks_9/se/mul_1", "efficientnet-b0/blocks_9/conv2d_1/Conv2D_weights", "efficientnet-b0/blocks_9/conv2d_1/Conv2D_bn_offset"], "device": "/device:CPU:0", "attr": {"fused_ops": {"list": {"s": ["Qmlhc0FkZA=="]}}, "dilations": {"list": {"i": ["1", "1", "1", "1"]}}, "T": {"type": "DT_FLOAT"}, "strides": {"list": {"i": ["1", "1", "1", "1"]}}, "data_format": {"s": "TkhXQw=="}, "explicit_paddings": {"list": {}}, "use_cudnn_on_gpu": {"b": true}, "num_args": {"i": "1"}, "epsilon": {"f": 0.0}, "padding": {"s": "U0FNRQ=="}}}, {"name": "efficientnet-b0/blocks_9/Add", "op": "Add", "input": ["efficientnet-b0/blocks_9/tpu_batch_normalization_2/FusedBatchNormV3", "efficientnet-b0/blocks_8/tpu_batch_normalization_2/FusedBatchNormV3"], "attr": {"T": {"type": "DT_FLOAT"}}}, {"name": "efficientnet-b0/blocks_10/tpu_batch_normalization/FusedBatchNormV3", "op": "_FusedConv2D", "input": ["efficientnet-b0/blocks_9/Add", "efficientnet-b0/blocks_10/conv2d/Conv2D_weights", "efficientnet-b0/blocks_10/conv2d/Conv2D_bn_offset"], "device": "/device:CPU:0", "attr": {"num_args": {"i": "1"}, "epsilon": {"f": 0.0}, "padding": {"s": "U0FNRQ=="}, "fused_ops": {"list": {"s": ["Qmlhc0FkZA=="]}}, "dilations": {"list": {"i": ["1", "1", "1", "1"]}}, "T": {"type": "DT_FLOAT"}, "data_format": {"s": "TkhXQw=="}, "strides": {"list": {"i": ["1", "1", "1", "1"]}}, "use_cudnn_on_gpu": {"b": true}, "explicit_paddings": {"list": {}}}}, {"name": "efficientnet-b0/blocks_10/Sigmoid", "op": "Sigmoid", "input": ["efficientnet-b0/blocks_10/tpu_batch_normalization/FusedBatchNormV3"], "attr": {"T": {"type": "DT_FLOAT"}}}, {"name": "efficientnet-b0/blocks_10/mul", "op": "Mul", "input": ["efficientnet-b0/blocks_10/tpu_batch_normalization/FusedBatchNormV3", "efficientnet-b0/blocks_10/Sigmoid"], "attr": {"T": {"type": "DT_FLOAT"}}}, {"name": "efficientnet-b0/blocks_10/depthwise_conv2d/depthwise", "op": "FusedDepthwiseConv2dNative", "input": ["efficientnet-b0/blocks_10/mul", "efficientnet-b0/blocks_10/depthwise_conv2d/depthwise_weights", "efficientnet-b0/blocks_10/depthwise_conv2d/depthwise_bn_offset"], "attr": {"strides": {"list": {"i": ["1", "1", "1", "1"]}}, "data_format": {"s": "TkhXQw=="}, "explicit_paddings": {"list": {}}, "num_args": {"i": "1"}, "padding": {"s": "U0FNRQ=="}, "fused_ops": {"list": {"s": ["Qmlhc0FkZA=="]}}, "dilations": {"list": {"i": ["1", "1", "1", "1"]}}, "T": {"type": "DT_FLOAT"}}}, {"name": "efficientnet-b0/blocks_10/Sigmoid_1", "op": "Sigmoid", "input": ["efficientnet-b0/blocks_10/depthwise_conv2d/depthwise"], "attr": {"T": {"type": "DT_FLOAT"}}}, {"name": "efficientnet-b0/blocks_10/mul_1", "op": "Mul", "input": ["efficientnet-b0/blocks_10/depthwise_conv2d/depthwise", "efficientnet-b0/blocks_10/Sigmoid_1"], "attr": {"T": {"type": "DT_FLOAT"}}}, {"name": "efficientnet-b0/blocks_10/se/Mean", "op": "Mean", "input": ["efficientnet-b0/blocks_10/mul_1", "efficientnet-b0/blocks_10/se/Mean/reduction_indices"], "attr": {"keep_dims": {"b": true}, "Tidx": {"type": "DT_INT32"}, "T": {"type": "DT_FLOAT"}}}, {"name": "efficientnet-b0/blocks_10/se/conv2d/BiasAdd", "op": "_FusedConv2D", "input": ["efficientnet-b0/blocks_10/se/Mean", "efficientnet-b0/blocks_10/se/conv2d/kernel", "efficientnet-b0/blocks_10/se/conv2d/bias"], "device": "/device:CPU:0", "attr": {"num_args": {"i": "1"}, "epsilon": {"f": 0.0}, "padding": {"s": "U0FNRQ=="}, "fused_ops": {"list": {"s": ["Qmlhc0FkZA=="]}}, "dilations": {"list": {"i": ["1", "1", "1", "1"]}}, "T": {"type": "DT_FLOAT"}, "data_format": {"s": "TkhXQw=="}, "strides": {"list": {"i": ["1", "1", "1", "1"]}}, "explicit_paddings": {"list": {}}, "use_cudnn_on_gpu": {"b": true}}}, {"name": "efficientnet-b0/blocks_10/se/Sigmoid", "op": "Sigmoid", "input": ["efficientnet-b0/blocks_10/se/conv2d/BiasAdd"], "attr": {"T": {"type": "DT_FLOAT"}}}, {"name": "efficientnet-b0/blocks_10/se/mul", "op": "Mul", "input": ["efficientnet-b0/blocks_10/se/conv2d/BiasAdd", "efficientnet-b0/blocks_10/se/Sigmoid"], "attr": {"T": {"type": "DT_FLOAT"}}}, {"name": "efficientnet-b0/blocks_10/se/conv2d_1/BiasAdd", "op": "_FusedConv2D", "input": ["efficientnet-b0/blocks_10/se/mul", "efficientnet-b0/blocks_10/se/conv2d_1/kernel", "efficientnet-b0/blocks_10/se/conv2d_1/bias"], "device": "/device:CPU:0", "attr": {"dilations": {"list": {"i": ["1", "1", "1", "1"]}}, "T": {"type": "DT_FLOAT"}, "strides": {"list": {"i": ["1", "1", "1", "1"]}}, "data_format": {"s": "TkhXQw=="}, "explicit_paddings": {"list": {}}, "use_cudnn_on_gpu": {"b": true}, "num_args": {"i": "1"}, "epsilon": {"f": 0.0}, "padding": {"s": "U0FNRQ=="}, "fused_ops": {"list": {"s": ["Qmlhc0FkZA=="]}}}}, {"name": "efficientnet-b0/blocks_10/se/Sigmoid_1", "op": "Sigmoid", "input": ["efficientnet-b0/blocks_10/se/conv2d_1/BiasAdd"], "attr": {"T": {"type": "DT_FLOAT"}}}, {"name": "efficientnet-b0/blocks_10/se/mul_1", "op": "Mul", "input": ["efficientnet-b0/blocks_10/se/Sigmoid_1", "efficientnet-b0/blocks_10/mul_1"], "attr": {"T": {"type": "DT_FLOAT"}}}, {"name": "efficientnet-b0/blocks_10/tpu_batch_normalization_2/FusedBatchNormV3", "op": "_FusedConv2D", "input": ["efficientnet-b0/blocks_10/se/mul_1", "efficientnet-b0/blocks_10/conv2d_1/Conv2D_weights", "efficientnet-b0/blocks_10/conv2d_1/Conv2D_bn_offset"], "device": "/device:CPU:0", "attr": {"num_args": {"i": "1"}, "epsilon": {"f": 0.0}, "padding": {"s": "U0FNRQ=="}, "fused_ops": {"list": {"s": ["Qmlhc0FkZA=="]}}, "dilations": {"list": {"i": ["1", "1", "1", "1"]}}, "T": {"type": "DT_FLOAT"}, "strides": {"list": {"i": ["1", "1", "1", "1"]}}, "data_format": {"s": "TkhXQw=="}, "use_cudnn_on_gpu": {"b": true}, "explicit_paddings": {"list": {}}}}, {"name": "efficientnet-b0/blocks_10/Add", "op": "Add", "input": ["efficientnet-b0/blocks_10/tpu_batch_normalization_2/FusedBatchNormV3", "efficientnet-b0/blocks_9/Add"], "attr": {"T": {"type": "DT_FLOAT"}}}, {"name": "efficientnet-b0/blocks_11/tpu_batch_normalization/FusedBatchNormV3", "op": "_FusedConv2D", "input": ["efficientnet-b0/blocks_10/Add", "efficientnet-b0/blocks_11/conv2d/Conv2D_weights", "efficientnet-b0/blocks_11/conv2d/Conv2D_bn_offset"], "device": "/device:CPU:0", "attr": {"data_format": {"s": "TkhXQw=="}, "strides": {"list": {"i": ["1", "1", "1", "1"]}}, "explicit_paddings": {"list": {}}, "use_cudnn_on_gpu": {"b": true}, "num_args": {"i": "1"}, "epsilon": {"f": 0.0}, "padding": {"s": "U0FNRQ=="}, "fused_ops": {"list": {"s": ["Qmlhc0FkZA=="]}}, "dilations": {"list": {"i": ["1", "1", "1", "1"]}}, "T": {"type": "DT_FLOAT"}}}, {"name": "fpn_cells/cell_0/fnode4/resample_0_1_9/bn/FusedBatchNormV3", "op": "_FusedConv2D", "input": ["efficientnet-b0/blocks_10/Add", "fpn_cells/cell_0/fnode4/resample_0_1_9/conv2d/Conv2D_weights", "fpn_cells/cell_0/fnode4/resample_0_1_9/conv2d/Conv2D_bn_offset"], "device": "/device:CPU:0", "attr": {"epsilon": {"f": 0.0}, "padding": {"s": "U0FNRQ=="}, "fused_ops": {"list": {"s": ["Qmlhc0FkZA=="]}}, "dilations": {"list": {"i": ["1", "1", "1", "1"]}}, "T": {"type": "DT_FLOAT"}, "strides": {"list": {"i": ["1", "1", "1", "1"]}}, "data_format": {"s": "TkhXQw=="}, "explicit_paddings": {"list": {}}, "use_cudnn_on_gpu": {"b": true}, "num_args": {"i": "1"}}}, {"name": "fpn_cells/cell_0/fnode2/resample_0_1_7/bn/FusedBatchNormV3", "op": "_FusedConv2D", "input": ["efficientnet-b0/blocks_10/Add", "fpn_cells/cell_0/fnode2/resample_0_1_7/conv2d/Conv2D_weights", "fpn_cells/cell_0/fnode2/resample_0_1_7/conv2d/Conv2D_bn_offset"], "device": "/device:CPU:0", "attr": {"strides": {"list": {"i": ["1", "1", "1", "1"]}}, "data_format": {"s": "TkhXQw=="}, "explicit_paddings": {"list": {}}, "use_cudnn_on_gpu": {"b": true}, "num_args": {"i": "1"}, "epsilon": {"f": 0.0}, "padding": {"s": "U0FNRQ=="}, "fused_ops": {"list": {"s": ["Qmlhc0FkZA=="]}}, "dilations": {"list": {"i": ["1", "1", "1", "1"]}}, "T": {"type": "DT_FLOAT"}}}, {"name": "efficientnet-b0/blocks_11/Sigmoid", "op": "Sigmoid", "input": ["efficientnet-b0/blocks_11/tpu_batch_normalization/FusedBatchNormV3"], "attr": {"T": {"type": "DT_FLOAT"}}}, {"name": "fpn_cells/cell_0/fnode4/truediv", "op": "Mul", "input": ["fpn_cells/cell_0/fnode4/resample_0_1_9/bn/FusedBatchNormV3", "fpn_cells/cell_0/fnode4/mul"], "attr": {"T": {"type": "DT_FLOAT"}}}, {"name": "fpn_cells/cell_0/fnode2/truediv", "op": "Mul", "input": ["fpn_cells/cell_0/fnode2/resample_0_1_7/bn/FusedBatchNormV3", "fpn_cells/cell_0/fnode2/mul"], "attr": {"T": {"type": "DT_FLOAT"}}}, {"name": "efficientnet-b0/blocks_11/mul", "op": "Mul", "input": ["efficientnet-b0/blocks_11/tpu_batch_normalization/FusedBatchNormV3", "efficientnet-b0/blocks_11/Sigmoid"], "attr": {"T": {"type": "DT_FLOAT"}}}, {"name": "efficientnet-b0/blocks_11/depthwise_conv2d/depthwise", "op": "FusedDepthwiseConv2dNative", "input": ["efficientnet-b0/blocks_11/mul", "efficientnet-b0/blocks_11/depthwise_conv2d/depthwise_weights", "efficientnet-b0/blocks_11/depthwise_conv2d/depthwise_bn_offset"], "attr": {"strides": {"list": {"i": ["1", "2", "2", "1"]}}, "data_format": {"s": "TkhXQw=="}, "explicit_paddings": {"list": {}}, "num_args": {"i": "1"}, "padding": {"s": "U0FNRQ=="}, "fused_ops": {"list": {"s": ["Qmlhc0FkZA=="]}}, "dilations": {"list": {"i": ["1", "1", "1", "1"]}}, "T": {"type": "DT_FLOAT"}}}, {"name": "efficientnet-b0/blocks_11/Sigmoid_1", "op": "Sigmoid", "input": ["efficientnet-b0/blocks_11/depthwise_conv2d/depthwise"], "attr": {"T": {"type": "DT_FLOAT"}}}, {"name": "efficientnet-b0/blocks_11/mul_1", "op": "Mul", "input": ["efficientnet-b0/blocks_11/depthwise_conv2d/depthwise", "efficientnet-b0/blocks_11/Sigmoid_1"], "attr": {"T": {"type": "DT_FLOAT"}}}, {"name": "efficientnet-b0/blocks_11/se/Mean", "op": "Mean", "input": ["efficientnet…
4/separable_conv2d/depthwise", "op": "DepthwiseConv2dNative", "input": ["box_net/mul_12", "box_net/box-1/depthwise_kernel"], "attr": {"strides": {"list": {"i": ["1", "1", "1", "1"]}}, "data_format": {"s": "TkhXQw=="}, "explicit_paddings": {"list": {}}, "padding": {"s": "U0FNRQ=="}, "dilations": {"list": {"i": ["1", "1", "1", "1"]}}, "T": {"type": "DT_FLOAT"}}}, {"name": "class_net/class-1_4/separable_conv2d/depthwise", "op": "DepthwiseConv2dNative", "input": ["class_net/mul_12", "class_net/class-1/depthwise_kernel"], "attr": {"dilations": {"list": {"i": ["1", "1", "1", "1"]}}, "T": {"type": "DT_FLOAT"}, "strides": {"list": {"i": ["1", "1", "1", "1"]}}, "data_format": {"s": "TkhXQw=="}, "explicit_paddings": {"list": {}}, "padding": {"s": "U0FNRQ=="}}}, {"name": "box_net/box-predict_3/separable_conv2d/depthwise", "op": "DepthwiseConv2dNative", "input": ["box_net/mul_11", "box_net/box-predict/depthwise_kernel"], "attr": {"dilations": {"list": {"i": ["1", "1", "1", "1"]}}, "T": {"type": "DT_FLOAT"}, "strides": {"list": {"i": ["1", "1", "1", "1"]}}, "data_format": {"s": "TkhXQw=="}, "explicit_paddings": {"list": {}}, "padding": {"s": "U0FNRQ=="}}}, {"name": "class_net/class-predict_3/separable_conv2d/depthwise", "op": "DepthwiseConv2dNative", "input": ["class_net/mul_11", "class_net/class-predict/depthwise_kernel"], "attr": {"dilations": {"list": {"i": ["1", "1", "1", "1"]}}, "T": {"type": "DT_FLOAT"}, "strides": {"list": {"i": ["1", "1", "1", "1"]}}, "data_format": {"s": "TkhXQw=="}, "explicit_paddings": {"list": {}}, "padding": {"s": "U0FNRQ=="}}}, {"name": "box_net/box-1-bn-7/FusedBatchNormV3", "op": "_FusedConv2D", "input": ["box_net/box-1_4/separable_conv2d/depthwise", "box_net/box-1_4/separable_conv2d_weights", "box_net/box-1_4/separable_conv2d_bn_offset"], "device": "/device:CPU:0", "attr": {"dilations": {"list": {"i": ["1", "1", "1", "1"]}}, "T": {"type": "DT_FLOAT"}, "strides": {"list": {"i": ["1", "1", "1", "1"]}}, "data_format": {"s": "TkhXQw=="}, "explicit_paddings": {"list": {}}, "use_cudnn_on_gpu": {"b": true}, "num_args": {"i": "1"}, "epsilon": {"f": 0.0}, "padding": {"s": "VkFMSUQ="}, "fused_ops": {"list": {"s": ["Qmlhc0FkZA=="]}}}}, {"name": "class_net/class-1-bn-7/FusedBatchNormV3", "op": "_FusedConv2D", "input": ["class_net/class-1_4/separable_conv2d/depthwise", "class_net/class-1_4/separable_conv2d_weights", "class_net/class-1_4/separable_conv2d_bn_offset"], "device": "/device:CPU:0", "attr": {"dilations": {"list": {"i": ["1", "1", "1", "1"]}}, "T": {"type": "DT_FLOAT"}, "data_format": {"s": "TkhXQw=="}, "strides": {"list": {"i": ["1", "1", "1", "1"]}}, "use_cudnn_on_gpu": {"b": true}, "explicit_paddings": {"list": {}}, "num_args": {"i": "1"}, "epsilon": {"f": 0.0}, "padding": {"s": "VkFMSUQ="}, "fused_ops": {"list": {"s": ["Qmlhc0FkZA=="]}}}}, {"name": "box_net/box-predict_3/BiasAdd", "op": "_FusedConv2D", "input": ["box_net/box-predict_3/separable_conv2d/depthwise", "box_net/box-predict/pointwise_kernel", "box_net/box-predict/bias"], "device": "/device:CPU:0", "attr": {"fused_ops": {"list": {"s": ["Qmlhc0FkZA=="]}}, "dilations": {"list": {"i": ["1", "1", "1", "1"]}}, "T": {"type": "DT_FLOAT"}, "data_format": {"s": "TkhXQw=="}, "strides": {"list": {"i": ["1", "1", "1", "1"]}}, "use_cudnn_on_gpu": {"b": true}, "explicit_paddings": {"list": {}}, "num_args": {"i": "1"}, "epsilon": {"f": 0.0}, "padding": {"s": "VkFMSUQ="}}}, {"name": "class_net/class-predict_3/BiasAdd", "op": "_FusedConv2D", "input": ["class_net/class-predict_3/separable_conv2d/depthwise", "class_net/class-predict/pointwise_kernel", "class_net/class-predict/bias"], "device": "/device:CPU:0", "attr": {"epsilon": {"f": 0.0}, "padding": {"s": "VkFMSUQ="}, "fused_ops": {"list": {"s": ["Qmlhc0FkZA=="]}}, "dilations": {"list": {"i": ["1", "1", "1", "1"]}}, "T": {"type": "DT_FLOAT"}, "strides": {"list": {"i": ["1", "1", "1", "1"]}}, "data_format": {"s": "TkhXQw=="}, "explicit_paddings": {"list": {}}, "use_cudnn_on_gpu": {"b": true}, "num_args": {"i": "1"}}}, {"name": "box_net/Sigmoid_13", "op": "Sigmoid", "input": ["box_net/box-1-bn-7/FusedBatchNormV3"], "attr": {"T": {"type": "DT_FLOAT"}}}, {"name": "class_net/Sigmoid_13", "op": "Sigmoid", "input": ["class_net/class-1-bn-7/FusedBatchNormV3"], "attr": {"T": {"type": "DT_FLOAT"}}}, {"name": "box_net/mul_13", "op": "Mul", "input": ["box_net/box-1-bn-7/FusedBatchNormV3", "box_net/Sigmoid_13"], "attr": {"T": {"type": "DT_FLOAT"}}}, {"name": "class_net/mul_13", "op": "Mul", "input": ["class_net/class-1-bn-7/FusedBatchNormV3", "class_net/Sigmoid_13"], "attr": {"T": {"type": "DT_FLOAT"}}}, {"name": "box_net/box-2_4/separable_conv2d/depthwise", "op": "DepthwiseConv2dNative", "input": ["box_net/mul_13", "box_net/box-2/depthwise_kernel"], "attr": {"dilations": {"list": {"i": ["1", "1", "1", "1"]}}, "T": {"type": "DT_FLOAT"}, "strides": {"list": {"i": ["1", "1", "1", "1"]}}, "data_format": {"s": "TkhXQw=="}, "explicit_paddings": {"list": {}}, "padding": {"s": "U0FNRQ=="}}}, {"name": "class_net/class-2_4/separable_conv2d/depthwise", "op": "DepthwiseConv2dNative", "input": ["class_net/mul_13", "class_net/class-2/depthwise_kernel"], "attr": {"dilations": {"list": {"i": ["1", "1", "1", "1"]}}, "T": {"type": "DT_FLOAT"}, "data_format": {"s": "TkhXQw=="}, "strides": {"list": {"i": ["1", "1", "1", "1"]}}, "explicit_paddings": {"list": {}}, "padding": {"s": "U0FNRQ=="}}}, {"name": "box_net/box-2-bn-7/FusedBatchNormV3", "op": "_FusedConv2D", "input": ["box_net/box-2_4/separable_conv2d/depthwise", "box_net/box-2_4/separable_conv2d_weights", "box_net/box-2_4/separable_conv2d_bn_offset"], "device": "/device:CPU:0", "attr": {"dilations": {"list": {"i": ["1", "1", "1", "1"]}}, "T": {"type": "DT_FLOAT"}, "data_format": {"s": "TkhXQw=="}, "strides": {"list": {"i": ["1", "1", "1", "1"]}}, "use_cudnn_on_gpu": {"b": true}, "explicit_paddings": {"list": {}}, "num_args": {"i": "1"}, "epsilon": {"f": 0.0}, "padding": {"s": "VkFMSUQ="}, "fused_ops": {"list": {"s": ["Qmlhc0FkZA=="]}}}}, {"name": "class_net/class-2-bn-7/FusedBatchNormV3", "op": "_FusedConv2D", "input": ["class_net/class-2_4/separable_conv2d/depthwise", "class_net/class-2_4/separable_conv2d_weights", "class_net/class-2_4/separable_conv2d_bn_offset"], "device": "/device:CPU:0", "attr": {"T": {"type": "DT_FLOAT"}, "data_format": {"s": "TkhXQw=="}, "strides": {"list": {"i": ["1", "1", "1", "1"]}}, "explicit_paddings": {"list": {}}, "use_cudnn_on_gpu": {"b": true}, "num_args": {"i": "1"}, "epsilon": {"f": 0.0}, "padding": {"s": "VkFMSUQ="}, "fused_ops": {"list": {"s": ["Qmlhc0FkZA=="]}}, "dilations": {"list": {"i": ["1", "1", "1", "1"]}}}}, {"name": "box_net/Sigmoid_14", "op": "Sigmoid", "input": ["box_net/box-2-bn-7/FusedBatchNormV3"], "attr": {"T": {"type": "DT_FLOAT"}}}, {"name": "class_net/Sigmoid_14", "op": "Sigmoid", "input": ["class_net/class-2-bn-7/FusedBatchNormV3"], "attr": {"T": {"type": "DT_FLOAT"}}}, {"name": "box_net/mul_14", "op": "Mul", "input": ["box_net/box-2-bn-7/FusedBatchNormV3", "box_net/Sigmoid_14"], "attr": {"T": {"type": "DT_FLOAT"}}}, {"name": "class_net/mul_14", "op": "Mul", "input": ["class_net/class-2-bn-7/FusedBatchNormV3", "class_net/Sigmoid_14"], "attr": {"T": {"type": "DT_FLOAT"}}}, {"name": "box_net/box-predict_4/separable_conv2d/depthwise", "op": "DepthwiseConv2dNative", "input": ["box_net/mul_14", "box_net/box-predict/depthwise_kernel"], "attr": {"strides": {"list": {"i": ["1", "1", "1", "1"]}}, "data_format": {"s": "TkhXQw=="}, "explicit_paddings": {"list": {}}, "padding": {"s": "U0FNRQ=="}, "dilations": {"list": {"i": ["1", "1", "1", "1"]}}, "T": {"type": "DT_FLOAT"}}}, {"name": "class_net/class-predict_4/separable_conv2d/depthwise", "op": "DepthwiseConv2dNative", "input": ["class_net/mul_14", "class_net/class-predict/depthwise_kernel"], "attr": {"padding": {"s": "U0FNRQ=="}, "dilations": {"list": {"i": ["1", "1", "1", "1"]}}, "T": {"type": "DT_FLOAT"}, "data_format": {"s": "TkhXQw=="}, "strides": {"list": {"i": ["1", "1", "1", "1"]}}, "explicit_paddings": {"list": {}}}}, {"name": "box_net/box-predict_4/BiasAdd", "op": "_FusedConv2D", "input": ["box_net/box-predict_4/separable_conv2d/depthwise", "box_net/box-predict/pointwise_kernel", "box_net/box-predict/bias"], "device": "/device:CPU:0", "attr": {"dilations": {"list": {"i": ["1", "1", "1", "1"]}}, "T": {"type": "DT_FLOAT"}, "strides": {"list": {"i": ["1", "1", "1", "1"]}}, "data_format": {"s": "TkhXQw=="}, "explicit_paddings": {"list": {}}, "use_cudnn_on_gpu": {"b": true}, "num_args": {"i": "1"}, "epsilon": {"f": 0.0}, "padding": {"s": "VkFMSUQ="}, "fused_ops": {"list": {"s": ["Qmlhc0FkZA=="]}}}}, {"name": "class_net/class-predict_4/BiasAdd", "op": "_FusedConv2D", "input": ["class_net/class-predict_4/separable_conv2d/depthwise", "class_net/class-predict/pointwise_kernel", "class_net/class-predict/bias"], "device": "/device:CPU:0", "attr": {"T": {"type": "DT_FLOAT"}, "data_format": {"s": "TkhXQw=="}, "strides": {"list": {"i": ["1", "1", "1", "1"]}}, "explicit_paddings": {"list": {}}, "use_cudnn_on_gpu": {"b": true}, "num_args": {"i": "1"}, "epsilon": {"f": 0.0}, "padding": {"s": "VkFMSUQ="}, "fused_ops": {"list": {"s": ["Qmlhc0FkZA=="]}}, "dilations": {"list": {"i": ["1", "1", "1", "1"]}}}}], "library": {}, "versions": {"producer": 440}}, "weightsManifest": [{"paths": ["group1-shard1of4.bin", "group1-shard2of4.bin", "group1-shard3of4.bin", "group1-shard4of4.bin"], "weights": [{"name": "box_net/box-0/depthwise_kernel", "shape": [3, 3, 64, 1], "dtype": "float32"}, {"name": "box_net/box-1/depthwise_kernel", "shape": [3, 3, 64, 1], "dtype": "float32"}, {"name": "box_net/box-2/depthwise_kernel", "shape": [3, 3, 64, 1], "dtype": "float32"}, {"name": "box_net/box-predict/depthwise_kernel", "shape": [3, 3, 64, 1], "dtype": "float32"}, {"name": "box_net/box-predict/pointwise_kernel", "shape": [1, 1, 64, 36], "dtype": "float32"}, {"name": "box_net/box-predict/bias", "shape": [36], "dtype": "float32"}, {"name": "fpn_cells/cell_2/fnode7/mul", "shape": [], "dtype": "float32"}, {"name": "fpn_cells/cell_2/fnode6/mul", "shape": [], "dtype": "float32"}, {"name": "fpn_cells/cell_2/fnode6/mul_1", "shape": [], "dtype": "float32"}, {"name": "fpn_cells/cell_2/fnode5/mul", "shape": [], "dtype": "float32"}, {"name": "fpn_cells/cell_2/fnode5/mul_1", "shape": [], "dtype": "float32"}, {"name": "fpn_cells/cell_2/fnode4/mul", "shape": [], "dtype": "float32"}, {"name": "fpn_cells/cell_2/fnode4/mul_1", "shape": [], "dtype": "float32"}, {"name": "fpn_cells/cell_2/fnode3/mul", "shape": [], "dtype": "float32"}, {"name": "fpn_cells/cell_2/fnode2/mul", "shape": [], "dtype": "float32"}, {"name": "fpn_cells/cell_2/fnode1/mul", "shape": [], "dtype": "float32"}, {"name": "fpn_cells/cell_2/fnode0/mul", "shape": [], "dtype": "float32"}, {"name": "fpn_cells/cell_1/fnode7/mul", "shape": [], "dtype": "float32"}, {"name": "fpn_cells/cell_1/fnode6/mul", "shape": [], "dtype": "float32"}, {"name": "fpn_cells/cell_1/fnode6/mul_1", "shape": [], "dtype": "float32"}, {"name": "fpn_cells/cell_1/fnode5/mul", "shape": [], "dtype": "float32"}, {"name": "fpn_cells/cell_1/fnode5/mul_1", "shape": [], "dtype": "float32"}, {"name": "fpn_cells/cell_1/fnode4/mul", "shape": [], "dtype": "float32"}, {"name": "fpn_cells/cell_1/fnode4/mul_1", "shape": [], "dtype": "float32"}, {"name": "fpn_cells/cell_1/fnode3/mul", "shape": [], "dtype": "float32"}, {"name": "fpn_cells/cell_1/fnode2/mul", "shape": [], "dtype": "float32"}, {"name": "fpn_cells/cell_1/fnode1/mul", "shape": [], "dtype": "float32"}, {"name": "fpn_cells/cell_1/fnode0/mul", "shape": [], "dtype": "float32"}, {"name": "fpn_cells/cell_0/fnode7/mul", "shape": [], "dtype": "float32"}, {"name": "fpn_cells/cell_0/fnode6/mul", "shape": [], "dtype": "float32"}, {"name": "fpn_cells/cell_0/fnode6/mul_1", "shape": [], "dtype": "float32"}, {"name": "fpn_cells/cell_0/fnode5/mul", "shape": [], "dtype": "float32"}, {"name": "fpn_cells/cell_0/fnode5/mul_1", "shape": [], "dtype": "float32"}, {"name": "fpn_cells/cell_0/fnode4/mul", "shape": [], "dtype": "float32"}, {"name": "fpn_cells/cell_0/fnode4/mul_1", "shape": [], "dtype": "float32"}, {"name": "fpn_cells/cell_0/fnode3/mul", "shape": [], "dtype": "float32"}, {"name": "fpn_cells/cell_0/fnode2/mul", "shape": [], "dtype": "float32"}, {"name": "fpn_cells/cell_0/fnode1/mul", "shape": [], "dtype": "float32"}, {"name": "fpn_cells/cell_0/fnode0/mul", "shape": [], "dtype": "float32"}, {"name": "efficientnet-b0/blocks_15/se/Mean/reduction_indices", "shape": [2], "dtype": "int32"}, {"name": "efficientnet-b0/blocks_15/se/conv2d/kernel", "shape": [1, 1, 1152, 48], "dtype": "float32"}, {"name": "efficientnet-b0/blocks_15/se/conv2d/bias", "shape": [48], "dtype": "float32"}, {"name": "efficientnet-b0/blocks_15/se/conv2d_1/kernel", "shape": [1, 1, 48, 1152], "dtype": "float32"}, {"name": "efficientnet-b0/blocks_15/se/conv2d_1/bias", "shape": [1152], "dtype": "float32"}, {"name": "efficientnet-b0/blocks_14/se/Mean/reduction_indices", "shape": [2], "dtype": "int32"}, {"name": "efficientnet-b0/blocks_14/se/conv2d/kernel", "shape": [1, 1, 1152, 48], "dtype": "float32"}, {"name": "efficientnet-b0/blocks_14/se/conv2d/bias", "shape": [48], "dtype": "float32"}, {"name": "efficientnet-b0/blocks_14/se/conv2d_1/kernel", "shape": [1, 1, 48, 1152], "dtype": "float32"}, {"name": "efficientnet-b0/blocks_14/se/conv2d_1/bias", "shape": [1152], "dtype": "float32"}, {"name": "efficientnet-b0/blocks_13/se/Mean/reduction_indices", "shape": [2], "dtype": "int32"}, {"name": "efficientnet-b0/blocks_13/se/conv2d/kernel", "shape": [1, 1, 1152, 48], "dtype": "float32"}, {"name": "efficientnet-b0/blocks_13/se/conv2d/bias", "shape": [48], "dtype": "float32"}, {"name": "efficientnet-b0/blocks_13/se/conv2d_1/kernel", "shape": [1, 1, 48, 1152], "dtype": "float32"}, {"name": "efficientnet-b0/blocks_13/se/conv2d_1/bias", "shape": [1152], "dtype": "float32"}, {"name": "efficientnet-b0/blocks_12/se/Mean/reduction_indices", "shape": [2], "dtype": "int32"}, {"name": "efficientnet-b0/blocks_12/se/conv2d/kernel", "shape": [1, 1, 1152, 48], "dtype": "float32"}, {"name": "efficientnet-b0/blocks_12/se/conv2d/bias", "shape": [48], "dtype": "float32"}, {"name": "efficientnet-b0/blocks_12/se/conv2d_1/kernel", "shape": [1, 1, 48, 1152], "dtype": "float32"}, {"name": "efficientnet-b0/blocks_12/se/conv2d_1/bias", "shape": [1152], "dtype": "float32"}, {"name": "efficientnet-b0/blocks_11/se/Mean/reduction_indices", "shape": [2], "dtype": "int32"}, {"name": "efficientnet-b0/blocks_11/se/conv2d/kernel", "shape": [1, 1, 672, 28], "dtype": "float32"}, {"name": "efficientnet-b0/blocks_11/se/conv2d/bias", "shape": [28], "dtype": "float32"}, {"name": "efficientnet-b0/blocks_11/se/conv2d_1/kernel", "shape": [1, 1, 28, 672], "dtype": "float32"}, {"name": "efficientnet-b0/blocks_11/se/conv2d_1/bias", "shape": [672], "dtype": "float32"}, {"name": "efficientnet-b0/blocks_10/se/Mean/reduction_indices", "shape": [2], "dtype": "int32"}, {"name": "efficientnet-b0/blocks_10/se/conv2d/kernel", "shape": [1, 1, 672, 28], "dtype": "float32"}, {"name": "efficientnet-b0/blocks_10/se/conv2d/bias", "shape": [28], "dtype": "float32"}, {"name": "efficientnet-b0/blocks_10/se/conv2d_1/kernel", "shape": [1, 1, 28, 672], "dtype": "float32"}, {"name": "efficientnet-b0/blocks_10/se/conv2d_1/bias", "shape": [672], "dtype": "float32"}, {"name": "efficientnet-b0/blocks_9/se/Mean/reduction_indices", "shape": [2], "dtype": "int32"}, {"name": "efficientnet-b0/blocks_9/se/conv2d/kernel", "shape": [1, 1, 672, 28], "dtype": "float32"}, {"name": "efficientnet-b0/blocks_9/se/conv2d/bias", "shape": [28], "dtype": "float32"}, {"name": "efficientnet-b0/blocks_9/se/conv2d_1/kernel", "shape": [1, 1, 28, 672], "dtype": "float32"}, {"name": "efficientnet-b0/blocks_9/se/conv2d_1/bias", "shape": [672], "dtype": "float32"}, {"name": "efficientnet-b0/blocks_8/se/Mean/reduction_indices", "shape": [2], "dtype": "int32"}, {"name": "efficientnet-b0/blocks_8/se/conv2d/kernel", "shape": [1, 1, 480, 20], "dtype": "float32"}, {"name": "efficientnet-b0/blocks_8/se/conv2d/bias", "shape": [20], "dtype": "float32"}, {"name": "efficientnet-b0/blocks_8/se/conv2d_1/kernel", "shape": [1, 1, 20, 480], "dtype": "float32"}, {"name": "efficientnet-b0/blocks_8/se/conv2d_1/bias", "shape": [480], "dtype": "float32"}, {"name": "efficientnet-b0/blocks_7/se/Mean/reduction_indices", "shape": [2], "dtype": "int32"}, {"name": "efficientnet-b0/blocks_7/se/conv2d/kernel", "shape": [1, 1, 480, 20], "dtype": "float32"}, {"name": "efficientnet-b0/blocks_7/se/conv2d/bias", "shape": [20], "dtype": "float32"}, {"name": "efficientnet-b0/blocks_7/se/conv2d_1/kernel", "shape": [1, 1, 20, 480], "dtype": "float32"}, {"name": "efficientnet-b0/blocks_7/se/conv2d_1/bias", "shape": [480], "dtype": "float32"}, {"name": "efficientnet-b0/blocks_6/se/Mean/reduction_indices", "shape": [2], "dtype": "int32"}, {"name": "efficientnet-b0/blocks_6/se/conv2d/kernel", "shape": [1, 1, 480, 20], "dtype": "float32"}, {"name": "efficientnet-b0/blocks_6/se/conv2d/bias", "shape": [20], "dtype": "float32"}, {"name": "efficientnet-b0/blocks_6/se/conv2d_1/kernel", "shape": [1, 1, 20, 480], "dtype": "float32"}, {"name": "efficientnet-b0/blocks_6/se/conv2d_1/bias", "shape": [480], "dtype": "float32"}, {"name": "efficientnet-b0/blocks_5/se/Mean/reduction_indices", "shape": [2], "dtype": "int32"}, {"name": "efficientnet-b0/blocks_5/se/conv2d/kernel", "shape": [1, 1, 240, 10], "dtype": "float32"}, {"name": "efficientnet-b0/blocks_5/se/conv2d/bias", "shape": [10], "dtype": "float32"}, {"name": "efficientnet-b0/blocks_5/se/conv2d_1/kernel", "shape": [1, 1, 10, 240], "dtype": "float32"}, {"name": "efficientnet-b0/blocks_5/se/conv2d_1/bias", "shape": [240], "dtype": "float32"}, {"name": "efficientnet-b0/blocks_4/se/Mean/reduction_indices", "shape": [2], "dtype": "int32"}, {"name": "efficientnet-b0/blocks_4/se/conv2d/kernel", "shape": [1, 1, 240, 10], "dtype": "float32"}, {"name": "efficientnet-b0/blocks_4/se/conv2d/bias", "shape": [10], "dtype": "float32"}, {"name": "efficientnet-b0/blocks_4/se/conv2d_1/kernel", "shape": [1, 1, 10, 240], "dtype": "float32"}, {"name": "efficientnet-b0/blocks_4/se/conv2d_1/bias", "shape": [240], "dtype": "float32"}, {"name": "efficientnet-b0/blocks_3/se/Mean/reduction_indices", "shape": [2], "dtype": "int32"}, {"name": "efficientnet-b0/blocks_3/se/conv2d/kernel", "shape": [1, 1, 144, 6], "dtype": "float32"}, {"name": "efficientnet-b0/blocks_3/se/conv2d/bias", "shape": [6], "dtype": "float32"}, {"name": "efficientnet-b0/blocks_3/se/conv2d_1/kernel", "shape": [1, 1, 6, 144], "dtype": "float32"}, {"name": "efficientnet-b0/blocks_3/se/conv2d_1/bias", "shape": [144], "dtype": "float32"}, {"name": "efficientnet-b0/blocks_2/se/Mean/reduction_indices", "shape": [2], "dtype": "int32"}, {"name": "efficientnet-b0/blocks_2/se/conv2d/kernel", "shape": [1, 1, 144, 6], "dtype": "float32"}, {"name": "efficientnet-b0/blocks_2/se/conv2d/bias", "shape": [6], "dtype": "float32"}, {"name": "efficientnet-b0/blocks_2/se/conv2d_1/kernel", "shape": [1, 1, 6, 144], "dtype": "float32"}, {"name": "efficientnet-b0/blocks_2/se/conv2d_1/bias", "shape": [144], "dtype": "float32"}, {"name": "efficientnet-b0/blocks_1/se/Mean/reduction_indices", "shape": [2], "dtype": "int32"}, {"name": "efficientnet-b0/blocks_1/se/conv2d/kernel", "shape": [1, 1, 96, 4], "dtype": "float32"}, {"name": "efficientnet-b0/blocks_1/se/conv2d/bias", "shape": [4], "dtype": "float32"}, {"name": "efficientnet-b0/blocks_1/se/conv2d_1/kernel", "shape": [1, 1, 4, 96], "dtype": "float32"}, {"name": "efficientnet-b0/blocks_1/se/conv2d_1/bias", "shape": [96], "dtype": "float32"}, {"name": "efficientnet-b0/blocks_0/se/Mean/reduction_indices", "shape": [2], "dtype": "int32"}, {"name": "efficientnet-b0/blocks_0/se/conv2d/kernel", "shape": [1, 1, 32, 8], "dtype": "float32"}, {"name": "efficientnet-b0/blocks_0/se/conv2d/bias", "shape": [8], "dtype": "float32"}, {"name": "efficientnet-b0/blocks_0/se/conv2d_1/kernel", "shape": [1, 1, 8, 32], "dtype": "float32"}, {"name": "efficientnet-b0/blocks_0/se/conv2d_1/bias", "shape": [32], "dtype": "float32"}, {"name": "fpn_cells/cell_0/fnode0/resample_1_4_5/resize/size", "shape": [2], "dtype": "int32"}, {"name": "fpn_cells/cell_0/fnode0/mul_1", "shape": [], "dtype": "float32"}, {"name": "fpn_cells/cell_0/fnode0/op_after_combine5/conv/depthwise_kernel", "shape": [3, 3, 64, 1], "dtype": "float32"}, {"name": "fpn_cells/cell_0/fnode1/resample_1_5_6/resize/size", "shape": [2], "dtype": "int32"}, {"name": "fpn_cells/cell_0/fnode1/mul_1", "shape": [], "dtype": "float32"}, {"name": "fpn_cells/cell_0/fnode1/op_after_combine6/conv/depthwise_kernel", "shape": [3, 3, 64, 1], "dtype": "float32"}, {"name": "fpn_cells/cell_0/fnode2/resample_1_6_7/resize/size", "shape": [2], "dtype": "int32"}, {"name": "fpn_cells/cell_0/fnode2/mul_1", "shape": [], "dtype": "float32"}, {"name": "fpn_cells/cell_0/fnode2/op_after_combine7/conv/depthwise_kernel", "shape": [3, 3, 64, 1], "dtype": "float32"}, {"name": "fpn_cells/cell_0/fnode3/resample_1_7_8/resize/size", "shape": [2], "dtype": "int32"}, {"name": "fpn_cells/cell_0/fnode3/mul_1", "shape": [], "dtype": "float32"}, {"name": "fpn_cells/cell_0/fnode3/op_after_combine8/conv/depthwise_kernel", "shape": [3, 3, 64, 1], "dtype": "float32"}, {"name": "fpn_cells/cell_0/fnode4/mul_2", "shape": [], "dtype": "float32"}, {"name": "fpn_cells/cell_0/fnode4/op_after_combine9/conv/depthwise_kernel", "shape": [3, 3, 64, 1], "dtype": "float32"}, {"name": "fpn_cells/cell_0/fnode5/mul_2", "shape": [], "dtype": "float32"}, {"name": "fpn_cells/cell_0/fnode5/op_after_combine10/conv/depthwise_kernel", "shape": [3, 3, 64, 1], "dtype": "float32"}, {"name": "fpn_cells/cell_0/fnode6/mul_2", "shape": [], "dtype": "float32"}, {"name": "fpn_cells/cell_0/fnode6/op_after_combine11/conv/depthwise_kernel", "shape": [3, 3, 64, 1], "dtype": "float32"}, {"name": "fpn_cells/cell_0/fnode7/mul_1", "shape": [], "dtype": "float32"}, {"name": "fpn_cells/cell_0/fnode7/op_after_combine12/conv/depthwise_kernel", "shape": [3, 3, 64, 1], "dtype": "float32"}, {"name": "fpn_cells/cell_1/fnode0/resample_1_4_5/resize/size", "shape": [2], "dtype": "int32"}, {"name": "fpn_cells/cell_1/fnode0/mul_1", "shape": [], "dtype": "float32"}, {"name": "fpn_cells/cell_1/fnode0/op_after_combine5/conv/depthwise_kernel", "shape": [3, 3, 64, 1], "dtype": "float32"}, {"name": "fpn_cells/cell_1/fnode1/resample_1_5_6/resize/size", "shape": [2], "dtype": "int32"}, {"name": "fpn_cells/cell_1/fnode1/mul_1", "shape": [], "dtype": "float32"}, {"name": "fpn_cells/cell_1/fnode1/op_after_combine6/conv/depthwise_kernel", "shape": [3, 3, 64, 1], "dtype": "float32"}, {"name": "fpn_cells/cell_1/fnode2/resample_1_6_7/resize/size", "shape": [2], "dtype": "int32"}, {"name": "fpn_cells/cell_1/fnode2/mul_1", "shape": [], "dtype": "float32"}, {"name": "fpn_cells/cell_1/fnode2/op_after_combine7/conv/depthwise_kernel", "shape": [3, 3, 64, 1], "dtype": "float32"}, {"name": "fpn_cells/cell_1/fnode3/resample_1_7_8/resize/size", "shape": [2], "dtype": "int32"}, {"name": "fpn_cells/cell_1/fnode3/mul_1", "shape": [], "dtype": "float32"}, {"name": "fpn_cells/cell_1/fnode3/op_after_combine8/conv/depthwise_kernel", "shape": [3, 3, 64, 1], "dtype": "float32"}, {"name": "fpn_cells/cell_1/fnode4/mul_2", "shape": [], "dtype": "float32"}, {"name": "fpn_cells/cell_1/fnode4/op_after_combine9/conv/depthwise_kernel", "shape": [3, 3, 64, 1], "dtype": "float32"}, {"name": "fpn_cells/cell_1/fnode5/mul_2", "shape": [], "dtype": "float32"}, {"name": "fpn_cells/cell_1/fnode5/op_after_combine10/conv/depthwise_kernel", "shape": [3, 3, 64, 1], "dtype": "float32"}, {"name": "fpn_cells/cell_1/fnode6/mul_2", "shape": [], "dtype": "float32"}, {"name": "fpn_cells/cell_1/fnode6/op_after_combine11/conv/depthwise_kernel", "shape": [3, 3, 64, 1], "dtype": "float32"}, {"name": "fpn_cells/cell_1/fnode7/mul_1", "shape": [], "dtype": "float32"}, {"name": "fpn_cells/cell_1/fnode7/op_after_combine12/conv/depthwise_kernel", "shape": [3, 3, 64, 1], "dtype": "float32"}, {"name": "fpn_cells/cell_2/fnode0/resample_1_4_5/resize/size", "shape": [2], "dtype": "int32"}, {"name": "fpn_cells/cell_2/fnode0/mul_1", "shape": [], "dtype": "float32"}, {"name": "fpn_cells/cell_2/fnode0/op_after_combine5/conv/depthwise_kernel", "shape": [3, 3, 64, 1], "dtype": "float32"}, {"name": "fpn_cells/cell_2/fnode1/resample_1_5_6/resize/size", "shape": [2], "dtype": "int32"}, {"name": "fpn_cells/cell_2/fnode1/mul_1", "shape": [], "dtype": "float32"}, {"name": "fpn_cells/cell_2/fnode1/op_after_combine6/conv/depthwise_kernel", "shape": [3, 3, 64, 1], "dtype": "float32"}, {"name": "fpn_cells/cell_2/fnode2/resample_1_6_7/resize/size", "shape": [2], "dtype": "int32"}, {"name": "fpn_cells/cell_2/fnode2/mul_1", "shape": [], "dtype": "float32"}, {"name": "fpn_cells/cell_2/fnode2/op_after_combine7/conv/depthwise_kernel", "shape": [3, 3, 64, 1], "dtype": "float32"}, {"name": "fpn_cells/cell_2/fnode3/resample_1_7_8/resize/size", "shape": [2], "dtype": "int32"}, {"name": "fpn_cells/cell_2/fnode3/mul_1", "shape": [], "dtype": "float32"}, {"name": "fpn_cells/cell_2/fnode3/op_after_combine8/conv/depthwise_kernel", "shape": [3, 3, 64, 1], "dtype": "float32"}, {"name": "fpn_cells/cell_2/fnode4/mul_2", "shape": [], "dtype": "float32"}, {"name": "fpn_cells/cell_2/fnode4/op_after_combine9/conv/depthwise_kernel", "shape": [3, 3, 64, 1], "dtype": "float32"}, {"name": "fpn_cells/cell_2/fnode5/mul_2", "shape": [], "dtype": "float32"}, {"name": "fpn_cells/cell_2/fnode5/op_after_combine10/conv/depthwise_kernel", "shape": [3, 3, 64, 1], "dtype": "float32"}, {"name": "fpn_cells/cell_2/fnode6/mul_2", "shape": [], "dtype": "float32"}, {"name": "fpn_cells/cell_2/fnode6/op_after_combine11/conv/depthwise_kernel", "shape": [3, 3, 64, 1], "dtype": "float32"}, {"name": "fpn_cells/cell_2/fnode7/mul_1", "shape": [], "dtype": "float32"}, {"name": "fpn_cells/cell_2/fnode7/op_after_combine12/conv/depthwise_kernel", "shape": [3, 3, 64, 1], "dtype": "float32"}, {"name": "class_net/class-0/depthwise_kernel", "shape": [3, 3, 64, 1], "dtype": "float32"}, {"name": "class_net/class-1/depthwise_kernel", "shape": [3, 3, 64, 1], "dtype": "float32"}, {"name": "class_net/class-2/depthwise_kernel", "shape": [3, 3, 64, 1], "dtype": "float32"}, {"name": "class_net/class-predict/depthwise_kernel", "shape": [3, 3, 64, 1], "dtype": "float32"}, {"name": "class_net/class-predict/pointwise_kernel", "shape": [1, 1, 64, 810], "dtype": "float32"}, {"name": "class_net/class-predict/bias", "shape": [810], "dtype": "float32"}, {"name": "efficientnet-b0/stem/conv2d/Conv2D_weights", "shape": [3, 3, 3, 32], "dtype": "float32"}, {"name": "efficientnet-b0/stem/conv2d/Conv2D_bn_offset", "shape": [32], "dtype": "float32"}, {"name": "efficientnet-b0/blocks_0/depthwise_conv2d/depthwise_weights", "shape": [3, 3, 32, 1], "dtype": "float32"}, {"name": "efficientnet-b0/blocks_0/depthwise_conv2d/depthwise_bn_offset", "shape": [32], "dtype": "float32"}, {"name": "efficientnet-b0/blocks_0/conv2d/Conv2D_weights", "shape": [1, 1, 32, 16], "dtype": "float32"}, {"name": "efficientnet-b0/blocks_0/conv2d/Conv2D_bn_offset", "shape": [16], "dtype": "float32"}, {"name": "efficientnet-b0/blocks_1/conv2d/Conv2D_weights", "shape": [1, 1, 16, 96], "dtype": "float32"}, {"name": "box_net/box-1_2/separable_conv2d_weights", "shape": [1, 1, 64, 64], "dtype": "float32"}, {"name": "efficientnet-b0/blocks_1/conv2d/Conv2D_bn_offset", "shape": [96], "dtype": "float32"}, {"name": "efficientnet-b0/blocks_1/depthwise_conv2d/depthwise_weights", "shape": [3, 3, 96, 1], "dtype": "float32"}, {"name": "efficientnet-b0/blocks_1/depthwise_conv2d/depthwise_bn_offset", "shape": [96], "dtype": "float32"}, {"name": "class_net/class-1_4/separable_conv2d_bn_offset", "shape": [64], "dtype": "float32"}, {"name": "box_net/box-1_2/separable_conv2d_bn_offset", "shape": [64], "dtype": "float32"}, {"name": "efficientnet-b0/blocks_1/conv2d_1/Conv2D_weights", "shape": [1, 1, 96, 24], "dtype": "float32"}, {"name": "efficientnet-b0/blocks_1/conv2d_1/Conv2D_bn_offset", "shape": [24], "dtype": "float32"}, {"name": "efficientnet-b0/blocks_2/conv2d/Conv2D_weights", "shape": [1, 1, 24, 144], "dtype": "float32"}, {"name": "efficientnet-b0/blocks_2/conv2d/Conv2D_bn_offset", "shape": [144], "dtype": "float32"}, {"name": "efficientnet-b0/blocks_2/depthwise_conv2d/depthwise_weights", "shape": [3, 3, 144, 1], "dtype": "float32"}, {"name": "efficientnet-b0/blocks_2/depthwise_conv2d/depthwise_bn_offset", "shape": [144], "dtype": "float32"}, {"name": "efficientnet-b0/blocks_2/conv2d_1/Conv2D_weights", "shape": [1, 1, 144, 24], "dtype": "float32"}, {"name": "class_net/class-1_2/separable_conv2d_weights", "shape": [1, 1, 64, 64], "dtype": "float32"}, {"name": "efficientnet-b0/blocks_2/conv2d_1/Conv2D_bn_offset", "shape": [24], "dtype": "float32"}, {"name": "efficientnet-b0/blocks_3/conv2d/Conv2D_weights", "shape": [1, 1, 24, 144], "dtype": "float32"}, {"name": "efficientnet-b0/blocks_3/conv2d/Conv2D_bn_offset", "shape": [144], "dtype": "float32"}, {"name": "efficientnet-b0/blocks_3/depthwise_conv2d/depthwise_weights", "shape": [5, 5, 144, 1], "dtype": "float32"}, {"name": "efficientnet-b0/blocks_3/depthwise_conv2d/depthwise_bn_offset", "shape": [144], "dtype": "float32"}, {"name": "class_net/class-1_2/separable_conv2d_bn_offset", "shape": [64], "dtype": "float32"}, {"name": "efficientnet-b0/blocks_3/conv2d_1/Conv2D_weights", "shape": [1, 1, 144, 40], "dtype": "float32"}, {"name": "efficientnet-b0/blocks_3/conv2d_1/Conv2D_bn_offset", "shape": [40], "dtype": "float32"}, {"name": "efficientnet-b0/blocks_4/conv2d/Conv2D_weights", "shape": [1, 1, 40, 240], "dtype": "float32"}, {"name": "efficientnet-b0/blocks_4/conv2d/Conv2D_bn_offset", "shape": [240], "dtype": "float32"}, {"name": "efficientnet-b0/blocks_4/depthwise_conv2d/depthwise_weights", "shape": [5, 5, 240, 1], "dtype": "float32"}, {"name": "efficientnet-b0/blocks_4/depthwise_conv2d/depthwise_bn_offset", "shape": [240], "dtype": "float32"}, {"name": "box_net/box-0_3/separable_conv2d_weights", "shape": [1, 1, 64, 64], "dtype": "float32"}, {"name": "efficientnet-b0/blocks_4/conv2d_1/Conv2D_weights", "shape": [1, 1, 240, 40], "dtype": "float32"}, {"name": "efficientnet-b0/blocks_4/conv2d_1/Conv2D_bn_offset", "shape": [40], "dtype": "float32"}, {"name": "efficientnet-b0/blocks_5/conv2d/Conv2D_weights", "shape": [1, 1, 40, 240], "dtype": "float32"}, {"name": "box_net/box-0_3/separable_conv2d_bn_offset", "shape": [64], "dtype": "float32"}, {"name": "efficientnet-b0/blocks_5/conv2d/Conv2D_bn_offset", "shape": [240], "dtype": "float32"}, {"name": "fpn_cells/cell_0/fnode3/resample_0_0_8/conv2d/Conv2D_weights", "shape": [1, 1, 40, 64], "dtype": "float32"}, {"name": "fpn_cells/cell_0/fnode3/resample_0_0_8/conv2d/Conv2D_bn_offset", "shape": [64], "dtype": "float32"}, {"name": "efficientnet-b0/blocks_5/depthwise_conv2d/depthwise_weights", "shape": [3, 3, 240, 1], "dtype": "float32"}, {"name": "efficientnet-b0/blocks_5/depthwise_conv2d/depthwise_bn_offset", "shape": [240], "dtype": "float32"}, {"name": "efficientnet-b0/blocks_5/conv2d_1/Conv2D_weights", "shape": [1, 1, 240, 80], "dtype": "float32"}, {"name": "efficientnet-b0/blocks_5/conv2d_1/Conv2D_bn_offset", "shape": [80], "dtype": "float32"}, {"name": "efficientnet-b0/blocks_6/conv2d/Conv2D_weights", "shape": [1, 1, 80, 480], "dtype": "float32"}, {"name": "class_net/class-0_3/separable_conv2d_weights", "shape": [1, 1, 64, 64], "dtype": "float32"}, {"name": "efficientnet-b0/blocks_6/conv2d/Conv2D_bn_offset", "shape": [480], "dtype": "float32"}, {"name": "efficientnet-b0/blocks_6/depthwise_conv2d/depthwise_weights", "shape": [3, 3, 480, 1], "dtype": "float32"}, {"name": "efficientnet-b0/blocks_6/depthwise_conv2d/depthwise_bn_offset", "shape": [480], "dtype": "float32"}, {"name": "class_net/class-0_3/separable_conv2d_bn_offset", "shape": [64], "dtype": "float32"}, {"name": "efficientnet-b0/blocks_6/conv2d_1/Conv2D_weights", "shape": [1, 1, 480, 80], "dtype": "float32"}, {"name": "efficientnet-b0/blocks_6/conv2d_1/Conv2D_bn_offset", "shape": [80], "dtype": "float32"}, {"name": "efficientnet-b0/blocks_7/conv2d/Conv2D_weights", "shape": [1, 1, 80, 480], "dtype": "float32"}, {"name": "efficientnet-b0/blocks_7/conv2d/Conv2D_bn_offset", "shape": [480], "dtype": "float32"}, {"name": "efficientnet-b0/blocks_7/depthwise_conv2d/depthwise_weights", "shape": [3, 3, 480, 1], "dtype": "float32"}, {"name": "efficientnet-b0/blocks_7/depthwise_conv2d/depthwise_bn_offset", "shape": [480], "dtype": "float32"}, {"name": "efficientnet-b0/blocks_7/conv2d_1/Conv2D_weights", "shape": [1, 1, 480, 80], "dtype": "float32"}, {"name": "box_net/box-2_2/separable_conv2d_weights", "shape": [1, 1, 64, 64], "dtype": "float32"}, {"name": "efficientnet-b0/blocks_7/conv2d_1/Conv2D_bn_offset", "shape": [80], "dtype": "float32"}, {"name": "efficientnet-b0/blocks_8/conv2d/Conv2D_weights", "shape": [1, 1, 80, 480], "dtype": "float32"}, {"name": "efficientnet-b0/blocks_8/conv2d/Conv2D_bn_offset", "shape": [480], "dtype": "float32"}, {"name": "efficientnet-b0/blocks_8/depthwise_conv2d/depthwise_weights", "shape": [5, 5, 480, 1], "dtype": "float32"}, {"name": "efficientnet-b0/blocks_8/depthwise_conv2d/depthwise_bn_offset", "shape": [480], "dtype": "float32"}, {"name": "box_net/box-2_2/separable_conv2d_bn_offset", "shape": [64], "dtype": "float32"}, {"name": "efficientnet-b0/blocks_8/conv2d_1/Conv2D_weights", "shape": [1, 1, 480, 112], "dtype": "float32"}, {"name": "efficientnet-b0/blocks_8/conv2d_1/Conv2D_bn_offset", "shape": [112], "dtype": "float32"}, {"name": "efficientnet-b0/blocks_9/conv2d/Conv2D_weights", "shape": [1, 1, 112, 672], "dtype": "float32"}, {"name": "efficientnet-b0/blocks_9/conv2d/Conv2D_bn_offset", "shape": [672], "dtype": "float32"}, {"name": "efficientnet-b0/blocks_9/depthwise_conv2d/depthwise_weights", "shape": [5, 5, 672, 1], "dtype": "float32"}, {"name": "efficientnet-b0/blocks_9/depthwise_conv2d/depthwise_bn_offset", "shape": [672], "dtype": "float32"}, {"name": "box_net/box-2_4/separable_conv2d_weights", "shape": [1, 1, 64, 64], "dtype": "float32"}, {"name": "efficientnet-b0/blocks_9/conv2d_1/Conv2D_weights", "shape": [1, 1, 672, 112], "dtype": "float32"}, {"name": "efficientnet-b0/blocks_9/conv2d_1/Conv2D_bn_offset", "shape": [112], "dtype": "float32"}, {"name": "efficientnet-b0/blocks_10/conv2d/Conv2D_weights", "shape": [1, 1, 112, 672], "dtype": "float32"}, {"name": "class_net/class-2_2/separable_conv2d_weights", "shape": [1, 1, 64, 64], "dtype": "float32"}, {"name": "efficientnet-b0/blocks_10/conv2d/Conv2D_bn_offset", "shape": [672], "dtype": "float32"}, {"name": "efficientnet-b0/blocks_10/depthwise_conv2d/depthwise_weights", "shape": [5, 5, 672, 1], "dtype": "float32"}, {"name": "efficientnet-b0/blocks_10/depthwise_conv2d/depthwise_bn_offset", "shape": [672], "dtype": "float32"}, {"name": "class_net/class-2_2/separable_conv2d_bn_offset", "shape": [64], "dtype": "float32"}, {"name": "efficientnet-b0/blocks_10/conv2d_1/Conv2D_weights", "shape": [1, 1, 672, 112], "dtype": "float32"}, {"name": "efficientnet-b0/blocks_10/conv2d_1/Conv2D_bn_offset", "shape": [112], "dtype": "float32"}, {"name": "efficientnet-b0/blocks_11/conv2d/Conv2D_weights", "shape": [1, 1, 112, 672], "dtype": "float32"}, {"name": "efficientnet-b0/blocks_11/conv2d/Conv2D_bn_offset", "shape": [672], "dtype": "float32"}, {"name": "fpn_cells/cell_0/fnode4/resample_0_1_9/conv2d/Conv2D_weights", "shape": [1, 1, 112, 64], "dtype": "float32"}, {"name": "fpn_cells/cell_0/fnode4/resample_0_1_9/conv2d/Conv2D_bn_offset", "shape": [64], "dtype": "float32"}, {"name": "fpn_cells/cell_0/fnode2/resample_0_1_7/conv2d/Conv2D_weights", "shape": [1, 1, 112, 64], "dtype": "float32"}, {"name": "fpn_cells/cell_0/fnode2/resample_0_1_7/conv2d/Conv2D_bn_offset", "shape": [64], "dtype": "float32"}, {"name": "efficientnet-b0/blocks_11/depthwise_conv2d/depthwise_weights", "shape": [5, 5, 672, 1], "dtype": "float32"}, {"name": "efficientnet-b0/blocks_11/depthwise_conv2d/depthwise_bn_offset", "shape": [672], "dtype": "float32"}, {"name": "box_net/box-2_4/separable_conv2d_bn_offset", "shape": [64], "dtype": "float32"}, {"name": "efficientnet-b0/blocks_11/conv2d_1/Conv2D_weights", "shape": [1, 1, 672, 192], "dtype": "float32"}, {"name": "fpn_cells/cell_2/fnode7/op_after_combine12/conv/separable_conv2d_weights", "shape": [1, 1, 64, 64], "dtype": "float32"}, {"name": "efficientnet-b0/blocks_11/conv2d_1/Conv2D_bn_offset", "shape": [192], "dtype": "float32"}, {"name": "efficientnet-b0/blocks_12/conv2d/Conv2D_weights", "shape": [1, 1, 192, 1152], "dtype": "float32"}, {"name": "efficientnet-b0/blocks_12/conv2d/Conv2D_bn_offset", "shape": [1152], "dtype": "float32"}, {"name": "efficientnet-b0/blocks_12/depthwise_conv2d/depthwise_weights", "shape": [5, 5, 1152, 1], "dtype": "float32"}, {"name": "efficientnet-b0/blocks_12/depthwise_conv2d/depthwise_bn_offset", "shape": [1152], "dtype": "float32"}, {"name": "fpn_cells/cell_2/fnode7/op_after_combine12/conv/separable_conv2d_bn_offset", "shape": [64], "dtype": "float32"}, {"name": "efficientnet-b0/blocks_12/conv2d_1/Conv2D_weights", "shape": [1, 1, 1152, 192], "dtype": "float32"}, {"name": "efficientnet-b0/blocks_12/conv2d_1/Conv2D_bn_offset", "shape": [192], "dtype": "float32"}, {"name": "efficientnet-b0/blocks_13/conv2d/Conv2D_weights", "shape": [1, 1, 192, 1152], "dtype": "float32"}, {"name": "efficientnet-b0/blocks_13/conv2d/Conv2D_bn_offset", "shape": [1152], "dtype": "float32"}, {"name": "efficientnet-b0/blocks_13/depthwise_conv2d/depthwise_weights", "shape": [5, 5, 1152, 1], "dtype": "float32"}, {"name": "efficientnet-b0/blocks_13/depthwise_conv2d/depthwise_bn_offset", "shape": [1152], "dtype": "float32"}, {"name": "box_net/box-1_3/separable_conv2d_weights", "shape": [1, 1, 64, 64], "dtype": "float32"}, {"name": "efficientnet-b0/blocks_13/conv2d_1/Conv2D_weights", "shape": [1, 1, 1152, 192], "dtype": "float32"}, {"name": "box_net/box-1_3/separable_conv2d_bn_offset", "shape": [64], "dtype": "float32"}, {"name": "efficientnet-b0/blocks_13/conv2d_1/Conv2D_bn_offset", "shape": [192], "dtype": "float32"}, {"name": "efficientnet-b0/blocks_14/conv2d/Conv2D_weights", "shape": [1, 1, 192, 1152], "dtype": "float32"}, {"name": "efficientnet-b0/blocks_14/conv2d/Conv2D_bn_offset", "shape": [1152], "dtype": "float32"}, {"name": "efficientnet-b0/blocks_14/depthwise_conv2d/depthwise_weights", "shape": [5, 5, 1152, 1], "dtype": "float32"}, {"name": "efficientnet-b0/blocks_14/depthwise_conv2d/depthwise_bn_offset", "shape": [1152], "dtype": "float32"}, {"name": "efficientnet-b0/blocks_14/conv2d_1/Conv2D_weights", "shape": [1, 1, 1152, 192], "dtype": "float32"}, {"name": "efficientnet-b0/blocks_14/conv2d_1/Conv2D_bn_offset", "shape": [192], "dtype": "float32"}, {"name": "efficientnet-b0/blocks_15/conv2d/Conv2D_weights", "shape": [1, 1, 192, 1152], "dtype": "float32"}, {"name": "class_net/class-1_3/separable_conv2d_weights", "shape": [1, 1, 64, 64], "dtype": "float32"}, {"name": "efficientnet-b0/blocks_15/conv2d/Conv2D_bn_offset", "shape": [1152], "dtype": "float32"}, {"name": "efficientnet-b0/blocks_15/depthwise_conv2d/depthwise_weights", "shape": [3, 3, 1152, 1], "dtype": "float32"}, {"name": "efficientnet-b0/blocks_15/depthwise_conv2d/depthwise_bn_offset", "shape": [1152], "dtype": "float32"}, {"name": "class_net/class-1_3/separable_conv2d_bn_offset", "shape": [64], "dtype": "float32"}, {"name": "efficientnet-b0/blocks_15/conv2d_1/Conv2D_weights", "shape": [1, 1, 1152, 320], "dtype": "float32"}, {"name": "efficientnet-b0/blocks_15/conv2d_1/Conv2D_bn_offset", "shape": [320], "dtype": "float32"}, {"name": "fpn_cells/cell_0/fnode5/resample_0_2_10/conv2d/Conv2D_weights", "shape": [1, 1, 320, 64], "dtype": "float32"}, {"name": "fpn_cells/cell_0/fnode5/resample_0_2_10/conv2d/Conv2D_bn_offset", "shape": [64], "dtype": "float32"}, {"name": "fpn_cells/cell_0/fnode1/resample_0_2_6/conv2d/Conv2D_weights", "shape": [1, 1, 320, 64], "dtype": "float32"}, {"name": "fpn_cells/cell_0/fnode1/resample_0_2_6/conv2d/Conv2D_bn_offset", "shape": [64], "dtype": "float32"}, {"name": "resample_p6/conv2d/Conv2D_weights", "shape": [1, 1, 320, 64], "dtype": "float32"}, {"name": "resample_p6/conv2d/Conv2D_bn_offset", "shape": [64], "dtype": "float32"}, {"name": "fpn_cells/cell_0/fnode0/op_after_combine5/conv/separable_conv2d_weights", "shape": [1, 1, 64, 64], "dtype": "float32"}, {"name": "box_net/box-0_4/separable_conv2d_weights", "shape": [1, 1, 64, 64], "dtype": "float32"}, {"name": "fpn_cells/cell_0/fnode0/op_after_combine5/conv/separable_conv2d_bn_offset", "shape": [64], "dtype": "float32"}, {"name": "fpn_cells/cell_0/fnode1/op_after_combine6/conv/separable_conv2d_weights", "shape": [1, 1, 64, 64], "dtype": "float32"}, {"name": "fpn_cells/cell_0/fnode1/op_after_combine6/conv/separable_conv2d_bn_offset", "shape": [64], "dtype": "float32"}, {"name": "fpn_cells/cell_0/fnode2/op_after_combine7/conv/separable_conv2d_weights", "shape": [1, 1, 64, 64], "dtype": "float32"}, {"name": "box_net/box-0_4/separable_conv2d_bn_offset", "shape": [64], "dtype": "float32"}, {"name": "fpn_cells/cell_0/fnode2/op_after_combine7/conv/separable_conv2d_bn_offset", "shape": [64], "dtype": "float32"}, {"name": "fpn_cells/cell_0/fnode3/op_after_combine8/conv/separable_conv2d_weights", "shape": [1, 1, 64, 64], "dtype": "float32"}, {"name": "fpn_cells/cell_0/fnode3/op_after_combine8/conv/separable_conv2d_bn_offset", "shape": [64], "dtype": "float32"}, {"name": "fpn_cells/cell_0/fnode4/op_after_combine9/conv/separable_conv2d_weights", "shape": [1, 1, 64, 64], "dtype": "float32"}, {"name": "fpn_cells/cell_0/fnode4/op_after_combine9/conv/separable_conv2d_bn_offset", "shape": [64], "dtype": "float32"}, {"name": "fpn_cells/cell_0/fnode5/op_after_combine10/conv/separable_conv2d_weights", "shape": [1, 1, 64, 64], "dtype": "float32"}, {"name": "fpn_cells/cell_0/fnode5/op_after_combine10/conv/separable_conv2d_bn_offset", "shape": [64], "dtype": "float32"}, {"name": "fpn_cells/cell_0/fnode6/op_after_combine11/conv/separable_conv2d_weights", "shape": [1, 1, 64, 64], "dtype": "float32"}, {"name": "fpn_cells/cell_0/fnode6/op_after_combine11/conv/separable_conv2d_bn_offset", "shape": [64], "dtype": "float32"}, {"name": "fpn_cells/cell_0/fnode7/op_after_combine12/conv/separable_conv2d_weights", "shape": [1, 1, 64, 64], "dtype": "float32"}, {"name": "class_net/class-0_4/separable_conv2d_weights", "shape": [1, 1, 64, 64], "dtype": "float32"}, {"name": "fpn_cells/cell_0/fnode7/op_after_combine12/conv/separable_conv2d_bn_offset", "shape": [64], "dtype": "float32"}, {"name": "fpn_cells/cell_1/fnode0/op_after_combine5/conv/separable_conv2d_weights", "shape": [1, 1, 64, 64], "dtype": "float32"}, {"name": "fpn_cells/cell_1/fnode0/op_after_combine5/conv/separable_conv2d_bn_offset", "shape": [64], "dtype": "float32"}, {"name": "fpn_cells/cell_1/fnode1/op_after_combine6/conv/separable_conv2d_weights", "shape": [1, 1, 64, 64], "dtype": "float32"}, {"name": "class_net/class-0_4/separable_conv2d_bn_offset", "shape": [64], "dtype": "float32"}, {"name": "fpn_cells/cell_1/fnode1/op_after_combine6/conv/separable_conv2d_bn_offset", "shape": [64], "dtype": "float32"}, {"name": "fpn_cells/cell_1/fnode2/op_after_combine7/conv/separable_conv2d_weights", "shape": [1, 1, 64, 64], "dtype": "float32"}, {"name": "fpn_cells/cell_1/fnode2/op_after_combine7/conv/separable_conv2d_bn_offset", "shape": [64], "dtype": "float32"}, {"name": "fpn_cells/cell_1/fnode3/op_after_combine8/conv/separable_conv2d_weights", "shape": [1, 1, 64, 64], "dtype": "float32"}, {"name": "fpn_cells/cell_1/fnode3/op_after_combine8/conv/separable_conv2d_bn_offset", "shape": [64], "dtype": "float32"}, {"name": "fpn_cells/cell_1/fnode4/op_after_combine9/conv/separable_conv2d_weights", "shape": [1, 1, 64, 64], "dtype": "float32"}, {"name": "fpn_cells/cell_1/fnode4/op_after_combine9/conv/separable_conv2d_bn_offset", "shape": [64], "dtype": "float32"}, {"name": "fpn_cells/cell_1/fnode5/op_after_combine10/conv/separable_conv2d_weights", "shape": [1, 1, 64, 64], "dtype": "float32"}, {"name": "fpn_cells/cell_1/fnode5/op_after_combine10/conv/separable_conv2d_bn_offset", "shape": [64], "dtype": "float32"}, {"name": "fpn_cells/cell_1/fnode6/op_after_combine11/conv/separable_conv2d_weights", "shape": [1, 1, 64, 64], "dtype": "float32"}, {"name": "box_net/box-2_3/separable_conv2d_weights", "shape": [1, 1, 64, 64], "dtype": "float32"}, {"name": "fpn_cells/cell_1/fnode6/op_after_combine11/conv/separable_conv2d_bn_offset", "shape": [64], "dtype": "float32"}, {"name": "fpn_cells/cell_1/fnode7/op_after_combine12/conv/separable_conv2d_weights", "shape": [1, 1, 64, 64], "dtype": "float32"}, {"name": "fpn_cells/cell_1/fnode7/op_after_combine12/conv/separable_conv2d_bn_offset", "shape": [64], "dtype": "float32"}, {"name": "fpn_cells/cell_2/fnode0/op_after_combine5/conv/separable_conv2d_weights", "shape": [1, 1, 64, 64], "dtype": "float32"}, {"name": "box_net/box-2_3/separable_conv2d_bn_offset", "shape": [64], "dtype": "float32"}, {"name": "fpn_cells/cell_2/fnode0/op_after_combine5/conv/separable_conv2d_bn_offset", "shape": [64], "dtype": "float32"}, {"name": "fpn_cells/cell_2/fnode1/op_after_combine6/conv/separable_conv2d_weights", "shape": [1, 1, 64, 64], "dtype": "float32"}, {"name": "fpn_cells/cell_2/fnode1/op_after_combine6/conv/separable_conv2d_bn_offset", "shape": [64], "dtype": "float32"}, {"name": "fpn_cells/cell_2/fnode2/op_after_combine7/conv/separable_conv2d_weights", "shape": [1, 1, 64, 64], "dtype": "float32"}, {"name": "fpn_cells/cell_2/fnode2/op_after_combine7/conv/separable_conv2d_bn_offset", "shape": [64], "dtype": "float32"}, {"name": "fpn_cells/cell_2/fnode3/op_after_combine8/conv/separable_conv2d_weights", "shape": [1, 1, 64, 64], "dtype": "float32"}, {"name": "fpn_cells/cell_2/fnode3/op_after_combine8/conv/separable_conv2d_bn_offset", "shape": [64], "dtype": "float32"}, {"name": "box_net/box-0/separable_conv2d_weights", "shape": [1, 1, 64, 64], "dtype": "float32"}, {"name": "box_net/box-0/separable_conv2d_bn_offset", "shape": [64], "dtype": "float32"}, {"name": "class_net/class-0/separable_conv2d_weights", "shape": [1, 1, 64, 64], "dtype": "float32"}, {"name": "class_net/class-2_4/separable_conv2d_weights", "shape": [1, 1, 64, 64], "dtype": "float32"}, {"name": "class_net/class-0/separable_conv2d_bn_offset", "shape": [64], "dtype": "float32"}, {"name": "fpn_cells/cell_2/fnode4/op_after_combine9/conv/separable_conv2d_weights", "shape": [1, 1, 64, 64], "dtype": "float32"}, {"name": "fpn_cells/cell_2/fnode4/op_after_combine9/conv/separable_conv2d_bn_offset", "shape": [64], "dtype": "float32"}, {"name": "box_net/box-1/separable_conv2d_weights", "shape": [1, 1, 64, 64], "dtype": "float32"}, {"name": "class_net/class-2_3/separable_conv2d_weights", "shape": [1, 1, 64, 64], "dtype": "float32"}, {"name": "box_net/box-1/separable_conv2d_bn_offset", "shape": [64], "dtype": "float32"}, {"name": "class_net/class-1/separable_conv2d_weights", "shape": [1, 1, 64, 64], "dtype": "float32"}, {"name": "class_net/class-1/separable_conv2d_bn_offset", "shape": [64], "dtype": "float32"}, {"name": "box_net/box-0_1/separable_conv2d_weights", "shape": [1, 1, 64, 64], "dtype": "float32"}, {"name": "class_net/class-2_3/separable_conv2d_bn_offset", "shape": [64], "dtype": "float32"}, {"name": "box_net/box-0_1/separable_conv2d_bn_offset", "shape": [64], "dtype": "float32"}, {"name": "class_net/class-0_1/separable_conv2d_weights", "shape": [1, 1, 64, 64], "dtype": "float32"}, {"name": "class_net/class-0_1/separable_conv2d_bn_offset", "shape": [64], "dtype": "float32"}, {"name": "box_net/box-2/separable_conv2d_weights", "shape": [1, 1, 64, 64], "dtype": "float32"}, {"name": "box_net/box-2/separable_conv2d_bn_offset", "shape": [64], "dtype": "float32"}, {"name": "class_net/class-2/separable_conv2d_weights", "shape": [1, 1, 64, 64], "dtype": "float32"}, {"name": "class_net/class-2/separable_conv2d_bn_offset", "shape": [64], "dtype": "float32"}, {"name": "class_net/class-2_4/separable_conv2d_bn_offset", "shape": [64], "dtype": "float32"}, {"name": "fpn_cells/cell_2/fnode5/op_after_combine10/conv/separable_conv2d_weights", "shape": [1, 1, 64, 64], "dtype": "float32"}, {"name": "fpn_cells/cell_2/fnode5/op_after_combine10/conv/separable_conv2d_bn_offset", "shape": [64], "dtype": "float32"}, {"name": "box_net/box-1_1/separable_conv2d_weights", "shape": [1, 1, 64, 64], "dtype": "float32"}, {"name": "box_net/box-1_4/separable_conv2d_weights", "shape": [1, 1, 64, 64], "dtype": "float32"}, {"name": "box_net/box-1_1/separable_conv2d_bn_offset", "shape": [64], "dtype": "float32"}, {"name": "class_net/class-1_1/separable_conv2d_weights", "shape": [1, 1, 64, 64], "dtype": "float32"}, {"name": "class_net/class-1_1/separable_conv2d_bn_offset", "shape": [64], "dtype": "float32"}, {"name": "box_net/box-0_2/separable_conv2d_weights", "shape": [1, 1, 64, 64], "dtype": "float32"}, {"name": "box_net/box-1_4/separable_conv2d_bn_offset", "shape": [64], "dtype": "float32"}, {"name": "box_net/box-0_2/separable_conv2d_bn_offset", "shape": [64], "dtype": "float32"}, {"name": "class_net/class-0_2/separable_conv2d_weights", "shape": [1, 1, 64, 64], "dtype": "float32"}, {"name": "class_net/class-0_2/separable_conv2d_bn_offset", "shape": [64], "dtype": "float32"}, {"name": "box_net/box-2_1/separable_conv2d_weights", "shape": [1, 1, 64, 64], "dtype": "float32"}, {"name": "box_net/box-2_1/separable_conv2d_bn_offset", "shape": [64], "dtype": "float32"}, {"name": "class_net/class-2_1/separable_conv2d_weights", "shape": [1, 1, 64, 64], "dtype": "float32"}, {"name": "class_net/class-2_1/separable_conv2d_bn_offset", "shape": [64], "dtype": "float32"}, {"name": "class_net/class-1_4/separable_conv2d_weights", "shape": [1, 1, 64, 64], "dtype": "float32"}, {"name": "fpn_cells/cell_2/fnode6/op_after_combine11/conv/separable_conv2d_weights", "shape": [1, 1, 64, 64], "dtype": "float32"}, {"name": "fpn_cells/cell_2/fnode6/op_after_combine11/conv/separable_conv2d_bn_offset", "shape": [64], "dtype": "float32"}]}]}