{"format": "layers-model", "generatedBy": "keras v2.2.4-tf", "convertedBy": "TensorFlow.js Converter v1.4.0", "modelTopology": {"keras_version": "2.2.4-tf", "backend": "tensorflow", "model_config": {"class_name": "Model", "config": {"name": "efficientdet_p", "layers": [{"name": "input_1", "class_name": "InputLayer", "config": {"batch_input_shape": [null, 512, 512, 3], "dtype": "float32", "sparse": false, "ragged": false, "name": "input_1"}, "inbound_nodes": []}, {"name": "stem_conv", "class_name": "Conv2D", "config": {"name": "stem_conv", "trainable": true, "dtype": "float32", "filters": 32, "kernel_size": [3, 3], "strides": [2, 2], "padding": "same", "data_format": "channels_last", "dilation_rate": [1, 1], "activation": "linear", "use_bias": false, "kernel_initializer": {"class_name": "VarianceScaling", "config": {"scale": 2.0, "mode": "fan_out", "distribution": "normal", "seed": null, "dtype": "float32"}}, "bias_initializer": {"class_name": "Zeros", "config": {"dtype": "float32"}}, "kernel_regularizer": null, "bias_regularizer": null, "activity_regularizer": null, "kernel_constraint": null, "bias_constraint": null}, "inbound_nodes": [[["input_1", 0, 0, {}]]]}, {"name": "stem_bn", "class_name": "BatchNormalization", "config": {"name": "stem_bn", "trainable": true, "dtype": "float32", "axis": [3], "momentum": 0.99, "epsilon": 0.001, "center": true, "scale": true, "beta_initializer": {"class_name": "Zeros", "config": {"dtype": "float32"}}, "gamma_initializer": {"class_name": "Ones", "config": {"dtype": "float32"}}, "moving_mean_initializer": {"class_name": "Zeros", "config": {"dtype": "float32"}}, "moving_variance_initializer": {"class_name": "Ones", "config": {"dtype": "float32"}}, "beta_regularizer": null, "gamma_regularizer": null, "beta_constraint": null, "gamma_constraint": null, "freeze": false}, "inbound_nodes": [[["stem_conv", 0, 0, {}]]]}, {"name": "stem_activation", "class_name": "Activation", "config": {"name": "stem_activation", "trainable": true, "dtype": "float32", "activation": "swish"}, "inbound_nodes": [[["stem_bn", 0, 0, {}]]]}, {"name": "block1a_dwconv", "class_name": "DepthwiseConv2D", "config": {"name": "block1a_dwconv", "trainable": true, "dtype": "float32", "kernel_size": [3, 3], "strides": [1, 1], "padding": "same", "data_format": "channels_last", "dilation_rate": [1, 1], "activation": "linear", "use_bias": false, "bias_initializer": {"class_name": "Zeros", "config": {"dtype": "float32"}}, "bias_regularizer": null, "activity_regularizer": null, "bias_constraint": null, "depth_multiplier": 1, "depthwise_initializer": {"class_name": "VarianceScaling", "config": {"scale": 2.0, "mode": "fan_out", "distribution": "normal", "seed": null, "dtype": "float32"}}, "depthwise_regularizer": null, "depthwise_constraint": null}, "inbound_nodes": [[["stem_activation", 0, 0, {}]]]}, {"name": "block1a_bn", "class_name": "BatchNormalization", "config": {"name": "block1a_bn", "trainable": true, "dtype": "float32", "axis": [3], "momentum": 0.99, "epsilon": 0.001, "center": true, "scale": true, "beta_initializer": {"class_name": "Zeros", "config": {"dtype": "float32"}}, "gamma_initializer": {"class_name": "Ones", "config": {"dtype": "float32"}}, "moving_mean_initializer": {"class_name": "Zeros", "config": {"dtype": "float32"}}, "moving_variance_initializer": {"class_name": "Ones", "config": {"dtype": "float32"}}, "beta_regularizer": null, "gamma_regularizer": null, "beta_constraint": null, "gamma_constraint": null, "freeze": false}, "inbound_nodes": [[["block1a_dwconv", 0, 0, {}]]]}, {"name": "block1a_activation", "class_name": "Activation", "config": {"name": "block1a_activation", "trainable": true, "dtype": "float32", "activation": "swish"}, "inbound_nodes": [[["block1a_bn", 0, 0, {}]]]}, {"name": "block1a_se_squeeze", "class_name": "GlobalAveragePooling2D", "config": {"name": "block1a_se_squeeze", "trainable": true, "dtype": "float32", "data_format": "channels_last"}, "inbound_nodes": [[["block1a_activation", 0, 0, {}]]]}, {"name": "block1a_se_reshape", "class_name": "Reshape", "config": {"name": "block1a_se_reshape", "trainable": true, "dtype": "float32", "target_shape": [1, 1, 32]}, "inbound_nodes": [[["block1a_se_squeeze", 0, 0, {}]]]}, {"name": "block1a_se_reduce", "class_name": "Conv2D", "config": {"name": "block1a_se_reduce", "trainable": true, "dtype": "float32", "filters": 8, "kernel_size": [1, 1], "strides": [1, 1], "padding": "same", "data_format": "channels_last", "dilation_rate": [1, 1], "activation": "swish", "use_bias": true, "kernel_initializer": {"class_name": "VarianceScaling", "config": {"scale": 2.0, "mode": "fan_out", "distribution": "normal", "seed": null, "dtype": "float32"}}, "bias_initializer": {"class_name": "Zeros", "config": {"dtype": "float32"}}, "kernel_regularizer": null, "bias_regularizer": null, "activity_regularizer": null, "kernel_constraint": null, "bias_constraint": null}, "inbound_nodes": [[["block1a_se_reshape", 0, 0, {}]]]}, {"name": "block1a_se_expand", "class_name": "Conv2D", "config": {"name": "block1a_se_expand", "trainable": true, "dtype": "float32", "filters": 32, "kernel_size": [1, 1], "strides": [1, 1], "padding": "same", "data_format": "channels_last", "dilation_rate": [1, 1], "activation": "sigmoid", "use_bias": true, "kernel_initializer": {"class_name": "VarianceScaling", "config": {"scale": 2.0, "mode": "fan_out", "distribution": "normal", "seed": null, "dtype": "float32"}}, "bias_initializer": {"class_name": "Zeros", "config": {"dtype": "float32"}}, "kernel_regularizer": null, "bias_regularizer": null, "activity_regularizer": null, "kernel_constraint": null, "bias_constraint": null}, "inbound_nodes": [[["block1a_se_reduce", 0, 0, {}]]]}, {"name": "block1a_se_excite", "class_name": "Multiply", "config": {"name": "block1a_se_excite", "trainable": true, "dtype": "float32"}, "inbound_nodes": [[["block1a_activation", 0, 0, {}], ["block1a_se_expand", 0, 0, {}]]]}, {"name": "block1a_project_conv", "class_name": "Conv2D", "config": {"name": "block1a_project_conv", "trainable": true, "dtype": "float32", "filters": 16, "kernel_size": [1, 1], "strides": [1, 1], "padding": "same", "data_format": "channels_last", "dilation_rate": [1, 1], "activation": "linear", "use_bias": false, "kernel_initializer": {"class_name": "VarianceScaling", "config": {"scale": 2.0, "mode": "fan_out", "distribution": "normal", "seed": null, "dtype": "float32"}}, "bias_initializer": {"class_name": "Zeros", "config": {"dtype": "float32"}}, "kernel_regularizer": null, "bias_regularizer": null, "activity_regularizer": null, "kernel_constraint": null, "bias_constraint": null}, "inbound_nodes": [[["block1a_se_excite", 0, 0, {}]]]}, {"name": "block1a_project_bn", "class_name": "BatchNormalization", "config": {"name": "block1a_project_bn", "trainable": true, "dtype": "float32", "axis": [3], "momentum": 0.99, "epsilon": 0.001, "center": true, "scale": true, "beta_initializer": {"class_name": "Zeros", "config": {"dtype": "float32"}}, "gamma_initializer": {"class_name": "Ones", "config": {"dtype": "float32"}}, "moving_mean_initializer": {"class_name": "Zeros", "config": {"dtype": "float32"}}, "moving_variance_initializer": {"class_name": "Ones", "config": {"dtype": "float32"}}, "beta_regularizer": null, "gamma_regularizer": null, "beta_constraint": null, "gamma_constraint": null, "freeze": false}, "inbound_nodes": [[["block1a_project_conv", 0, 0, {}]]]}, {"name": "block2a_expand_conv", "class_name": "Conv2D", "config": {"name": "block2a_expand_conv", "trainable": true, "dtype": "float32", "filters": 96, "kernel_size": [1, 1], "strides": [1, 1], "padding": "same", "data_format": "channels_last", "dilation_rate": [1, 1], "activation": "linear", "use_bias": false, "kernel_initializer": {"class_name": "VarianceScaling", "config": {"scale": 2.0, "mode": "fan_out", "distribution": "normal", "seed": null, "dtype": "float32"}}, "bias_initializer": {"class_name": "Zeros", "config": {"dtype": "float32"}}, "kernel_regularizer": null, "bias_regularizer": null, "activity_regularizer": null, "kernel_constraint": null, "bias_constraint": null}, "inbound_nodes": [[["block1a_project_bn", 0, 0, {}]]]}, {"name": "block2a_expand_bn", "class_name": "BatchNormalization", "config": {"name": "block2a_expand_bn", "trainable": true, "dtype": "float32", "axis": [3], "momentum": 0.99, "epsilon": 0.001, "center": true, "scale": true, "beta_initializer": {"class_name": "Zeros", "config": {"dtype": "float32"}}, "gamma_initializer": {"class_name": "Ones", "config": {"dtype": "float32"}}, "moving_mean_initializer": {"class_name": "Zeros", "config": {"dtype": "float32"}}, "moving_variance_initializer": {"class_name": "Ones", "config": {"dtype": "float32"}}, "beta_regularizer": null, "gamma_regularizer": null, "beta_constraint": null, "gamma_constraint": null, "freeze": false}, "inbound_nodes": [[["block2a_expand_conv", 0, 0, {}]]]}, {"name": "block2a_expand_activation", "class_name": "Activation", "config": {"name": "block2a_expand_activation", "trainable": true, "dtype": "float32", "activation": "swish"}, "inbound_nodes": [[["block2a_expand_bn", 0, 0, {}]]]}, {"name": "block2a_dwconv", "class_name": "DepthwiseConv2D", "config": {"name": "block2a_dwconv", "trainable": true, "dtype": "float32", "kernel_size": [3, 3], "strides": [2, 2], "padding": "same", "data_format": "channels_last", "dilation_rate": [1, 1], "activation": "linear", "use_bias": false, "bias_initializer": {"class_name": "Zeros", "config": {"dtype": "float32"}}, "bias_regularizer": null, "activity_regularizer": null, "bias_constraint": null, "depth_multiplier": 1, "depthwise_initializer": {"class_name": "VarianceScaling", "config": {"scale": 2.0, "mode": "fan_out", "distribution": "normal", "seed": null, "dtype": "float32"}}, "depthwise_regularizer": null, "depthwise_constraint": null}, "inbound_nodes": [[["block2a_expand_activation", 0, 0, {}]]]}, {"name": "block2a_bn", "class_name": "BatchNormalization", "config": {"name": "block2a_bn", "trainable": true, "dtype": "float32", "axis": [3], "momentum": 0.99, "epsilon": 0.001, "center": true, "scale": true, "beta_initializer": {"class_name": "Zeros", "config": {"dtype": "float32"}}, "gamma_initializer": {"class_name": "Ones", "config": {"dtype": "float32"}}, "moving_mean_initializer": {"class_name": "Zeros", "config": {"dtype": "float32"}}, "moving_variance_initializer": {"class_name": "Ones", "config": {"dtype": "float32"}}, "beta_regularizer": null, "gamma_regularizer": null, "beta_constraint": null, "gamma_constraint": null, "freeze": false}, "inbound_nodes": [[["block2a_dwconv", 0, 0, {}]]]}, {"name": "block2a_activation", "class_name": "Activation", "config": {"name": "block2a_activation", "trainable": true, "dtype": "float32", "activation": "swish"}, "inbound_nodes": [[["block2a_bn", 0, 0, {}]]]}, {"name": "block2a_se_squeeze", "class_name": "GlobalAveragePooling2D", "config": {"name": "block2a_se_squeeze", "trainable": true, "dtype": "float32", "data_format": "channels_last"}, "inbound_nodes": [[["block2a_activation", 0, 0, {}]]]}, {"name": "block2a_se_reshape", "class_name": "Reshape", "config": {"name": "block2a_se_reshape", "trainable": true, "dtype": "float32", "target_shape": [1, 1, 96]}, "inbound_nodes": [[["block2a_se_squeeze", 0, 0, {}]]]}, {"name": "block2a_se_reduce", "class_name": "Conv2D", "config": {"name": "block2a_se_reduce", "trainable": true, "dtype": "float32", "filters": 4, "kernel_size": [1, 1], "strides": [1, 1], "padding": "same", "data_format": "channels_last", "dilation_rate": [1, 1], "activation": "swish", "use_bias": true, "kernel_initializer": {"class_name": "VarianceScaling", "config": {"scale": 2.0, "mode": "fan_out", "distribution": "normal", "seed": null, "dtype": "float32"}}, "bias_initializer": {"class_name": "Zeros", "config": {"dtype": "float32"}}, "kernel_regularizer": null, "bias_regularizer": null, "activity_regularizer": null, "kernel_constraint": null, "bias_constraint": null}, "inbound_nodes": [[["block2a_se_reshape", 0, 0, {}]]]}, {"name": "block2a_se_expand", "class_name": "Conv2D", "config": {"name": "block2a_se_expand", "trainable": true, "dtype": "float32", "filters": 96, "kernel_size": [1, 1], "strides": [1, 1], "padding": "same", "data_format": "channels_last", "dilation_rate": [1, 1], "activation": "sigmoid", "use_bias": true, "kernel_initializer": {"class_name": "VarianceScaling", "config": {"scale": 2.0, "mode": "fan_out", "distribution": "normal", "seed": null, "dtype": "float32"}}, "bias_initializer": {"class_name": "Zeros", "config": {"dtype": "float32"}}, "kernel_regularizer": null, "bias_regularizer": null, "activity_regularizer": null, "kernel_constraint": null, "bias_constraint": null}, "inbound_nodes": [[["block2a_se_reduce", 0, 0, {}]]]}, {"name": "block2a_se_excite", "class_name": "Multiply", "config": {"name": "block2a_se_excite", "trainable": true, "dtype": "float32"}, "inbound_nodes": [[["block2a_activation", 0, 0, {}], ["block2a_se_expand", 0, 0, {}]]]}, {"name": "block2a_project_conv", "class_name": "Conv2D", "config": {"name": "block2a_project_conv", "trainable": true, "dtype": "float32", "filters": 24, "kernel_size": [1, 1], "strides": [1, 1], "padding": "same", "data_format": "channels_last", "dilation_rate": [1, 1], "activation": "linear", "use_bias": false, "kernel_initializer": {"class_name": "VarianceScaling", "config": {"scale": 2.0, "mode": "fan_out", "distribution": "normal", "seed": null, "dtype": "float32"}}, "bias_initializer": {"class_name": "Zeros", "config": {"dtype": "float32"}}, "kernel_regularizer": null, "bias_regularizer": null, "activity_regularizer": null, "kernel_constraint": null, "bias_constraint": null}, "inbound_nodes": [[["block2a_se_excite", 0, 0, {}]]]}, {"name": "block2a_project_bn", "class_name": "BatchNormalization", "config": {"name": "block2a_project_bn", "trainable": true, "dtype": "float32", "axis": [3], "momentum": 0.99, "epsilon": 0.001, "center": true, "scale": true, "beta_initializer": {"class_name": "Zeros", "config": {"dtype": "float32"}}, "gamma_initializer": {"class_name": "Ones", "config": {"dtype": "float32"}}, "moving_mean_initializer": {"class_name": "Zeros", "config": {"dtype": "float32"}}, "moving_variance_initializer": {"class_name": "Ones", "config": {"dtype": "float32"}}, "beta_regularizer": null, "gamma_regularizer": null, "beta_constraint": null, "gamma_constraint": null, "freeze": false}, "inbound_nodes": [[["block2a_project_conv", 0, 0, {}]]]}, {"name": "block2b_expand_conv", "class_name": "Conv2D", "config": {"name": "block2b_expand_conv", "trainable": true, "dtype": "float32", "filters": 144, "kernel_size": [1, 1], "strides": [1, 1], "padding": "same", "data_format": "channels_last", "dilation_rate": [1, 1], "activation": "linear", "use_bias": false, "kernel_initializer": {"class_name": "VarianceScaling", "config": {"scale": 2.0, "mode": "fan_out", "distribution": "normal", "seed": null, "dtype": "float32"}}, "bias_initializer": {"class_name": "Zeros", "config": {"dtype": "float32"}}, "kernel_regularizer": null, "bias_regularizer": null, "activity_regularizer": null, "kernel_constraint": null, "bias_constraint": null}, "inbound_nodes": [[["block2a_project_bn", 0, 0, {}]]]}, {"name": "block2b_expand_bn", "class_name": "BatchNormalization", "config": {"name": "block2b_expand_bn", "trainable": true, "dtype": "float32", "axis": [3], "momentum": 0.99, "epsilon": 0.001, "center": true, "scale": true, "beta_initializer": {"class_name": "Zeros", "config": {"dtype": "float32"}}, "gamma_initializer": {"class_name": "Ones", "config": {"dtype": "float32"}}, "moving_mean_initializer": {"class_name": "Zeros", "config": {"dtype": "float32"}}, "moving_variance_initializer": {"class_name": "Ones", "config": {"dtype": "float32"}}, "beta_regularizer": null, "gamma_regularizer": null, "beta_constraint": null, "gamma_constraint": null, "freeze": false}, "inbound_nodes": [[["block2b_expand_conv", 0, 0, {}]]]}, {"name": "block2b_expand_activation", "class_name": "Activation", "config": {"name": "block2b_expand_activation", "trainable": true, "dtype": "float32", "activation": "swish"}, "inbound_nodes": [[["block2b_expand_bn", 0, 0, {}]]]}, {"name": "block2b_dwconv", "class_name": "DepthwiseConv2D", "config": {"name": "block2b_dwconv", "trainable": true, "dtype": "float32", "kernel_size": [3, 3], "strides": [1, 1], "padding": "same", "data_format": "channels_last", "dilation_rate": [1, 1], "activation": "linear", "use_bias": false, "bias_initializer": {"class_name": "Zeros", "config": {"dtype": "float32"}}, "bias_regularizer": null, "activity_regularizer": null, "bias_constraint": null, "depth_multiplier": 1, "depthwise_initializer": {"class_name": "VarianceScaling", "config": {"scale": 2.0, "mode": "fan_out", "distribution": "normal", "seed": null, "dtype": "float32"}}, "depthwise_regularizer": null, "depthwise_constraint": null}, "inbound_nodes": [[["block2b_expand_activation", 0, 0, {}]]]}, {"name": "block2b_bn", "class_name": "BatchNormalization", "config": {"name": "block2b_bn", "trainable": true, "dtype": "float32", "axis": [3], "momentum": 0.99, "epsilon": 0.001, "center": true, "scale": true, "beta_initializer": {"class_name": "Zeros", "config": {"dtype": "float32"}}, "gamma_initializer": {"class_name": "Ones", "config": {"dtype": "float32"}}, "moving_mean_initializer": {"class_name": "Zeros", "config": {"dtype": "float32"}}, "moving_variance_initializer": {"class_name": "Ones", "config": {"dtype": "float32"}}, "beta_regularizer": null, "gamma_regularizer": null, "beta_constraint": null, "gamma_constraint": null, "freeze": false}, "inbound_nodes": [[["block2b_dwconv", 0, 0, {}]]]}, {"name": "block2b_activation", "class_name": "Activation", "config": {"name": "block2b_activation", "trainable": true, "dtype": "float32", "activation": "swish"}, "inbound_nodes": [[["block2b_bn", 0, 0, {}]]]}, {"name": "block2b_se_squeeze", "class_name": "GlobalAveragePooling2D", "config": {"name": "block2b_se_squeeze", "trainable": true, "dtype": "float32", "data_format": "channels_last"}, "inbound_nodes": [[["block2b_activation", 0, 0, {}]]]}, {"name": "block2b_se_reshape", "class_name": "Reshape", "config": {"name": "block2b_se_reshape", "trainable": true, "dtype": "float32", "target_shape": [1, 1, 144]}, "inbound_nodes": [[["block2b_se_squeeze", 0, 0, {}]]]}, {"name": "block2b_se_reduce", "class_name": "Conv2D", "config": {"name": "block2b_se_reduce", "trainable": true, "dtype": "float32", "filters": 6, "kernel_size": [1, 1], "strides": [1, 1], "padding": "same", "data_format": "channels_last", "dilation_rate": [1, 1], "activation": "swish", "use_bias": true, "kernel_initializer": {"class_name": "VarianceScaling", "config": {"scale": 2.0, "mode": "fan_out", "distribution": "normal", "seed": null, "dtype": "float32"}}, "bias_initializer": {"class_name": "Zeros", "config": {"dtype": "float32"}}, "kernel_regularizer": null, "bias_regularizer": null, "activity_regularizer": null, "kernel_constraint": null, "bias_constraint": null}, "inbound_nodes": [[["block2b_se_reshape", 0, 0, {}]]]}, {"name": "block2b_se_expand", "class_name": "Conv2D", "config": {"name": "block2b_se_expand", "trainable": true, "dtype": "float32", "filters": 144, "kernel_size": [1, 1], "strides": [1, 1], "padding": "same", "data_format": "channels_last", "dilation_rate": [1, 1], "activation": "sigmoid", "use_bias": true, "kernel_initializer": {"class_name": "VarianceScaling", "config": {"scale": 2.0, "mode": "fan_out", "distribution": "normal", "seed": null, "dtype": "float32"}}, "bias_initializer": {"class_name": "Zeros", "config": {"dtype": "float32"}}, "kernel_regularizer": null, "bias_regularizer": null, "activity_regularizer": null, "kernel_constraint": null, "bias_constraint": null}, "inbound_nodes": [[["block2b_se_reduce", 0, 0, {}]]]}, {"name": "block2b_se_excite", "class_name": "Multiply", "config": {"name": "block2b_se_excite", "trainable": true, "dtype": "float32"}, "inbound_nodes": [[["block2b_activation", 0, 0, {}], ["block2b_se_expand", 0, 0, {}]]]}, {"name": "block2b_project_conv", "class_name": "Conv2D", "config": {"name": "block2b_project_conv", "trainable": true, "dtype": "float32", "filters": 24, "kernel_size": [1, 1], "strides": [1, 1], "padding": "same", "data_format": "channels_last", "dilation_rate": [1, 1], "activation": "linear", "use_bias": false, "kernel_initializer": {"class_name": "VarianceScaling", "config": {"scale": 2.0, "mode": "fan_out", "distribution": "normal", "seed": null, "dtype": "float32"}}, "bias_initializer": {"class_name": "Zeros", "config": {"dtype": "float32"}}, "kernel_regularizer": null, "bias_regularizer": null, "activity_regularizer": null, "kernel_constraint": null, "bias_constraint": null}, "inbound_nodes": [[["block2b_se_excite", 0, 0, {}]]]}, {"name": "block2b_project_bn", "class_name": "BatchNormalization", "config": {"name": "block2b_project_bn", "trainable": true, "dtype": "float32", "axis": [3], "momentum": 0.99, "epsilon": 0.001, "center": true, "scale": true, "beta_initializer": {"class_name": "Zeros", "config": {"dtype": "float32"}}, "gamma_initializer": {"class_name": "Ones", "config": {"dtype": "float32"}}, "moving_mean_initializer": {"class_name": "Zeros", "config": {"dtype": "float32"}}, "moving_variance_initializer": {"class_name": "Ones", "config": {"dtype": "float32"}}, "beta_regularizer": null, "gamma_regularizer": null, "beta_constraint": null, "gamma_constraint": null, "freeze": false}, "inbound_nodes": [[["block2b_project_conv", 0, 0, {}]]]}, {"name": "block2b_drop", "class_name": "FixedDropout", "config": {"name": "block2b_drop", "trainable": true, "dtype": "float32", "rate": 0.025, "noise_shape": [null, 1, 1, 1], "seed": null}, "inbound_nodes": [[["block2b_project_bn", 0, 0, {}]]]}, {"name": "block2b_add", "class_name": "Add", "config": {"name": "block2b_add", "trainable": true, "dtype": "float32"}, "inbound_nodes": [[["block2b_drop", 0, 0, {}], ["block2a_project_bn", 0, 0, {}]]]}, {"name": "block3a_expand_conv", "class_name": "Conv2D", "config": {"name": "block3a_expand_conv", "trainable": true, "dtype": "float32", "filters": 144, "kernel_size": [1, 1], "strides": [1, 1], "padding": "same", "data_format": "channels_last", "dilation_rate": [1, 1], "activation": "linear", "use_bias": false, "kernel_initializer": {"class_name": "VarianceScaling", "config": {"scale": 2.0, "mode": "fan_out", "distribution": "normal", "seed": null, "dtype": "float32"}}, "bias_initializer": {"class_name": "Zeros", "config": {"dtype": "float32"}}, "kernel_regularizer": null, "bias_regularizer": null, "activity_regularizer": null, "kernel_constraint": null, "bias_constraint": null}, "inbound_nodes": [[["block2b_add", 0, 0, {}]]]}, {"name": "block3a_expand_bn", "class_name": "BatchNormalization", "config": {"name": "block3a_expand_bn", "trainable": true, "dtype": "float32", "axis": [3], "momentum": 0.99, "epsilon": 0.001, "center": true, "scale": true, "beta_initializer": {"class_name": "Zeros", "config": {"dtype": "float32"}}, "gamma_initializer": {"class_name": "Ones", "config": {"dtype": "float32"}}, "moving_mean_initializer": {"class_name": "Zeros", "config": {"dtype": "float32"}}, "moving_variance_initializer": {"class_name": "Ones", "config": {"dtype": "float32"}}, "beta_regularizer": null, "gamma_regularizer": null, "beta_constraint": null, "gamma_constraint": null, "freeze": false}, "inbound_nodes": [[["block3a_expand_conv", 0, 0, {}]]]}, {"name": "block3a_expand_activation", "class_name": "Activation", "config": {"name": "block3a_expand_activation", "trainable": true, "dtype": "float32", "activation": "swish"}, "inbound_nodes": [[["block3a_expand_bn", 0, 0, {}]]]}, {"name": "block3a_dwconv", "class_name": "DepthwiseConv2D", "config": {"name": "block3a_dwconv", "trainable": true, "dtype": "float32", "kernel_size": [5, 5], "strides": [2, 2], "padding": "same", "data_format": "channels_last", "dilation_rate": [1, 1], "activation": "linear", "use_bias": false, "bias_initializer": {"class_name": "Zeros", "config": {"dtype": "float32"}}, "bias_regularizer": null, "activity_regularizer": null, "bias_constraint": null, "depth_multiplier": 1, "depthwise_initializer": {"class_name": "VarianceScaling", "config": {"scale": 2.0, "mode": "fan_out", "distribution": "normal", "seed": null, "dtype": "float32"}}, "depthwise_regularizer": null, "depthwise_constraint": null}, "inbound_nodes": [[["block3a_expand_activation", 0, 0, {}]]]}, {"name": "block3a_bn", "class_name": "BatchNormalization", "config": {"name": "block3a_bn", "trainable": true, "dtype": "float32", "axis": [3], "momentum": 0.99, "epsilon": 0.001, "center": true, "scale": true, "beta_initializer": {"class_name": "Zeros", "config": {"dtype": "float32"}}, "gamma_initializer": {"class_name": "Ones", "config": {"dtype": "float32"}}, "moving_mean_initializer": {"class_name": "Zeros", "config": {"dtype": "float32"}}, "moving_variance_initializer": {"class_name": "Ones", "config": {"dtype": "float32"}}, "beta_regularizer": null, "gamma_regularizer": null, "beta_constraint": null, "gamma_constraint": null, "freeze": false}, "inbound_nodes": [[["block3a_dwconv", 0, 0, {}]]]}, {"name": "block3a_activation", "class_name": "Activation", "config": {"name": "block3a_activation", "trainable": true, "dtype": "float32", "activation": "swish"}, "inbound_nodes": [[["block3a_bn", 0, 0, {}]]]}, {"name": "block3a_se_squeeze", "class_name": "GlobalAveragePooling2D", "config": {"name": "block3a_se_squeeze", "trainable": true, "dtype": "float32", "data_format": "channels_last"}, "inbound_nodes": [[["block3a_activation", 0, 0, {}]]]}, {"name": "block3a_se_reshape", "class_name": "Reshape", "config": {"name": "block3a_se_reshape", "trainable": true, "dtype": "float32", "target_shape": [1, 1, 144]}, "inbound_nodes": [[["block3a_se_squeeze", 0, 0, {}]]]}, {"name": "block3a_se_reduce", "class_name": "Conv2D", "config": {"name": "block3a_se_reduce", "trainable": true, "dtype": "float32", "filters": 6, "kernel_size": [1, 1], "strides": [1, 1], "padding": "same", "data_format": "channels_last", "dilation_rate": [1, 1], "activation": "swish", "use_bias": true, "kernel_initializer": {"class_name": "VarianceScaling", "config": {"scale": 2.0, "mode": "fan_out", "distribution": "normal", "seed": null, "dtype": "float32"}}, "bias_initializer": {"class_name": "Zeros", "config": {"dtype": "float32"}}, "kernel_regularizer": null, "bias_regularizer": null, "activity_regularizer": null, "kernel_constraint": null, "bias_constraint": null}, "inbound_nodes": [[["block3a_se_reshape", 0, 0, {}]]]}, {"name": "block3a_se_expand", "class_name": "Conv2D", "config": {"name": "block3a_se_expand", "trainable": true, "dtype": "float32", "filters": 144, "kernel_size": [1, 1], "strides": [1, 1], "padding": "same", "data_format": "channels_last", "dilation_rate": [1, 1], "activation": "sigmoid", "use_bias": true, "kernel_initializer": {"class_name": "VarianceScaling", "config": {"scale": 2.0, "mode": "fan_out", "distribution": "normal", "seed": null, "dtype": "float32"}}, "bias_initializer": {"class_name": "Zeros", "config": {"dtype": "float32"}}, "kernel_regularizer": null, "bias_regularizer": null, "activity_regularizer": null, "kernel_constraint": null, "bias_constraint": null}, "inbound_nodes": [[["block3a_se_reduce", 0, 0, {}]]]}, {"name": "block3a_se_excite", "class_name": "Multiply", "config": {"name": "block3a_se_excite", "trainable": true, "dtype": "float32"}, "inbound_nodes": [[["block3a_activation", 0, 0, {}], ["block3a_se_expand", 0, 0, {}]]]}, {"name": "block3a_project_conv", "class_name": "Conv2D", "config": {"name": "block3a_project_conv", "trainable": true, "dtype": "float32", "filters": 40, "kernel_size": [1, 1], "strides": [1, 1], "padding": "same", "data_format": "channels_last", "dilation_rate": [1, 1], "activation": "linear", "use_bias": false, "kernel_initializer": {"class_name": "VarianceScaling", "config": {"scale": 2.0, "mode": "fan_out", "distribution": "normal", "seed": null, "dtype": "float32"}}, "bias_initializer": {"class_name": "Zeros", "config": {"dtype": "float32"}}, "kernel_regularizer": null, "bias_regularizer": null, "activity_regularizer": null, "kernel_constraint": null, "bias_constraint": null}, "inbound_nodes": [[["block3a_se_excite", 0, 0, {}]]]}, {"name": "block3a_project_bn", "class_name": "BatchNormalization", "config": {"name": "block3a_project_bn", "trainable": true, "dtype": "float32", "axis": [3], "momentum": 0.99, "epsilon": 0.001, "center": true, "scale": true, "beta_initializer": {"class_name": "Zeros", "config": {"dtype": "float32"}}, "gamma_initializer": {"class_name": "Ones", "config": {"dtype": "float32"}}, "moving_mean_initializer": {"class_name": "Zeros", "config": {"dtype": "float32"}}, "moving_variance_initializer": {"class_name": "Ones", "config": {"dtype": "float32"}}, "beta_regularizer": null, "gamma_regularizer": null, "beta_constraint": null, "gamma_constraint": null, "freeze": false}, "inbound_nodes": [[["block3a_project_conv", 0, 0, {}]]]}, {"name": "block3b_expand_conv", "class_name": "Conv2D", "config": {"name": "block3b_expand_conv", "trainable": true, "dtype": "float32", "filters": 240, "kernel_size": [1, 1], "strides": [1, 1], "padding": "same", "data_format": "channels_last", "dilation_rate": [1, 1], "activation": "linear", "use_bias": false, "kernel_initializer": {"class_name": "VarianceScaling", "config": {"scale": 2.0, "mode": "fan_out", "distribution": "normal", "seed": null, "dtype": "float32"}}, "bias_initializer": {"class_name": "Zeros", "config": {"dtype": "float32"}}, "kernel_regularizer": null, "bias_regularizer": null, "activity_regularizer": null, "kernel_constraint": null, "bias_constraint": null}, "inbound_nodes": [[["block3a_project_bn", 0, 0, {}]]]}, {"name": "block3b_expand_bn", "class_name": "BatchNormalization", "config": {"name": "block3b_expand_bn", "trainable": true, "dtype": "float32", "axis": [3], "momentum": 0.99, "epsilon": 0.001, "center": true, "scale": true, "beta_initializer": {"class_name": "Zeros", "config": {"dtype": "float32"}}, "gamma_initializer": {"class_name": "Ones", "config": {"dtype": "float32"}}, "moving_mean_initializer": {"class_name": "Zeros", "config": {"dtype": "float32"}}, "moving_variance_initializer": {"class_name": "Ones", "config": {"dtype": "float32"}}, "beta_regularizer": null, "gamma_regularizer": null, "beta_constraint": null, "gamma_constraint": null, "freeze": false}, "inbound_nodes": [[["block3b_expand_conv", 0, 0, {}]]]}, {"name": "block3b_expand_activation", "class_name": "Activation", "config": {"name": "block3b_expand_activation", "trainable": true, "dtype": "float32", "activation": "swish"}, "inbound_nodes": [[["block3b_expand_bn", 0, 0, {}]]]}, {"name": "block3b_dwconv", "class_name": "DepthwiseConv2D", "config": {"name": "block3b_dwconv", "trainable": true, "dtype": "float32", "kernel_size": [5, 5], "strides": [1, 1], "padding": "same", "data_format": "channels_last", "dilation_rate": [1, 1], "activation": "linear", "use_bias": false, "bias_initializer": {"class_name": "Zeros", "config": {"dtype": "float32"}}, "bias_regularizer": null, "activity_regularizer": null, "bias_constraint": null, "depth_multiplier": 1, "depthwise_initializer": {"class_name": "VarianceScaling", "config": {"scale": 2.0, "mode": "fan_out", "distribution": "normal", "seed": null, "dtype": "float32"}}, "depthwise_regularizer": null, "depthwise_constraint": null}, "inbound_nodes": [[["block3b_expand_activation", 0, 0, {}]]]}, {"name": "block3b_bn", "class_name": "BatchNormalization", "config": {"name": "block3b_bn", "trainable": true, "dtype": "float32", "axis": [3], "momentum": 0.99, "epsilon": 0.001, "center": true, "scale": true, "beta_initializer": {"class_name": "Zeros", "config": {"dtype": "float32"}}, "gamma_initializer": {"class_name": "Ones", "config": {"dtype": "float32"}}, "moving_mean_initializer": {"class_name": "Zeros", "config": {"dtype": "float32"}}, "moving_variance_initializer": {"class_name": "Ones", "config": {"dtype": "float32"}}, "beta_regularizer": null, "gamma_regularizer": null, "beta_constraint": null, "gamma_constraint": null, "freeze": false}, "inbound_nodes": [[["block3b_dwconv", 0, 0, {}]]]}, {"name": "block3b_activation", "class_name": "Activation", "config": {"name": "block3b_activation", "trainable": true, "dtype": "float32", "activation": "swish"}, "inbound_nodes": [[["block3b_bn", 0, 0, {}]]]}, {"name": "block3b_se_squeeze", "class_name": "GlobalAveragePooling2D", "config": {"name": "block3b_se_squeeze", "trainable": true, "dtype": "float32", "data_format": "channels_last"}, "inbound_nodes": [[["block3b_activation", 0, 0, {}]]]}, {"name": "block3b_se_reshape", "class_name": "Reshape", "config": {"name": "block3b_se_reshape", "trainable": true, "dtype": "float32", "target_shape": [1, 1, 240]}, "inbound_nodes": [[["block3b_se_squeeze", 0, 0, {}]]]}, {"name": "block3b_se_reduce", "class_name": "Conv2D", "config": {"name": "block3b_se_reduce", "trainable": true, "dtype": "float32", "filters": 10, "kernel_size": [1, 1], "strides": [1, 1], "padding": "same", "data_format": "channels_last", "dilation_rate": [1, 1], "activation": "swish", "use_bias": true, "kernel_initializer": {"class_name": "VarianceScaling", "config": {"scale": 2.0, "mode": "fan_out", "distribution": "normal", "seed": null, "dtype": "float32"}}, "bias_initializer": {"class_name": "Zeros", "config": {"dtype": "float32"}}, "kernel_regularizer": null, "bias_regularizer": null, "activity_regularizer": null, "kernel_constraint": null, "bias_constraint": null}, "inbound_nodes": [[["block3b_se_reshape", 0, 0, {}]]]}, {"name": "block3b_se_expand", "class_name": "Conv2D", "config": {"name": "block3b_se_expand", "trainable": true, "dtype": "float32", "filters": 240, "kernel_size": [1, 1], "strides": [1, 1], "padding": "same", "data_format": "channels_last", "dilation_rate": [1, 1], "activation": "sigmoid", "use_bias": true, "kernel_initializer": {"class_name": "VarianceScaling", "config": {"scale": 2.0, "mode": "fan_out", "distribution": "normal", "seed": null, "dtype": "float32"}}, "bias_initializer": {"class_name": "Zeros", "config": {"dtype": "float32"}}, "kernel_regularizer": null, "bias_regularizer": null, "activity_regularizer": null, "kernel_constraint": null, "bias_constraint": null}, "inbound_nodes": [[["block3b_se_reduce", 0, 0, {}]]]}, {"name": "block3b_se_excite", "class_name": "Multiply", "config": {"name": "block3b_se_excite", "trainable": true, "dtype": "float32"}, "inbound_nodes": [[["block3b_activation", 0, 0, {}], ["block3b_se_expand", 0, 0, {}]]]}, {"name": "block3b_project_conv", "class_name": "Conv2D", "config": {"name": "block3b_project_conv", "trainable": true, "dtype": "float32", "filters": 40, "kernel_size": [1, 1], "strides": [1, 1], "padding": "same", "data_format": "channels_last", "dilation_rate": [1, 1], "activation": "linear", "use_bias": false, "kernel_initializer": {"class_name": "VarianceScaling", "config": {"scale": 2.0, "mode": "fan_out", "distribution": "normal", "seed": null, "dtype": "float32"}}, "bias_initializer": {"class_name": "Zeros", "config": {"dtype": "float32"}}, "kernel_regularizer": null, "bias_regularizer": null, "activity_regularizer": null, "kernel_constraint": null, "bias_constraint": null}, "inbound_nodes": [[["block3b_se_excite", 0, 0, {}]]]}, {"name": "block3b_project_bn", "class_name": "BatchNormalization", "config": {"name": "block3b_project_bn", "trainable": true, "dtype": "float32", "axis": [3], "momentum": 0.99, "epsilon": 0.001, "center": true, "scale": true, "beta_initializer": {"class_name": "Zeros", "config": {"dtype": "float32"}}, "gamma_initializer": {"class_name": "Ones", "config": {"dtype": "float32"}}, "moving_mean_initializer": {"class_name": "Zeros", "config": {"dtype": "float32"}}, "moving_variance_initializer": {"class_name": "Ones", "config": {"dtype": "float32"}}, "beta_regularizer": null, "gamma_regularizer": null, "beta_constraint": null, "gamma_constraint": null, "freeze": false}, "inbound_nodes": [[["block3b_project_conv", 0, 0, {}]]]}, {"name": "block3b_drop", "class_name": "FixedDropout", "config": {"name": "block3b_drop", "trainable": true, "dtype": "float32", "rate": 0.05, "noise_shape": [null, 1, 1, 1], "seed": null}, "inbound_nodes": [[["block3b_project_bn", 0, 0, {}]]]}, {"name": "block3b_add", "class_name": "Add", "config": {"name": "block3b_add", "trainable": true, "dtype": "float32"}, "inbound_nodes": [[["block3b_drop", 0, 0, {}], ["block3a_project_bn", 0, 0, {}]]]}, {"name": "block4a_expand_conv", "class_name": "Conv2D", "config": {"name": "block4a_expand_conv", "trainable": true, "dtype": "float32", "filters": 240, "kernel_size": [1, 1], "strides": [1, 1], "padding": "same", "data_format": "channels_last", "dilation_rate": [1, 1], "activation": "linear", "use_bias": false, "kernel_initializer": {"class_name": "VarianceScaling", "config": {"scale": 2.0, "mode": "fan_out", "distribution": "normal", "seed": null, "dtype": "float32"}}, "bias_initializer": {"class_name": "Zeros", "config": {"dtype": "float32"}}, "kernel_regularizer": null, "bias_regularizer": null, "activity_regularizer": null, "kernel_constraint": null, "bias_constraint": null}, "inbound_nodes": [[["block3b_add", 0, 0, {}]]]}, {"name": "block4a_expand_bn", "class_name": "BatchNormalization", "config": {"name": "block4a_expand_bn", "trainable": true, "dtype": "float32", "axis": [3], "momentum": 0.99, "epsilon": 0.001, "center": true, "scale": true, "beta_initializer": {"class_name": "Zeros", "config": {"dtype": "float32"}}, "gamma_initializer": {"class_name": "Ones", "config": {"dtype": "float32"}}, "moving_mean_initializer": {"class_name": "Zeros", "config": {"dtype": "float32"}}, "moving_variance_initializer": {"class_name": "Ones", "config": {"dtype": "float32"}}, "beta_regularizer": null, "gamma_regularizer": null, "beta_constraint": null, "gamma_constraint": null, "freeze": false}, "inbound_nodes": [[["block4a_expand_conv", 0, 0, {}]]]}, {"name": "block4a_expand_activation", "class_name": "Activation", "config": {"name": "block4a_expand_activation", "trainable": true, "dtype": "float32", "activation": "swish"}, "inbound_nodes": [[["block4a_expand_bn", 0, 0, {}]]]}, {"name": "block4a_dwconv", "class_name": "DepthwiseConv2D", "config": {"name": "block4a_dwconv", "trainable": true, "dtype": "float32", "kernel_size": [3, 3], "strides": [2, 2], "padding": "same", "data_format": "channels_last", "dilation_rate": [1, 1], "activation": "linear", "use_bias": false, "bias_initializer": {"class_name": "Zeros", "config": {"dtype": "float32"}}, "bias_regularizer": null, "activity_regularizer": null, "bias_constraint": null, "depth_multiplier": 1, "depthwise_initializer": {"class_name": "VarianceScaling", "config": {"scale": 2.0, "mode": "fan_out", "distribution": "normal", "seed": null, "dtype": "float32"}}, "depthwise_regularizer": null, "depthwise_constraint": null}, "inbound_nodes": [[["block4a_expand_activation", 0, 0, {}]]]}, {"name": "block4a_bn", "class_name": "BatchNormalization", "config": {"name": "block4a_bn", "trainable": true, "dtype": "float32", "axis": [3], "momentum": 0.99, "epsilon": 0.001, "center": true, "scale": true, "beta_initializer": {"class_name": "Zeros", "config": {"dtype": "float32"}}, "gamma_initializer": {"class_name": "Ones", "config": {"dtype": "float32"}}, "moving_mean_initializer": {"class_name": "Zeros", "config": {"dtype": "float32"}}, "moving_variance_initializer": {"class_name": "Ones", "config": {"dtype": "float32"}}, "beta_regularizer": null, "gamma_regularizer": null, "beta_constraint": null, "gamma_constraint": null, "freeze": false}, "inbound_nodes": [[["block4a_dwconv", 0, 0, {}]]]}, {"name": "block4a_activation", "class_name": "Activation", "config": {"name": "block4a_activation", "trainable": true, "dtype": "float32", "activation": "swish"}, "inbound_nodes": [[["block4a_bn", 0, 0, {}]]]}, {"name": "block4a_se_squeeze", "class_name": "GlobalAveragePooling2D", "config": {"name": "block4a_se_squeeze", "trainable": true, "dtype": "float32", "data_format": "channels_last"}, "inbound_nodes": [[["block4a_activation", 0, 0, {}]]]}, {"name": "block4a_se_reshape", "class_name": "Reshape", "config": {"name": "block4a_se_reshape", "trainable": true, "dtype": "float32", "target_shape": [1, 1, 240]}, "inbound_nodes": [[["block4a_se_squeeze", 0, 0, {}]]]}, {"name": "block4a_se_reduce", "class_name": "Conv2D", "config": {"name": "block4a_se_reduce", "trainable": true, "dtype": "float32", "filters": 10, "kernel_size": [1, 1], "strides": [1, 1], "padding": "same", "data_format": "channels_last", "dilation_rate": [1, 1], "activation": "swish", "use_bias": true, "kernel_initializer": {"class_name": "VarianceScaling", "config": {"scale": 2.0, "mode": "fan_out", "distribution": "normal", "seed": null, "dtype": "float32"}}, "bias_initializer": {"class_name": "Zeros", "config": {"dtype": "float32"}}, "kernel_regularizer": null, "bias_regularizer": null, "activity_regularizer": null, "kernel_constraint": null, "bias_constraint": null}, "inbound_nodes": [[["block4a_se_reshape", 0, 0, {}]]]}, {"name": "block4a_se_expand", "class_name": "Conv2D", "config": {"name": "block4a_se_expand", "trainable": true, "dtype": "float32", "filters": 240, "kernel_size": [1, 1], "strides": [1, 1], "padding": "same", "data_format": "channels_last", "dilation_rate": [1, 1], "activation": "sigmoid", "use_bias": true, "kernel_initializer": {"class_name": "VarianceScaling", "config": {"scale": 2.0, "mode": "fan_out", "distribution": "normal", "seed": null, "dtype": "float32"}}, "bias_initializer": {"class_name": "Zeros", "config": {"dtype": "float32"}}, "kernel_regularizer": null, "bias_regularizer": null, "activity_regularizer": null, "kernel_constraint": null, "bias_constraint": null}, "inbound_nodes": [[["block4a_se_reduce", 0, 0, {}]]]}, {"name": "block4a_se_excite", "class_name": "Multiply", "config": {"name": "block4a_se_excite", "trainable": true, "dtype": "float32"}, "inbound_nodes": [[["block4a_activation", 0, 0, {}], ["block4a_se_expand", 0, 0, {}]]]}, {"name": "block4a_project_conv", "class_name": "Conv2D", "config": {"name": "block4a_project_conv", "trainable": true, "dtype": "float32", "filters": 80, "kernel_size": [1, 1], "strides": [1, 1], "padding": "same", "data_format": "channels_last", "dilation_rate": [1, 1], "activation": "linear", "use_bias": false, "kernel_initializer": {"class_name": "VarianceScaling", "config": {"scale": 2.0, "mode": "fan_out", "distribution": "normal", "seed": null, "dtype": "float32"}}, "bias_initializer": {"class_name": "Zeros", "config": {"dtype": "float32"}}, "kernel_regularizer": null, "bias_regularizer": null, "activity_regularizer": null, "kernel_constraint": null, "bias_constraint": null}, "inbound_nodes": [[["block4a_se_excite", 0, 0, {}]]]}, {"name": "block4a_project_bn", "class_name": "BatchNormalization", "config": {"name": "block4a_project_bn", "trainable": true, "dtype": "float32", "axis": [3], "momentum": 0.99, "epsilon": 0.001, "center": true, "scale": true, "beta_initializer": {"class_name": "Zeros", "config": {"dtype": "float32"}}, "gamma_initializer": {"class_name": "Ones", "config": {"dtype": "float32"}}, "moving_mean_initializer": {"class_name": "Zeros", "config": {"dtype": "float32"}}, "moving_variance_initializer": {"class_name": "Ones", "config": {"dtype": "float32"}}, "beta_regularizer": null, "gamma_regularizer": null, "beta_constraint": null, "gamma_constraint": null, "freeze": false}, "inbound_nodes": [[["block4a_project_conv", 0, 0, {}]]]}, {"name": "block4b_expand_conv", "class_name": "Conv2D", "config": {"name": "block4b_expand_conv", "trainable": true, "dtype": "float32", "filters": 480, "kernel_size": [1, 1], "strides": [1, 1], "padding": "same", "data_format": "channels_last", "dilation_rate": [1, 1], "activation": "linear", "use_bias": false, "kernel_initializer": {"class_name": "VarianceScaling", "config": {"scale": 2.0, "mode": "fan_out", "distribution": "normal", "seed": null, "dtype": "float32"}}, "bias_initializer": {"class_name": "Zeros", "config": {"dtype": "float32"}}, "kernel_regularizer": null, "bias_regularizer": null, "activity_regularizer": null, "kernel_constraint": null, "bias_constraint": null}, "inbound_nodes": [[["block4a_project_bn", 0, 0, {}]]]}, {"name": "block4b_expand_bn", "class_name": "BatchNormalization", "config": {"name": "block4b_expand_bn", "trainable": true, "dtype": "float32", "axis": [3], "momentum": 0.99, "epsilon": 0.001, "center": true, "scale": true, "beta_initializer": {"class_name": "Zeros", "config": {"dtype": "float32"}}, "gamma_initializer": {"class_name": "Ones", "config": {"dtype": "float32"}}, "moving_mean_initializer": {"class_name": "Zeros", "config": {"dtype": "float32"}}, "moving_variance_initializer": {"class_name": "Ones", "config": {"dtype": "float32"}}, "beta_regularizer": null, "gamma_regularizer": null, "beta_constraint": null, "gamma_constraint": null, "freeze": false}, "inbound_nodes": [[["block4b_expand_conv", 0, 0, {}]]]}, {"name": "block4b_expand_activation", "class_name": "Activation", "config": {"name": "block4b_expand_activation", "trainable": true, "dtype": "float32", "activation": "swish"}, "inbound_nodes": [[["block4b_expand_bn", 0, 0, {}]]]}, {"name": "block4b_dwconv", "class_name": "DepthwiseConv2D", "config": {"name": "block4b_dwconv", "trainable": true, "dtype": "float32", "kernel_size": [3, 3], "strides": [1, 1], "padding": "same", "data_format": "channels_last", "dilation_rate": [1, 1], "activation": "linear", "use_bias": false, "bias_initializer": {"class_name": "Zeros", "config": {"dtype": "float32"}}, "bias_regularizer": null, "activity_regularizer": null, "bias_constraint": null, "depth_multiplier": 1, "depthwise_initializer": {"class_name": "VarianceScaling", "config": {"scale": 2.0, "mode": "fan_out", "distribution": "normal", "seed": null, "dtype": "float32"}}, "depthwise_regularizer": null, "depthwise_constraint": null}, "inbound_nodes": [[["block4b_expand_activation", 0, 0, {}]]]}, {"name": "block4b_bn", "class_name": "BatchNormalization", "config": {"name": "block4b_bn", "trainable": true, "dtype": "float32", "axis": [3], "momentum": 0.99, "epsilon": 0.001, "center": true, "scale": true, "beta_initializer": {"class_name": "Zeros", "config": {"dtype": "float32"}}, "gamma_initializer": {"class_name": "Ones", "config": {"dtype": "float32"}}, "moving_mean_initializer": {"class_name": "Zeros", "config": {"dtype": "float32"}}, "moving_variance_initializer": {"class_name": "Ones", "config": {"dtype": "float32"}}, "beta_regularizer": null, "gamma_regularizer": null, "beta_constraint": null, "gamma_constraint": null, "freeze": false}, "inbound_nodes": [[["block4b_dwconv", 0, 0, {}]]]}, {"name": "block4b_activation", "class_name": "Activation", "config": {"name": "block4b_activation", "trainable": true, "dtype": "float32", "activation": "swish"}, "inbound_nodes": [[["block4b_bn", 0, 0, {}]]]}, {"name": "block4b_se_squeeze", "class_name": "GlobalAveragePooling2D", "config": {"name": "block4b_se_squeeze", "trainable": true, "dtype": "float32", "data_format": "channels_last"}, "inbound_nodes": [[["block4b_activation", 0, 0, {}]]]}, {"name": "block4b_se_reshape", "class_name": "Reshape", "config": {"name": "block4b_se_reshape", "trainable": true, "dtype": "float32", "target_shape": [1, 1, 480]}, "inbound_nodes": [[["block4b_se_squeeze", 0, 0, {}]]]}, {"name": "block4b_se_reduce", "class_name": "Conv2D", "config": {"name": "block4b_se_reduce", "trainable": true, "dtype": "float32", "filters": 20, "kernel_size": [1, 1], "strides": [1, 1], "padding": "same", "data_format": "channels_last", "dilation_rate": [1, 1], "activation": "swish", "use_bias": true, "kernel_initializer": {"class_name": "VarianceScaling", "config": {"scale": 2.0, "mode": "fan_out", "distribution": "normal", "seed": null, "dtype": "float32"}}, "bias_initializer": {"class_name": "Zeros", "config": {"dtype": "float32"}}, "kernel_regularizer": null, "bias_regularizer": null, "activity_regularizer": null, "kernel_constraint": null, "bias_constraint": null}, "inbound_nodes": [[["block4b_se_reshape", 0, 0, {}]]]}, {"name": "block4b_se_expand", "class_name": "Conv2D", "config": {"name": "block4b_se_expand", "trainable": true, "dtype": "float32", "filters": 480, "kernel_size": [1, 1], "strides": [1, 1], "padding": "same", "data_format": "channels_last", "dilation_rate": [1, 1], "activation": "sigmoid", "use_bias": true, "kernel_initializer": {"class_name": "VarianceScaling", "config": {"scale": 2.0, "mode": "fan_out", "distribution": "normal", "seed": null, "dtype": "float32"}}, "bias_initializer": {"class_name": "Zeros", "config": {"dtype": "float32"}}, "kernel_regularizer": null, "bias_regularizer": null, "activity_regularizer": null, "kernel_constraint": null, "bias_constraint": null}, "inbound_nodes": [[["block4b_se_reduce", 0, 0, {}]]]}, {"name": "block4b_se_excite", "class_name": "Multiply", "config": {"name": "block4b_se_excite", "trainable": true, "dtype": "float32"}, "inbound_nodes": [[["block4b_activation", 0, 0, {}], ["block4b_se_expand", 0, 0, {}]]]}, {"name": "block4b_project_conv", "class_name": "Conv2D", "config": {"name": "block4b_project_conv", "trainable": true, "dtype": "float32", "filters": 80, "kernel_size": [1, 1], "strides": [1, 1], "padding": "same", "data_format": "channels_last", "dilation_rate": [1, 1], "activation": "linear", "use_bias": false, "kernel_initializer": {"class_name": "VarianceScaling", "config": {"scale": 2.0, "mode": "fan_out", "distribution": "normal", "seed": null, "dtype": "float32"}}, "bias_initializer": {"class_name": "Zeros", "config": {"dtype": "float32"}}, "kernel_regularizer": null, "bias_regularizer": null, "activity_regularizer": null, "kernel_constraint": null, "bias_constraint": null}, "inbound_nodes": [[["block4b_se_excite", 0, 0, {}]]]}, {"name": "block4b_project_bn", "class_name": "BatchNormalization", "config": {"name": "block4b_project_bn", "trainable": true, "dtype": "float32", "axis": [3], "momentum": 0.99, "epsilon": 0.001, "center": true, "scale": true, "beta_initializer": {"class_name": "Zeros", "config": {"dtype": "float32"}}, "gamma_initializer": {"class_name": "Ones", "config": {"dtype": "float32"}}, "moving_mean_initializer": {"class_name": "Zeros", "config": {"dtype": "float32"}}, "moving_variance_initializer": {"class_name": "Ones", "config": {"dtype": "float32"}}, "beta_regularizer": null, "gamma_regularizer": null, "beta_constraint": null, "gamma_constraint": null, "freeze": false}, "inbound_nodes": [[["block4b_project_conv", 0, 0, {}]]]}, {"name": "block4b_drop", "class_name": "FixedDropout", "config": {"name": "block4b_drop", "trainable": true, "dtype": "float32", "rate": 0.07500000000000001, "noise_shape": [null, 1, 1, 1], "seed": null}, "inbound_nodes": [[["block4b_project_bn", 0, 0, {}]]]}, {"name": "block4b_add", "class_name": "Add", "config": {"name": "block4b_add", "trainable": true, "dtype": "float32"}, "inbound_nodes": [[["block4b_drop", 0, 0, {}], ["block4a_project_bn", 0, 0, {}]]]}, {"name": "block4c_expand_conv", "class_name": "Conv2D", "config": {"name": "block4c_expand_conv", "trainable": true, "dtype": "float32", "filters": 480, "kernel_size": [1, 1], "strides": [1, 1], "padding": "same", "data_format": "channels_last", "dilation_rate": [1, 1], "activation": "linear", "use_bias": false, "kernel_initializer": {"class_name": "VarianceScaling", "config": {"scale": 2.0, "mode": "fan_out", "distribution": "normal", "seed": null, "dtype": "float32"}}, "bias_initializer": {"class_name": "Zeros", "config": {"dtype": "float32"}}, "kernel_regularizer": null, "bias_regularizer": null, "activity_regularizer": null, "kernel_constraint": null, "bias_constraint": null}, "inbound_nodes": [[["block4b_add", 0, 0, {}]]]}, {"name": "block4c_expand_bn", "class_name": "BatchNormalization", "config": {"name": "block4c_expand_bn", "trainable": true, "dtype": "float32", "axis": [3], "momentum": 0.99, "epsilon": 0.001, "center": true, "scale": true, "beta_initializer": {"class_name": "Zeros", "config": {"dtype": "float32"}}, "gamma_initializer": {"class_name": "Ones", "config": {"dtype": "float32"}}, "moving_mean_initializer": {"class_name": "Zeros", "config": {"dtype": "float32"}}, "moving_variance_initializer": {"class_name": "Ones", "config": {"dtype": "float32"}}, "beta_regularizer": null, "gamma_regularizer": null, "beta_constraint": null, "gamma_constraint": null, "freeze": false}, "inbound_nodes": [[["block4c_expand_conv", 0, 0, {}]]]}, {"name": "block4c_expand_activation", "class_name": "Activation", "config": {"name": "block4c_expand_activation", "trainable": true, "dtype": "float32", "activation": "swish"}, "inbound_nodes": [[["block4c_expand_bn", 0, 0, {}]]]}, {"name": "block4c_dwconv", "class_name": "DepthwiseConv2D", "config": {"name": "block4c_dwconv", "trainable": true, "dtype": "float32", "kernel_size": [3, 3], "strides": [1, 1], "padding": "same", "data_format": "channels_last", "dilation_rate": [1, 1], "activation": "linear", "use_bias": false, "bias_initializer": {"class_name": "Zeros", "config": {"dtype": "float32"}}, "bias_regularizer": null, "activity_regularizer": null, "bias_constraint": null, "depth_multiplier": 1, "depthwise_initializer": {"class_name": "VarianceScaling", "config": {"scale": 2.0, "mode": "fan_out", "distribution": "normal", "seed": null, "dtype": "float32"}}, "depthwise_regularizer": null, "depthwise_constraint": null}, "inbound_nodes": [[["block4c_expand_activation", 0, 0, {}]]]}, {"name": "block4c_bn", "class_name": "BatchNormalization", "config": {"name": "block4c_bn", "trainable": true, "dtype": "float32", "axis": [3], "momentum": 0.99, "epsilon": 0.001, "center": true, "scale": true, "beta_initializer": {"class_name": "Zeros", "config": {"dtype": "float32"}}, "gamma_initializer": {"class_name": "Ones", "config": {"dtype": "float32"}}, "moving_mean_initializer": {"class_name": "Zeros", "config": {"dtype": "float32"}}, "moving_variance_initializer": {"class_name": "Ones", "config": {"dtype": "float32"}}, "beta_regularizer": null, "gamma_regularizer": null, "beta_constraint": null, "gamma_constraint": null, "freeze": false}, "inbound_nodes": [[["block4c_dwconv", 0, 0, {}]]]}, {"name": "block4c_activation", "class_name": "Activation", "config": {"name": "block4c_activation", "trainable": true, "dtype": "float32", "activation": "swish"}, "inbound_nodes": [[["block4c_bn", 0, 0, {}]]]}, {"name": "block4c_se_squeeze", "class_name": "GlobalAveragePooling2D", "config": {"name": "block4c_se_squeeze", "trainable": true, "dtype": "float32", "data_format": "channels_last"}, "inbound_nodes": [[["block4c_activation", 0, 0, {}]]]}, {"name": "block4c_se_reshape", "class_name": "Reshape", "config": {"name": "block4c_se_reshape", "trainable": true, "dtype": "float32", "target_shape": [1, 1, 480]}, "inbound_nodes": [[["block4c_se_squeeze", 0, 0, {}]]]}, {"name": "block4c_se_reduce", "class_name": "Conv2D", "config": {"name": "block4c_se_reduce", "trainable": true, "dtype": "float32", "filters": 20, "kernel_size": [1, 1], "strides": [1, 1], "padding": "same", "data_format": "channels_last", "dilation_rate": [1, 1], "activation": "swish", "use_bias": true, "kernel_initializer": {"class_name": "VarianceScaling", "config": {"scale": 2.0, "mode": "fan_out", "distribution": "normal", "seed": null, "dtype": "float32"}}, "bias_initializer": {"class_name": "Zeros", "config": {"dtype": "float32"}}, "kernel_regularizer": null, "bias_regularizer": null, "activity_regularizer": null, "kernel_constraint": null, "bias_constraint": null}, "inbound_nodes": [[["block4c_se_reshape", 0, 0, {}]]]}, {"name": "block4c_se_expand", "class_name": "Conv2D", "config": {"name": "block4c_se_expand", "trainable": true, "dtype": "float32", "filters": 480, "kernel_size": [1, 1], "strides": [1, 1], "padding": "same", "data_format": "channels_last", "dilation_rate": [1, 1], "activation": "sigmoid", "use_bias": true, "kernel_initializer": {"class_name": "VarianceScaling", "config": {"scale": 2.0, "mode": "fan_out", "distribution": "normal", "seed": null, "dtype": "float32"}}, "bias_initializer": {"class_name": "Zeros", "config": {"dtype": "float32"}}, "kernel_regularizer": null, "bias_regularizer": null, "activity_regularizer": null, "kernel_constraint": null, "bias_constraint": null}, "inbound_nodes": [[["block4c_se_reduce", 0, 0, {}]]]}, {"name": "block4c_se_excite", "class_name": "Multiply", "config": {"name": "block4c_se_excite", "trainable": true, "dtype": "float32"}, "inbound_nodes": [[["block4c_activation", 0, 0, {}], ["block4c_se_expand", 0, 0, {}]]]}, {"name": "block4c_project_conv", "class_name": "Conv2D", "config": {"name": "block4c_project_conv", "trainable": true, "dtype": "float32", "filters": 80, "kernel_size": [1, 1], "strides": [1, 1], "padding": "same", "data_format": "channels_last", "dilation_rate": [1, 1], "activation": "linear", "use_bias": false, "kernel_initializer": {"class_name": "VarianceScaling", "config": {"scale": 2.0, "mode": "fan_out", "distribution": "normal", "seed": null, "dtype": "float32"}}, "bias_initializer": {"class_name": "Zeros", "config": {"dtype": "float32"}}, "kernel_regularizer": null, "bias_regularizer": null, "activity_regularizer": null, "kernel_constraint": null, "bias_constraint": null}, "inbound_nodes": [[["block4c_se_excite", 0, 0, {}]]]}, {"name": "block4c_project_bn", "class_name": "BatchNormalization", "config": {"name": "block4c_project_bn", "trainable": true, "dtype": "float32", "axis": [3], "momentum": 0.99, "epsilon": 0.001, "center": true, "scale": true, "beta_initializer": {"class_name": "Zeros", "config": {"dtype": "float32"}}, "gamma_initializer": {"class_name": "Ones", "config": {"dtype": "float32"}}, "moving_mean_initializer": {"class_name": "Zeros", "config": {"dtype": "float32"}}, "moving_variance_initializer": {"class_name": "Ones", "config": {"dtype": "float32"}}, "beta_regularizer": null, "gamma_regularizer": null, "beta_constraint": null, "gamma_constraint": null, "freeze": false}, "inbound_nodes": [[["block4c_project_conv", 0, 0, {}]]]}, {"name": "block4c_drop", "class_name": "FixedDropout", "config": {"name": "block4c_drop", "trainable": true, "dtype": "float32", "rate": 0.08750000000000001, "noise_shape": [null, 1, 1, 1], "seed": null}, "inbound_nodes": [[["block4c_project_bn", 0, 0, {}]]]}, {"name": "block4c_add", "class_name": "Add", "config": {"name": "block4c_add", "trainable": true, "dtype": "float32"}, "inbound_nodes": [[["block4c_drop", 0, 0, {}], ["block4b_add", 0, 0, {}]]]}, {"name": "block5a_expand_conv", "class_name": "Conv2D", "config": {"name": "block5a_expand_conv", "trainable": true, "dtype": "float32", "filters": 480, "kernel_size": [1, 1], "strides": [1, 1], "padding": "same", "data_format": "channels_last", "dilation_rate": [1, 1], "activation": "linear", "use_bias": false, "kernel_initializer": {"class_name": "VarianceScaling", "config": {"scale": 2.0, "mode": "fan_out", "distribution": "normal", "seed": null, "dtype": "float32"}}, "bias_initializer": {"class_name": "Zeros", "config": {"dtype": "float32"}}, "kernel_regularizer": null, "bias_regularizer": null, "activity_regularizer": null, "kernel_constraint": null, "bias_constraint": null}, "inbound_nodes": [[["block4c_add", 0, 0, {}]]]}, {"name": "block5a_expand_bn", "class_name": "BatchNormalization", "config": {"name": "block5a_expand_bn", "trainable": true, "dtype": "float32", "axis": [3], "momentum": 0.99, "epsilon": 0.001, "center": true, "scale": true, "beta_initializer": {"class_name": "Zeros", "config": {"dtype": "float32"}}, "gamma_initializer": {"class_name": "Ones", "config": {"dtype": "float32"}}, "moving_mean_initializer": {"class_name": "Zeros", "config": {"dtype": "float32"}}, "moving_variance_initializer": {"class_name": "Ones", "config": {"dtype": "float32"}}, "beta_regularizer": null, "gamma_regularizer": null, "beta_constraint": null, "gamma_constraint": null, "freeze": false}, "inbound_nodes": [[["block5a_expand_conv", 0, 0, {}]]]}, {"name": "block5a_expand_activation", "class_name": "Activation", "config": {"name": "block5a_expand_activation", "trainable": true, "dtype": "float32", "activation": "swish"}, "inbound_nodes": [[["block5a_expand_bn", 0, 0, {}]]]}, {"name": "block5a_dwconv", "class_name": "DepthwiseConv2D", "config": {"name": "block5a_dwconv", "trainable": true, "dtype": "float32", "kernel_size": [5, 5], "strides": [1, 1], "padding": "same", "data_format": "channels_last", "dilation_rate": [1, 1], "activation": "linear", "use_bias": false, "bias_initializer": {"class_name": "Zeros", "config": {"dtype": "float32"}}, "bias_regularizer": null, "activity_regularizer": null, "bias_constraint": null, "depth_multiplier": 1, "depthwise_initializer": {"class_name": "VarianceScaling", "config": {"scale": 2.0, "mode": "fan_out", "distribution": "normal", "seed": null, "dtype": "float32"}}, "depthwise_regularizer": null, "depthwise_constraint": null}, "inbound_nodes": [[["block5a_expand_activation", 0, 0, {}]]]}, {"name": "block5a_bn", "class_name": "BatchNormalization", "config": {"name": "block5a_bn", "trainable": true, "dtype": "float32", "axis": [3], "momentum": 0.99, "epsilon": 0.001, "center": true, "scale": true, "beta_initializer": {"class_name": "Zeros", "config": {"dtype": "float32"}}, "gamma_initializer": {"class_name": "Ones", "config": {"dtype": "float32"}}, "moving_mean_initializer": {"class_name": "Zeros", "config": {"dtype": "float32"}}, "moving_variance_initializer": {"class_name": "Ones", "config": {"dtype": "float32"}}, "beta_regularizer": null, "gamma_regularizer": null, "beta_constraint": null, "gamma_constraint": null, "freeze": false}, "inbound_nodes": [[["block5a_dwconv", 0, 0, {}]]]}, {"name": "block5a_activation", "class_name": "Activation", "config": {"name": "block5a_activation", "trainable": true, "dtype": "float32", "activation": "swish"}, "inbound_nodes": [[["block5a_bn", 0, 0, {}]]]}, {"name": "block5a_se_squeeze", "class_name": "GlobalAveragePooling2D", "config": {"name": "block5a_se_squeeze", "trainable": true, "dtype": "float32", "data_format": "channels_last"}, "inbound_nodes": [[["block5a_activation", 0, 0, {}]]]}, {"name": "block5a_se_reshape", "class_name": "Reshape", "config": {"name": "block5a_se_reshape", "trainable": true, "dtype": "float32", "target_shape": [1, 1, 480]}, "inbound_nodes": [[["block5a_se_squeeze", 0, 0, {}]]]}, {"name": "block5a_se_reduce", "class_name": "Conv2D", "config": {"name": "block5a_se_reduce", "trainable": true, "dtype": "float32", "filters": 20, "kernel_size": [1, 1], "strides": [1, 1], "padding": "same", "data_format": "channels_last", "dilation_rate": [1, 1], "activation": "swish", "use_bias": true, "kernel_initializer": {"class_name": "VarianceScaling", "config": {"scale": 2.0, "mode": "fan_out", "distribution": "normal", "seed": null, "dtype": "float32"}}, "bias_initializer": {"class_name": "Zeros", "config": {"dtype": "float32"}}, "kernel_regularizer": null, "bias_regularizer": null, "activity_regularizer": null, "kernel_constraint": null, "bias_constraint": null}, "inbound_nodes": [[["block5a_se_reshape", 0, 0, {}]]]}, {"name": "block5a_se_expand", "class_name": "Conv2D", "config": {"name": "block5a_se_expand", "trainable": true, "dtype": "float32", "filters": 480, "kernel_size": [1, 1], "strides": [1, 1], "padding": "same", "data_format": "channels_last", "dilation_rate": [1, 1], "activation": "sigmoid", "use_bias": true, "kernel_initializer": {"class_name": "VarianceScaling", "config": {"scale": 2.0, "mode": "fan_out", "distribution": "normal", "seed": null, "dtype": "float32"}}, "bias_initializer": {"class_name": "Zeros", "config": {"dtype": "float32"}}, "kernel_regularizer": null, "bias_regularizer": null, "activity_regularizer": null, "kernel_constraint": null, "bias_constraint": null}, "inbound_nodes": [[["block5a_se_reduce", 0, 0, {}]]]}, {"name": "block5a_se_excite", "class_name": "Multiply", "config": {"name": "block5a_se_excite", "trainable": true, "dtype": "float32"}, "inbound_nodes": [[["block5a_activation", 0, 0, {}], ["block5a_se_expand", 0, 0, {}]]]}, {"name": "block5a_project_conv", "class_name": "Conv2D", "config": {"name": "block5a_project_conv", "trainable": true, "dtype": "float32", "filters": 112, "kernel_size": [1, 1], "strides": [1, 1], "padding": "same", "data_format": "channels_last", "dilation_rate": [1, 1], "activation": "linear", "use_bias": false, "kernel_initializer": {"class_name": "VarianceScaling", "config": {"scale": 2.0, "mode": "fan_out", "distribution": "normal", "seed": null, "dtype": "float32"}}, "bias_initializer": {"class_name": "Zeros", "config": {"dtype": "float32"}}, "kernel_regularizer": null, "bias_regularizer": null, "activity_regularizer": null, "kernel_constraint": null, "bias_constraint": null}, "inbound_nodes": [[["block5a_se_excite", 0, 0, {}]]]}, {"name": "block5a_project_bn", "class_name": "BatchNormalization", "config": {"name": "block5a_project_bn", "trainable": true, "dtype": "float32", "axis": [3], "momentum": 0.99, "epsilon": 0.001, "center": true, "scale": true, "beta_initializer": {"class_name": "Zeros", "config": {"dtype": "float32"}}, "gamma_initializer": {"class_name": "Ones", "config": {"dtype": "float32"}}, "moving_mean_initializer": {"class_name": "Zeros", "config": {"dtype": "float32"}}, "moving_variance_initializer": {"class_name": "Ones", "config": {"dtype": "float32"}}, "beta_regularizer": null, "gamma_regularizer": null, "beta_constraint": null, "gamma_constraint": null, "freeze": false}, "inbound_nodes": [[["block5a_project_conv", 0, 0, {}]]]}, {"name": "block5b_expand_conv", "class_name": "Conv2D", "config": {"name": "block5b_expand_conv", "trainable": true, "dtype": "float32", "filters": 672, "kernel_size": [1, 1], "strides": [1, 1], "padding": "same", "data_format": "channels_last", "dilation_rate": [1, 1], "activation": "linear", "use_bias": false, "kernel_initializer": {"class_name": "VarianceScaling", "config": {"scale": 2.0, "mode": "fan_out", "distribution": "normal", "seed": null, "dtype": "float32"}}, "bias_initializer": {"class_name": "Zeros", "config": {"dtype": "float32"}}, "kernel_regularizer": null, "bias_regularizer": null, "activity_regularizer": null, "kernel_constraint": null, "bias_constraint": null}, "inbound_nodes": [[["block5a_project_bn", 0, 0, {}]]]}, {"name": "block5b_expand_bn", "class_name": "BatchNormalization", "config": {"name": "block5b_expand_bn", "trainable": true, "dtype": "float32", "axis": [3], "momentum": 0.99, "epsilon": 0.001, "center": true, "scale": true, "beta_initializer": {"class_name": "Zeros", "config": {"dtype": "float32"}}, "gamma_initializer": {"class_name": "Ones", "config": {"dtype": "float32"}}, "moving_mean_initializer": {"class_name": "Zeros", "config": {"dtype": "float32"}}, "moving_variance_initializer": {"class_name": "Ones", "config": {"dtype": "float32"}}, "beta_regularizer": null, "gamma_regularizer": null, "beta_constraint": null, "gamma_constraint": null, "freeze": false}, "inbound_nodes": [[["block5b_expand_conv", 0, 0, {}]]]}, {"name": "block5b_expand_activation", "class_name": "Activation", "config": {"name": "block5b_expand_activation", "trainable": true, "dtype": "float32", "activation": "swish"}, "inbound_nodes": [[["block5b_expand_bn", 0, 0, {}]]]}, {"name": "block5b_dwconv", "class_name": "DepthwiseConv2D", "config": {"name": "block5b_dwconv", "trainable": true, "dtype": "float32", "kernel_size": [5, 5], "strides": [1, 1], "padding": "same", "data_format": "channels_last", "dilation_rate": [1, 1], "activation": "linear", "use_bias": false, "bias_initializer": {"class_name": "Zeros", "config": {"dtype": "float32"}}, "bias_regularizer": null, "activity_regularizer": null, "bias_constraint": null, "depth_multiplier": 1, "depthwise_initializer": {"class_name": "VarianceScaling", "config": {"scale": 2.0, "mode": "fan_out", "distribution": "normal", "seed": null, "dtype": "float32"}}, "depthwise_regularizer": null, "depthwise_constraint": null}, "inbound_nodes": [[["block5b_expand_activation", 0, 0, {}]]]}, {"name": "block5b_bn", "class_name": "BatchNormalization", "config": {"name": "block5b_bn", "trainable": true, "dtype": "float32", "axis": [3], "momentum": 0.99, "epsilon": 0.001, "center": true, "scale": true, "beta_initializer": {"class_name": "Zeros", "config": {"dtype": "float32"}}, "gamma_initializer": {"class_name": "Ones", "config": {"dtype": "float32"}}, "moving_mean_initializer": {"class_name": "Zeros", "config": {"dtype": "float32"}}, "moving_variance_initializer": {"class_name": "Ones", "config": {"dtype": "float32"}}, "beta_regularizer": null, "gamma_regularizer": null, "beta_constraint": null, "gamma_constraint": null, "freeze": false}, "inbound_nodes": [[["block5b_dwconv", 0, 0, {}]]]}, {"name": "block5b_activation", "class_name": "Activation", "config": {"name": "block5b_activation", "trainable": true, "dtype": "float32", "activation": "swish"}, "inbound_nodes": [[["block5b_bn", 0, 0, {}]]]}, {"name": "block5b_se_squeeze", "class_name": "GlobalAveragePooling2D", "config": {"name": "block5b_se_squeeze", "trainable": true, "dtype": "float32", "data_format": "channels_last"}, "inbound_nodes": [[["block5b_activation", 0, 0, {}]]]}, {"name": "block5b_se_reshape", "class_name": "Reshape", "config": {"name": "block5b_se_reshape", "trainable": true, "dtype": "float32", "target_shape": [1, 1, 672]}, "inbound_nodes": [[["block5b_se_squeeze", 0, 0, {}]]]}, {"name": "block5b_se_reduce", "class_name": "Conv2D", "config": {"name": "block5b_se_reduce", "trainable": true, "dtype": "float32", "filters": 28, "kernel_size": [1, 1], "strides": [1, 1], "padding": "same", "data_format": "channels_last", "dilation_rate": [1, 1], "activation": "swish", "use_bias": true, "kernel_initializer": {"class_name": "VarianceScaling", "config": {"scale": 2.0, "mode": "fan_out", "distribution": "normal", "seed": null, "dtype": "float32"}}, "bias_initializer": {"class_name": "Zeros", "config": {"dtype": "float32"}}, "kernel_regularizer": null, "bias_regularizer": null, "activity_regularizer": null, "kernel_constraint": null, "bias_constraint": null}, "inbound_nodes": [[["block5b_se_reshape", 0, 0, {}]]]}, {"name": "block5b_se_expand", "class_name": "Conv2D", "config": {"name": "block5b_se_expand", "trainable": true, "dtype": "float32", "filters": 672, "kernel_size": [1, 1], "strides": [1, 1], "padding": "same", "data_format": "channels_last", "dilation_rate": [1, 1], "activation": "sigmoid", "use_bias": true, "kernel_initializer": {"class_name": "VarianceScaling", "config": {"scale": 2.0, "mode": "fan_out", "distribution": "normal", "seed": null, "dtype": "float32"}}, "bias_initializer": {"class_name": "Zeros", "config": {"dtype": "float32"}}, "kernel_regularizer": null, "bias_regularizer": null, "activity_regularizer": null, "kernel_constraint": null, "bias_constraint": null}, "inbound_nodes": [[["block5b_se_reduce", 0, 0, {}]]]}, {"name": "block5b_se_excite", "class_name": "Multiply", "config": {"name": "block5b_se_excite", "trainable": true, "dtype": "float32"}, "inbound_nodes": [[["block5b_activation", 0, 0, {}], ["block5b_se_expand", 0, 0, {}]]]}, {"name": "block5b_project_conv", "class_name": "Conv2D", "config": {"name": "block5b_project_conv", "trainable": true, "dtype": "float32", "filters": 112, "kernel_size": [1, 1], "strides": [1, 1], "padding": "same", "data_format": "channels_last", "dilation_rate": [1, 1], "activation": "linear", "use_bias": false, "kernel_initializer": {"class_name": "VarianceScaling", "config": {"scale": 2.0, "mode": "fan_out", "distribution": "normal", "seed": null, "dtype": "float32"}}, "bias_initializer": {"class_name": "Zeros", "config": {"dtype": "float32"}}, "kernel_regularizer": null, "bias_regularizer": null, "activity_regularizer": null, "kernel_constraint": null, "bias_constraint": null}, "inbound_nodes": [[["block5b_se_excite", 0, 0, {}]]]}, {"name": "block5b_project_bn", "class_name": "BatchNormalization", "config": {"name": "block5b_project_bn", "trainable": true, "dtype": "float32", "axis": [3], "momentum": 0.99, "epsilon": 0.001, "center": true, "scale": true, "beta_initializer": {"class_name": "Zeros", "config": {"dtype": "float32"}}, "gamma_initializer": {"class_name": "Ones", "config": {"dtype": "float32"}}, "moving_mean_initializer": {"class_name": "Zeros", "config": {"dtype": "float32"}}, "moving_variance_initializer": {"class_name": "Ones", "config": {"dtype": "float32"}}, "beta_regularizer": null, "gamma_regularizer": null, "beta_constraint": null, "gamma_constraint": null, "freeze": false}, "inbound_nodes": [[["block5b_project_conv", 0, 0, {}]]]}, {"name": "block5b_drop", "class_name": "FixedDropout", "config": {"name": "block5b_drop", "trainable": true, "dtype": "float32", "rate": 0.1125, "noise_shape": [null, 1, 1, 1], "seed": null}, "inbound_nodes": [[["block5b_project_bn", 0, 0, {}]]]}, {"name": "block5b_add", "class_name": "Add", "config": {"name": "block5b_add", "trainable": true, "dtype": "float32"}, "inbound_nodes": [[["block5b_drop", 0, 0, {}], ["block5a_project_bn", 0, 0, {}]]]}, {"name": "block5c_expand_conv", "class_name": "Conv2D", "config": {"name": "block5c_expand_conv", "trainable": true, "dtype": "float32", "filters": 672, "kernel_size": [1, 1], "strides": [1, 1], "padding": "same", "data_format": "channels_last", "dilation_rate": [1, 1], "activation": "linear", "use_bias": false, "kernel_initializer": {"class_name": "VarianceScaling", "config": {"scale": 2.0, "mode": "fan_out", "distribution": "normal", "seed": null, "dtype": "float32"}}, "bias_initializer": {"class_name": "Zeros", "config": {"dtype": "float32"}}, "kernel_regularizer": null, "bias_regularizer": null, "activity_regularizer": null, "kernel_constraint": null, "bias_constraint": null}, "inbound_nodes": [[["block5b_add", 0, 0, {}]]]}, {"name": "block5c_expand_bn", "class_name": "BatchNormalization", "config": {"name": "block5c_expand_bn", "trainable": true, "dtype": "float32", "axis": [3], "momentum": 0.99, "epsilon": 0.001, "center": true, "scale": true, "beta_initializer": {"class_name": "Zeros", "config": {"dtype": "float32"}}, "gamma_initializer": {"class_name": "Ones", "config": {"dtype": "float32"}}, "moving_mean_initializer": {"class_name": "Zeros", "config": {"dtype": "float32"}}, "moving_variance_initializer": {"class_name": "Ones", "config": {"dtype": "float32"}}, "beta_regularizer": null, "gamma_regularizer": null, "beta_constraint": null, "gamma_constraint": null, "freeze": false}, "inbound_nodes": [[["block5c_expand_conv", 0, 0, {}]]]}, {"name": "block5c_expand_activation", "class_name": "Activation", "config": {"name": "block5c_expand_activation", "trainable": true, "dtype": "float32", "activation": "swish"}, "inbound_nodes": [[["block5c_expand_bn", 0, 0, {}]]]}, {"name": "block5c_dwconv", "class_name": "DepthwiseConv2D", "config": {"name": "block5c_dwconv", "trainable": true, "dtype": "float32", "kernel_size": [5, 5], "strides": [1, 1], "padding": "same", "data_format": "channels_last", "dilation_rate": [1, 1], "activation": "linear", "use_bias": false, "bias_initializer": {"class_name": "Zeros", "config": {"dtype": "float32"}}, "bias_regularizer": null, "activity_regularizer": null, "bias_constraint": null, "depth_multiplier": 1, "depthwise_initializer": {"class_name": "VarianceScaling", "config": {"scale": 2.0, "mode": "fan_out", "distribution": "normal", "seed": null, "dtype": "float32"}}, "depthwise_regularizer": null, "depthwise_constraint": null}, "inbound_nodes": [[["block5c_expand_activation", 0, 0, {}]]]}, {"name": "block5c_bn", "class_name": "BatchNormalization", "config": {"name": "block5c_bn", "trainable": true, "dtype": "float32", "axis": [3], "momentum": 0.99, "epsilon": 0.001, "center": true, "scale": true, "beta_initializer": {"class_name": "Zeros", "config": {"dtype": "float32"}}, "gamma_initializer": {"class_name": "Ones", "config": {"dtype": "float32"}}, "moving_mean_initializer": {"class_name": "Zeros", "config": {"dtype": "float32"}}, "moving_variance_initializer": {"class_name": "Ones", "config": {"dtype": "float32"}}, "beta_regularizer": null, "gamma_regularizer": null, "beta_constraint": null, "gamma_constraint": null, "freeze": false}, "inbound_nodes": [[["block5c_dwconv", 0, 0, {}]]]}, {"name": "block5c_activation", "class_name": "Activation", "config": {"name": "block5c_activation", "trainable": true, "dtype": "float32", "activation": "swish"}, "inbound_nodes": [[["block5c_bn", 0, 0, {}]]]}, {"name": "block5c_se_squeeze", "class_name": "GlobalAveragePooling2D", "config": {"name": "block5c_se_squeeze", "trainable": true, "dtype": "float32", "data_format": "channels_last"}, "inbound_nodes": [[["block5c_activation", 0, 0, {}]]]}, {"name": "block5c_se_reshape", "class_name": "Reshape", "config": {"name": "block5c_se_reshape", "trainable": true, "dtype": "float32", "target_shape": [1, 1, 672]}, "inbound_nodes": [[["block5c_se_squeeze", 0, 0, {}]]]}, {"name": "block5c_se_reduce", "class_name": "Conv2D", "config": {"name": "block5c_se_reduce", "trainable": true, "dtype": "float32", "filters": 28, "kernel_size": [1, 1], "strides": [1, 1], "padding": "same", "data_format": "channels_last", "dilation_rate": [1, 1], "activation": "swish", "use_bias": true, "kernel_initializer": {"class_name": "VarianceScaling", "config": {"scale": 2.0, "mode": "fan_out", "distribution": "normal", "seed": null, "dtype": "float32"}}, "bias_initializer": {"class_name": "Zeros", "config": {"dtype": "float32"}}, "kernel_regularizer": null, "bias_regularizer": null, "activity_regularizer": null, "kernel_constraint": null, "bias_constraint": null}, "inbound_nodes": [[["block5c_se_reshape", 0, 0, {}]]]}, {"name": "block5c_se_expand", "class_name": "Conv2D", "config": {"name": "block5c_se_expand", "trainable": true, "dtype": "float32", "filters": 672, "kernel_size": [1, 1], "strides": [1, 1], "padding": "same", "data_format": "channels_last", "dilation_rate": [1, 1], "activation": "sigmoid", "use_bias": true, "kernel_initializer": {"class_name": "VarianceScaling", "config": {"scale": 2.0, "mode": "fan_out", "distribution": "normal", "seed": null, "dtype": "float32"}}, "bias_initializer": {"class_name": "Zeros", "config": {"dtype": "float32"}}, "kernel_regularizer": null, "bias_regularizer": null, "activity_regularizer": null, "kernel_constraint": null, "bias_constraint": null}, "inbound_nodes": [[["block5c_se_reduce", 0, 0, {}]]]}, {"name": "block5c_se_excite", "class_name": "Multiply", "config": {"name": "block5c_se_excite", "trainable": true, "dtype": "float32"}, "inbound_nodes": [[["block5c_activation", 0, 0, {}], ["block5c_se_expand", 0, 0, {}]]]}, {"name": "block5c_project_conv", "class_name": "Conv2D", "config": {"name": "block5c_project_conv", "trainable": true, "dtype": "float32", "filters": 112, "kernel_size": [1, 1], "strides": [1, 1], "padding": "same", "data_format": "channels_last", "dilation_rate": [1, 1], "activation": "linear", "use_bias": false, "kernel_initializer": {"class_name": "VarianceScaling", "config": {"scale": 2.0, "mode": "fan_out", "distribution": "normal", "seed": null, "dtype": "float32"}}, "bias_initializer": {"class_name": "Zeros", "config": {"dtype": "float32"}}, "kernel_regularizer": null, "bias_regularizer": null, "activity_regularizer": null, "kernel_constraint": null, "bias_constraint": null}, "inbound_nodes": [[["block5c_se_excite", 0, 0, {}]]]}, {"name": "block5c_project_bn", "class_name": "BatchNormalization", "config": {"name": "block5c_project_bn", "trainable": true, "dtype": "float32", "axis": [3], "momentum": 0.99, "epsilon": 0.001, "center": true, "scale": true, "beta_initializer": {"class_name": "Zeros", "config": {"dtype": "float32"}}, "gamma_initializer": {"class_name": "Ones", "config": {"dtype": "float32"}}, "moving_mean_initializer": {"class_name": "Zeros", "config": {"dtype": "float32"}}, "moving_variance_initializer": {"class_name": "Ones", "config": {"dtype": "float32"}}, "beta_regularizer": null, "gamma_regularizer": null, "beta_constraint": null, "gamma_constraint": null, "freeze": false}, "inbound_nodes": [[["block5c_project_conv", 0, 0, {}]]]}, {"name": "block5c_drop", "class_name": "FixedDropout", "config": {"name": "block5c_drop", "trainable": true, "dtype": "float32", "rate": 0.125, "noise_shape": [null, 1, 1, 1], "seed": null}, "inbound_nodes": [[["block5c_project_bn", 0, 0, {}]]]}, {"name": "block5c_add", "class_name": "Add", "config": {"name": "block5c_add", "trainable": true, "dtype": "float32"}, "inbound_nodes": [[["block5c_drop", 0, 0, {}], ["block5b_add", 0, 0, {}]]]}, {"name": "block6a_expand_conv", "class_name": "Conv2D", "config": {"name": "block6a_expand_conv", "trainable": true, "dtype": "float32", "filters": 672, "kernel_size": [1, 1], "strides": [1, 1], "padding": "same", "data_format": "channels_last", "dilation_rate": [1, 1], "activation": "linear", "use_bias": false, "kernel_initializer": {"class_name": "VarianceScaling", "config": {"scale": 2.0, "mode": "fan_out", "distribution": "normal", "seed": null, "dtype": "float32"}}, "bias_initializer": {"class_name": "Zeros", "config": {"dtype": "float32"}}, "kernel_regularizer": null, "bias_regularizer": null, "activity_regularizer": null, "kernel_constraint": null, "bias_constraint": null}, "inbound_nodes": [[["block5c_add", 0, 0, {}]]]}, {"name": "block6a_expand_bn", "class_name": "BatchNormalization", "config": {"name": "block6a_expand_bn", "trainable": true, "dtype": "float32", "axis": [3], "momentum": 0.99, "epsilon": 0.001, "center": true, "scale": true, "beta_initializer": {"class_name": "Zeros", "config": {"dtype": "float32"}}, "gamma_initializer": {"class_name": "Ones", "config": {"dtype": "float32"}}, "moving_mean_initializer": {"class_name": "Zeros", "config": {"dtype": "float32"}}, "moving_variance_initializer": {"class_name": "Ones", "config": {"dtype": "float32"}}, "beta_regularizer": null, "gamma_regularizer": null, "beta_constraint": null, "gamma_constraint": null, "freeze": false}, "inbound_nodes": [[["block6a_expand_conv", 0, 0, {}]]]}, {"name": "block6a_expand_activation", "class_name": "Activation", "config": {"name": "block6a_expand_activation", "trainable": true, "dtype": "float32", "activation": "swish"}, "inbound_nodes": [[["block6a_expand_bn", 0, 0, {}]]]}, {"name": "block6a_dwconv", "class_name": "DepthwiseConv2D", "config": {"name": "block6a_dwconv", "trainable": true, "dtype": "float32", "kernel_size": [5, 5], "strides": [2, 2], "padding": "same", "data_format": "channels_last", "dilation_rate": [1, 1], "activation": "linear", "use_bias": false, "bias_initializer": {"class_name": "Zeros", "config": {"dtype": "float32"}}, "bias_regularizer": null, "activity_regularizer": null, "bias_constraint": null, "depth_multiplier": 1, "depthwise_initializer": {"class_name": "VarianceScaling", "config": {"scale": 2.0, "mode": "fan_out", "distribution": "normal", "seed": null, "dtype": "float32"}}, "depthwise_regularizer": null, "depthwise_constraint": null}, "inbound_nodes": [[["block6a_expand_activation", 0, 0, {}]]]}, {"name": "block6a_bn", "class_name": "BatchNormalization", "config": {"name": "block6a_bn", "trainable": true, "dtype": "float32", "axis": [3], "momentum": 0.99, "epsilon": 0.001, "center": true, "scale": true, "beta_initializer": {"class_name": "Zeros", "config": {"dtype": "float32"}}, "gamma_initializer": {"class_name": "Ones", "config": {"dtype": "float32"}}, "moving_mean_initializer": {"class_name": "Zeros", "config": {"dtype": "float32"}}, "moving_variance_initializer": {"class_name": "Ones", "config": {"dtype": "float32"}}, "beta_regularizer": null, "gamma_regularizer": null, "beta_constraint": null, "gamma_constraint": null, "freeze": false}, "inbound_nodes": [[["block6a_dwconv", 0, 0, {}]]]}, {"name": "block6a_activation", "class_name": "Activation", "config": {"name": "block6a_activation", "trainable": true, "dtype": "float32", "activation": "swish"}, "inbound_nodes": [[["block6a_bn", 0, 0, {}]]]}, {"name": "block6a_se_squeeze", "class_name": "GlobalAveragePooling2D", "config": {"name": "block6a_se_squeeze", "trainable": true, "dtype": "float32", "data_format": "channels_last"}, "inbound_nodes": [[["block6a_activation", 0, 0, {}]]]}, {"name": "block6a_se_reshape", "class_name": "Reshape", "config": {"name": "block6a_se_reshape", "trainable": true, "dtype": "float32", "target_shape": [1, 1, 672]}, "inbound_nodes": [[["block6a_se_squeeze", 0, 0, {}]]]}, {"name": "block6a_se_reduce", "class_name": "Conv2D", "config": {"name": "block6a_se_reduce", "trainable": true, "dtype": "float32", "filters": 28, "kernel_size": [1, 1], "strides": [1, 1], "padding": "same", "data_format": "channels_last", "dilation_rate": [1, 1], "activation": "swish", "use_bias": true, "kernel_initializer": {"class_name": "VarianceScaling", "config": {"scale": 2.0, "mode": "fan_out", "distribution": "normal", "seed": null, "dtype": "float32"}}, "bias_initializer": {"class_name": "Zeros", "config": {"dtype": "float32"}}, "kernel_regularizer": null, "bias_regularizer": null, "activity_regularizer": null, "kernel_constraint": null, "bias_constraint": null}, "inbound_nodes": [[["block6a_se_reshape", 0, 0, {}]]]}, {"name": "block6a_se_expand", "class_name": "Conv2D", "config": {"name": "block6a_se_expand", "trainable": true, "dtype": "float32", "filters": 672, "kernel_size": [1, 1], "strides": [1, 1], "padding": "same", "data_format": "channels_last", "dilation_rate": [1, 1], "activation": "sigmoid", "use_bias": true, "kernel_initializer": {"class_name": "VarianceScaling", "config": {"scale": 2.0, "mode": "fan_out", "distribution": "normal", "seed": null, "dtype": "float32"}}, "bias_initializer": {"class_name": "Zeros", "config": {"dtype": "float32"}}, "kernel_regularizer": null, "bias_regularizer": null, "activity_regularizer": null, "kernel_constraint": null, "bias_constraint": null}, "inbound_nodes": [[["block6a_se_reduce", 0, 0, {}]]]}, {"name": "block6a_se_excite", "class_name": "Multiply", "config": {"name": "block6a_se_excite", "trainable": true, "dtype": "float32"}, "inbound_nodes": [[["block6a_activation", 0, 0, {}], ["block6a_se_expand", 0, 0, {}]]]}, {"name": "block6a_project_conv", "class_name": "Conv2D", "config": {"name": "block6a_project_conv", "trainable": true, "dtype": "float32", "filters": 192, "kernel_size": [1, 1], "strides": [1, 1], "padding": "same", "data_format": "channels_last", "dilation_rate": [1, 1], "activation": "linear", "use_bias": false, "kernel_initializer": {"class_name": "VarianceScaling", "config": {"scale": 2.0, "mode": "fan_out", "distribution": "normal", "seed": null, "dtype": "float32"}}, "bias_initializer": {"class_name": "Zeros", "config": {"dtype": "float32"}}, "kernel_regularizer": null, "bias_regularizer": null, "activity_regularizer": null, "kernel_constraint": null, "bias_constraint": null}, "inbound_nodes": [[["block6a_se_excite", 0, 0, {}]]]}, {"name": "block6a_project_bn", "class_name": "BatchNormalization", "config": {"name": "block6a_project_bn", "trainable": true, "dtype": "float32", "axis": [3], "momentum": 0.99, "epsilon": 0.001, "center": true, "scale": true, "beta_initializer": {"class_name": "Zeros", "config": {"dtype": "float32"}}, "gamma_initializer": {"class_name": "Ones", "config": {"dtype": "float32"}}, "moving_mean_initializer": {"class_name": "Zeros", "config": {"dtype": "float32"}}, "moving_variance_initializer": {"class_name": "Ones", "config": {"dtype": "float32"}}, "beta_regularizer": null, "gamma_regularizer": null, "beta_constraint": null, "gamma_constraint": null, "freeze": false}, "inbound_nodes": [[["block6a_project_conv", 0, 0, {}]]]}, {"name": "block6b_expand_conv", "class_name": "Conv2D", "config": {"name": "block6b_expand_conv", "trainable": true, "dtype": "float32", "filters": 1152, "kernel_size": [1, 1], "strides": [1, 1], "padding": "same", "data_format": "channels_last", "dilation_rate": [1, 1], "activation": "linear", "use_bias": false, "kernel_initializer": {"class_name": "VarianceScaling", "config": {"scale": 2.0, "mode": "fan_out", "distribution": "normal", "seed": null, "dtype": "float32"}}, "bias_initializer": {"class_name": "Zeros", "config": {"dtype": "float32"}}, "kernel_regularizer": null, "bias_regularizer": null, "activity_regularizer": null, "kernel_constraint": null, "bias_constraint": null}, "inbound_nodes": [[["block6a_project_bn", 0, 0, {}]]]}, {"name": "block6b_expand_bn", "class_name": "BatchNormalization", "config": {"name": "block6b_expand_bn", "trainable": true, "dtype": "float32", "axis": [3], "momentum": 0.99, "epsilon": 0.001, "center": true, "scale": true, "beta_initializer": {"class_name": "Zeros", "config": {"dtype": "float32"}}, "gamma_initializer": {"class_name": "Ones", "config": {"dtype": "float32"}}, "moving_mean_initializer": {"class_name": "Zeros", "config": {"dtype": "float32"}}, "moving_variance_initializer": {"class_name": "Ones", "config": {"dtype": "float32"}}, "beta_regularizer": null, "gamma_regularizer": null, "beta_constraint": null, "gamma_constraint": null, "freeze": false}, "inbound_nodes": [[["block6b_expand_conv", 0, 0, {}]]]}, {"name": "block6b_expand_activation", "class_name": "Activation", "config": {"name": "block6b_expand_activation", "trainable": true, "dtype": "float32", "activation": "swish"}, "inbound_nodes": [[["block6b_expand_bn", 0, 0, {}]]]}, {"name": "block6b_dwconv", "class_name": "DepthwiseConv2D", "config": {"name": "block6b_dwconv", "trainable": true, "dtype": "float32", "kernel_size": [5, 5], "strides": [1, 1], "padding": "same", "data_format": "channels_last", "dilation_rate": [1, 1], "activation": "linear", "use_bias": false, "bias_initializer": {"class_name": "Zeros", "config": {"dtype": "float32"}}, "bias_regularizer": null, "activity_regularizer": null, "bias_constraint": null, "depth_multiplier": 1, "depthwise_initializer": {"class_name": "VarianceScaling", "config": {"scale": 2.0, "mode": "fan_out", "distribution": "normal", "seed": null, "dtype": "float32"}}, "depthwise_regularizer": null, "depthwise_constraint": null}, "inbound_nodes": [[["block6b_expand_activation", 0, 0, {}]]]}, {"name": "block6b_bn", "class_name": "BatchNormalization", "config": {"name": "block6b_bn", "trainable": true, "dtype": "float32", "axis": [3], "momentum": 0.99, "epsilon": 0.001, "center": true, "scale": true, "beta_initializer": {"class_name": "Zeros", "config": {"dtype": "float32"}}, "gamma_initializer": {"class_name": "Ones", "config": {"dtype": "float32"}}, "moving_mean_initializer": {"class_name": "Zeros", "config": {"dtype": "float32"}}, "moving_variance_initializer": {"class_name": "Ones", "config": {"dtype": "float32"}}, "beta_regularizer": null, "gamma_regularizer": null, "beta_constraint": null, "gamma_constraint": null, "freeze": false}, "inbound_nodes": [[["block6b_dwconv", 0, 0, {}]]]}, {"name": "block6b_activation", "class_name": "Activation", "config": {"name": "block6b_activation", "trainable": true, "dtype": "float32", "activation": "swish"}, "inbound_nodes": [[["block6b_bn", 0, 0, {}]]]}, {"name": "block6b_se_squeeze", "class_name": "GlobalAveragePooling2D", "config": {"name": "block6b_se_squeeze", "trainable": true, "dtype": "float32", "data_format": "channels_last"}, "inbound_nodes": [[["block6b_activation", 0, 0, {}]]]}, {"name": "block6b_se_reshape", "class_name": "Reshape", "config": {"name": "block6b_se_reshape", "trainable": true, "dtype": "float32", "target_shape": [1, 1, 1152]}, "inbound_nodes": [[["block6b_se_squeeze", 0, 0, {}]]]}, {"name": "block6b_se_reduce", "class_name": "Conv2D", "config": {"name": "block6b_se_reduce", "trainable": true, "dtype": "float32", "filters": 48, "kernel_size": [1, 1], "strides": [1, 1], "padding": "same", "data_format": "channels_last", "dilation_rate": [1, 1], "activation": "swish", "use_bias": true, "kernel_initializer": {"class_name": "VarianceScaling", "config": {"scale": 2.0, "mode": "fan_out", "distribution": "normal", "seed": null, "dtype": "float32"}}, "bias_initializer": {"class_name": "Zeros", "config": {"dtype": "float32"}}, "kernel_regularizer": null, "bias_regularizer": null, "activity_regularizer": null, "kernel_constraint": null, "bias_constraint": null}, "inbound_nodes": [[["block6b_se_reshape", 0, 0, {}]]]}, {"name": "block6b_se_expand", "class_name": "Conv2D", "config": {"name": "block6b_se_expand", "trainable": true, "dtype": "float32", "filters": 1152, "kernel_size": [1, 1], "strides": [1, 1], "padding": "same", "data_format": "channels_last", "dilation_rate": [1, 1], "activation": "sigmoid", "use_bias": true, "kernel_initializer": {"class_name": "VarianceScaling", "config": {"scale": 2.0, "mode": "fan_out", "distribution": "normal", "seed": null, "dtype": "float32"}}, "bias_initializer": {"class_name": "Zeros", "config": {"dtype": "float32"}}, "kernel_regularizer": null, "bias_regularizer": null, "activity_regularizer": null, "kernel_constraint": null, "bias_constraint": null}, "inbound_nodes": [[["block6b_se_reduce", 0, 0, {}]]]}, {"name": "block6b_se_excite", "class_name": "Multiply", "config": {"name": "block6b_se_excite", "trainable": true, "dtype": "float32"}, "inbound_nodes": [[["block6b_activation", 0, 0, {}], ["block6b_se_expand", 0, 0, {}]]]}, {"name": "block6b_project_conv", "class_name": "Conv2D", "config": {"name": "block6b_project_conv", "trainable": true, "dtype": "float32", "filters": 192, "kernel_size": [1, 1], "strides": [1, 1], "padding": "same", "data_format": "channels_last", "dilation_rate": [1, 1], "activation": "linear", "use_bias": false, "kernel_initializer": {"class_name": "VarianceScaling", "config": {"scale": 2.0, "mode": "fan_out", "distribution": "normal", "seed": null, "dtype": "float32"}}, "bias_initializer": {"class_name": "Zeros", "config": {"dtype": "float32"}}, "kernel_regularizer": null, "bias_regularizer": null, "activity_regularizer": null, "kernel_constraint": null, "bias_constraint": null}, "inbound_nodes": [[["block6b_se_excite", 0, 0, {}]]]}, {"name": "block6b_project_bn", "class_name": "BatchNormalization", "config": {"name": "block6b_project_bn", "trainable": true, "dtype": "float32", "axis": [3], "momentum": 0.99, "epsilon": 0.001, "center": true, "scale": true, "beta_initializer": {"class_name": "Zeros", "config": {"dtype": "float32"}}, "gamma_initializer": {"class_name": "Ones", "config": {"dtype": "float32"}}, "moving_mean_initializer": {"class_name": "Zeros", "config": {"dtype": "float32"}}, "moving_variance_initializer": {"class_name": "Ones", "config": {"dtype": "float32"}}, "beta_regularizer": null, "gamma_regularizer": null, "beta_constraint": null, "gamma_constraint": null, "freeze": false}, "inbound_nodes": [[["block6b_project_conv", 0, 0, {}]]]}, {"name": "block6b_drop", "class_name": "FixedDropout", "config": {"name": "block6b_drop", "trainable": true, "dtype": "float32", "rate": 0.15000000000000002, "noise_shape": [null, 1, 1, 1], "seed": null}, "inbound_nodes": [[["block6b_project_bn", 0, 0, {}]]]}, {"name": "block6b_add", "class_name": "Add", "config": {"name": "block6b_add", "trainable": true, "dtype": "float32"}, "inbound_nodes": [[["block6b_drop", 0, 0, {}], ["block6a_project_bn", 0, 0, {}]]]}, {"name": "block6c_expand_conv", "class_name": "Conv2D", "config": {"name": "block6c_expand_conv", "trainable": true, "dtype": "float32", "filters": 1152, "kernel_size": [1, 1], "strides": [1, 1], "padding": "same", "data_format": "channels_last", "dilation_rate": [1, 1], "activation": "linear", "use_bias": false, "kernel_initializer": {"class_name": "VarianceScaling", "config": {"scale": 2.0, "mode": "fan_out", "distribution": "normal", "seed": null, "dtype": "float32"}}, "bias_initializer": {"class_name": "Zeros", "config": {"dtype": "float32"}}, "kernel_regularizer": null, "bias_regularizer": null, "activity_regularizer": null, "kernel_constraint": null, "bias_constraint": null}, "inbound_nodes": [[["block6b_add", 0, 0, {}]]]}, {"name": "block6c_expand_bn", "class_name": "BatchNormalization", "config": {"name": "block6c_expand_bn", "trainable": true, "dtype": "float32", "axis": [3], "momentum": 0.99, "epsilon": 0.001, "center": true, "scale": true, "beta_initializer": {"class_name": "Zeros", "config": {"dtype": "float32"}}, "gamma_initializer": {"class_name": "Ones", "config": {"dtype": "float32"}}, "moving_mean_initializer": {"class_name": "Zeros", "config": {"dtype": "float32"}}, "moving_variance_initializer": {"class_name": "Ones", "config": {"dtype": "float32"}}, "beta_regularizer": null, "gamma_regularizer": null, "beta_constraint": null, "gamma_constraint": null, "freeze": false}, "inbound_nodes": [[["block6c_expand_conv", 0, 0, {}]]]}, {"name": "block6c_expand_activation", "class_name": "Activation", "config": {"name": "block6c_expand_activation", "trainable": true, "dtype": "float32", "activation": "swish"}, "inbound_nodes": [[["block6c_expand_bn", 0, 0, {}]]]}, {"name": "block6c_dwconv", "class_name": "DepthwiseConv2D", "config": {"name": "block6c_dwconv", "trainable": true, "dtype": "float32", "kernel_size": [5, 5], "strides": [1, 1], "padding": "same", "data_format": "channels_last", "dilation_rate": [1, 1], "activation": "linear", "use_bias": false, "bias_initializer": {"class_name": "Zeros", "config": {"dtype": "float32"}}, "bias_regularizer": null, "activity_regularizer": null, "bias_constraint": null, "depth_multiplier": 1, "depthwise_initializer": {"class_name": "VarianceScaling", "config": {"scale": 2.0, "mode": "fan_out", "distribution": "normal", "seed": null, "dtype": "float32"}}, "depthwise_regularizer": null, "depthwise_constraint": null}, "inbound_nodes": [[["block6c_expand_activation", 0, 0, {}]]]}, {"name": "block6c_bn", "class_name": "BatchNormalization", "config": {"name": "block6c_bn", "trainable": true, "dtype": "float32", "axis": [3], "momentum": 0.99, "epsilon": 0.001, "center": true, "scale": true, "beta_initializer": {"class_name": "Zeros", "config": {"dtype": "float32"}}, "gamma_initializer": {"class_name": "Ones", "config": {"dtype": "float32"}}, "moving_mean_initializer": {"class_name": "Zeros", "config": {"dtype": "float32"}}, "moving_variance_initializer": {"class_name": "Ones", "config": {"dtype": "float32"}}, "beta_regularizer": null, "gamma_regularizer": null, "beta_constraint": null, "gamma_constraint": null, "freeze": false}, "inbound_nodes": [[["block6c_dwconv", 0, 0, {}]]]}, {"name": "block6c_activation", "class_name": "Activation", "config": {"name": "block6c_activation", "trainable": true, "dtype": "float32", "activation": "swish"}, "inbound_nodes": [[["block6c_bn", 0, 0, {}]]]}, {"name": "block6c_se_squeeze", "class_name": "GlobalAveragePooling2D", "config": {"name": "block6c_se_squeeze", "trainable": true, "dtype": "float32", "data_format": "channels_last"}, "inbound_nodes": [[["block6c_activation", 0, 0, {}]]]}, {"name": "block6c_se_reshape", "class_name": "Reshape", "config": {"name": "block6c_se_reshape", "trainable": true, "dtype": "float32", "target_shape": [1, 1, 1152]}, "inbound_nodes": [[["block6c_se_squeeze", 0, 0, {}]]]}, {"name": "block6c_se_reduce", "class_name": "Conv2D", "config": {"name": "block6c_se_reduce", "trainable": true, "dtype": "float32", "filters": 48, "kernel_size": [1, 1], "strides": [1, 1], "padding": "same", "data_format": "channels_last", "dilation_rate": [1, 1], "activation": "swish", "use_bias": true, "kernel_initializer": {"class_name": "VarianceScaling", "config": {"scale": 2.0, "mode": "fan_out", "distribution": "normal", "seed": null, "dtype": "float32"}}, "bias_initializer": {"class_name": "Zeros", "config": {"dtype": "float32"}}, "kernel_regularizer": null, "bias_regularizer": null, "activity_regularizer": null, "kernel_constraint": null, "bias_constraint": null}, "inbound_nodes": [[["block6c_se_reshape", 0, 0, {}]]]}, {"name": "block6c_se_expand", "class_name": "Conv2D", "config": {"name": "block6c_se_expand", "trainable": true, "dtype": "float32", "filters": 1152, "kernel_size": [1, 1], "strides": [1, 1], "padding": "same", "data_format": "channels_last", "dilation_rate": [1, 1], "activation": "sigmoid", "use_bias": true, "kernel_initializer": {"class_name": "VarianceScaling", "config": {"scale": 2.0, "mode": "fan_out", "distribution": "normal", "seed": null, "dtype": "float32"}}, "bias_initializer": {"class_name": "Zeros", "config": {"dtype": "float32"}}, "kernel_regularizer": null, "bias_regularizer": null, "activity_regularizer": null, "kernel_constraint": null, "bias_constraint": null}, "inbound_nodes": [[["block6c_se_reduce", 0, 0, {}]]]}, {"name": "block6c_se_excite", "class_name": "Multiply", "config": {"name": "block6c_se_excite", "trainable": true, "dtype": "float32"}, "inbound_nodes": [[["block6c_activation", 0, 0, {}], ["block6c_se_expand", 0, 0, {}]]]}, {"name": "block6c_project_conv", "class_name": "Conv2D", "config": {"name": "block6c_project_conv", "trainable": true, "dtype": "float32", "filters": 192, "kernel_size": [1, 1], "strides": [1, 1], "padding": "same", "data_format": "channels_last", "dilation_rate": [1, 1], "activation": "linear", "use_bias": false, "kernel_initializer": {"class_name": "VarianceScaling", "config": {"scale": 2.0, "mode": "fan_out", "distribution": "normal", "seed": null, "dtype": "float32"}}, "bias_initializer": {"class_name": "Zeros", "config": {"dtype": "float32"}}, "kernel_regularizer": null, "bias_regularizer": null, "activity_regularizer": null, "kernel_constraint": null, "bias_constraint": null}, "inbound_nodes": [[["block6c_se_excite", 0, 0, {}]]]}, {"name": "block6c_project_bn", "class_name": "BatchNormalization", "config": {"name": "block6c_project_bn", "trainable": true, "dtype": "float32", "axis": [3], "momentum": 0.99, "epsilon": 0.001, "center": true, "scale": true, "beta_initializer": {"class_name": "Zeros", "config": {"dtype": "float32"}}, "gamma_initializer": {"class_name": "Ones", "config": {"dtype": "float32"}}, "moving_mean_initializer": {"class_name": "Zeros", "config": {"dtype": "float32"}}, "moving_variance_initializer": {"class_name": "Ones", "config": {"dtype": "float32"}}, "beta_regularizer": null, "gamma_regularizer": null, "beta_constraint": null, "gamma_constraint": null, "freeze": false}, "inbound_nodes": [[["block6c_project_conv", 0, 0, {}]]]}, {"name": "block6c_drop", "class_name": "FixedDropout", "config": {"name": "block6c_drop", "trainable": true, "dtype": "float32", "rate": 0.1625, "noise_shape": [null, 1, 1, 1], "seed": null}, "inbound_nodes": [[["block6c_project_bn", 0, 0, {}]]]}, {"name": "block6c_add", "class_name": "Add", "config": {"name": "block6c_add", "trainable": true, "dtype": "float32"}, "inbound_nodes": [[["block6c_drop", 0, 0, {}], ["block6b_add", 0, 0, {}]]]}, {"name": "block6d_expand_conv", "class_name": "Conv2D", "config": {"name": "block6d_expand_conv", "trainable": true, "dtype": "float32", "filters": 1152, "kernel_size": [1, 1], "strides": [1, 1], "padding": "same", "data_format": "channels_last", "dilation_rate": [1, 1], "activation": "linear", "use_bias": false, "kernel_initializer": {"class_name": "VarianceScaling", "config": {"scale": 2.0, "mode": "fan_out", "distribution": "normal", "seed": null, "dtype": "float32"}}, "bias_initializer": {"class_name": "Zeros", "config": {"dtype": "float32"}}, "kernel_regularizer": null, "bias_regularizer": null, "activity_regularizer": null, "kernel_constraint": null, "bias_constraint": null}, "inbound_nodes": [[["block6c_add", 0, 0, {}]]]}, {"name": "block6d_expand_bn", "class_name": "BatchNormalization", "config": {"name": "block6d_expand_bn", "trainable": true, "dtype": "float32", "axis": [3], "momentum": 0.99, "epsilon": 0.001, "center": true, "scale": true, "beta_initializer": {"class_name": "Zeros", "config": {"dtype": "float32"}}, "gamma_initializer": {"class_name": "Ones", "config": {"dtype": "float32"}}, "moving_mean_initializer": {"class_name": "Zeros", "config": {"dtype": "float32"}}, "moving_variance_initializer": {"class_name": "Ones", "config": {"dtype": "float32"}}, "beta_regularizer": null, "gamma_regularizer": null, "beta_constraint": null, "gamma_constraint": null, "freeze": false}, "inbound_nodes": [[["block6d_expand_conv", 0, 0, {}]]]}, {"name": "block6d_expand_activation", "class_name": "Activation", "config": {"name": "block6d_expand_activation", "trainable": true, "dtype": "float32", "activation": "swish"}, "inbound_nodes": [[["block6d_expand_bn", 0, 0, {}]]]}, {"name": "block6d_dwconv", "class_name": "DepthwiseConv2D", "config": {"name": "block6d_dwconv", "trainable": true, "dtype": "float32", "kernel_size": [5, 5], "strides": [1, 1], "padding": "same", "data_format": "channels_last", "dilation_rate": [1, 1], "activation": "linear", "use_bias": false, "bias_initializer": {"class_name": "Zeros", "config": {"dtype": "float32"}}, "bias_regularizer": null, "activity_regularizer": null, "bias_constraint": null, "depth_multiplier": 1, "depthwise_initializer": {"class_name": "VarianceScaling", "config": {"scale": 2.0, "mode": "fan_out", "distribution": "normal", "seed": null, "dtype": "float32"}}, "depthwise_regularizer": null, "depthwise_constraint": null}, "inbound_nodes": [[["block6d_expand_activation", 0, 0, {}]]]}, {"name": "block6d_bn", "class_name": "BatchNormalization", "config": {"name": "block6d_bn", "trainable": true, "dtype": "float32", "axis": [3], "momentum": 0.99, "epsilon": 0.001, "center": true, "scale": true, "beta_initializer": {"class_name": "Zeros", "config": {"dtype": "float32"}}, "gamma_initializer": {"class_name": "Ones", "config": {"dtype": "float32"}}, "moving_mean_initializer": {"class_name": "Zeros", "config": {"dtype": "float32"}}, "moving_variance_initializer": {"class_name": "Ones", "config": {"dtype": "float32"}}, "beta_regularizer": null, "gamma_regularizer": null, "beta_constraint": null, "gamma_constraint": null, "freeze": false}, "inbound_nodes": [[["block6d_dwconv", 0, 0, {}]]]}, {"name": "block6d_activation", "class_name": "Activation", "config": {"name": "block6d_activation", "trainable": true, "dtype": "float32", "activation": "swish"}, "inbound_nodes": [[["block6d_bn", 0, 0, {}]]]}, {"name": "block6d_se_squeeze", "class_name": "GlobalAveragePooling2D", "config": {"name": "block6d_se_squeeze", "trainable": true, "dtype": "float32", "data_format": "channels_last"}, "inbound_nodes": [[["block6d_activation", 0, 0, {}]]]}, {"name": "block6d_se_reshape", "class_name": "Reshape", "config": {"name": "block6d_se_reshape", "trainable": true, "dtype": "float32", "target_shape": [1, 1, 1152]}, "inbound_nodes": [[["block6d_se_squeeze", 0, 0, {}]]]}, {"name": "block6d_se_reduce", "class_name": "Conv2D", "config": {"name": "block6d_se_reduce", "trainable": true, "dtype": "float32", "filters": 48, "kernel_size": [1, 1], "strides": [1, 1], "padding": "same", "data_format": "channels_last", "dilation_rate": [1, 1], "activation": "swish", "use_bias": true, "kernel_initializer": {"class_name": "VarianceScaling", "config": {"scale": 2.0, "mode": "fan_out", "distribution": "normal", "seed": null, "dtype": "float32"}}, "bias_initializer": {"class_name": "Zeros", "config": {"dtype": "float32"}}, "kernel_regularizer": null, "bias_regularizer": null, "activity_regularizer": null, "kernel_constraint": null, "bias_constraint": null}, "inbound_nodes": [[["block6d_se_reshape", 0, 0, {}]]]}, {"name": "block6d_se_expand", "class_name": "Conv2D", "config": {"name": "block6d_se_expand", "trainable": true, "dtype": "float32", "filters": 1152, "kernel_size": [1, 1], "strides": [1, 1], "padding": "same", "data_format": "channels_last", "dilation_rate": [1, 1], "activation": "sigmoid", "use_bias": true, "kernel_initializer": {"class_name": "VarianceScaling", "config": {"scale": 2.0, "mode": "fan_out", "distribution": "normal", "seed": null, "dtype": "float32"}}, "bias_initializer": {"class_name": "Zeros", "config": {"dtype": "float32"}}, "kernel_regularizer": null, "bias_regularizer": null, "activity_regularizer": null, "kernel_constraint": null, "bias_constraint": null}, "inbound_nodes": [[["block6d_se_reduce", 0, 0, {}]]]}, {"name": "block6d_se_excite", "class_name": "Multiply", "config": {"name": "block6d_se_excite", "trainable": true, "dtype": "float32"}, "inbound_nodes": [[["block6d_activation", 0, 0, {}], ["block6d_se_expand", 0, 0, {}]]]}, {"name": "block6d_project_conv", "class_name": "Conv2D", "config": {"name": "block6d_project_conv", "trainable": true, "dtype": "float32", "filters": 192, "kernel_size": [1, 1], "strides": [1, 1], "padding": "same", "data_format": "channels_last", "dilation_rate": [1, 1], "activation": "linear", "use_bias": false, "kernel_initializer": {"class_name": "VarianceScaling", "config": {"scale": 2.0, "mode": "fan_out", "distribution": "normal", "seed": null, "dtype": "float32"}}, "bias_initializer": {"class_name": "Zeros", "config": {"dtype": "float32"}}, "kernel_regularizer": null, "bias_regularizer": null, "activity_regularizer": null, "kernel_constraint": null, "bias_constraint": null}, "inbound_nodes": [[["block6d_se_excite", 0, 0, {}]]]}, {"name": "block6d_project_bn", "class_name": "BatchNormalization", "config": {"name": "block6d_project_bn", "trainable": true, "dtype": "float32", "axis": [3], "momentum": 0.99, "epsilon": 0.001, "center": true, "scale": true, "beta_initializer": {"class_name": "Zeros", "config": {"dtype": "float32"}}, "gamma_initializer": {"class_name": "Ones", "config": {"dtype": "float32"}}, "moving_mean_initializer": {"class_name": "Zeros", "config": {"dtype": "float32"}}, "moving_variance_initializer": {"class_name": "Ones", "config": {"dtype": "float32"}}, "beta_regularizer": null, "gamma_regularizer": null, "beta_constraint": null, "gamma_constraint": null, "freeze": false}, "inbound_nodes": [[["block6d_project_conv", 0, 0, {}]]]}, {"name": "block6d_drop", "class_name": "FixedDropout", "config": {"name": "block6d_drop", "trainable": true, "dtype": "float32", "rate": 0.17500000000000002, "noise_shape": [null, 1, 1, 1], "seed": null}, "inbound_nodes": [[["block6d_project_bn", 0, 0, {}]]]}, {"name": "block6d_add", "class_name": "Add", "config": {"name": "block6d_add", "trainable": true, "dtype": "float32"}, "inbound_nodes": [[["block6d_drop", 0, 0, {}], ["block6c_add", 0, 0, {}]]]}, {"name": "block7a_expand_conv", "class_name": "Conv2D", "config": {"name": "block7a_expand_conv", "trainable": true, "dtype": "float32", "filters": 1152, "kernel_size": [1, 1], "strides": [1, 1], "padding": "same", "data_format": "channels_last", "dilation_rate": [1, 1], "activation": "linear", "use_bias": false, "kernel_initializer": {"class_name": "VarianceScaling", "config": {"scale": 2.0, "mode": "fan_out", "distribution": "normal", "seed": null, "dtype": "float32"}}, "bias_initializer": {"class_name": "Zeros", "config": {"dtype": "float32"}}, "kernel_regularizer": null, "bias_regularizer": null, "activity_regularizer": null, "kernel_constraint": null, "bias_constraint": null}, "inbound_nodes": [[["block6d_add", 0, 0, {}]]]}, {"name": "block7a_expand_bn", "class_name": "BatchNormalization", "config": {"name": "block7a_expand_bn", "trainable": true, "dtype": "float32", "axis": [3], "momentum": 0.99, "epsilon": 0.001, "center": true, "scale": true, "beta_initializer": {"class_name": "Zeros", "config": {"dtype": "float32"}}, "gamma_initializer": {"class_name": "Ones", "config": {"dtype": "float32"}}, "moving_mean_initializer": {"class_name": "Zeros", "config": {"dtype": "float32"}}, "moving_variance_initializer": {"class_name": "Ones", "config": {"dtype": "float32"}}, "beta_regularizer": null, "gamma_regularizer": null, "beta_constraint": null, "gamma_constraint": null, "freeze": false}, "inbound_nodes": [[["block7a_expand_conv", 0, 0, {}]]]}, {"name": "block7a_expand_activation", "class_name": "Activation", "config": {"name": "block7a_expand_activation", "trainable": true, "dtype": "float32", "activation": "swish"}, "inbound_nodes": [[["block7a_expand_bn", 0, 0, {}]]]}, {"name": "block7a_dwconv", "class_name": "DepthwiseConv2D", "config": {"name": "block7a_dwconv", "trainable": true, "dtype": "float32", "kernel_size": [3, 3], "strides": [1, 1], "padding": "same", "data_format": "channels_last", "dilation_rate": [1, 1], "activation": "linear", "use_bias": false, "bias_initializer": {"class_name": "Zeros", "config": {"dtype": "float32"}}, "bias_regularizer": null, "activity_regularizer": null, "bias_constraint": null, "depth_multiplier": 1, "depthwise_initializer": {"class_name": "VarianceScaling", "config": {"scale": 2.0, "mode": "fan_out", "distribution": "normal", "seed": null, "dtype": "float32"}}, "depthwise_regularizer": null, "depthwise_constraint": null}, "inbound_nodes": [[["block7a_expand_activation", 0, 0, {}]]]}, {"name": "block7a_bn", "class_name": "BatchNormalization", "config": {"name": "block7a_bn", "trainable": true, "dtype": "float32", "axis": [3], "momentum": 0.99, "epsilon": 0.001, "center": true, "scale": true, "beta_initializer": {"class_name": "Zeros", "config": {"dtype": "float32"}}, "gamma_initializer": {"class_name": "Ones", "config": {"dtype": "float32"}}, "moving_mean_initializer": {"class_name": "Zeros", "config": {"dtype": "float32"}}, "moving_variance_initializer": {"class_name": "Ones", "config": {"dtype": "float32"}}, "beta_regularizer": null, "gamma_regularizer": null, "beta_constraint": null, "gamma_constraint": null, "freeze": false}, "inbound_nodes": [[["block7a_dwconv", 0, 0, {}]]]}, {"name": "block7a_activation", "class_name": "Activation", "config": {"name": "block7a_activation", "trainable": true, "dtype": "float32", "activation": "swish"}, "inbound_nodes": [[["block7a_bn", 0, 0, {}]]]}, {"name": "block7a_se_squeeze", "class_name": "GlobalAveragePooling2D", "config": {"name": "block7a_se_squeeze", "trainable": true, "dtype": "float32", "data_format": "channels_last"}, "inbound_nodes": [[["block7a_activation", 0, 0, {}]]]}, {"name": "block7a_se_reshape", "class_name": "Reshape", "config": {"name": "block7a_se_reshape", "trainable": true, "dtype": "float32", "target_shape": [1, 1, 1152]}, "inbound_nodes": [[["block7a_se_squeeze", 0, 0, {}]]]}, {"name": "block7a_se_reduce", "class_name": "Conv2D", "config": {"name": "block7a_se_reduce", "trainable": true, "dtype": "float32", "filters": 48, "kernel_size": [1, 1], "strides": [1, 1], "padding": "same", "data_format": "channels_last", "dilation_rate": [1, 1], "activation": "swish", "use_bias": true, "kernel_initializer": {"class_name": "VarianceScaling", "config": {"scale": 2.0, "mode": "fan_out", "distribution": "normal", "seed": null, "dtype": "float32"}}, "bias_initializer": {"class_name": "Zeros", "config": {"dtype": "float32"}}, "kernel_regularizer": null, "bias_regularizer": null, "activity_regularizer": null, "kernel_constraint": null, "bias_constraint": null}, "inbound_nodes": [[["block7a_se_reshape", 0, 0, {}]]]}, {"name": "block7a_se_expand", "class_name": "Conv2D", "config": {"name": "block7a_se_expand", "trainable": true, "dtype": "float32", "filters": 1152, "kernel_size": [1, 1], "strides": [1, 1], "padding": "same", "data_format": "channels_last", "dilation_rate": [1, 1], "activation": "sigmoid", "use_bias": true, "kernel_initializer": {"class_name": "VarianceScaling", "config": {"scale": 2.0, "mode": "fan_out", "distribution": "normal", "seed": null, "dtype": "float32"}}, "bias_initializer": {"class_name": "Zeros", "config": {"dtype": "float32"}}, "kernel_regularizer": null, "bias_regularizer": null, "activity_regularizer": null, "kernel_constraint": null, "bias_constraint": null}, "inbound_nodes": [[["block7a_se_reduce", 0, 0, {}]]]}, {"name": "block7a_se_excite", "class_name": "Multiply", "config": {"name": "block7a_se_excite", "trainable": true, "dtype": "float32"}, "inbound_nodes": [[["block7a_activation", 0, 0, {}], ["block7a_se_expand", 0, 0, {}]]]}, {"name": "block7a_project_conv", "class_name": "Conv2D", "config": {"name": "block7a_project_conv", "trainable": true, "dtype": "float32", "filters": 320, "kernel_size": [1, 1], "strides": [1, 1], "padding": "same", "data_format": "channels_last", "dilation_rate": [1, 1], "activation": "linear", "use_bias": false, "kernel_initializer": {"class_name": "VarianceScaling", "config": {"scale": 2.0, "mode": "fan_out", "distribution": "normal", "seed": null, "dtype": "float32"}}, "bias_initializer": {"class_name": "Zeros", "config": {"dtype": "float32"}}, "kernel_regularizer": null, "bias_regularizer": null, "activity_regularizer": null, "kernel_constraint": null, "bias_constraint": null}, "inbound_nodes": [[["block7a_se_excite", 0, 0, {}]]]}, {"name": "block7a_project_bn", "class_name": "BatchNormalization", "config": {"name": "block7a_project_bn", "trainable": true, "dtype": "float32", "axis": [3], "momentum": 0.99, "epsilon": 0.001, "center": true, "scale": true, "beta_initializer": {"class_name": "Zeros", "config": {"dtype": "float32"}}, "gamma_initializer": {"class_name": "Ones", "config": {"dtype": "float32"}}, "moving_mean_initializer": {"class_name": "Zeros", "config": {"dtype": "float32"}}, "moving_variance_initializer": {"class_name": "Ones", "config": {"dtype": "float32"}}, "beta_regularizer": null, "gamma_regularizer": null, "beta_constraint": null, "gamma_constraint": null, "freeze": false}, "inbound_nodes": [[["block7a_project_conv", 0, 0, {}]]]}, {"name": "BiFPN_0_P6_conv", "class_name": "Conv2D", "config": {"name": "BiFPN_0_P6_conv", "trainable": true, "dtype": "float32", "filters": 64, "kernel_size": [3, 3], "strides": [2, 2], "padding": "same", "data_format": "channels_last", "dilation_rate": [1, 1], "activation": "linear", "use_bias": false, "kernel_initializer": {"class_name": "GlorotUniform", "config": {"seed": null, "dtype": "float32"}}, "bias_initializer": {"class_name": "Zeros", "config": {"dtype": "float32"}}, "kernel_regularizer": null, "bias_regularizer": null, "activity_regularizer": null, "kernel_constraint": null, "bias_constraint": null}, "inbound_nodes": [[["block7a_project_bn", 0, 0, {}]]]}, {"name": "BiFPN_0_P6_bn", "class_name": "BatchNormalization", "config": {"name": "BiFPN_0_P6_bn", "trainable": true, "dtype": "float32", "axis": [3], "momentum": 0.99, "epsilon": 0.001, "center": true, "scale": true, "beta_initializer": {"class_name": "Zeros", "config": {"dtype": "float32"}}, "gamma_initializer": {"class_name": "Ones", "config": {"dtype": "float32"}}, "moving_mean_initializer": {"class_name": "Zeros", "config": {"dtype": "float32"}}, "moving_variance_initializer": {"class_name": "Ones", "config": {"dtype": "float32"}}, "beta_regularizer": null, "gamma_regularizer": null, "beta_constraint": null, "gamma_constraint": null, "freeze": false}, "inbound_nodes": [[["BiFPN_0_P6_conv", 0, 0, {}]]]}, {"name": "BiFPN_0_P6_relu", "class_name": "ReLU", "config": {"name": "BiFPN_0_P6_relu", "trainable": true, "dtype": "float32", "max_value": null, "negative_slope": 0.0, "threshold": 0.0}, "inbound_nodes": [[["BiFPN_0_P6_bn", 0, 0, {}]]]}, {"name": "BiFPN_0_P7_conv", "class_name": "Conv2D", "config": {"name": "BiFPN_0_P7_conv", "trainable": true, "dtype": "float32", "filters": 64, "kernel_size": [3, 3], "strides": [2, 2], "padding": "same", "data_format": "channels_last", "dilation_rate": [1, 1], "activation": "linear", "use_bias": false, "kernel_initializer": {"class_name": "GlorotUniform", "config": {"seed": null, "dtype": "float32"}}, "bias_initializer": {"class_name": "Zeros", "config": {"dtype": "float32"}}, "kernel_regularizer": null, "bias_regularizer": null, "activity_regularizer": null, "kernel_constraint": null, "bias_constraint": null}, "inbound_nodes": [[["BiFPN_0_P6_relu", 0, 0, {}]]]}, {"name": "BiFPN_0_P7_bn", "class_name": "BatchNormalization", "config": {"name": "BiFPN_0_P7_bn", "trainable": true, "dtype": "float32", "axis": [3], "momentum": 0.99, "epsilon": 0.001, "center": true, "scale": true, "beta_initializer": {"class_name": "Zeros", "config": {"dtype": "float32"}}, "gamma_initializer": {"class_name": "Ones", "config": {"dtype": "float32"}}, "moving_mean_initializer": {"class_name": "Zeros", "config": {"dtype": "float32"}}, "moving_variance_initializer": {"class_name": "Ones", "config": {"dtype": "float32"}}, "beta_regularizer": null, "gamma_regularizer": null, "beta_constraint": null, "gamma_constraint": null, "freeze": false}, "inbound_nodes": [[["BiFPN_0_P7_conv", 0, 0, {}]]]}, {"name": "BiFPN_0_P7_relu", "class_name": "ReLU", "config": {"name": "BiFPN_0_P7_relu", "trainable": true, "dtype": "float32", "max_value": null, "negative_slope": 0.0, "threshold": 0.0}, "inbound_nodes": [[["BiFPN_0_P7_bn", 0, 0, {}]]]}, {"name": "up_sampling2d", "class_name": "UpSampling2D", "config": {"name": "up_sampling2d", "trainable": true, "dtype": "float32", "size": [2, 2], "data_format": "channels_last", "interpolation": "nearest"}, "inbound_nodes": [[["BiFPN_0_P7_relu", 0, 0, {}]]]}, {"name": "w_bi_fpn_add", "class_name": "wBiFPNAdd", "config": {"name": "w_bi_fpn_add", "trainable": true, "dtype": "float32", "epsilon": 0.0001}, "inbound_nodes": [[["up_sampling2d", 0, 0, {}], ["BiFPN_0_P6_relu", 0, 0, {}]]]}, {"name": "BiFPN_0_U_P6_dconv", "class_name": "DepthwiseConv2D", "config": {"name": "BiFPN_0_U_P6_dconv", "trainable": true, "dtype": "float32", "kernel_size": [3, 3], "strides": [1, 1], "padding": "same", "data_format": "channels_last", "dilation_rate": [1, 1], "activation": "linear", "use_bias": false, "bias_initializer": {"class_name": "Zeros", "config": {"dtype": "float32"}}, "bias_regularizer": null, "activity_regularizer": null, "bias_constraint": null, "depth_multiplier": 1, "depthwise_initializer": {"class_name": "GlorotUniform", "config": {"seed": null, "dtype": "float32"}}, "depthwise_regularizer": null, "depthwise_constraint": null}, "inbound_nodes": [[["w_bi_fpn_add", 0, 0, {}]]]}, {"name": "BiFPN_0_U_P6_bn", "class_name": "BatchNormalization", "config": {"name": "BiFPN_0_U_P6_bn", "trainable": true, "dtype": "float32", "axis": [3], "momentum": 0.99, "epsilon": 0.001, "center": true, "scale": true, "beta_initializer": {"class_name": "Zeros", "config": {"dtype": "float32"}}, "gamma_initializer": {"class_name": "Ones", "config": {"dtype": "float32"}}, "moving_mean_initializer": {"class_name": "Zeros", "config": {"dtype": "float32"}}, "moving_variance_initializer": {"class_name": "Ones", "config": {"dtype": "float32"}}, "beta_regularizer": null, "gamma_regularizer": null, "beta_constraint": null, "gamma_constraint": null, "freeze": false}, "inbound_nodes": [[["BiFPN_0_U_P6_dconv", 0, 0, {}]]]}, {"name": "BiFPN_0_P5_conv", "class_name": "Conv2D", "config": {"name": "BiFPN_0_P5_conv", "trainable": true, "dtype": "float32", "filters": 64, "kernel_size": [1, 1], "strides": [1, 1], "padding": "same", "data_format": "channels_last", "dilation_rate": [1, 1], "activation": "linear", "use_bias": false, "kernel_initializer": {"class_name": "GlorotUniform", "config": {"seed": null, "dtype": "float32"}}, "bias_initializer": {"class_name": "Zeros", "config": {"dtype": "float32"}}, "kernel_regularizer": null, "bias_regularizer": null, "activity_regularizer": null, "kernel_constraint": null, "bias_constraint": null}, "inbound_nodes": [[["block7a_project_bn", 0, 0, {}]]]}, {"name": "BiFPN_0_U_P6_relu", "class_name": "ReLU", "config": {"name": "BiFPN_0_U_P6_relu", "trainable": true, "dtype": "float32", "max_value": null, "negative_slope": 0.0, "threshold": 0.0}, "inbound_nodes": [[["BiFPN_0_U_P6_bn", 0, 0, {}]]]}, {"name": "BiFPN_0_P5_bn", "class_name": "BatchNormalization", "config": {"name": "BiFPN_0_P5_bn", "trainable": true, "dtype": "float32", "axis": [3], "momentum": 0.99, "epsilon": 0.001, "center": true, "scale": true, "beta_initializer": {"class_name": "Zeros", "config": {"dtype": "float32"}}, "gamma_initializer": {"class_name": "Ones", "config": {"dtype": "float32"}}, "moving_mean_initializer": {"class_name": "Zeros", "config": {"dtype": "float32"}}, "moving_variance_initializer": {"class_name": "Ones", "config": {"dtype": "float32"}}, "beta_regularizer": null, "gamma_regularizer": null, "beta_constraint": null, "gamma_constraint": null, "freeze": false}, "inbound_nodes": [[["BiFPN_0_P5_conv", 0, 0, {}]]]}, {"name": "up_sampling2d_1", "class_name": "UpSampling2D", "config": {"name": "up_sampling2d_1", "trainable": true, "dtype": "float32", "size": [2, 2], "data_format": "channels_last", "interpolation": "nearest"}, "inbound_nodes": [[["BiFPN_0_U_P6_relu", 0, 0, {}]]]}, {"name": "BiFPN_0_P5_relu", "class_name": "ReLU", "config": {"name": "BiFPN_0_P5_relu", "trainable": true, "dtype": "float32", "max_value": null, "negative_slope": 0.0, "threshold": 0.0}, "inbound_nodes": [[["BiFPN_0_P5_bn", 0, 0, {}]]]}, {"name": "w_bi_fpn_add_1", "class_name": "wBiFPNAdd", "config": {"name": "w_bi_fpn_add_1", "trainable": true, "dtype": "float32", "epsilon": 0.0001}, "inbound_nodes": [[["up_sampling2d_1", 0, 0, {}], ["BiFPN_0_P5_relu", 0, 0, {}]]]}, {"name": "BiFPN_0_U_P5_dconv", "class_name": "DepthwiseConv2D", "config": {"name": "BiFPN_0_U_P5_dconv", "trainable": true, "dtype": "float32", "kernel_size": [3, 3], "strides": [1, 1], "padding": "same", "data_format": "channels_last", "dilation_rate": [1, 1], "activation": "linear", "use_bias": false, "bias_initializer": {"class_name": "Zeros", "config": {"dtype": "float32"}}, "bias_regularizer": null, "activity_regularizer": null, "bias_constraint": null, "depth_multiplier": 1, "depthwise_initializer": {"class_name": "GlorotUniform", "config": {"seed": null, "dtype": "float32"}}, "depthwise_regularizer": null, "depthwise_constraint": null}, "inbound_nodes": [[["w_bi_fpn_add_1", 0, 0, {}]]]}, {"name": "BiFPN_0_U_P5_bn", "class_name": "BatchNormalization", "config": {"name": "BiFPN_0_U_P5_bn", "trainable": true, "dtype": "float32", "axis": [3], "momentum": 0.99, "epsilon": 0.001, "center": true, "scale": true, "beta_initializer": {"class_name": "Zeros", "config": {"dtype": "float32"}}, "gamma_initializer": {"class_name": "Ones", "config": {"dtype": "float32"}}, "moving_mean_initializer": {"class_name": "Zeros", "config": {"dtype": "float32"}}, "moving_variance_initializer": {"class_name": "Ones", "config": {"dtype": "float32"}}, "beta_regularizer": null, "gamma_regularizer": null, "beta_constraint": null, "gamma_constraint": null, "freeze": false}, "inbound_nodes": [[["BiFPN_0_U_P5_dconv", 0, 0, {}]]]}, {"name": "BiFPN_0_P4_conv", "class_name": "Conv2D", "config": {"name": "BiFPN_0_P4_conv", "trainable": true, "dtype": "float32", "filters": 64, "kernel_size": [1, 1], "strides": [1, 1], "padding": "same", "data_format": "channels_last", "dilation_rate": [1, 1], "activation": "linear", "use_bias": false, "kernel_initializer": {"class_name": "GlorotUniform", "config": {"seed": null, "dtype": "float32"}}, "bias_initializer": {"class_name": "Zeros", "config": {"dtype": "float32"}}, "kernel_regularizer": null, "bias_regularizer": null, "activity_regularizer": null, "kernel_constraint": null, "bias_constraint": null}, "inbound_nodes": [[["block5c_add", 0, 0, {}]]]}, {"name": "BiFPN_0_U_P5_relu", "class_name": "ReLU", "config": {"name": "BiFPN_0_U_P5_relu", "trainable": true, "dtype": "float32", "max_value": null, "negative_slope": 0.0, "threshold": 0.0}, "inbound_nodes": [[["BiFPN_0_U_P5_bn", 0, 0, {}]]]}, {"name": "BiFPN_0_P4_bn", "class_name": "BatchNormalization", "config": {"name": "BiFPN_0_P4_bn", "trainable": true, "dtype": "float32", "axis": [3], "momentum": 0.99, "epsilon": 0.001, "center": true, "scale": true, "beta_initializer": {"class_name": "Zeros", "config": {"dtype": "float32"}}, "gamma_initializer": {"class_name": "Ones", "config": {"dtype": "float32"}}, "moving_mean_initializer": {"class_name": "Zeros", "config": {"dtype": "float32"}}, "moving_variance_initializer": {"class_name": "Ones", "config": {"dtype": "float32"}}, "beta_regularizer": null, "gamma_regularizer": null, "beta_constraint": null, "gamma_constraint": null, "freeze": false}, "inbound_nodes": [[["BiFPN_0_P4_conv", 0, 0, {}]]]}, {"name": "up_sampling2d_2", "class_name": "UpSampling2D", "config": {"name": "up_sampling2d_2", "trainable": true, "dtype": "float32", "size": [2, 2], "data_format": "channels_last", "interpolation": "nearest"}, "inbound_nodes": [[["BiFPN_0_U_P5_relu", 0, 0, {}]]]}, {"name": "BiFPN_0_P4_relu", "class_name": "ReLU", "config": {"name": "BiFPN_0_P4_relu", "trainable": true, "dtype": "float32", "max_value": null, "negative_slope": 0.0, "threshold": 0.0}, "inbound_nodes": [[["BiFPN_0_P4_bn", 0, 0, {}]]]}, {"name": "w_bi_fpn_add_2", "class_name": "wBiFPNAdd", "config": {"name": "w_bi_fpn_add_2", "trainable": true, "dtype": "float32", "epsilon": 0.0001}, "inbound_nodes": [[["up_sampling2d_2", 0, 0, {}], ["BiFPN_0_P4_relu", 0, 0, {}]]]}, {"name": "BiFPN_0_U_P4_dconv", "class_name": "DepthwiseConv2D", "config": {"name": "BiFPN_0_U_P4_dconv", "trainable": true, "dtype": "float32", "kernel_size": [3, 3], "strides": [1, 1], "padding": "same", "data_format": "channels_last", "dilation_rate": [1, 1], "activation": "linear", "use_bias": false, "bias_initializer": {"class_name": "Zeros", "config": {"dtype": "float32"}}, "bias_regularizer": null, "activity_regularizer": null, "bias_constraint": null, "depth_multiplier": 1, "depthwise_initializer": {"class_name": "GlorotUniform", "config": {"seed": null, "dtype": "float32"}}, "depthwise_regularizer": null, "depthwise_constraint": null}, "inbound_nodes": [[["w_bi_fpn_add_2", 0, 0, {}]]]}, {"name": "BiFPN_0_U_P4_bn", "class_name": "BatchNormalization", "config": {"name": "BiFPN_0_U_P4_bn", "trainable": true, "dtype": "float32", "axis": [3], "momentum": 0.99, "epsilon": 0.001, "center": true, "scale": true, "beta_initializer": {"class_name": "Zeros", "config": {"dtype": "float32"}}, "gamma_initializer": {"class_name": "Ones", "config": {"dtype": "float32"}}, "moving_mean_initializer": {"class_name": "Zeros", "config": {"dtype": "float32"}}, "moving_variance_initializer": {"class_name": "Ones", "config": {"dtype": "float32"}}, "beta_regularizer": null, "gamma_regularizer": null, "beta_constraint": null, "gamma_constraint": null, "freeze": false}, "inbound_nodes": [[["BiFPN_0_U_P4_dconv", 0, 0, {}]]]}, {"name": "BiFPN_0_P3_conv", "class_name": "Conv2D", "config": {"name": "BiFPN_0_P3_conv", "trainable": true, "dtype": "float32", "filters": 64, "kernel_size": [1, 1], "strides": [1, 1], "padding": "same", "data_format": "channels_last", "dilation_rate": [1, 1], "activation": "linear", "use_bias": false, "kernel_initializer": {"class_name": "GlorotUniform", "config": {"seed": null, "dtype": "float32"}}, "bias_initializer": {"class_name": "Zeros", "config": {"dtype": "float32"}}, "kernel_regularizer": null, "bias_regularizer": null, "activity_regularizer": null, "kernel_constraint": null, "bias_constraint": null}, "inbound_nodes": [[["block3b_add", 0, 0, {}]]]}, {"name": "BiFPN_0_U_P4_relu", "class_name": "ReLU", "config": {"name": "BiFPN_0_U_P4_relu", "trainable": true, "dtype": "float32", "max_value": null, "negative_slope": 0.0, "threshold": 0.0}, "inbound_nodes": [[["BiFPN_0_U_P4_bn", 0, 0, {}]]]}, {"name": "BiFPN_0_P3_bn", "class_name": "BatchNormalization", "config": {"name": "BiFPN_0_P3_bn", "trainable": true, "dtype": "float32", "axis": [3], "momentum": 0.99, "epsilon": 0.001, "center": true, "scale": true, "beta_initializer": {"class_name": "Zeros", "config": {"dtype": "float32"}}, "gamma_initializer": {"class_name": "Ones", "config": {"dtype": "float32"}}, "moving_mean_initializer": {"class_name": "Zeros", "config": {"dtype": "float32"}}, "moving_variance_initializer": {"class_name": "Ones", "config": {"dtype": "float32"}}, "beta_regularizer": null, "gamma_regularizer": null, "beta_constraint": null, "gamma_constraint": null, "freeze": false}, "inbound_nodes": [[["BiFPN_0_P3_conv", 0, 0, {}]]]}, {"name": "up_sampling2d_3", "class_name": "UpSampling2D", "config": {"name": "up_sampling2d_3", "trainable": true, "dtype": "float32", "size": [2, 2], "data_format": "channels_last", "interpolation": "nearest"}, "inbound_nodes": [[["BiFPN_0_U_P4_relu", 0, 0, {}]]]}, {"name": "BiFPN_0_P3_relu", "class_name": "ReLU", "config": {"name": "BiFPN_0_P3_relu", "trainable": true, "dtype": "float32", "max_value": null, "negative_slope": 0.0, "threshold": 0.0}, "inbound_nodes": [[["BiFPN_0_P3_bn", 0, 0, {}]]]}, {"name": "w_bi_fpn_add_3", "class_name": "wBiFPNAdd", "config": {"name": "w_bi_fpn_add_3", "trainable": true, "dtype": "float32", "epsilon": 0.0001}, "inbound_nodes": [[["up_sampling2d_3", 0, 0, {}], ["BiFPN_0_P3_relu", 0, 0, {}]]]}, {"name": "BiFPN_0_U_P3_dconv", "class_name": "DepthwiseConv2D", "config": {"name": "BiFPN_0_U_P3_dconv", "trainable": true, "dtype": "float32", "kernel_size": [3, 3], "strides": [1, 1], "padding": "same", "data_format": "channels_last", "dilation_rate": [1, 1], "activation": "linear", "use_bias": false, "bias_initializer": {"class_name": "Zeros", "config": {"dtype": "float32"}}, "bias_regularizer": null, "activity_regularizer": null, "bias_constraint": null, "depth_multiplier": 1, "depthwise_initializer": {"class_name": "GlorotUniform", "config": {"seed": null, "dtype": "float32"}}, "depthwise_regularizer": null, "depthwise_constraint": null}, "inbound_nodes": [[["w_bi_fpn_add_3", 0, 0, {}]]]}, {"name": "BiFPN_0_U_P3_bn", "class_name": "BatchNormalization", "config": {"name": "BiFPN_0_U_P3_bn", "trainable": true, "dtype": "float32", "axis": [3], "momentum": 0.99, "epsilon": 0.001, "center": true, "scale": true, "beta_initializer": {"class_name": "Zeros", "config": {"dtype": "float32"}}, "gamma_initializer": {"class_name": "Ones", "config": {"dtype": "float32"}}, "moving_mean_initializer": {"class_name": "Zeros", "config": {"dtype": "float32"}}, "moving_variance_initializer": {"class_name": "Ones", "config": {"dtype": "float32"}}, "beta_regularizer": null, "gamma_regularizer": null, "beta_constraint": null, "gamma_constraint": null, "freeze": false}, "inbound_nodes": [[["BiFPN_0_U_P3_dconv", 0, 0, {}]]]}, {"name": "BiFPN_0_U_P3_relu", "class_name": "ReLU", "config": {"name": "BiFPN_0_U_P3_relu", "trainable": true, "dtype": "float32", "max_value": null, "negative_slope": 0.0, "threshold": 0.0}, "inbound_nodes": [[["BiFPN_0_U_P3_bn", 0, 0, {}]]]}, {"name": "max_pooling2d", "class_name": "MaxPooling2D", "config": {"name": "max_pooling2d", "trainable": true, "dtype": "float32", "pool_size": [2, 2], "padding": "valid", "strides": [2, 2], "data_format": "channels_last"}, "inbound_nodes": [[["BiFPN_0_U_P3_relu", 0, 0, {}]]]}, {"name": "w_bi_fpn_add_4", "class_name": "wBiFPNAdd", "config": {"name": "w_bi_fpn_add_4", "trainable": true, "dtype": "float32", "epsilon": 0.0001}, "inbound_nodes": [[["max_pooling2d", 0, 0, {}], ["BiFPN_0_U_P4_relu", 0, 0, {}], ["BiFPN_0_P4_relu", 0, 0, {}]]]}, {"name": "BiFPN_0_D_P4_dconv", "class_name": "DepthwiseConv2D", "config": {"name": "BiFPN_0_D_P4_dconv", "trainable": true, "dtype": "float32", "kernel_size": [3, 3], "strides": [1, 1], "padding": "same", "data_format": "channels_last", "dilation_rate": [1, 1], "activation": "linear", "use_bias": false, "bias_initializer": {"class_name": "Zeros", "config": {"dtype": "float32"}}, "bias_regularizer": null, "activity_regularizer": null, "bias_constraint": null, "depth_multiplier": 1, "depthwise_initializer": {"class_name": "GlorotUniform", "config": {"seed": null, "dtype": "float32"}}, "depthwise_regularizer": null, "depthwise_constraint": null}, "inbound_nodes": [[["w_bi_fpn_add_4", 0, 0, {}]]]}, {"name": "BiFPN_0_D_P4_bn", "class_name": "BatchNormalization", "config": {"name": "BiFPN_0_D_P4_bn", "trainable": true, "dtype": "float32", "axis": [3], "momentum": 0.99, "epsilon": 0.001, "center": true, "scale": true, "beta_initializer": {"class_name": "Zeros", "config": {"dtype": "float32"}}, "gamma_initializer": {"class_name": "Ones", "config": {"dtype": "float32"}}, "moving_mean_initializer": {"class_name": "Zeros", "config": {"dtype": "float32"}}, "moving_variance_initializer": {"class_name": "Ones", "config": {"dtype": "float32"}}, "beta_regularizer": null, "gamma_regularizer": null, "beta_constraint": null, "gamma_constraint": null, "freeze": false}, "inbound_nodes": [[["BiFPN_0_D_P4_dconv", 0, 0, {}]]]}, {"name": "BiFPN_0_D_P4_relu", "class_name": "ReLU", "config": {"name": "BiFPN_0_D_P4_relu", "trainable": true, "dtype": "float32", "max_value": null, "negative_slope": 0.0, "threshold": 0.0}, "inbound_nodes": [[["BiFPN_0_D_P4_bn", 0, 0, {}]]]}, {"name": "max_pooling2d_1", "class_name": "MaxPooling2D", "config": {"name": "max_pooling2d_1", "trainable": true, "dtype": "float32", "pool_size": [2, 2], "padding": "valid", "strides": [2, 2], "data_format": "channels_last"}, "inbound_nodes": [[["BiFPN_0_D_P4_relu", 0, 0, {}]]]}, {"name": "w_bi_fpn_add_5", "class_name": "wBiFPNAdd", "config": {"name": "w_bi_fpn_add_5", "trainable": true, "dtype": "float32", "epsilon": 0.0001}, "inbound_nodes": [[["max_pooling2d_1", 0, 0, {}], ["BiFPN_0_U_P5_relu", 0, 0, {}], ["BiFPN_0_P5_relu", 0, 0, {}]]]}, {"name": "BiFPN_0_D_P5_dconv", "class_name": "DepthwiseConv2D", "config": {"name": "BiFPN_0_D_P5_dconv", "trainable": true, "dtype": "float32", "kernel_size": [3, 3], "strides": [1, 1], "padding": "same", "data_format": "channels_last", "dilation_rate": [1, 1], "activation": "linear", "use_bias": false, "bias_initializer": {"class_name": "Zeros", "config": {"dtype": "float32"}}, "bias_regularizer": null, "activity_regularizer": null, "bias_constraint": null, "depth_multiplier": 1, "depthwise_initializer": {"class_name": "GlorotUniform", "config": {"seed": null, "dtype": "float32"}}, "depthwise_regularizer": null, "depthwise_constraint": null}, "inbound_nodes": [[["w_bi_fpn_add_5", 0, 0, {}]]]}, {"name": "BiFPN_0_D_P5_bn", "class_name": "BatchNormalization", "config": {"name": "BiFPN_0_D_P5_bn", "trainable": true, "dtype": "float32", "axis": [3], "momentum": 0.99, "epsilon": 0.001, "center": true, "scale": true, "beta_initializer": {"class_name": "Zeros", "config": {"dtype": "float32"}}, "gamma_initializer": {"class_name": "Ones", "config": {"dtype": "float32"}}, "moving_mean_initializer": {"class_name": "Zeros", "config": {"dtype": "float32"}}, "moving_variance_initializer": {"class_name": "Ones", "config": {"dtype": "float32"}}, "beta_regularizer": null, "gamma_regularizer": null, "beta_constraint": null, "gamma_constraint": null, "freeze": false}, "inbound_nodes": [[["BiFPN_0_D_P5_dconv", 0, 0, {}]]]}, {"name": "BiFPN_0_D_P5_relu", "class_name": "ReLU", "config": {"name": "BiFPN_0_D_P5_relu", "trainable": true, "dtype": "float32", "max_value": null, "negative_slope": 0.0, "threshold": 0.0}, "inbound_nodes": [[["BiFPN_0_D_P5_bn", 0, 0, {}]]]}, {"name": "max_pooling2d_2", "class_name": "MaxPooling2D", "config": {"name": "max_pooling2d_2", "trainable": true, "dtype": "float32", "pool_size": [2, 2], "padding": "valid", "strides": [2, 2], "data_format": "channels_last"}, "inbound_nodes": [[["BiFPN_0_D_P5_relu", 0, 0, {}]]]}, {"name": "w_bi_fpn_add_6", "class_name": "wBiFPNAdd", "config": {"name": "w_bi_fpn_add_6", "trainable": true, "dtype": "float32", "epsilon": 0.0001}, "inbound_nodes": [[["max_pooling2d_2", 0, 0, {}], ["BiFPN_0_U_P6_relu", 0, 0, {}], ["BiFPN_0_P6_relu", 0, 0, {}]]]}, {"name": "BiFPN_0_D_P6_dconv", "class_name": "DepthwiseConv2D", "config": {"name": "BiFPN_0_D_P6_dconv", "trainable": true, "dtype": "float32", "kernel_size": [3, 3], "strides": [1, 1], "padding": "same", "data_format": "channels_last", "dilation_rate": [1, 1], "activation": "linear", "use_bias": false, "bias_initializer": {"class_name": "Zeros", "config": {"dtype": "float32"}}, "bias_regularizer": null, "activity_regularizer": null, "bias_constraint": null, "depth_multiplier": 1, "depthwise_initializer": {"class_name": "GlorotUniform", "config": {"seed": null, "dtype": "float32"}}, "depthwise_regularizer": null, "depthwise_constraint": null}, "inbound_nodes": [[["w_bi_fpn_add_6", 0, 0, {}]]]}, {"name": "BiFPN_0_D_P6_bn", "class_name": "BatchNormalization", "config": {"name": "BiFPN_0_D_P6_bn", "trainable": true, "dtype": "float32", "axis": [3], "momentum": 0.99, "epsilon": 0.001, "center": true, "scale": true, "beta_initializer": {"class_name": "Zeros", "config": {"dtype": "float32"}}, "gamma_initializer": {"class_name": "Ones", "config": {"dtype": "float32"}}, "moving_mean_initializer": {"class_name": "Zeros", "config": {"dtype": "float32"}}, "moving_variance_initializer": {"class_name": "Ones", "config": {"dtype": "float32"}}, "beta_regularizer": null, "gamma_regularizer": null, "beta_constraint": null, "gamma_constraint": null, "freeze": false}, "inbound_nodes": [[["BiFPN_0_D_P6_dconv", 0, 0, {}]]]}, {"name": "BiFPN_0_D_P6_relu", "class_name": "ReLU", "config": {"name": "BiFPN_0_D_P6_relu", "trainable": true, "dtype": "float32", "max_value": null, "negative_slope": 0.0, "threshold": 0.0}, "inbound_nodes": [[["BiFPN_0_D_P6_bn", 0, 0, {}]]]}, {"name": "max_pooling2d_3", "class_name": "MaxPooling2D", "config": {"name": "max_pooling2d_3", "trainable": true, "dtype": "float32", "pool_size": [2, 2], "padding": "valid", "strides": [2, 2], "data_format": "channels_last"}, "inbound_nodes": [[["BiFPN_0_D_P6_relu", 0, 0, {}]]]}, {"name": "w_bi_fpn_add_7", "class_name": "wBiFPNAdd", "config": {"name": "w_bi_fpn_add_7", "trainable": true, "dtype": "float32", "epsilon": 0.0001}, "inbound_nodes": [[["max_pooling2d_3", 0, 0, {}], ["BiFPN_0_P7_relu", 0, 0, {}]]]}, {"name": "BiFPN_0_D_P7_dconv", "class_name": "DepthwiseConv2D", "config": {"name": "BiFPN_0_D_P7_dconv", "trainable": true, "dtype": "float32", "kernel_size": [3, 3], "strides": [1, 1], "padding": "same", "data_format": "channels_last", "dilation_rate": [1, 1], "activation": "linear", "use_bias": false, "bias_initializer": {"class_name": "Zeros", "config": {"dtype": "float32"}}, "bias_regularizer": null, "activity_regularizer": null, "bias_constraint": null, "depth_multiplier": 1, "depthwise_initializer": {"class_name": "GlorotUniform", "config": {"seed": null, "dtype": "float32"}}, "depthwise_regularizer": null, "depthwise_constraint": null}, "inbound_nodes": [[["w_bi_fpn_add_7", 0, 0, {}]]]}, {"name": "BiFPN_0_D_P7_bn", "class_name": "BatchNormalization", "config": {"name": "BiFPN_0_D_P7_bn", "trainable": true, "dtype": "float32", "axis": [3], "momentum": 0.99, "epsilon": 0.001, "center": true, "scale": true, "beta_initializer": {"class_name": "Zeros", "config": {"dtype": "float32"}}, "gamma_initializer": {"class_name": "Ones", "config": {"dtype": "float32"}}, "moving_mean_initializer": {"class_name": "Zeros", "config": {"dtype": "float32"}}, "moving_variance_initializer": {"class_name": "Ones", "config": {"dtype": "float32"}}, "beta_regularizer": null, "gamma_regularizer": null, "beta_constraint": null, "gamma_constraint": null, "freeze": false}, "inbound_nodes": [[["BiFPN_0_D_P7_dconv", 0, 0, {}]]]}, {"name": "BiFPN_0_D_P7_relu", "class_name": "ReLU", "config": {"name": "BiFPN_0_D_P7_relu", "trainable": true, "dtype": "float32", "max_value": null, "negative_slope": 0.0, "threshold": 0.0}, "inbound_nodes": [[["BiFPN_0_D_P7_bn", 0, 0, {}]]]}, {"name": "BiFPN_1_P7_conv", "class_name": "Conv2D", "config": {"name": "BiFPN_1_P7_conv", "trainable": true, "dtype": "float32", "filters": 64, "kernel_size": [1, 1], "strides": [1, 1], "padding": "same", "data_format": "channels_last", "dilation_rate": [1, 1], "activation": "linear", "use_bias": false, "kernel_initializer": {"class_name": "GlorotUniform", "config": {"seed": null, "dtype": "float32"}}, "bias_initializer": {"class_name": "Zeros", "config": {"dtype": "float32"}}, "kernel_regularizer": null, "bias_regularizer": null, "activity_regularizer": null, "kernel_constraint": null, "bias_constraint": null}, "inbound_nodes": [[["BiFPN_0_D_P7_relu", 0, 0, {}]]]}, {"name": "BiFPN_1_P7_bn", "class_name": "BatchNormalization", "config": {"name": "BiFPN_1_P7_bn", "trainable": true, "dtype": "float32", "axis": [3], "momentum": 0.99, "epsilon": 0.001, "center": true, "scale": true, "beta_initializer": {"class_name": "Zeros", "config": {"dtype": "float32"}}, "gamma_initializer": {"class_name": "Ones", "config": {"dtype": "float32"}}, "moving_mean_initializer": {"class_name": "Zeros", "config": {"dtype": "float32"}}, "moving_variance_initializer": {"class_name": "Ones", "config": {"dtype": "float32"}}, "beta_regularizer": null, "gamma_regularizer": null, "beta_constraint": null, "gamma_constraint": null, "freeze": false}, "inbound_nodes": [[["BiFPN_1_P7_conv", 0, 0, {}]]]}, {"name": "BiFPN_1_P6_conv", "class_name": "Conv2D", "config": {"name": "BiFPN_1_P6_conv", "trainable": true, "dtype": "float32", "filters": 64, "kernel_size": [1, 1], "strides": [1, 1], "padding": "same", "data_format": "channels_last", "dilation_rate": [1, 1], "activation": "linear", "use_bias": false, "kernel_initializer": {"class_name": "GlorotUniform", "config": {"seed": null, "dtype": "float32"}}, "bias_initializer": {"class_name": "Zeros", "config": {"dtype": "float32"}}, "kernel_regularizer": null, "bias_regularizer": null, "activity_regularizer": null, "kernel_constraint": null, "bias_constraint": null}, "inbound_nodes": [[["BiFPN_0_D_P6_relu", 0, 0, {}]]]}, {"name": "BiFPN_1_P7_relu", "class_name": "ReLU", "config": {"name": "BiFPN_1_P7_relu", "trainable": true, "dtype": "float32", "max_value": null, "negative_slope": 0.0, "threshold": 0.0}, "inbound_nodes": [[["BiFPN_1_P7_bn", 0, 0, {}]]]}, {"name": "BiFPN_1_P6_bn", "class_name": "BatchNormalization", "config": {"name": "BiFPN_1_P6_bn", "trainable": true, "dtype": "float32", "axis": [3], "momentum": 0.99, "epsilon": 0.001, "center": true, "scale": true, "beta_initializer": {"class_name": "Zeros", "config": {"dtype": "float32"}}, "gamma_initializer": {"class_name": "Ones", "config": {"dtype": "float32"}}, "moving_mean_initializer": {"class_name": "Zeros", "config": {"dtype": "float32"}}, "moving_variance_initializer": {"class_name": "Ones", "config": {"dtype": "float32"}}, "beta_regularizer": null, "gamma_regularizer": null, "beta_constraint": null, "gamma_constraint": null, "freeze": false}, "inbound_nodes": [[["BiFPN_1_P6_conv", 0, 0, {}]]]}, {"name": "up_sampling2d_4", "class_name": "UpSampling2D", "config": {"name": "up_sampling2d_4", "trainable": true, "dtype": "float32", "size": [2, 2], "data_format": "channels_last", "interpolation": "nearest"}, "inbound_nodes": [[["BiFPN_1_P7_relu", 0, 0, {}]]]}, {"name": "BiFPN_1_P6_relu", "class_name": "ReLU", "config": {"name": "BiFPN_1_P6_relu", "trainable": true, "dtype": "float32", "max_value": null, "negative_slope": 0.0, "threshold": 0.0}, "inbound_nodes": [[["BiFPN_1_P6_bn", 0, 0, {}]]]}, {"name": "w_bi_fpn_add_8", "class_name": "wBiFPNAdd", "config": {"name": "w_bi_fpn_add_8", "trainable": true, "dtype": "float32", "epsilon": 0.0001}, "inbound_nodes": [[["up_sampling2d_4", 0, 0, {}], ["BiFPN_1_P6_relu", 0, 0, {}]]]}, {"name": "BiFPN_1_U_P6_dconv", "class_name": "DepthwiseConv2D", "config": {"name": "BiFPN_1_U_P6_dconv", "trainable": true, "dtype": "float32", "kernel_size": [3, 3], "strides": [1, 1], "padding": "same", "data_format": "channels_last", "dilation_rate": [1, 1], "activation": "linear", "use_bias": false, "bias_initializer": {"class_name": "Zeros", "config": {"dtype": "float32"}}, "bias_regularizer": null, "activity_regularizer": null, "bias_constraint": null, "depth_multiplier": 1, "depthwise_initializer": {"class_name": "GlorotUniform", "config": {"seed": null, "dtype": "float32"}}, "depthwise_regularizer": null, "depthwise_constraint": null}, "inbound_nodes": [[["w_bi_fpn_add_8", 0, 0, {}]]]}, {"name": "BiFPN_1_U_P6_bn", "class_name": "BatchNormalization", "config": {"name": "BiFPN_1_U_P6_bn", "trainable": true, "dtype": "float32", "axis": [3], "momentum": 0.99, "epsilon": 0.001, "center": true, "scale": true, "beta_initializer": {"class_name": "Zeros", "config": {"dtype": "float32"}}, "gamma_initializer": {"class_name": "Ones", "config": {"dtype": "float32"}}, "moving_mean_initializer": {"class_name": "Zeros", "config": {"dtype": "float32"}}, "moving_variance_initializer": {"class_name": "Ones", "config": {"dtype": "float32"}}, "beta_regularizer": null, "gamma_regularizer": null, "beta_constraint": null, "gamma_constraint": null, "freeze": false}, "inbound_nodes": [[["BiFPN_1_U_P6_dconv", 0, 0, {}]]]}, {"name": "BiFPN_1_P5_conv", "class_name": "Conv2D", "config": {"name": "BiFPN_1_P5_conv", "trainable": true, "dtype": "float32", "filters": 64, "kernel_size": [1, 1], "strides": [1, 1], "padding": "same", "data_format": "channels_last", "dilation_rate": [1, 1], "activation": "linear", "use_bias": false, "kernel_initializer": {"class_name": "GlorotUniform", "config": {"seed": null, "dtype": "float32"}}, "bias_initializer": {"class_name": "Zeros", "config": {"dtype": "float32"}}, "kernel_regularizer": null, "bias_regularizer": null, "activity_regularizer": null, "kernel_constraint": null, "bias_constraint": null}, "inbound_nodes": [[["BiFPN_0_D_P5_relu", 0, 0, {}]]]}, {"name": "BiFPN_1_U_P6_relu", "class_name": "ReLU", "config": {"name": "BiFPN_1_U_P6_relu", "trainable": true, "dtype": "float32", "max_value": null, "negative_slope": 0.0, "threshold": 0.0}, "inbound_nodes": [[["BiFPN_1_U_P6_bn", 0, 0, {}]]]}, {"name": "BiFPN_1_P5_bn", "class_name": "BatchNormalization", "config": {"name": "BiFPN_1_P5_bn", "trainable": true, "dtype": "float32", "axis": [3], "momentum": 0.99, "epsilon": 0.001, "center": true, "scale": true, "beta_initializer": {"class_name": "Zeros", "config": {"dtype": "float32"}}, "gamma_initializer": {"class_name": "Ones", "config": {"dtype": "float32"}}, "moving_mean_initializer": {"class_name": "Zeros", "config": {"dtype": "float32"}}, "moving_variance_initializer": {"class_name": "Ones", "config": {"dtype": "float32"}}, "beta_regularizer": null, "gamma_regularizer": null, "beta_constraint": null, "gamma_constraint": null, "freeze": false}, "inbound_nodes": [[["BiFPN_1_P5_conv", 0, 0, {}]]]}, {"name": "up_sampling2d_5", "class_name": "UpSampling2D", "config": {"name": "up_sampling2d_5", "trainable": true, "dtype": "float32", "size": [2, 2], "data_format": "channels_last", "interpolation": "nearest"}, "inbound_nodes": [[["BiFPN_1_U_P6_relu", 0, 0, {}]]]}, {"name": "BiFPN_1_P5_relu", "class_name": "ReLU", "config": {"name": "BiFPN_1_P5_relu", "trainable": true, "dtype": "float32", "max_value": null, "negative_slope": 0.0, "threshold":…
ros", "config": {"dtype": "float32"}}, "gamma_initializer": {"class_name": "Ones", "config": {"dtype": "float32"}}, "moving_mean_initializer": {"class_name": "Zeros", "config": {"dtype": "float32"}}, "moving_variance_initializer": {"class_name": "Ones", "config": {"dtype": "float32"}}, "beta_regularizer": null, "gamma_regularizer": null, "beta_constraint": null, "gamma_constraint": null, "freeze": false}, "inbound_nodes": [[["BiFPN_1_D_P5_dconv", 0, 0, {}]]]}, {"name": "BiFPN_1_D_P5_relu", "class_name": "ReLU", "config": {"name": "BiFPN_1_D_P5_relu", "trainable": true, "dtype": "float32", "max_value": null, "negative_slope": 0.0, "threshold": 0.0}, "inbound_nodes": [[["BiFPN_1_D_P5_bn", 0, 0, {}]]]}, {"name": "max_pooling2d_6", "class_name": "MaxPooling2D", "config": {"name": "max_pooling2d_6", "trainable": true, "dtype": "float32", "pool_size": [2, 2], "padding": "valid", "strides": [2, 2], "data_format": "channels_last"}, "inbound_nodes": [[["BiFPN_1_D_P5_relu", 0, 0, {}]]]}, {"name": "w_bi_fpn_add_14", "class_name": "wBiFPNAdd", "config": {"name": "w_bi_fpn_add_14", "trainable": true, "dtype": "float32", "epsilon": 0.0001}, "inbound_nodes": [[["max_pooling2d_6", 0, 0, {}], ["BiFPN_1_U_P6_relu", 0, 0, {}], ["BiFPN_1_P6_relu", 0, 0, {}]]]}, {"name": "BiFPN_1_D_P6_dconv", "class_name": "DepthwiseConv2D", "config": {"name": "BiFPN_1_D_P6_dconv", "trainable": true, "dtype": "float32", "kernel_size": [3, 3], "strides": [1, 1], "padding": "same", "data_format": "channels_last", "dilation_rate": [1, 1], "activation": "linear", "use_bias": false, "bias_initializer": {"class_name": "Zeros", "config": {"dtype": "float32"}}, "bias_regularizer": null, "activity_regularizer": null, "bias_constraint": null, "depth_multiplier": 1, "depthwise_initializer": {"class_name": "GlorotUniform", "config": {"seed": null, "dtype": "float32"}}, "depthwise_regularizer": null, "depthwise_constraint": null}, "inbound_nodes": [[["w_bi_fpn_add_14", 0, 0, {}]]]}, {"name": "BiFPN_1_D_P6_bn", "class_name": "BatchNormalization", "config": {"name": "BiFPN_1_D_P6_bn", "trainable": true, "dtype": "float32", "axis": [3], "momentum": 0.99, "epsilon": 0.001, "center": true, "scale": true, "beta_initializer": {"class_name": "Zeros", "config": {"dtype": "float32"}}, "gamma_initializer": {"class_name": "Ones", "config": {"dtype": "float32"}}, "moving_mean_initializer": {"class_name": "Zeros", "config": {"dtype": "float32"}}, "moving_variance_initializer": {"class_name": "Ones", "config": {"dtype": "float32"}}, "beta_regularizer": null, "gamma_regularizer": null, "beta_constraint": null, "gamma_constraint": null, "freeze": false}, "inbound_nodes": [[["BiFPN_1_D_P6_dconv", 0, 0, {}]]]}, {"name": "BiFPN_1_D_P6_relu", "class_name": "ReLU", "config": {"name": "BiFPN_1_D_P6_relu", "trainable": true, "dtype": "float32", "max_value": null, "negative_slope": 0.0, "threshold": 0.0}, "inbound_nodes": [[["BiFPN_1_D_P6_bn", 0, 0, {}]]]}, {"name": "max_pooling2d_7", "class_name": "MaxPooling2D", "config": {"name": "max_pooling2d_7", "trainable": true, "dtype": "float32", "pool_size": [2, 2], "padding": "valid", "strides": [2, 2], "data_format": "channels_last"}, "inbound_nodes": [[["BiFPN_1_D_P6_relu", 0, 0, {}]]]}, {"name": "w_bi_fpn_add_15", "class_name": "wBiFPNAdd", "config": {"name": "w_bi_fpn_add_15", "trainable": true, "dtype": "float32", "epsilon": 0.0001}, "inbound_nodes": [[["max_pooling2d_7", 0, 0, {}], ["BiFPN_1_P7_relu", 0, 0, {}]]]}, {"name": "BiFPN_1_D_P7_dconv", "class_name": "DepthwiseConv2D", "config": {"name": "BiFPN_1_D_P7_dconv", "trainable": true, "dtype": "float32", "kernel_size": [3, 3], "strides": [1, 1], "padding": "same", "data_format": "channels_last", "dilation_rate": [1, 1], "activation": "linear", "use_bias": false, "bias_initializer": {"class_name": "Zeros", "config": {"dtype": "float32"}}, "bias_regularizer": null, "activity_regularizer": null, "bias_constraint": null, "depth_multiplier": 1, "depthwise_initializer": {"class_name": "GlorotUniform", "config": {"seed": null, "dtype": "float32"}}, "depthwise_regularizer": null, "depthwise_constraint": null}, "inbound_nodes": [[["w_bi_fpn_add_15", 0, 0, {}]]]}, {"name": "BiFPN_1_D_P7_bn", "class_name": "BatchNormalization", "config": {"name": "BiFPN_1_D_P7_bn", "trainable": true, "dtype": "float32", "axis": [3], "momentum": 0.99, "epsilon": 0.001, "center": true, "scale": true, "beta_initializer": {"class_name": "Zeros", "config": {"dtype": "float32"}}, "gamma_initializer": {"class_name": "Ones", "config": {"dtype": "float32"}}, "moving_mean_initializer": {"class_name": "Zeros", "config": {"dtype": "float32"}}, "moving_variance_initializer": {"class_name": "Ones", "config": {"dtype": "float32"}}, "beta_regularizer": null, "gamma_regularizer": null, "beta_constraint": null, "gamma_constraint": null, "freeze": false}, "inbound_nodes": [[["BiFPN_1_D_P7_dconv", 0, 0, {}]]]}, {"name": "BiFPN_1_D_P7_relu", "class_name": "ReLU", "config": {"name": "BiFPN_1_D_P7_relu", "trainable": true, "dtype": "float32", "max_value": null, "negative_slope": 0.0, "threshold": 0.0}, "inbound_nodes": [[["BiFPN_1_D_P7_bn", 0, 0, {}]]]}, {"name": "box_head", "class_name": "Model", "config": {"name": "box_head", "layers": [{"name": "input_2", "class_name": "InputLayer", "config": {"batch_input_shape": [null, null, null, 64], "dtype": "float32", "sparse": false, "ragged": false, "name": "input_2"}, "inbound_nodes": []}, {"name": "conv2d", "class_name": "Conv2D", "config": {"name": "conv2d", "trainable": true, "dtype": "float32", "filters": 64, "kernel_size": [3, 3], "strides": [1, 1], "padding": "same", "data_format": "channels_last", "dilation_rate": [1, 1], "activation": "relu", "use_bias": true, "kernel_initializer": {"class_name": "RandomNormal", "config": {"mean": 0.0, "stddev": 0.01, "seed": null, "dtype": "float32"}}, "bias_initializer": {"class_name": "Zeros", "config": {"dtype": "float32"}}, "kernel_regularizer": null, "bias_regularizer": null, "activity_regularizer": null, "kernel_constraint": null, "bias_constraint": null}, "inbound_nodes": [[["input_2", 0, 0, {}]]]}, {"name": "conv2d_1", "class_name": "Conv2D", "config": {"name": "conv2d_1", "trainable": true, "dtype": "float32", "filters": 64, "kernel_size": [3, 3], "strides": [1, 1], "padding": "same", "data_format": "channels_last", "dilation_rate": [1, 1], "activation": "relu", "use_bias": true, "kernel_initializer": {"class_name": "RandomNormal", "config": {"mean": 0.0, "stddev": 0.01, "seed": null, "dtype": "float32"}}, "bias_initializer": {"class_name": "Zeros", "config": {"dtype": "float32"}}, "kernel_regularizer": null, "bias_regularizer": null, "activity_regularizer": null, "kernel_constraint": null, "bias_constraint": null}, "inbound_nodes": [[["conv2d", 0, 0, {}]]]}, {"name": "conv2d_2", "class_name": "Conv2D", "config": {"name": "conv2d_2", "trainable": true, "dtype": "float32", "filters": 64, "kernel_size": [3, 3], "strides": [1, 1], "padding": "same", "data_format": "channels_last", "dilation_rate": [1, 1], "activation": "relu", "use_bias": true, "kernel_initializer": {"class_name": "RandomNormal", "config": {"mean": 0.0, "stddev": 0.01, "seed": null, "dtype": "float32"}}, "bias_initializer": {"class_name": "Zeros", "config": {"dtype": "float32"}}, "kernel_regularizer": null, "bias_regularizer": null, "activity_regularizer": null, "kernel_constraint": null, "bias_constraint": null}, "inbound_nodes": [[["conv2d_1", 0, 0, {}]]]}, {"name": "conv2d_3", "class_name": "Conv2D", "config": {"name": "conv2d_3", "trainable": true, "dtype": "float32", "filters": 36, "kernel_size": [3, 3], "strides": [1, 1], "padding": "same", "data_format": "channels_last", "dilation_rate": [1, 1], "activation": "linear", "use_bias": true, "kernel_initializer": {"class_name": "RandomNormal", "config": {"mean": 0.0, "stddev": 0.01, "seed": null, "dtype": "float32"}}, "bias_initializer": {"class_name": "Zeros", "config": {"dtype": "float32"}}, "kernel_regularizer": null, "bias_regularizer": null, "activity_regularizer": null, "kernel_constraint": null, "bias_constraint": null}, "inbound_nodes": [[["conv2d_2", 0, 0, {}]]]}, {"name": "reshape", "class_name": "Reshape", "config": {"name": "reshape", "trainable": true, "dtype": "float32", "target_shape": [-1, 4]}, "inbound_nodes": [[["conv2d_3", 0, 0, {}]]]}], "input_layers": [["input_2", 0, 0]], "output_layers": [["reshape", 0, 0]]}, "inbound_nodes": [[["BiFPN_1_U_P3_relu", 0, 0, {}]], [["BiFPN_1_D_P4_relu", 0, 0, {}]], [["BiFPN_1_D_P5_relu", 0, 0, {}]], [["BiFPN_1_D_P6_relu", 0, 0, {}]], [["BiFPN_1_D_P7_relu", 0, 0, {}]]]}, {"name": "input_4", "class_name": "InputLayer", "config": {"batch_input_shape": [null, null, 4], "dtype": "float32", "sparse": false, "ragged": false, "name": "input_4"}, "inbound_nodes": []}, {"name": "regression", "class_name": "Concatenate", "config": {"name": "regression", "trainable": true, "dtype": "float32", "axis": 1}, "inbound_nodes": [[["box_head", 1, 0, {}], ["box_head", 2, 0, {}], ["box_head", 3, 0, {}], ["box_head", 4, 0, {}], ["box_head", 5, 0, {}]]]}, {"name": "boxes", "class_name": "RegressBoxes", "config": {"name": "boxes", "trainable": true, "dtype": "float32", "mean": [0.0, 0.0, 0.0, 0.0], "std": [0.20000000298023224, 0.20000000298023224, 0.20000000298023224, 0.20000000298023224]}, "inbound_nodes": [[["input_4", 0, 0, {}], ["regression", 0, 0, {}]]]}, {"name": "class_head", "class_name": "Model", "config": {"name": "class_head", "layers": [{"name": "input_3", "class_name": "InputLayer", "config": {"batch_input_shape": [null, null, null, 64], "dtype": "float32", "sparse": false, "ragged": false, "name": "input_3"}, "inbound_nodes": []}, {"name": "conv2d_4", "class_name": "Conv2D", "config": {"name": "conv2d_4", "trainable": true, "dtype": "float32", "filters": 64, "kernel_size": [3, 3], "strides": [1, 1], "padding": "same", "data_format": "channels_last", "dilation_rate": [1, 1], "activation": "relu", "use_bias": true, "kernel_initializer": {"class_name": "RandomNormal", "config": {"mean": 0.0, "stddev": 0.01, "seed": null, "dtype": "float32"}}, "bias_initializer": {"class_name": "Zeros", "config": {"dtype": "float32"}}, "kernel_regularizer": null, "bias_regularizer": null, "activity_regularizer": null, "kernel_constraint": null, "bias_constraint": null}, "inbound_nodes": [[["input_3", 0, 0, {}]]]}, {"name": "conv2d_5", "class_name": "Conv2D", "config": {"name": "conv2d_5", "trainable": true, "dtype": "float32", "filters": 64, "kernel_size": [3, 3], "strides": [1, 1], "padding": "same", "data_format": "channels_last", "dilation_rate": [1, 1], "activation": "relu", "use_bias": true, "kernel_initializer": {"class_name": "RandomNormal", "config": {"mean": 0.0, "stddev": 0.01, "seed": null, "dtype": "float32"}}, "bias_initializer": {"class_name": "Zeros", "config": {"dtype": "float32"}}, "kernel_regularizer": null, "bias_regularizer": null, "activity_regularizer": null, "kernel_constraint": null, "bias_constraint": null}, "inbound_nodes": [[["conv2d_4", 0, 0, {}]]]}, {"name": "conv2d_6", "class_name": "Conv2D", "config": {"name": "conv2d_6", "trainable": true, "dtype": "float32", "filters": 64, "kernel_size": [3, 3], "strides": [1, 1], "padding": "same", "data_format": "channels_last", "dilation_rate": [1, 1], "activation": "relu", "use_bias": true, "kernel_initializer": {"class_name": "RandomNormal", "config": {"mean": 0.0, "stddev": 0.01, "seed": null, "dtype": "float32"}}, "bias_initializer": {"class_name": "Zeros", "config": {"dtype": "float32"}}, "kernel_regularizer": null, "bias_regularizer": null, "activity_regularizer": null, "kernel_constraint": null, "bias_constraint": null}, "inbound_nodes": [[["conv2d_5", 0, 0, {}]]]}, {"name": "pyramid_classification", "class_name": "Conv2D", "config": {"name": "pyramid_classification", "trainable": true, "dtype": "float32", "filters": 180, "kernel_size": [3, 3], "strides": [1, 1], "padding": "same", "data_format": "channels_last", "dilation_rate": [1, 1], "activation": "linear", "use_bias": true, "kernel_initializer": {"class_name": "RandomNormal", "config": {"mean": 0.0, "stddev": 0.01, "seed": null, "dtype": "float32"}}, "bias_initializer": {"class_name": "PriorProbability", "config": {"probability": 0.01}}, "kernel_regularizer": null, "bias_regularizer": null, "activity_regularizer": null, "kernel_constraint": null, "bias_constraint": null}, "inbound_nodes": [[["conv2d_6", 0, 0, {}]]]}, {"name": "reshape_1", "class_name": "Reshape", "config": {"name": "reshape_1", "trainable": true, "dtype": "float32", "target_shape": [-1, 20]}, "inbound_nodes": [[["pyramid_classification", 0, 0, {}]]]}, {"name": "activation", "class_name": "Activation", "config": {"name": "activation", "trainable": true, "dtype": "float32", "activation": "sigmoid"}, "inbound_nodes": [[["reshape_1", 0, 0, {}]]]}], "input_layers": [["input_3", 0, 0]], "output_layers": [["activation", 0, 0]]}, "inbound_nodes": [[["BiFPN_1_U_P3_relu", 0, 0, {}]], [["BiFPN_1_D_P4_relu", 0, 0, {}]], [["BiFPN_1_D_P5_relu", 0, 0, {}]], [["BiFPN_1_D_P6_relu", 0, 0, {}]], [["BiFPN_1_D_P7_relu", 0, 0, {}]]]}, {"name": "clipped_boxes", "class_name": "ClipBoxes", "config": {"name": "clipped_boxes", "trainable": true, "dtype": "float32"}, "inbound_nodes": [[["input_1", 0, 0, {}], ["boxes", 0, 0, {}]]]}, {"name": "classification", "class_name": "Concatenate", "config": {"name": "classification", "trainable": true, "dtype": "float32", "axis": 1}, "inbound_nodes": [[["class_head", 1, 0, {}], ["class_head", 2, 0, {}], ["class_head", 3, 0, {}], ["class_head", 4, 0, {}], ["class_head", 5, 0, {}]]]}, {"name": "filtered_detections", "class_name": "FilterDetections", "config": {"name": "filtered_detections", "trainable": true, "dtype": "float32", "nms": true, "class_specific_filter": true, "nms_threshold": 0.5, "score_threshold": 0.5, "max_detections": 300, "parallel_iterations": 32}, "inbound_nodes": [[["clipped_boxes", 0, 0, {}], ["classification", 0, 0, {}]]]}], "input_layers": [["input_1", 0, 0], ["input_4", 0, 0]], "output_layers": [["filtered_detections", 0, 0], ["filtered_detections", 0, 1], ["filtered_detections", 0, 2]]}}}, "weightsManifest": [{"paths": ["group1-shard1of5.bin", "group1-shard2of5.bin", "group1-shard3of5.bin", "group1-shard4of5.bin", "group1-shard5of5.bin"], "weights": [{"name": "BiFPN_0_D_P4_bn/gamma", "shape": [64], "dtype": "float32"}, {"name": "BiFPN_0_D_P4_bn/beta", "shape": [64], "dtype": "float32"}, {"name": "BiFPN_0_D_P4_bn/moving_mean", "shape": [64], "dtype": "float32"}, {"name": "BiFPN_0_D_P4_bn/moving_variance", "shape": [64], "dtype": "float32"}, {"name": "BiFPN_0_D_P4_dconv/depthwise_kernel", "shape": [3, 3, 64, 1], "dtype": "float32"}, {"name": "BiFPN_0_D_P5_bn/gamma", "shape": [64], "dtype": "float32"}, {"name": "BiFPN_0_D_P5_bn/beta", "shape": [64], "dtype": "float32"}, {"name": "BiFPN_0_D_P5_bn/moving_mean", "shape": [64], "dtype": "float32"}, {"name": "BiFPN_0_D_P5_bn/moving_variance", "shape": [64], "dtype": "float32"}, {"name": "BiFPN_0_D_P5_dconv/depthwise_kernel", "shape": [3, 3, 64, 1], "dtype": "float32"}, {"name": "BiFPN_0_D_P6_bn/gamma", "shape": [64], "dtype": "float32"}, {"name": "BiFPN_0_D_P6_bn/beta", "shape": [64], "dtype": "float32"}, {"name": "BiFPN_0_D_P6_bn/moving_mean", "shape": [64], "dtype": "float32"}, {"name": "BiFPN_0_D_P6_bn/moving_variance", "shape": [64], "dtype": "float32"}, {"name": "BiFPN_0_D_P6_dconv/depthwise_kernel", "shape": [3, 3, 64, 1], "dtype": "float32"}, {"name": "BiFPN_0_D_P7_bn/gamma", "shape": [64], "dtype": "float32"}, {"name": "BiFPN_0_D_P7_bn/beta", "shape": [64], "dtype": "float32"}, {"name": "BiFPN_0_D_P7_bn/moving_mean", "shape": [64], "dtype": "float32"}, {"name": "BiFPN_0_D_P7_bn/moving_variance", "shape": [64], "dtype": "float32"}, {"name": "BiFPN_0_D_P7_dconv/depthwise_kernel", "shape": [3, 3, 64, 1], "dtype": "float32"}, {"name": "BiFPN_0_P3_bn/gamma", "shape": [64], "dtype": "float32"}, {"name": "BiFPN_0_P3_bn/beta", "shape": [64], "dtype": "float32"}, {"name": "BiFPN_0_P3_bn/moving_mean", "shape": [64], "dtype": "float32"}, {"name": "BiFPN_0_P3_bn/moving_variance", "shape": [64], "dtype": "float32"}, {"name": "BiFPN_0_P3_conv/kernel", "shape": [1, 1, 40, 64], "dtype": "float32"}, {"name": "BiFPN_0_P4_bn/gamma", "shape": [64], "dtype": "float32"}, {"name": "BiFPN_0_P4_bn/beta", "shape": [64], "dtype": "float32"}, {"name": "BiFPN_0_P4_bn/moving_mean", "shape": [64], "dtype": "float32"}, {"name": "BiFPN_0_P4_bn/moving_variance", "shape": [64], "dtype": "float32"}, {"name": "BiFPN_0_P4_conv/kernel", "shape": [1, 1, 112, 64], "dtype": "float32"}, {"name": "BiFPN_0_P5_bn/gamma", "shape": [64], "dtype": "float32"}, {"name": "BiFPN_0_P5_bn/beta", "shape": [64], "dtype": "float32"}, {"name": "BiFPN_0_P5_bn/moving_mean", "shape": [64], "dtype": "float32"}, {"name": "BiFPN_0_P5_bn/moving_variance", "shape": [64], "dtype": "float32"}, {"name": "BiFPN_0_P5_conv/kernel", "shape": [1, 1, 320, 64], "dtype": "float32"}, {"name": "BiFPN_0_P6_bn/gamma", "shape": [64], "dtype": "float32"}, {"name": "BiFPN_0_P6_bn/beta", "shape": [64], "dtype": "float32"}, {"name": "BiFPN_0_P6_bn/moving_mean", "shape": [64], "dtype": "float32"}, {"name": "BiFPN_0_P6_bn/moving_variance", "shape": [64], "dtype": "float32"}, {"name": "BiFPN_0_P6_conv/kernel", "shape": [3, 3, 320, 64], "dtype": "float32"}, {"name": "BiFPN_0_P7_bn/gamma", "shape": [64], "dtype": "float32"}, {"name": "BiFPN_0_P7_bn/beta", "shape": [64], "dtype": "float32"}, {"name": "BiFPN_0_P7_bn/moving_mean", "shape": [64], "dtype": "float32"}, {"name": "BiFPN_0_P7_bn/moving_variance", "shape": [64], "dtype": "float32"}, {"name": "BiFPN_0_P7_conv/kernel", "shape": [3, 3, 64, 64], "dtype": "float32"}, {"name": "BiFPN_0_U_P3_bn/gamma", "shape": [64], "dtype": "float32"}, {"name": "BiFPN_0_U_P3_bn/beta", "shape": [64], "dtype": "float32"}, {"name": "BiFPN_0_U_P3_bn/moving_mean", "shape": [64], "dtype": "float32"}, {"name": "BiFPN_0_U_P3_bn/moving_variance", "shape": [64], "dtype": "float32"}, {"name": "BiFPN_0_U_P3_dconv/depthwise_kernel", "shape": [3, 3, 64, 1], "dtype": "float32"}, {"name": "BiFPN_0_U_P4_bn/gamma", "shape": [64], "dtype": "float32"}, {"name": "BiFPN_0_U_P4_bn/beta", "shape": [64], "dtype": "float32"}, {"name": "BiFPN_0_U_P4_bn/moving_mean", "shape": [64], "dtype": "float32"}, {"name": "BiFPN_0_U_P4_bn/moving_variance", "shape": [64], "dtype": "float32"}, {"name": "BiFPN_0_U_P4_dconv/depthwise_kernel", "shape": [3, 3, 64, 1], "dtype": "float32"}, {"name": "BiFPN_0_U_P5_bn/gamma", "shape": [64], "dtype": "float32"}, {"name": "BiFPN_0_U_P5_bn/beta", "shape": [64], "dtype": "float32"}, {"name": "BiFPN_0_U_P5_bn/moving_mean", "shape": [64], "dtype": "float32"}, {"name": "BiFPN_0_U_P5_bn/moving_variance", "shape": [64], "dtype": "float32"}, {"name": "BiFPN_0_U_P5_dconv/depthwise_kernel", "shape": [3, 3, 64, 1], "dtype": "float32"}, {"name": "BiFPN_0_U_P6_bn/gamma", "shape": [64], "dtype": "float32"}, {"name": "BiFPN_0_U_P6_bn/beta", "shape": [64], "dtype": "float32"}, {"name": "BiFPN_0_U_P6_bn/moving_mean", "shape": [64], "dtype": "float32"}, {"name": "BiFPN_0_U_P6_bn/moving_variance", "shape": [64], "dtype": "float32"}, {"name": "BiFPN_0_U_P6_dconv/depthwise_kernel", "shape": [3, 3, 64, 1], "dtype": "float32"}, {"name": "BiFPN_1_D_P4_bn/gamma", "shape": [64], "dtype": "float32"}, {"name": "BiFPN_1_D_P4_bn/beta", "shape": [64], "dtype": "float32"}, {"name": "BiFPN_1_D_P4_bn/moving_mean", "shape": [64], "dtype": "float32"}, {"name": "BiFPN_1_D_P4_bn/moving_variance", "shape": [64], "dtype": "float32"}, {"name": "BiFPN_1_D_P4_dconv/depthwise_kernel", "shape": [3, 3, 64, 1], "dtype": "float32"}, {"name": "BiFPN_1_D_P5_bn/gamma", "shape": [64], "dtype": "float32"}, {"name": "BiFPN_1_D_P5_bn/beta", "shape": [64], "dtype": "float32"}, {"name": "BiFPN_1_D_P5_bn/moving_mean", "shape": [64], "dtype": "float32"}, {"name": "BiFPN_1_D_P5_bn/moving_variance", "shape": [64], "dtype": "float32"}, {"name": "BiFPN_1_D_P5_dconv/depthwise_kernel", "shape": [3, 3, 64, 1], "dtype": "float32"}, {"name": "BiFPN_1_D_P6_bn/gamma", "shape": [64], "dtype": "float32"}, {"name": "BiFPN_1_D_P6_bn/beta", "shape": [64], "dtype": "float32"}, {"name": "BiFPN_1_D_P6_bn/moving_mean", "shape": [64], "dtype": "float32"}, {"name": "BiFPN_1_D_P6_bn/moving_variance", "shape": [64], "dtype": "float32"}, {"name": "BiFPN_1_D_P6_dconv/depthwise_kernel", "shape": [3, 3, 64, 1], "dtype": "float32"}, {"name": "BiFPN_1_D_P7_bn/gamma", "shape": [64], "dtype": "float32"}, {"name": "BiFPN_1_D_P7_bn/beta", "shape": [64], "dtype": "float32"}, {"name": "BiFPN_1_D_P7_bn/moving_mean", "shape": [64], "dtype": "float32"}, {"name": "BiFPN_1_D_P7_bn/moving_variance", "shape": [64], "dtype": "float32"}, {"name": "BiFPN_1_D_P7_dconv/depthwise_kernel", "shape": [3, 3, 64, 1], "dtype": "float32"}, {"name": "BiFPN_1_P3_bn/gamma", "shape": [64], "dtype": "float32"}, {"name": "BiFPN_1_P3_bn/beta", "shape": [64], "dtype": "float32"}, {"name": "BiFPN_1_P3_bn/moving_mean", "shape": [64], "dtype": "float32"}, {"name": "BiFPN_1_P3_bn/moving_variance", "shape": [64], "dtype": "float32"}, {"name": "BiFPN_1_P3_conv/kernel", "shape": [1, 1, 64, 64], "dtype": "float32"}, {"name": "BiFPN_1_P4_bn/gamma", "shape": [64], "dtype": "float32"}, {"name": "BiFPN_1_P4_bn/beta", "shape": [64], "dtype": "float32"}, {"name": "BiFPN_1_P4_bn/moving_mean", "shape": [64], "dtype": "float32"}, {"name": "BiFPN_1_P4_bn/moving_variance", "shape": [64], "dtype": "float32"}, {"name": "BiFPN_1_P4_conv/kernel", "shape": [1, 1, 64, 64], "dtype": "float32"}, {"name": "BiFPN_1_P5_bn/gamma", "shape": [64], "dtype": "float32"}, {"name": "BiFPN_1_P5_bn/beta", "shape": [64], "dtype": "float32"}, {"name": "BiFPN_1_P5_bn/moving_mean", "shape": [64], "dtype": "float32"}, {"name": "BiFPN_1_P5_bn/moving_variance", "shape": [64], "dtype": "float32"}, {"name": "BiFPN_1_P5_conv/kernel", "shape": [1, 1, 64, 64], "dtype": "float32"}, {"name": "BiFPN_1_P6_bn/gamma", "shape": [64], "dtype": "float32"}, {"name": "BiFPN_1_P6_bn/beta", "shape": [64], "dtype": "float32"}, {"name": "BiFPN_1_P6_bn/moving_mean", "shape": [64], "dtype": "float32"}, {"name": "BiFPN_1_P6_bn/moving_variance", "shape": [64], "dtype": "float32"}, {"name": "BiFPN_1_P6_conv/kernel", "shape": [1, 1, 64, 64], "dtype": "float32"}, {"name": "BiFPN_1_P7_bn/gamma", "shape": [64], "dtype": "float32"}, {"name": "BiFPN_1_P7_bn/beta", "shape": [64], "dtype": "float32"}, {"name": "BiFPN_1_P7_bn/moving_mean", "shape": [64], "dtype": "float32"}, {"name": "BiFPN_1_P7_bn/moving_variance", "shape": [64], "dtype": "float32"}, {"name": "BiFPN_1_P7_conv/kernel", "shape": [1, 1, 64, 64], "dtype": "float32"}, {"name": "BiFPN_1_U_P3_bn/gamma", "shape": [64], "dtype": "float32"}, {"name": "BiFPN_1_U_P3_bn/beta", "shape": [64], "dtype": "float32"}, {"name": "BiFPN_1_U_P3_bn/moving_mean", "shape": [64], "dtype": "float32"}, {"name": "BiFPN_1_U_P3_bn/moving_variance", "shape": [64], "dtype": "float32"}, {"name": "BiFPN_1_U_P3_dconv/depthwise_kernel", "shape": [3, 3, 64, 1], "dtype": "float32"}, {"name": "BiFPN_1_U_P4_bn/gamma", "shape": [64], "dtype": "float32"}, {"name": "BiFPN_1_U_P4_bn/beta", "shape": [64], "dtype": "float32"}, {"name": "BiFPN_1_U_P4_bn/moving_mean", "shape": [64], "dtype": "float32"}, {"name": "BiFPN_1_U_P4_bn/moving_variance", "shape": [64], "dtype": "float32"}, {"name": "BiFPN_1_U_P4_dconv/depthwise_kernel", "shape": [3, 3, 64, 1], "dtype": "float32"}, {"name": "BiFPN_1_U_P5_bn/gamma", "shape": [64], "dtype": "float32"}, {"name": "BiFPN_1_U_P5_bn/beta", "shape": [64], "dtype": "float32"}, {"name": "BiFPN_1_U_P5_bn/moving_mean", "shape": [64], "dtype": "float32"}, {"name": "BiFPN_1_U_P5_bn/moving_variance", "shape": [64], "dtype": "float32"}, {"name": "BiFPN_1_U_P5_dconv/depthwise_kernel", "shape": [3, 3, 64, 1], "dtype": "float32"}, {"name": "BiFPN_1_U_P6_bn/gamma", "shape": [64], "dtype": "float32"}, {"name": "BiFPN_1_U_P6_bn/beta", "shape": [64], "dtype": "float32"}, {"name": "BiFPN_1_U_P6_bn/moving_mean", "shape": [64], "dtype": "float32"}, {"name": "BiFPN_1_U_P6_bn/moving_variance", "shape": [64], "dtype": "float32"}, {"name": "BiFPN_1_U_P6_dconv/depthwise_kernel", "shape": [3, 3, 64, 1], "dtype": "float32"}, {"name": "block1a_bn/gamma", "shape": [32], "dtype": "float32"}, {"name": "block1a_bn/beta", "shape": [32], "dtype": "float32"}, {"name": "block1a_bn/moving_mean", "shape": [32], "dtype": "float32"}, {"name": "block1a_bn/moving_variance", "shape": [32], "dtype": "float32"}, {"name": "block1a_dwconv/depthwise_kernel", "shape": [3, 3, 32, 1], "dtype": "float32"}, {"name": "block1a_project_bn/gamma", "shape": [16], "dtype": "float32"}, {"name": "block1a_project_bn/beta", "shape": [16], "dtype": "float32"}, {"name": "block1a_project_bn/moving_mean", "shape": [16], "dtype": "float32"}, {"name": "block1a_project_bn/moving_variance", "shape": [16], "dtype": "float32"}, {"name": "block1a_project_conv/kernel", "shape": [1, 1, 32, 16], "dtype": "float32"}, {"name": "block1a_se_expand/kernel", "shape": [1, 1, 8, 32], "dtype": "float32"}, {"name": "block1a_se_expand/bias", "shape": [32], "dtype": "float32"}, {"name": "block1a_se_reduce/kernel", "shape": [1, 1, 32, 8], "dtype": "float32"}, {"name": "block1a_se_reduce/bias", "shape": [8], "dtype": "float32"}, {"name": "block2a_bn/gamma", "shape": [96], "dtype": "float32"}, {"name": "block2a_bn/beta", "shape": [96], "dtype": "float32"}, {"name": "block2a_bn/moving_mean", "shape": [96], "dtype": "float32"}, {"name": "block2a_bn/moving_variance", "shape": [96], "dtype": "float32"}, {"name": "block2a_dwconv/depthwise_kernel", "shape": [3, 3, 96, 1], "dtype": "float32"}, {"name": "block2a_expand_bn/gamma", "shape": [96], "dtype": "float32"}, {"name": "block2a_expand_bn/beta", "shape": [96], "dtype": "float32"}, {"name": "block2a_expand_bn/moving_mean", "shape": [96], "dtype": "float32"}, {"name": "block2a_expand_bn/moving_variance", "shape": [96], "dtype": "float32"}, {"name": "block2a_expand_conv/kernel", "shape": [1, 1, 16, 96], "dtype": "float32"}, {"name": "block2a_project_bn/gamma", "shape": [24], "dtype": "float32"}, {"name": "block2a_project_bn/beta", "shape": [24], "dtype": "float32"}, {"name": "block2a_project_bn/moving_mean", "shape": [24], "dtype": "float32"}, {"name": "block2a_project_bn/moving_variance", "shape": [24], "dtype": "float32"}, {"name": "block2a_project_conv/kernel", "shape": [1, 1, 96, 24], "dtype": "float32"}, {"name": "block2a_se_expand/kernel", "shape": [1, 1, 4, 96], "dtype": "float32"}, {"name": "block2a_se_expand/bias", "shape": [96], "dtype": "float32"}, {"name": "block2a_se_reduce/kernel", "shape": [1, 1, 96, 4], "dtype": "float32"}, {"name": "block2a_se_reduce/bias", "shape": [4], "dtype": "float32"}, {"name": "block2b_bn/gamma", "shape": [144], "dtype": "float32"}, {"name": "block2b_bn/beta", "shape": [144], "dtype": "float32"}, {"name": "block2b_bn/moving_mean", "shape": [144], "dtype": "float32"}, {"name": "block2b_bn/moving_variance", "shape": [144], "dtype": "float32"}, {"name": "block2b_dwconv/depthwise_kernel", "shape": [3, 3, 144, 1], "dtype": "float32"}, {"name": "block2b_expand_bn/gamma", "shape": [144], "dtype": "float32"}, {"name": "block2b_expand_bn/beta", "shape": [144], "dtype": "float32"}, {"name": "block2b_expand_bn/moving_mean", "shape": [144], "dtype": "float32"}, {"name": "block2b_expand_bn/moving_variance", "shape": [144], "dtype": "float32"}, {"name": "block2b_expand_conv/kernel", "shape": [1, 1, 24, 144], "dtype": "float32"}, {"name": "block2b_project_bn/gamma", "shape": [24], "dtype": "float32"}, {"name": "block2b_project_bn/beta", "shape": [24], "dtype": "float32"}, {"name": "block2b_project_bn/moving_mean", "shape": [24], "dtype": "float32"}, {"name": "block2b_project_bn/moving_variance", "shape": [24], "dtype": "float32"}, {"name": "block2b_project_conv/kernel", "shape": [1, 1, 144, 24], "dtype": "float32"}, {"name": "block2b_se_expand/kernel", "shape": [1, 1, 6, 144], "dtype": "float32"}, {"name": "block2b_se_expand/bias", "shape": [144], "dtype": "float32"}, {"name": "block2b_se_reduce/kernel", "shape": [1, 1, 144, 6], "dtype": "float32"}, {"name": "block2b_se_reduce/bias", "shape": [6], "dtype": "float32"}, {"name": "block3a_bn/gamma", "shape": [144], "dtype": "float32"}, {"name": "block3a_bn/beta", "shape": [144], "dtype": "float32"}, {"name": "block3a_bn/moving_mean", "shape": [144], "dtype": "float32"}, {"name": "block3a_bn/moving_variance", "shape": [144], "dtype": "float32"}, {"name": "block3a_dwconv/depthwise_kernel", "shape": [5, 5, 144, 1], "dtype": "float32"}, {"name": "block3a_expand_bn/gamma", "shape": [144], "dtype": "float32"}, {"name": "block3a_expand_bn/beta", "shape": [144], "dtype": "float32"}, {"name": "block3a_expand_bn/moving_mean", "shape": [144], "dtype": "float32"}, {"name": "block3a_expand_bn/moving_variance", "shape": [144], "dtype": "float32"}, {"name": "block3a_expand_conv/kernel", "shape": [1, 1, 24, 144], "dtype": "float32"}, {"name": "block3a_project_bn/gamma", "shape": [40], "dtype": "float32"}, {"name": "block3a_project_bn/beta", "shape": [40], "dtype": "float32"}, {"name": "block3a_project_bn/moving_mean", "shape": [40], "dtype": "float32"}, {"name": "block3a_project_bn/moving_variance", "shape": [40], "dtype": "float32"}, {"name": "block3a_project_conv/kernel", "shape": [1, 1, 144, 40], "dtype": "float32"}, {"name": "block3a_se_expand/kernel", "shape": [1, 1, 6, 144], "dtype": "float32"}, {"name": "block3a_se_expand/bias", "shape": [144], "dtype": "float32"}, {"name": "block3a_se_reduce/kernel", "shape": [1, 1, 144, 6], "dtype": "float32"}, {"name": "block3a_se_reduce/bias", "shape": [6], "dtype": "float32"}, {"name": "block3b_bn/gamma", "shape": [240], "dtype": "float32"}, {"name": "block3b_bn/beta", "shape": [240], "dtype": "float32"}, {"name": "block3b_bn/moving_mean", "shape": [240], "dtype": "float32"}, {"name": "block3b_bn/moving_variance", "shape": [240], "dtype": "float32"}, {"name": "block3b_dwconv/depthwise_kernel", "shape": [5, 5, 240, 1], "dtype": "float32"}, {"name": "block3b_expand_bn/gamma", "shape": [240], "dtype": "float32"}, {"name": "block3b_expand_bn/beta", "shape": [240], "dtype": "float32"}, {"name": "block3b_expand_bn/moving_mean", "shape": [240], "dtype": "float32"}, {"name": "block3b_expand_bn/moving_variance", "shape": [240], "dtype": "float32"}, {"name": "block3b_expand_conv/kernel", "shape": [1, 1, 40, 240], "dtype": "float32"}, {"name": "block3b_project_bn/gamma", "shape": [40], "dtype": "float32"}, {"name": "block3b_project_bn/beta", "shape": [40], "dtype": "float32"}, {"name": "block3b_project_bn/moving_mean", "shape": [40], "dtype": "float32"}, {"name": "block3b_project_bn/moving_variance", "shape": [40], "dtype": "float32"}, {"name": "block3b_project_conv/kernel", "shape": [1, 1, 240, 40], "dtype": "float32"}, {"name": "block3b_se_expand/kernel", "shape": [1, 1, 10, 240], "dtype": "float32"}, {"name": "block3b_se_expand/bias", "shape": [240], "dtype": "float32"}, {"name": "block3b_se_reduce/kernel", "shape": [1, 1, 240, 10], "dtype": "float32"}, {"name": "block3b_se_reduce/bias", "shape": [10], "dtype": "float32"}, {"name": "block4a_bn/gamma", "shape": [240], "dtype": "float32"}, {"name": "block4a_bn/beta", "shape": [240], "dtype": "float32"}, {"name": "block4a_bn/moving_mean", "shape": [240], "dtype": "float32"}, {"name": "block4a_bn/moving_variance", "shape": [240], "dtype": "float32"}, {"name": "block4a_dwconv/depthwise_kernel", "shape": [3, 3, 240, 1], "dtype": "float32"}, {"name": "block4a_expand_bn/gamma", "shape": [240], "dtype": "float32"}, {"name": "block4a_expand_bn/beta", "shape": [240], "dtype": "float32"}, {"name": "block4a_expand_bn/moving_mean", "shape": [240], "dtype": "float32"}, {"name": "block4a_expand_bn/moving_variance", "shape": [240], "dtype": "float32"}, {"name": "block4a_expand_conv/kernel", "shape": [1, 1, 40, 240], "dtype": "float32"}, {"name": "block4a_project_bn/gamma", "shape": [80], "dtype": "float32"}, {"name": "block4a_project_bn/beta", "shape": [80], "dtype": "float32"}, {"name": "block4a_project_bn/moving_mean", "shape": [80], "dtype": "float32"}, {"name": "block4a_project_bn/moving_variance", "shape": [80], "dtype": "float32"}, {"name": "block4a_project_conv/kernel", "shape": [1, 1, 240, 80], "dtype": "float32"}, {"name": "block4a_se_expand/kernel", "shape": [1, 1, 10, 240], "dtype": "float32"}, {"name": "block4a_se_expand/bias", "shape": [240], "dtype": "float32"}, {"name": "block4a_se_reduce/kernel", "shape": [1, 1, 240, 10], "dtype": "float32"}, {"name": "block4a_se_reduce/bias", "shape": [10], "dtype": "float32"}, {"name": "block4b_bn/gamma", "shape": [480], "dtype": "float32"}, {"name": "block4b_bn/beta", "shape": [480], "dtype": "float32"}, {"name": "block4b_bn/moving_mean", "shape": [480], "dtype": "float32"}, {"name": "block4b_bn/moving_variance", "shape": [480], "dtype": "float32"}, {"name": "block4b_dwconv/depthwise_kernel", "shape": [3, 3, 480, 1], "dtype": "float32"}, {"name": "block4b_expand_bn/gamma", "shape": [480], "dtype": "float32"}, {"name": "block4b_expand_bn/beta", "shape": [480], "dtype": "float32"}, {"name": "block4b_expand_bn/moving_mean", "shape": [480], "dtype": "float32"}, {"name": "block4b_expand_bn/moving_variance", "shape": [480], "dtype": "float32"}, {"name": "block4b_expand_conv/kernel", "shape": [1, 1, 80, 480], "dtype": "float32"}, {"name": "block4b_project_bn/gamma", "shape": [80], "dtype": "float32"}, {"name": "block4b_project_bn/beta", "shape": [80], "dtype": "float32"}, {"name": "block4b_project_bn/moving_mean", "shape": [80], "dtype": "float32"}, {"name": "block4b_project_bn/moving_variance", "shape": [80], "dtype": "float32"}, {"name": "block4b_project_conv/kernel", "shape": [1, 1, 480, 80], "dtype": "float32"}, {"name": "block4b_se_expand/kernel", "shape": [1, 1, 20, 480], "dtype": "float32"}, {"name": "block4b_se_expand/bias", "shape": [480], "dtype": "float32"}, {"name": "block4b_se_reduce/kernel", "shape": [1, 1, 480, 20], "dtype": "float32"}, {"name": "block4b_se_reduce/bias", "shape": [20], "dtype": "float32"}, {"name": "block4c_bn/gamma", "shape": [480], "dtype": "float32"}, {"name": "block4c_bn/beta", "shape": [480], "dtype": "float32"}, {"name": "block4c_bn/moving_mean", "shape": [480], "dtype": "float32"}, {"name": "block4c_bn/moving_variance", "shape": [480], "dtype": "float32"}, {"name": "block4c_dwconv/depthwise_kernel", "shape": [3, 3, 480, 1], "dtype": "float32"}, {"name": "block4c_expand_bn/gamma", "shape": [480], "dtype": "float32"}, {"name": "block4c_expand_bn/beta", "shape": [480], "dtype": "float32"}, {"name": "block4c_expand_bn/moving_mean", "shape": [480], "dtype": "float32"}, {"name": "block4c_expand_bn/moving_variance", "shape": [480], "dtype": "float32"}, {"name": "block4c_expand_conv/kernel", "shape": [1, 1, 80, 480], "dtype": "float32"}, {"name": "block4c_project_bn/gamma", "shape": [80], "dtype": "float32"}, {"name": "block4c_project_bn/beta", "shape": [80], "dtype": "float32"}, {"name": "block4c_project_bn/moving_mean", "shape": [80], "dtype": "float32"}, {"name": "block4c_project_bn/moving_variance", "shape": [80], "dtype": "float32"}, {"name": "block4c_project_conv/kernel", "shape": [1, 1, 480, 80], "dtype": "float32"}, {"name": "block4c_se_expand/kernel", "shape": [1, 1, 20, 480], "dtype": "float32"}, {"name": "block4c_se_expand/bias", "shape": [480], "dtype": "float32"}, {"name": "block4c_se_reduce/kernel", "shape": [1, 1, 480, 20], "dtype": "float32"}, {"name": "block4c_se_reduce/bias", "shape": [20], "dtype": "float32"}, {"name": "block5a_bn/gamma", "shape": [480], "dtype": "float32"}, {"name": "block5a_bn/beta", "shape": [480], "dtype": "float32"}, {"name": "block5a_bn/moving_mean", "shape": [480], "dtype": "float32"}, {"name": "block5a_bn/moving_variance", "shape": [480], "dtype": "float32"}, {"name": "block5a_dwconv/depthwise_kernel", "shape": [5, 5, 480, 1], "dtype": "float32"}, {"name": "block5a_expand_bn/gamma", "shape": [480], "dtype": "float32"}, {"name": "block5a_expand_bn/beta", "shape": [480], "dtype": "float32"}, {"name": "block5a_expand_bn/moving_mean", "shape": [480], "dtype": "float32"}, {"name": "block5a_expand_bn/moving_variance", "shape": [480], "dtype": "float32"}, {"name": "block5a_expand_conv/kernel", "shape": [1, 1, 80, 480], "dtype": "float32"}, {"name": "block5a_project_bn/gamma", "shape": [112], "dtype": "float32"}, {"name": "block5a_project_bn/beta", "shape": [112], "dtype": "float32"}, {"name": "block5a_project_bn/moving_mean", "shape": [112], "dtype": "float32"}, {"name": "block5a_project_bn/moving_variance", "shape": [112], "dtype": "float32"}, {"name": "block5a_project_conv/kernel", "shape": [1, 1, 480, 112], "dtype": "float32"}, {"name": "block5a_se_expand/kernel", "shape": [1, 1, 20, 480], "dtype": "float32"}, {"name": "block5a_se_expand/bias", "shape": [480], "dtype": "float32"}, {"name": "block5a_se_reduce/kernel", "shape": [1, 1, 480, 20], "dtype": "float32"}, {"name": "block5a_se_reduce/bias", "shape": [20], "dtype": "float32"}, {"name": "block5b_bn/gamma", "shape": [672], "dtype": "float32"}, {"name": "block5b_bn/beta", "shape": [672], "dtype": "float32"}, {"name": "block5b_bn/moving_mean", "shape": [672], "dtype": "float32"}, {"name": "block5b_bn/moving_variance", "shape": [672], "dtype": "float32"}, {"name": "block5b_dwconv/depthwise_kernel", "shape": [5, 5, 672, 1], "dtype": "float32"}, {"name": "block5b_expand_bn/gamma", "shape": [672], "dtype": "float32"}, {"name": "block5b_expand_bn/beta", "shape": [672], "dtype": "float32"}, {"name": "block5b_expand_bn/moving_mean", "shape": [672], "dtype": "float32"}, {"name": "block5b_expand_bn/moving_variance", "shape": [672], "dtype": "float32"}, {"name": "block5b_expand_conv/kernel", "shape": [1, 1, 112, 672], "dtype": "float32"}, {"name": "block5b_project_bn/gamma", "shape": [112], "dtype": "float32"}, {"name": "block5b_project_bn/beta", "shape": [112], "dtype": "float32"}, {"name": "block5b_project_bn/moving_mean", "shape": [112], "dtype": "float32"}, {"name": "block5b_project_bn/moving_variance", "shape": [112], "dtype": "float32"}, {"name": "block5b_project_conv/kernel", "shape": [1, 1, 672, 112], "dtype": "float32"}, {"name": "block5b_se_expand/kernel", "shape": [1, 1, 28, 672], "dtype": "float32"}, {"name": "block5b_se_expand/bias", "shape": [672], "dtype": "float32"}, {"name": "block5b_se_reduce/kernel", "shape": [1, 1, 672, 28], "dtype": "float32"}, {"name": "block5b_se_reduce/bias", "shape": [28], "dtype": "float32"}, {"name": "block5c_bn/gamma", "shape": [672], "dtype": "float32"}, {"name": "block5c_bn/beta", "shape": [672], "dtype": "float32"}, {"name": "block5c_bn/moving_mean", "shape": [672], "dtype": "float32"}, {"name": "block5c_bn/moving_variance", "shape": [672], "dtype": "float32"}, {"name": "block5c_dwconv/depthwise_kernel", "shape": [5, 5, 672, 1], "dtype": "float32"}, {"name": "block5c_expand_bn/gamma", "shape": [672], "dtype": "float32"}, {"name": "block5c_expand_bn/beta", "shape": [672], "dtype": "float32"}, {"name": "block5c_expand_bn/moving_mean", "shape": [672], "dtype": "float32"}, {"name": "block5c_expand_bn/moving_variance", "shape": [672], "dtype": "float32"}, {"name": "block5c_expand_conv/kernel", "shape": [1, 1, 112, 672], "dtype": "float32"}, {"name": "block5c_project_bn/gamma", "shape": [112], "dtype": "float32"}, {"name": "block5c_project_bn/beta", "shape": [112], "dtype": "float32"}, {"name": "block5c_project_bn/moving_mean", "shape": [112], "dtype": "float32"}, {"name": "block5c_project_bn/moving_variance", "shape": [112], "dtype": "float32"}, {"name": "block5c_project_conv/kernel", "shape": [1, 1, 672, 112], "dtype": "float32"}, {"name": "block5c_se_expand/kernel", "shape": [1, 1, 28, 672], "dtype": "float32"}, {"name": "block5c_se_expand/bias", "shape": [672], "dtype": "float32"}, {"name": "block5c_se_reduce/kernel", "shape": [1, 1, 672, 28], "dtype": "float32"}, {"name": "block5c_se_reduce/bias", "shape": [28], "dtype": "float32"}, {"name": "block6a_bn/gamma", "shape": [672], "dtype": "float32"}, {"name": "block6a_bn/beta", "shape": [672], "dtype": "float32"}, {"name": "block6a_bn/moving_mean", "shape": [672], "dtype": "float32"}, {"name": "block6a_bn/moving_variance", "shape": [672], "dtype": "float32"}, {"name": "block6a_dwconv/depthwise_kernel", "shape": [5, 5, 672, 1], "dtype": "float32"}, {"name": "block6a_expand_bn/gamma", "shape": [672], "dtype": "float32"}, {"name": "block6a_expand_bn/beta", "shape": [672], "dtype": "float32"}, {"name": "block6a_expand_bn/moving_mean", "shape": [672], "dtype": "float32"}, {"name": "block6a_expand_bn/moving_variance", "shape": [672], "dtype": "float32"}, {"name": "block6a_expand_conv/kernel", "shape": [1, 1, 112, 672], "dtype": "float32"}, {"name": "block6a_project_bn/gamma", "shape": [192], "dtype": "float32"}, {"name": "block6a_project_bn/beta", "shape": [192], "dtype": "float32"}, {"name": "block6a_project_bn/moving_mean", "shape": [192], "dtype": "float32"}, {"name": "block6a_project_bn/moving_variance", "shape": [192], "dtype": "float32"}, {"name": "block6a_project_conv/kernel", "shape": [1, 1, 672, 192], "dtype": "float32"}, {"name": "block6a_se_expand/kernel", "shape": [1, 1, 28, 672], "dtype": "float32"}, {"name": "block6a_se_expand/bias", "shape": [672], "dtype": "float32"}, {"name": "block6a_se_reduce/kernel", "shape": [1, 1, 672, 28], "dtype": "float32"}, {"name": "block6a_se_reduce/bias", "shape": [28], "dtype": "float32"}, {"name": "block6b_bn/gamma", "shape": [1152], "dtype": "float32"}, {"name": "block6b_bn/beta", "shape": [1152], "dtype": "float32"}, {"name": "block6b_bn/moving_mean", "shape": [1152], "dtype": "float32"}, {"name": "block6b_bn/moving_variance", "shape": [1152], "dtype": "float32"}, {"name": "block6b_dwconv/depthwise_kernel", "shape": [5, 5, 1152, 1], "dtype": "float32"}, {"name": "block6b_expand_bn/gamma", "shape": [1152], "dtype": "float32"}, {"name": "block6b_expand_bn/beta", "shape": [1152], "dtype": "float32"}, {"name": "block6b_expand_bn/moving_mean", "shape": [1152], "dtype": "float32"}, {"name": "block6b_expand_bn/moving_variance", "shape": [1152], "dtype": "float32"}, {"name": "block6b_expand_conv/kernel", "shape": [1, 1, 192, 1152], "dtype": "float32"}, {"name": "block6b_project_bn/gamma", "shape": [192], "dtype": "float32"}, {"name": "block6b_project_bn/beta", "shape": [192], "dtype": "float32"}, {"name": "block6b_project_bn/moving_mean", "shape": [192], "dtype": "float32"}, {"name": "block6b_project_bn/moving_variance", "shape": [192], "dtype": "float32"}, {"name": "block6b_project_conv/kernel", "shape": [1, 1, 1152, 192], "dtype": "float32"}, {"name": "block6b_se_expand/kernel", "shape": [1, 1, 48, 1152], "dtype": "float32"}, {"name": "block6b_se_expand/bias", "shape": [1152], "dtype": "float32"}, {"name": "block6b_se_reduce/kernel", "shape": [1, 1, 1152, 48], "dtype": "float32"}, {"name": "block6b_se_reduce/bias", "shape": [48], "dtype": "float32"}, {"name": "block6c_bn/gamma", "shape": [1152], "dtype": "float32"}, {"name": "block6c_bn/beta", "shape": [1152], "dtype": "float32"}, {"name": "block6c_bn/moving_mean", "shape": [1152], "dtype": "float32"}, {"name": "block6c_bn/moving_variance", "shape": [1152], "dtype": "float32"}, {"name": "block6c_dwconv/depthwise_kernel", "shape": [5, 5, 1152, 1], "dtype": "float32"}, {"name": "block6c_expand_bn/gamma", "shape": [1152], "dtype": "float32"}, {"name": "block6c_expand_bn/beta", "shape": [1152], "dtype": "float32"}, {"name": "block6c_expand_bn/moving_mean", "shape": [1152], "dtype": "float32"}, {"name": "block6c_expand_bn/moving_variance", "shape": [1152], "dtype": "float32"}, {"name": "block6c_expand_conv/kernel", "shape": [1, 1, 192, 1152], "dtype": "float32"}, {"name": "block6c_project_bn/gamma", "shape": [192], "dtype": "float32"}, {"name": "block6c_project_bn/beta", "shape": [192], "dtype": "float32"}, {"name": "block6c_project_bn/moving_mean", "shape": [192], "dtype": "float32"}, {"name": "block6c_project_bn/moving_variance", "shape": [192], "dtype": "float32"}, {"name": "block6c_project_conv/kernel", "shape": [1, 1, 1152, 192], "dtype": "float32"}, {"name": "block6c_se_expand/kernel", "shape": [1, 1, 48, 1152], "dtype": "float32"}, {"name": "block6c_se_expand/bias", "shape": [1152], "dtype": "float32"}, {"name": "block6c_se_reduce/kernel", "shape": [1, 1, 1152, 48], "dtype": "float32"}, {"name": "block6c_se_reduce/bias", "shape": [48], "dtype": "float32"}, {"name": "block6d_bn/gamma", "shape": [1152], "dtype": "float32"}, {"name": "block6d_bn/beta", "shape": [1152], "dtype": "float32"}, {"name": "block6d_bn/moving_mean", "shape": [1152], "dtype": "float32"}, {"name": "block6d_bn/moving_variance", "shape": [1152], "dtype": "float32"}, {"name": "block6d_dwconv/depthwise_kernel", "shape": [5, 5, 1152, 1], "dtype": "float32"}, {"name": "block6d_expand_bn/gamma", "shape": [1152], "dtype": "float32"}, {"name": "block6d_expand_bn/beta", "shape": [1152], "dtype": "float32"}, {"name": "block6d_expand_bn/moving_mean", "shape": [1152], "dtype": "float32"}, {"name": "block6d_expand_bn/moving_variance", "shape": [1152], "dtype": "float32"}, {"name": "block6d_expand_conv/kernel", "shape": [1, 1, 192, 1152], "dtype": "float32"}, {"name": "block6d_project_bn/gamma", "shape": [192], "dtype": "float32"}, {"name": "block6d_project_bn/beta", "shape": [192], "dtype": "float32"}, {"name": "block6d_project_bn/moving_mean", "shape": [192], "dtype": "float32"}, {"name": "block6d_project_bn/moving_variance", "shape": [192], "dtype": "float32"}, {"name": "block6d_project_conv/kernel", "shape": [1, 1, 1152, 192], "dtype": "float32"}, {"name": "block6d_se_expand/kernel", "shape": [1, 1, 48, 1152], "dtype": "float32"}, {"name": "block6d_se_expand/bias", "shape": [1152], "dtype": "float32"}, {"name": "block6d_se_reduce/kernel", "shape": [1, 1, 1152, 48], "dtype": "float32"}, {"name": "block6d_se_reduce/bias", "shape": [48], "dtype": "float32"}, {"name": "block7a_bn/gamma", "shape": [1152], "dtype": "float32"}, {"name": "block7a_bn/beta", "shape": [1152], "dtype": "float32"}, {"name": "block7a_bn/moving_mean", "shape": [1152], "dtype": "float32"}, {"name": "block7a_bn/moving_variance", "shape": [1152], "dtype": "float32"}, {"name": "block7a_dwconv/depthwise_kernel", "shape": [3, 3, 1152, 1], "dtype": "float32"}, {"name": "block7a_expand_bn/gamma", "shape": [1152], "dtype": "float32"}, {"name": "block7a_expand_bn/beta", "shape": [1152], "dtype": "float32"}, {"name": "block7a_expand_bn/moving_mean", "shape": [1152], "dtype": "float32"}, {"name": "block7a_expand_bn/moving_variance", "shape": [1152], "dtype": "float32"}, {"name": "block7a_expand_conv/kernel", "shape": [1, 1, 192, 1152], "dtype": "float32"}, {"name": "block7a_project_bn/gamma", "shape": [320], "dtype": "float32"}, {"name": "block7a_project_bn/beta", "shape": [320], "dtype": "float32"}, {"name": "block7a_project_bn/moving_mean", "shape": [320], "dtype": "float32"}, {"name": "block7a_project_bn/moving_variance", "shape": [320], "dtype": "float32"}, {"name": "block7a_project_conv/kernel", "shape": [1, 1, 1152, 320], "dtype": "float32"}, {"name": "block7a_se_expand/kernel", "shape": [1, 1, 48, 1152], "dtype": "float32"}, {"name": "block7a_se_expand/bias", "shape": [1152], "dtype": "float32"}, {"name": "block7a_se_reduce/kernel", "shape": [1, 1, 1152, 48], "dtype": "float32"}, {"name": "block7a_se_reduce/bias", "shape": [48], "dtype": "float32"}, {"name": "conv2d/kernel", "shape": [3, 3, 64, 64], "dtype": "float32"}, {"name": "conv2d/bias", "shape": [64], "dtype": "float32"}, {"name": "conv2d_1/kernel", "shape": [3, 3, 64, 64], "dtype": "float32"}, {"name": "conv2d_1/bias", "shape": [64], "dtype": "float32"}, {"name": "conv2d_2/kernel", "shape": [3, 3, 64, 64], "dtype": "float32"}, {"name": "conv2d_2/bias", "shape": [64], "dtype": "float32"}, {"name": "conv2d_3/kernel", "shape": [3, 3, 64, 36], "dtype": "float32"}, {"name": "conv2d_3/bias", "shape": [36], "dtype": "float32"}, {"name": "conv2d_4/kernel", "shape": [3, 3, 64, 64], "dtype": "float32"}, {"name": "conv2d_4/bias", "shape": [64], "dtype": "float32"}, {"name": "conv2d_5/kernel", "shape": [3, 3, 64, 64], "dtype": "float32"}, {"name": "conv2d_5/bias", "shape": [64], "dtype": "float32"}, {"name": "conv2d_6/kernel", "shape": [3, 3, 64, 64], "dtype": "float32"}, {"name": "conv2d_6/bias", "shape": [64], "dtype": "float32"}, {"name": "pyramid_classification/kernel", "shape": [3, 3, 64, 180], "dtype": "float32"}, {"name": "pyramid_classification/bias", "shape": [180], "dtype": "float32"}, {"name": "stem_bn/gamma", "shape": [32], "dtype": "float32"}, {"name": "stem_bn/beta", "shape": [32], "dtype": "float32"}, {"name": "stem_bn/moving_mean", "shape": [32], "dtype": "float32"}, {"name": "stem_bn/moving_variance", "shape": [32], "dtype": "float32"}, {"name": "stem_conv/kernel", "shape": [3, 3, 3, 32], "dtype": "float32"}, {"name": "w_bi_fpn_add/w_bi_fpn_add", "shape": [2], "dtype": "float32"}, {"name": "w_bi_fpn_add_1/w_bi_fpn_add_1", "shape": [2], "dtype": "float32"}, {"name": "w_bi_fpn_add_10/w_bi_fpn_add_10", "shape": [2], "dtype": "float32"}, {"name": "w_bi_fpn_add_11/w_bi_fpn_add_11", "shape": [2], "dtype": "float32"}, {"name": "w_bi_fpn_add_12/w_bi_fpn_add_12", "shape": [3], "dtype": "float32"}, {"name": "w_bi_fpn_add_13/w_bi_fpn_add_13", "shape": [3], "dtype": "float32"}, {"name": "w_bi_fpn_add_14/w_bi_fpn_add_14", "shape": [3], "dtype": "float32"}, {"name": "w_bi_fpn_add_15/w_bi_fpn_add_15", "shape": [2], "dtype": "float32"}, {"name": "w_bi_fpn_add_2/w_bi_fpn_add_2", "shape": [2], "dtype": "float32"}, {"name": "w_bi_fpn_add_3/w_bi_fpn_add_3", "shape": [2], "dtype": "float32"}, {"name": "w_bi_fpn_add_4/w_bi_fpn_add_4", "shape": [3], "dtype": "float32"}, {"name": "w_bi_fpn_add_5/w_bi_fpn_add_5", "shape": [3], "dtype": "float32"}, {"name": "w_bi_fpn_add_6/w_bi_fpn_add_6", "shape": [3], "dtype": "float32"}, {"name": "w_bi_fpn_add_7/w_bi_fpn_add_7", "shape": [2], "dtype": "float32"}, {"name": "w_bi_fpn_add_8/w_bi_fpn_add_8", "shape": [2], "dtype": "float32"}, {"name": "w_bi_fpn_add_9/w_bi_fpn_add_9", "shape": [2], "dtype": "float32"}]}]}