{"format": "graph-model", "generatedBy": "2.1.0", "convertedBy": "TensorFlow.js Converter v1.6.0", "userDefinedMetadata": {"signature": {"outputs": {"get_boxes": {"name": "get_boxes"}, "get_classes": {"name": "get_classes"}, "get_scores": {"name": "get_scores"}}}}, "modelTopology": {"node": [{"name": "box_net/box-0/depthwise_kernel", "op": "Const", "attr": {"value": {"tensor": {"dtype": "DT_FLOAT", "tensorShape": {"dim": [{"size": "3"}, {"size": "3"}, {"size": "88"}, {"size": "1"}]}}}, "dtype": {"type": "DT_FLOAT"}}}, {"name": "box_net/box-1/depthwise_kernel", "op": "Const", "attr": {"dtype": {"type": "DT_FLOAT"}, "value": {"tensor": {"dtype": "DT_FLOAT", "tensorShape": {"dim": [{"size": "3"}, {"size": "3"}, {"size": "88"}, {"size": "1"}]}}}}}, {"name": "box_net/box-2/depthwise_kernel", "op": "Const", "attr": {"value": {"tensor": {"dtype": "DT_FLOAT", "tensorShape": {"dim": [{"size": "3"}, {"size": "3"}, {"size": "88"}, {"size": "1"}]}}}, "dtype": {"type": "DT_FLOAT"}}}, {"name": "box_net/box-predict/depthwise_kernel", "op": "Const", "attr": {"value": {"tensor": {"dtype": "DT_FLOAT", "tensorShape": {"dim": [{"size": "3"}, {"size": "3"}, {"size": "88"}, {"size": "1"}]}}}, "dtype": {"type": "DT_FLOAT"}}}, {"name": "box_net/box-predict/pointwise_kernel", "op": "Const", "attr": {"value": {"tensor": {"dtype": "DT_FLOAT", "tensorShape": {"dim": [{"size": "1"}, {"size": "1"}, {"size": "88"}, {"size": "36"}]}}}, "dtype": {"type": "DT_FLOAT"}}}, {"name": "Reshape_1/shape", "op": "Const", "attr": {"value": {"tensor": {"dtype": "DT_INT32", "tensorShape": {"dim": [{"size": "3"}]}}}, "dtype": {"type": "DT_INT32"}}}, {"name": "strided_slice_7/stack_1", "op": "Const", "attr": {"value": {"tensor": {"dtype": "DT_INT32", "tensorShape": {"dim": [{"size": "1"}]}}}, "dtype": {"type": "DT_INT32"}}}, {"name": "strided_slice_9/stack_1", "op": "Const", "attr": {"value": {"tensor": {"dtype": "DT_INT32", "tensorShape": {"dim": [{"size": "1"}]}}}, "dtype": {"type": "DT_INT32"}}}, {"name": "Const_2", "op": "Const", "attr": {"value": {"tensor": {"dtype": "DT_FLOAT", "tensorShape": {"dim": [{"size": "76725"}, {"size": "4"}]}}}, "dtype": {"type": "DT_FLOAT"}}}, {"name": "transpose/perm", "op": "Const", "attr": {"dtype": {"type": "DT_INT32"}, "value": {"tensor": {"dtype": "DT_INT32", "tensorShape": {"dim": [{"size": "2"}]}}}}}, {"name": "strided_slice_7/stack", "op": "Const", "attr": {"value": {"tensor": {"dtype": "DT_INT32", "tensorShape": {"dim": [{"size": "1"}]}}}, "dtype": {"type": "DT_INT32"}}}, {"name": "ConstantFolding/fpn_cells/cell_3/fnode6/truediv_recip", "op": "Const", "attr": {"value": {"tensor": {"dtype": "DT_FLOAT", "tensorShape": {}}}, "dtype": {"type": "DT_FLOAT"}}}, {"name": "ConstantFolding/fpn_cells/cell_3/fnode7/truediv_recip", "op": "Const", "attr": {"value": {"tensor": {"dtype": "DT_FLOAT", "tensorShape": {}}}, "dtype": {"type": "DT_FLOAT"}}}, {"name": "fpn_cells/cell_0/fnode0/resample_1_4_5/nearest_upsampling/ones", "op": "Const", "attr": {"dtype": {"type": "DT_FLOAT"}, "value": {"tensor": {"dtype": "DT_FLOAT", "tensorShape": {"dim": [{"size": "1"}, {"size": "1"}, {"size": "2"}, {"size": "1"}, {"size": "2"}, {"size": "1"}]}}}}}, {"name": "fpn_cells/cell_0/fnode0/op_after_combine5/conv/depthwise_kernel", "op": "Const", "attr": {"value": {"tensor": {"dtype": "DT_FLOAT", "tensorShape": {"dim": [{"size": "3"}, {"size": "3"}, {"size": "88"}, {"size": "1"}]}}}, "dtype": {"type": "DT_FLOAT"}}}, {"name": "fpn_cells/cell_0/fnode1/op_after_combine6/conv/depthwise_kernel", "op": "Const", "attr": {"value": {"tensor": {"dtype": "DT_FLOAT", "tensorShape": {"dim": [{"size": "3"}, {"size": "3"}, {"size": "88"}, {"size": "1"}]}}}, "dtype": {"type": "DT_FLOAT"}}}, {"name": "fpn_cells/cell_0/fnode2/op_after_combine7/conv/depthwise_kernel", "op": "Const", "attr": {"value": {"tensor": {"dtype": "DT_FLOAT", "tensorShape": {"dim": [{"size": "3"}, {"size": "3"}, {"size": "88"}, {"size": "1"}]}}}, "dtype": {"type": "DT_FLOAT"}}}, {"name": "fpn_cells/cell_0/fnode3/op_after_combine8/conv/depthwise_kernel", "op": "Const", "attr": {"value": {"tensor": {"dtype": "DT_FLOAT", "tensorShape": {"dim": [{"size": "3"}, {"size": "3"}, {"size": "88"}, {"size": "1"}]}}}, "dtype": {"type": "DT_FLOAT"}}}, {"name": "fpn_cells/cell_0/fnode4/op_after_combine9/conv/depthwise_kernel", "op": "Const", "attr": {"dtype": {"type": "DT_FLOAT"}, "value": {"tensor": {"dtype": "DT_FLOAT", "tensorShape": {"dim": [{"size": "3"}, {"size": "3"}, {"size": "88"}, {"size": "1"}]}}}}}, {"name": "fpn_cells/cell_0/fnode5/op_after_combine10/conv/depthwise_kernel", "op": "Const", "attr": {"dtype": {"type": "DT_FLOAT"}, "value": {"tensor": {"dtype": "DT_FLOAT", "tensorShape": {"dim": [{"size": "3"}, {"size": "3"}, {"size": "88"}, {"size": "1"}]}}}}}, {"name": "fpn_cells/cell_0/fnode6/op_after_combine11/conv/depthwise_kernel", "op": "Const", "attr": {"value": {"tensor": {"dtype": "DT_FLOAT", "tensorShape": {"dim": [{"size": "3"}, {"size": "3"}, {"size": "88"}, {"size": "1"}]}}}, "dtype": {"type": "DT_FLOAT"}}}, {"name": "efficientnet-b1/blocks_10/se/conv2d/kernel", "op": "Const", "attr": {"value": {"tensor": {"dtype": "DT_FLOAT", "tensorShape": {"dim": [{"size": "1"}, {"size": "1"}, {"size": "480"}, {"size": "20"}]}}}, "dtype": {"type": "DT_FLOAT"}}}, {"name": "efficientnet-b1/blocks_10/se/conv2d_1/kernel", "op": "Const", "attr": {"value": {"tensor": {"dtype": "DT_FLOAT", "tensorShape": {"dim": [{"size": "1"}, {"size": "1"}, {"size": "20"}, {"size": "480"}]}}}, "dtype": {"type": "DT_FLOAT"}}}, {"name": "ConstantFolding/truediv_recip", "op": "Const", "attr": {"dtype": {"type": "DT_FLOAT"}, "value": {"tensor": {"dtype": "DT_FLOAT", "tensorShape": {"dim": [{"size": "1"}, {"size": "1"}, {"size": "3"}]}}}}}, {"name": "ExpandDims_1", "op": "Const", "attr": {"value": {"tensor": {"dtype": "DT_FLOAT", "tensorShape": {"dim": [{"size": "1"}, {"size": "1"}, {"size": "3"}]}}}, "dtype": {"type": "DT_FLOAT"}}}, {"name": "efficientnet-b1/blocks_0/se/conv2d/kernel", "op": "Const", "attr": {"value": {"tensor": {"dtype": "DT_FLOAT", "tensorShape": {"dim": [{"size": "1"}, {"size": "1"}, {"size": "32"}, {"size": "8"}]}}}, "dtype": {"type": "DT_FLOAT"}}}, {"name": "efficientnet-b1/blocks_0/se/conv2d_1/kernel", "op": "Const", "attr": {"dtype": {"type": "DT_FLOAT"}, "value": {"tensor": {"dtype": "DT_FLOAT", "tensorShape": {"dim": [{"size": "1"}, {"size": "1"}, {"size": "8"}, {"size": "32"}]}}}}}, {"name": "efficientnet-b1/blocks_1/se/conv2d/kernel", "op": "Const", "attr": {"value": {"tensor": {"dtype": "DT_FLOAT", "tensorShape": {"dim": [{"size": "1"}, {"size": "1"}, {"size": "16"}, {"size": "4"}]}}}, "dtype": {"type": "DT_FLOAT"}}}, {"name": "efficientnet-b1/blocks_1/se/conv2d_1/kernel", "op": "Const", "attr": {"value": {"tensor": {"dtype": "DT_FLOAT", "tensorShape": {"dim": [{"size": "1"}, {"size": "1"}, {"size": "4"}, {"size": "16"}]}}}, "dtype": {"type": "DT_FLOAT"}}}, {"name": "efficientnet-b1/blocks_2/se/conv2d/kernel", "op": "Const", "attr": {"value": {"tensor": {"dtype": "DT_FLOAT", "tensorShape": {"dim": [{"size": "1"}, {"size": "1"}, {"size": "96"}, {"size": "4"}]}}}, "dtype": {"type": "DT_FLOAT"}}}, {"name": "efficientnet-b1/blocks_2/se/conv2d_1/kernel", "op": "Const", "attr": {"value": {"tensor": {"dtype": "DT_FLOAT", "tensorShape": {"dim": [{"size": "1"}, {"size": "1"}, {"size": "4"}, {"size": "96"}]}}}, "dtype": {"type": "DT_FLOAT"}}}, {"name": "efficientnet-b1/blocks_3/se/conv2d/kernel", "op": "Const", "attr": {"dtype": {"type": "DT_FLOAT"}, "value": {"tensor": {"dtype": "DT_FLOAT", "tensorShape": {"dim": [{"size": "1"}, {"size": "1"}, {"size": "144"}, {"size": "6"}]}}}}}, {"name": "efficientnet-b1/blocks_3/se/conv2d_1/kernel", "op": "Const", "attr": {"value": {"tensor": {"dtype": "DT_FLOAT", "tensorShape": {"dim": [{"size": "1"}, {"size": "1"}, {"size": "6"}, {"size": "144"}]}}}, "dtype": {"type": "DT_FLOAT"}}}, {"name": "efficientnet-b1/blocks_4/se/conv2d/kernel", "op": "Const", "attr": {"dtype": {"type": "DT_FLOAT"}, "value": {"tensor": {"dtype": "DT_FLOAT", "tensorShape": {"dim": [{"size": "1"}, {"size": "1"}, {"size": "144"}, {"size": "6"}]}}}}}, {"name": "efficientnet-b1/blocks_4/se/conv2d_1/kernel", "op": "Const", "attr": {"value": {"tensor": {"dtype": "DT_FLOAT", "tensorShape": {"dim": [{"size": "1"}, {"size": "1"}, {"size": "6"}, {"size": "144"}]}}}, "dtype": {"type": "DT_FLOAT"}}}, {"name": "efficientnet-b1/blocks_5/se/conv2d/kernel", "op": "Const", "attr": {"value": {"tensor": {"dtype": "DT_FLOAT", "tensorShape": {"dim": [{"size": "1"}, {"size": "1"}, {"size": "144"}, {"size": "6"}]}}}, "dtype": {"type": "DT_FLOAT"}}}, {"name": "efficientnet-b1/blocks_5/se/conv2d_1/kernel", "op": "Const", "attr": {"value": {"tensor": {"dtype": "DT_FLOAT", "tensorShape": {"dim": [{"size": "1"}, {"size": "1"}, {"size": "6"}, {"size": "144"}]}}}, "dtype": {"type": "DT_FLOAT"}}}, {"name": "efficientnet-b1/blocks_6/se/conv2d/kernel", "op": "Const", "attr": {"value": {"tensor": {"dtype": "DT_FLOAT", "tensorShape": {"dim": [{"size": "1"}, {"size": "1"}, {"size": "240"}, {"size": "10"}]}}}, "dtype": {"type": "DT_FLOAT"}}}, {"name": "efficientnet-b1/blocks_6/se/conv2d_1/kernel", "op": "Const", "attr": {"dtype": {"type": "DT_FLOAT"}, "value": {"tensor": {"dtype": "DT_FLOAT", "tensorShape": {"dim": [{"size": "1"}, {"size": "1"}, {"size": "10"}, {"size": "240"}]}}}}}, {"name": "efficientnet-b1/blocks_7/se/conv2d/kernel", "op": "Const", "attr": {"value": {"tensor": {"dtype": "DT_FLOAT", "tensorShape": {"dim": [{"size": "1"}, {"size": "1"}, {"size": "240"}, {"size": "10"}]}}}, "dtype": {"type": "DT_FLOAT"}}}, {"name": "efficientnet-b1/blocks_7/se/conv2d_1/kernel", "op": "Const", "attr": {"dtype": {"type": "DT_FLOAT"}, "value": {"tensor": {"dtype": "DT_FLOAT", "tensorShape": {"dim": [{"size": "1"}, {"size": "1"}, {"size": "10"}, {"size": "240"}]}}}}}, {"name": "efficientnet-b1/blocks_8/se/conv2d/kernel", "op": "Const", "attr": {"value": {"tensor": {"dtype": "DT_FLOAT", "tensorShape": {"dim": [{"size": "1"}, {"size": "1"}, {"size": "240"}, {"size": "10"}]}}}, "dtype": {"type": "DT_FLOAT"}}}, {"name": "efficientnet-b1/blocks_8/se/conv2d_1/kernel", "op": "Const", "attr": {"value": {"tensor": {"dtype": "DT_FLOAT", "tensorShape": {"dim": [{"size": "1"}, {"size": "1"}, {"size": "10"}, {"size": "240"}]}}}, "dtype": {"type": "DT_FLOAT"}}}, {"name": "efficientnet-b1/blocks_9/se/conv2d/kernel", "op": "Const", "attr": {"value": {"tensor": {"dtype": "DT_FLOAT", "tensorShape": {"dim": [{"size": "1"}, {"size": "1"}, {"size": "480"}, {"size": "20"}]}}}, "dtype": {"type": "DT_FLOAT"}}}, {"name": "efficientnet-b1/blocks_9/se/conv2d_1/kernel", "op": "Const", "attr": {"value": {"tensor": {"dtype": "DT_FLOAT", "tensorShape": {"dim": [{"size": "1"}, {"size": "1"}, {"size": "20"}, {"size": "480"}]}}}, "dtype": {"type": "DT_FLOAT"}}}, {"name": "efficientnet-b1/blocks_11/se/conv2d/kernel", "op": "Const", "attr": {"value": {"tensor": {"dtype": "DT_FLOAT", "tensorShape": {"dim": [{"size": "1"}, {"size": "1"}, {"size": "480"}, {"size": "20"}]}}}, "dtype": {"type": "DT_FLOAT"}}}, {"name": "efficientnet-b1/blocks_11/se/conv2d_1/kernel", "op": "Const", "attr": {"value": {"tensor": {"dtype": "DT_FLOAT", "tensorShape": {"dim": [{"size": "1"}, {"size": "1"}, {"size": "20"}, {"size": "480"}]}}}, "dtype": {"type": "DT_FLOAT"}}}, {"name": "efficientnet-b1/blocks_12/se/conv2d/kernel", "op": "Const", "attr": {"dtype": {"type": "DT_FLOAT"}, "value": {"tensor": {"dtype": "DT_FLOAT", "tensorShape": {"dim": [{"size": "1"}, {"size": "1"}, {"size": "480"}, {"size": "20"}]}}}}}, {"name": "efficientnet-b1/blocks_12/se/conv2d_1/kernel", "op": "Const", "attr": {"value": {"tensor": {"dtype": "DT_FLOAT", "tensorShape": {"dim": [{"size": "1"}, {"size": "1"}, {"size": "20"}, {"size": "480"}]}}}, "dtype": {"type": "DT_FLOAT"}}}, {"name": "efficientnet-b1/blocks_13/se/conv2d/kernel", "op": "Const", "attr": {"dtype": {"type": "DT_FLOAT"}, "value": {"tensor": {"dtype": "DT_FLOAT", "tensorShape": {"dim": [{"size": "1"}, {"size": "1"}, {"size": "672"}, {"size": "28"}]}}}}}, {"name": "efficientnet-b1/blocks_13/se/conv2d_1/kernel", "op": "Const", "attr": {"value": {"tensor": {"dtype": "DT_FLOAT", "tensorShape": {"dim": [{"size": "1"}, {"size": "1"}, {"size": "28"}, {"size": "672"}]}}}, "dtype": {"type": "DT_FLOAT"}}}, {"name": "efficientnet-b1/blocks_14/se/conv2d/kernel", "op": "Const", "attr": {"dtype": {"type": "DT_FLOAT"}, "value": {"tensor": {"dtype": "DT_FLOAT", "tensorShape": {"dim": [{"size": "1"}, {"size": "1"}, {"size": "672"}, {"size": "28"}]}}}}}, {"name": "efficientnet-b1/blocks_14/se/conv2d_1/kernel", "op": "Const", "attr": {"dtype": {"type": "DT_FLOAT"}, "value": {"tensor": {"dtype": "DT_FLOAT", "tensorShape": {"dim": [{"size": "1"}, {"size": "1"}, {"size": "28"}, {"size": "672"}]}}}}}, {"name": "efficientnet-b1/blocks_15/se/conv2d/kernel", "op": "Const", "attr": {"value": {"tensor": {"dtype": "DT_FLOAT", "tensorShape": {"dim": [{"size": "1"}, {"size": "1"}, {"size": "672"}, {"size": "28"}]}}}, "dtype": {"type": "DT_FLOAT"}}}, {"name": "efficientnet-b1/blocks_15/se/conv2d_1/kernel", "op": "Const", "attr": {"value": {"tensor": {"dtype": "DT_FLOAT", "tensorShape": {"dim": [{"size": "1"}, {"size": "1"}, {"size": "28"}, {"size": "672"}]}}}, "dtype": {"type": "DT_FLOAT"}}}, {"name": "efficientnet-b1/blocks_16/se/conv2d/kernel", "op": "Const", "attr": {"value": {"tensor": {"dtype": "DT_FLOAT", "tensorShape": {"dim": [{"size": "1"}, {"size": "1"}, {"size": "672"}, {"size": "28"}]}}}, "dtype": {"type": "DT_FLOAT"}}}, {"name": "efficientnet-b1/blocks_16/se/conv2d_1/kernel", "op": "Const", "attr": {"value": {"tensor": {"dtype": "DT_FLOAT", "tensorShape": {"dim": [{"size": "1"}, {"size": "1"}, {"size": "28"}, {"size": "672"}]}}}, "dtype": {"type": "DT_FLOAT"}}}, {"name": "efficientnet-b1/blocks_17/se/conv2d/kernel", "op": "Const", "attr": {"value": {"tensor": {"dtype": "DT_FLOAT", "tensorShape": {"dim": [{"size": "1"}, {"size": "1"}, {"size": "1152"}, {"size": "48"}]}}}, "dtype": {"type": "DT_FLOAT"}}}, {"name": "efficientnet-b1/blocks_17/se/conv2d_1/kernel", "op": "Const", "attr": {"value": {"tensor": {"dtype": "DT_FLOAT", "tensorShape": {"dim": [{"size": "1"}, {"size": "1"}, {"size": "48"}, {"size": "1152"}]}}}, "dtype": {"type": "DT_FLOAT"}}}, {"name": "efficientnet-b1/blocks_18/se/conv2d/kernel", "op": "Const", "attr": {"value": {"tensor": {"dtype": "DT_FLOAT", "tensorShape": {"dim": [{"size": "1"}, {"size": "1"}, {"size": "1152"}, {"size": "48"}]}}}, "dtype": {"type": "DT_FLOAT"}}}, {"name": "efficientnet-b1/blocks_18/se/conv2d_1/kernel", "op": "Const", "attr": {"value": {"tensor": {"dtype": "DT_FLOAT", "tensorShape": {"dim": [{"size": "1"}, {"size": "1"}, {"size": "48"}, {"size": "1152"}]}}}, "dtype": {"type": "DT_FLOAT"}}}, {"name": "efficientnet-b1/blocks_19/se/conv2d/kernel", "op": "Const", "attr": {"value": {"tensor": {"dtype": "DT_FLOAT", "tensorShape": {"dim": [{"size": "1"}, {"size": "1"}, {"size": "1152"}, {"size": "48"}]}}}, "dtype": {"type": "DT_FLOAT"}}}, {"name": "efficientnet-b1/blocks_19/se/conv2d_1/kernel", "op": "Const", "attr": {"value": {"tensor": {"dtype": "DT_FLOAT", "tensorShape": {"dim": [{"size": "1"}, {"size": "1"}, {"size": "48"}, {"size": "1152"}]}}}, "dtype": {"type": "DT_FLOAT"}}}, {"name": "efficientnet-b1/blocks_20/se/conv2d/kernel", "op": "Const", "attr": {"dtype": {"type": "DT_FLOAT"}, "value": {"tensor": {"dtype": "DT_FLOAT", "tensorShape": {"dim": [{"size": "1"}, {"size": "1"}, {"size": "1152"}, {"size": "48"}]}}}}}, {"name": "efficientnet-b1/blocks_20/se/conv2d_1/kernel", "op": "Const", "attr": {"value": {"tensor": {"dtype": "DT_FLOAT", "tensorShape": {"dim": [{"size": "1"}, {"size": "1"}, {"size": "48"}, {"size": "1152"}]}}}, "dtype": {"type": "DT_FLOAT"}}}, {"name": "efficientnet-b1/blocks_21/se/conv2d/kernel", "op": "Const", "attr": {"dtype": {"type": "DT_FLOAT"}, "value": {"tensor": {"dtype": "DT_FLOAT", "tensorShape": {"dim": [{"size": "1"}, {"size": "1"}, {"size": "1152"}, {"size": "48"}]}}}}}, {"name": "efficientnet-b1/blocks_21/se/conv2d_1/kernel", "op": "Const", "attr": {"value": {"tensor": {"dtype": "DT_FLOAT", "tensorShape": {"dim": [{"size": "1"}, {"size": "1"}, {"size": "48"}, {"size": "1152"}]}}}, "dtype": {"type": "DT_FLOAT"}}}, {"name": "efficientnet-b1/model/blocks_22/se/Mean/reduction_indices", "op": "Const", "attr": {"value": {"tensor": {"dtype": "DT_INT32", "tensorShape": {"dim": [{"size": "2"}]}}}, "dtype": {"type": "DT_INT32"}}}, {"name": "efficientnet-b1/blocks_22/se/conv2d/kernel", "op": "Const", "attr": {"dtype": {"type": "DT_FLOAT"}, "value": {"tensor": {"dtype": "DT_FLOAT", "tensorShape": {"dim": [{"size": "1"}, {"size": "1"}, {"size": "1920"}, {"size": "80"}]}}}}}, {"name": "efficientnet-b1/blocks_22/se/conv2d_1/kernel", "op": "Const", "attr": {"value": {"tensor": {"dtype": "DT_FLOAT", "tensorShape": {"dim": [{"size": "1"}, {"size": "1"}, {"size": "80"}, {"size": "1920"}]}}}, "dtype": {"type": "DT_FLOAT"}}}, {"name": "fpn_cells/cell_0/fnode7/op_after_combine12/conv/depthwise_kernel", "op": "Const", "attr": {"value": {"tensor": {"dtype": "DT_FLOAT", "tensorShape": {"dim": [{"size": "3"}, {"size": "3"}, {"size": "88"}, {"size": "1"}]}}}, "dtype": {"type": "DT_FLOAT"}}}, {"name": "fpn_cells/cell_1/fnode0/op_after_combine5/conv/depthwise_kernel", "op": "Const", "attr": {"value": {"tensor": {"dtype": "DT_FLOAT", "tensorShape": {"dim": [{"size": "3"}, {"size": "3"}, {"size": "88"}, {"size": "1"}]}}}, "dtype": {"type": "DT_FLOAT"}}}, {"name": "fpn_cells/cell_1/fnode1/op_after_combine6/conv/depthwise_kernel", "op": "Const", "attr": {"dtype": {"type": "DT_FLOAT"}, "value": {"tensor": {"dtype": "DT_FLOAT", "tensorShape": {"dim": [{"size": "3"}, {"size": "3"}, {"size": "88"}, {"size": "1"}]}}}}}, {"name": "fpn_cells/cell_1/fnode2/op_after_combine7/conv/depthwise_kernel", "op": "Const", "attr": {"value": {"tensor": {"dtype": "DT_FLOAT", "tensorShape": {"dim": [{"size": "3"}, {"size": "3"}, {"size": "88"}, {"size": "1"}]}}}, "dtype": {"type": "DT_FLOAT"}}}, {"name": "fpn_cells/cell_1/fnode3/op_after_combine8/conv/depthwise_kernel", "op": "Const", "attr": {"value": {"tensor": {"dtype": "DT_FLOAT", "tensorShape": {"dim": [{"size": "3"}, {"size": "3"}, {"size": "88"}, {"size": "1"}]}}}, "dtype": {"type": "DT_FLOAT"}}}, {"name": "fpn_cells/cell_1/fnode4/op_after_combine9/conv/depthwise_kernel", "op": "Const", "attr": {"value": {"tensor": {"dtype": "DT_FLOAT", "tensorShape": {"dim": [{"size": "3"}, {"size": "3"}, {"size": "88"}, {"size": "1"}]}}}, "dtype": {"type": "DT_FLOAT"}}}, {"name": "fpn_cells/cell_1/fnode5/op_after_combine10/conv/depthwise_kernel", "op": "Const", "attr": {"dtype": {"type": "DT_FLOAT"}, "value": {"tensor": {"dtype": "DT_FLOAT", "tensorShape": {"dim": [{"size": "3"}, {"size": "3"}, {"size": "88"}, {"size": "1"}]}}}}}, {"name": "fpn_cells/cell_1/fnode6/op_after_combine11/conv/depthwise_kernel", "op": "Const", "attr": {"value": {"tensor": {"dtype": "DT_FLOAT", "tensorShape": {"dim": [{"size": "3"}, {"size": "3"}, {"size": "88"}, {"size": "1"}]}}}, "dtype": {"type": "DT_FLOAT"}}}, {"name": "fpn_cells/cell_1/fnode7/op_after_combine12/conv/depthwise_kernel", "op": "Const", "attr": {"value": {"tensor": {"dtype": "DT_FLOAT", "tensorShape": {"dim": [{"size": "3"}, {"size": "3"}, {"size": "88"}, {"size": "1"}]}}}, "dtype": {"type": "DT_FLOAT"}}}, {"name": "fpn_cells/cell_2/fnode0/op_after_combine5/conv/depthwise_kernel", "op": "Const", "attr": {"value": {"tensor": {"dtype": "DT_FLOAT", "tensorShape": {"dim": [{"size": "3"}, {"size": "3"}, {"size": "88"}, {"size": "1"}]}}}, "dtype": {"type": "DT_FLOAT"}}}, {"name": "fpn_cells/cell_2/fnode1/op_after_combine6/conv/depthwise_kernel", "op": "Const", "attr": {"dtype": {"type": "DT_FLOAT"}, "value": {"tensor": {"dtype": "DT_FLOAT", "tensorShape": {"dim": [{"size": "3"}, {"size": "3"}, {"size": "88"}, {"size": "1"}]}}}}}, {"name": "fpn_cells/cell_2/fnode2/op_after_combine7/conv/depthwise_kernel", "op": "Const", "attr": {"dtype": {"type": "DT_FLOAT"}, "value": {"tensor": {"dtype": "DT_FLOAT", "tensorShape": {"dim": [{"size": "3"}, {"size": "3"}, {"size": "88"}, {"size": "1"}]}}}}}, {"name": "fpn_cells/cell_2/fnode3/op_after_combine8/conv/depthwise_kernel", "op": "Const", "attr": {"value": {"tensor": {"dtype": "DT_FLOAT", "tensorShape": {"dim": [{"size": "3"}, {"size": "3"}, {"size": "88"}, {"size": "1"}]}}}, "dtype": {"type": "DT_FLOAT"}}}, {"name": "fpn_cells/cell_2/fnode4/op_after_combine9/conv/depthwise_kernel", "op": "Const", "attr": {"dtype": {"type": "DT_FLOAT"}, "value": {"tensor": {"dtype": "DT_FLOAT", "tensorShape": {"dim": [{"size": "3"}, {"size": "3"}, {"size": "88"}, {"size": "1"}]}}}}}, {"name": "fpn_cells/cell_2/fnode5/op_after_combine10/conv/depthwise_kernel", "op": "Const", "attr": {"value": {"tensor": {"dtype": "DT_FLOAT", "tensorShape": {"dim": [{"size": "3"}, {"size": "3"}, {"size": "88"}, {"size": "1"}]}}}, "dtype": {"type": "DT_FLOAT"}}}, {"name": "fpn_cells/cell_2/fnode6/op_after_combine11/conv/depthwise_kernel", "op": "Const", "attr": {"dtype": {"type": "DT_FLOAT"}, "value": {"tensor": {"dtype": "DT_FLOAT", "tensorShape": {"dim": [{"size": "3"}, {"size": "3"}, {"size": "88"}, {"size": "1"}]}}}}}, {"name": "fpn_cells/cell_2/fnode7/op_after_combine12/conv/depthwise_kernel", "op": "Const", "attr": {"dtype": {"type": "DT_FLOAT"}, "value": {"tensor": {"dtype": "DT_FLOAT", "tensorShape": {"dim": [{"size": "3"}, {"size": "3"}, {"size": "88"}, {"size": "1"}]}}}}}, {"name": "fpn_cells/cell_0/fnode0/resample_1_4_5/nearest_upsampling/Reshape/shape", "op": "Const", "attr": {"dtype": {"type": "DT_INT32"}, "value": {"tensor": {"dtype": "DT_INT32", "tensorShape": {"dim": [{"size": "6"}]}}}}}, {"name": "fpn_cells/cell_0/fnode0/resample_1_4_5/nearest_upsampling/Reshape_1/shape", "op": "Const", "attr": {"dtype": {"type": "DT_INT32"}, "value": {"tensor": {"dtype": "DT_INT32", "tensorShape": {"dim": [{"size": "4"}]}}}}}, {"name": "fpn_cells/cell_3/fnode0/op_after_combine5/conv/depthwise_kernel", "op": "Const", "attr": {"value": {"tensor": {"dtype": "DT_FLOAT", "tensorShape": {"dim": [{"size": "3"}, {"size": "3"}, {"size": "88"}, {"size": "1"}]}}}, "dtype": {"type": "DT_FLOAT"}}}, {"name": "fpn_cells/cell_0/fnode1/resample_1_5_6/nearest_upsampling/Reshape/shape", "op": "Const", "attr": {"dtype": {"type": "DT_INT32"}, "value": {"tensor": {"dtype": "DT_INT32", "tensorShape": {"dim": [{"size": "6"}]}}}}}, {"name": "fpn_cells/cell_0/fnode1/resample_1_5_6/nearest_upsampling/Reshape_1/shape", "op": "Const", "attr": {"value": {"tensor": {"dtype": "DT_INT32", "tensorShape": {"dim": [{"size": "4"}]}}}, "dtype": {"type": "DT_INT32"}}}, {"name": "fpn_cells/cell_3/fnode1/op_after_combine6/conv/depthwise_kernel", "op": "Const", "attr": {"dtype": {"type": "DT_FLOAT"}, "value": {"tensor": {"dtype": "DT_FLOAT", "tensorShape": {"dim": [{"size": "3"}, {"size": "3"}, {"size": "88"}, {"size": "1"}]}}}}}, {"name": "fpn_cells/cell_0/fnode2/resample_1_6_7/nearest_upsampling/Reshape/shape", "op": "Const", "attr": {"dtype": {"type": "DT_INT32"}, "value": {"tensor": {"dtype": "DT_INT32", "tensorShape": {"dim": [{"size": "6"}]}}}}}, {"name": "fpn_cells/cell_0/fnode2/resample_1_6_7/nearest_upsampling/Reshape_1/shape", "op": "Const", "attr": {"value": {"tensor": {"dtype": "DT_INT32", "tensorShape": {"dim": [{"size": "4"}]}}}, "dtype": {"type": "DT_INT32"}}}, {"name": "fpn_cells/cell_3/fnode2/op_after_combine7/conv/depthwise_kernel", "op": "Const", "attr": {"value": {"tensor": {"dtype": "DT_FLOAT", "tensorShape": {"dim": [{"size": "3"}, {"size": "3"}, {"size": "88"}, {"size": "1"}]}}}, "dtype": {"type": "DT_FLOAT"}}}, {"name": "fpn_cells/cell_0/fnode3/resample_1_7_8/nearest_upsampling/Reshape/shape", "op": "Const", "attr": {"value": {"tensor": {"dtype": "DT_INT32", "tensorShape": {"dim": [{"size": "6"}]}}}, "dtype": {"type": "DT_INT32"}}}, {"name": "fpn_cells/cell_0/fnode3/resample_1_7_8/nearest_upsampling/Reshape_1/shape", "op": "Const", "attr": {"value": {"tensor": {"dtype": "DT_INT32", "tensorShape": {"dim": [{"size": "4"}]}}}, "dtype": {"type": "DT_INT32"}}}, {"name": "fpn_cells/cell_3/fnode3/op_after_combine8/conv/depthwise_kernel", "op": "Const", "attr": {"value": {"tensor": {"dtype": "DT_FLOAT", "tensorShape": {"dim": [{"size": "3"}, {"size": "3"}, {"size": "88"}, {"size": "1"}]}}}, "dtype": {"type": "DT_FLOAT"}}}, {"name": "fpn_cells/cell_3/fnode4/op_after_combine9/conv/depthwise_kernel", "op": "Const", "attr": {"dtype": {"type": "DT_FLOAT"}, "value": {"tensor": {"dtype": "DT_FLOAT", "tensorShape": {"dim": [{"size": "3"}, {"size": "3"}, {"size": "88"}, {"size": "1"}]}}}}}, {"name": "fpn_cells/cell_3/fnode5/op_after_combine10/conv/depthwise_kernel", "op": "Const", "attr": {"value": {"tensor": {"dtype": "DT_FLOAT", "tensorShape": {"dim": [{"size": "3"}, {"size": "3"}, {"size": "88"}, {"size": "1"}]}}}, "dtype": {"type": "DT_FLOAT"}}}, {"name": "fpn_cells/cell_3/fnode6/op_after_combine11/conv/depthwise_kernel", "op": "Const", "attr": {"dtype": {"type": "DT_FLOAT"}, "value": {"tensor": {"dtype": "DT_FLOAT", "tensorShape": {"dim": [{"size": "3"}, {"size": "3"}, {"size": "88"}, {"size": "1"}]}}}}}, {"name": "fpn_cells/cell_3/fnode7/op_after_combine12/conv/depthwise_kernel", "op": "Const", "attr": {"dtype": {"type": "DT_FLOAT"}, "value": {"tensor": {"dtype": "DT_FLOAT", "tensorShape": {"dim": [{"size": "3"}, {"size": "3"}, {"size": "88"}, {"size": "1"}]}}}}}, {"name": "class_net/class-0/depthwise_kernel", "op": "Const", "attr": {"value": {"tensor": {"dtype": "DT_FLOAT", "tensorShape": {"dim": [{"size": "3"}, {"size": "3"}, {"size": "88"}, {"size": "1"}]}}}, "dtype": {"type": "DT_FLOAT"}}}, {"name": "class_net/class-1/depthwise_kernel", "op": "Const", "attr": {"value": {"tensor": {"dtype": "DT_FLOAT", "tensorShape": {"dim": [{"size": "3"}, {"size": "3"}, {"size": "88"}, {"size": "1"}]}}}, "dtype": {"type": "DT_FLOAT"}}}, {"name": "class_net/class-2/depthwise_kernel", "op": "Const", "attr": {"dtype": {"type": "DT_FLOAT"}, "value": {"tensor": {"dtype": "DT_FLOAT", "tensorShape": {"dim": [{"size": "3"}, {"size": "3"}, {"size": "88"}, {"size": "1"}]}}}}}, {"name": "class_net/class-predict/depthwise_kernel", "op": "Const", "attr": {"value": {"tensor": {"dtype": "DT_FLOAT", "tensorShape": {"dim": [{"size": "3"}, {"size": "3"}, {"size": "88"}, {"size": "1"}]}}}, "dtype": {"type": "DT_FLOAT"}}}, {"name": "class_net/class-predict/pointwise_kernel", "op": "Const", "attr": {"value": {"tensor": {"dtype": "DT_FLOAT", "tensorShape": {"dim": [{"size": "1"}, {"size": "1"}, {"size": "88"}, {"size": "810"}]}}}, "dtype": {"type": "DT_FLOAT"}}}, {"name": "class_net/class-predict/bias", "op": "Const", "attr": {"value": {"tensor": {"dtype": "DT_FLOAT", "tensorShape": {"dim": [{"size": "810"}]}}}, "dtype": {"type": "DT_FLOAT"}}}, {"name": "Reshape/shape", "op": "Const", "attr": {"dtype": {"type": "DT_INT32"}, "value": {"tensor": {"dtype": "DT_INT32", "tensorShape": {"dim": [{"size": "3"}]}}}}}, {"name": "concat_1/axis", "op": "Const", "attr": {"dtype": {"type": "DT_INT32"}, "value": {"tensor": {"dtype": "DT_INT32", "tensorShape": {}}}}}, {"name": "Reshape_10/shape", "op": "Const", "attr": {"dtype": {"type": "DT_INT32"}, "value": {"tensor": {"dtype": "DT_INT32", "tensorShape": {"dim": [{"size": "1"}]}}}}}, {"name": "TopKV2/k", "op": "Const", "attr": {"value": {"tensor": {"dtype": "DT_INT32", "tensorShape": {}}}, "dtype": {"type": "DT_INT32"}}}, {"name": "div/y", "op": "Const", "attr": {"value": {"tensor": {"dtype": "DT_INT32", "tensorShape": {}}}, "dtype": {"type": "DT_INT32"}}}, {"name": "strided_slice_5/stack", "op": "Const", "attr": {"value": {"tensor": {"dtype": "DT_INT32", "tensorShape": {"dim": [{"size": "1"}]}}}, "dtype": {"type": "DT_INT32"}}}, {"name": "strided_slice_5/stack_1", "op": "Const", "attr": {"value": {"tensor": {"dtype": "DT_INT32", "tensorShape": {"dim": [{"size": "1"}]}}}, "dtype": {"type": "DT_INT32"}}}, {"name": "non_max_suppression/NonMaxSuppressionV3/max_output_size", "op": "Const", "attr": {"value": {"tensor": {"dtype": "DT_INT32", "tensorShape": {}}}, "dtype": {"type": "DT_INT32"}}}, {"name": "non_max_suppression/iou_threshold", "op": "Const", "attr": {"value": {"tensor": {"dtype": "DT_FLOAT", "tensorShape": {}}}, "dtype": {"type": "DT_FLOAT"}}}, {"name": "non_max_suppression/score_threshold", "op": "Const", "attr": {"dtype": {"type": "DT_FLOAT"}, "value": {"tensor": {"dtype": "DT_FLOAT", "tensorShape": {}}}}}, {"name": "get_boxes/axis", "op": "Const", "attr": {"value": {"tensor": {"dtype": "DT_INT32", "tensorShape": {}}}, "dtype": {"type": "DT_INT32"}}}, {"name": "input", "op": "Placeholder", "attr": {"dtype": {"type": "DT_FLOAT"}, "shape": {"shape": {"dim": [{"size": "1"}, {"size": "512"}, {"size": "512"}, {"size": "3"}]}}}}, {"name": "efficientnet-b1/model/stem/conv2d/Conv2D_weights", "op": "Const", "attr": {"value": {"tensor": {"dtype": "DT_FLOAT", "tensorShape": {"dim": [{"size": "3"}, {"size": "3"}, {"size": "3"}, {"size": "32"}]}}}, "dtype": {"type": "DT_FLOAT"}}}, {"name": "efficientnet-b1/model/stem/conv2d/Conv2D_bn_offset", "op": "Const", "attr": {"value": {"tensor": {"dtype": "DT_FLOAT", "tensorShape": {"dim": [{"size": "32"}]}}}, "dtype": {"type": "DT_FLOAT"}}}, {"name": "efficientnet-b1/model/blocks_0/depthwise_conv2d/depthwise_weights", "op": "Const", "attr": {"value": {"tensor": {"dtype": "DT_FLOAT", "tensorShape": {"dim": [{"size": "3"}, {"size": "3"}, {"size": "32"}, {"size": "1"}]}}}, "dtype": {"type": "DT_FLOAT"}}}, {"name": "efficientnet-b1/model/blocks_0/conv2d/Conv2D_weights", "op": "Const", "attr": {"value": {"tensor": {"dtype": "DT_FLOAT", "tensorShape": {"dim": [{"size": "1"}, {"size": "1"}, {"size": "32"}, {"size": "16"}]}}}, "dtype": {"type": "DT_FLOAT"}}}, {"name": "efficientnet-b1/model/blocks_0/conv2d/Conv2D_bn_offset", "op": "Const", "attr": {"value": {"tensor": {"dtype": "DT_FLOAT", "tensorShape": {"dim": [{"size": "16"}]}}}, "dtype": {"type": "DT_FLOAT"}}}, {"name": "efficientnet-b1/model/blocks_1/depthwise_conv2d/depthwise_weights", "op": "Const", "attr": {"dtype": {"type": "DT_FLOAT"}, "value": {"tensor": {"dtype": "DT_FLOAT", "tensorShape": {"dim": [{"size": "3"}, {"size": "3"}, {"size": "16"}, {"size": "1"}]}}}}}, {"name": "efficientnet-b1/model/blocks_1/conv2d/Conv2D_weights", "op": "Const", "attr": {"dtype": {"type": "DT_FLOAT"}, "value": {"tensor": {"dtype": "DT_FLOAT", "tensorShape": {"dim": [{"size": "1"}, {"size": "1"}, {"size": "16"}, {"size": "16"}]}}}}}, {"name": "efficientnet-b1/model/blocks_2/conv2d/Conv2D_weights", "op": "Const", "attr": {"value": {"tensor": {"dtype": "DT_FLOAT", "tensorShape": {"dim": [{"size": "1"}, {"size": "1"}, {"size": "16"}, {"size": "96"}]}}}, "dtype": {"type": "DT_FLOAT"}}}, {"name": "efficientnet-b1/model/blocks_2/conv2d/Conv2D_bn_offset", "op": "Const", "attr": {"value": {"tensor": {"dtype": "DT_FLOAT", "tensorShape": {"dim": [{"size": "96"}]}}}, "dtype": {"type": "DT_FLOAT"}}}, {"name": "efficientnet-b1/model/blocks_2/depthwise_conv2d/depthwise_weights", "op": "Const", "attr": {"value": {"tensor": {"dtype": "DT_FLOAT", "tensorShape": {"dim": [{"size": "3"}, {"size": "3"}, {"size": "96"}, {"size": "1"}]}}}, "dtype": {"type": "DT_FLOAT"}}}, {"name": "efficientnet-b1/model/blocks_2/conv2d_1/Conv2D_weights", "op": "Const", "attr": {"value": {"tensor": {"dtype": "DT_FLOAT", "tensorShape": {"dim": [{"size": "1"}, {"size": "1"}, {"size": "96"}, {"size": "24"}]}}}, "dtype": {"type": "DT_FLOAT"}}}, {"name": "fpn_cells/cell_3/fnode7/op_after_combine12/conv/separable_conv2d_weights", "op": "Const", "attr": {"value": {"tensor": {"dtype": "DT_FLOAT", "tensorShape": {"dim": [{"size": "1"}, {"size": "1"}, {"size": "88"}, {"size": "88"}]}}}, "dtype": {"type": "DT_FLOAT"}}}, {"name": "efficientnet-b1/model/blocks_2/conv2d_1/Conv2D_bn_offset", "op": "Const", "attr": {"value": {"tensor": {"dtype": "DT_FLOAT", "tensorShape": {"dim": [{"size": "24"}]}}}, "dtype": {"type": "DT_FLOAT"}}}, {"name": "efficientnet-b1/model/blocks_3/conv2d/Conv2D_weights", "op": "Const", "attr": {"value": {"tensor": {"dtype": "DT_FLOAT", "tensorShape": {"dim": [{"size": "1"}, {"size": "1"}, {"size": "24"}, {"size": "144"}]}}}, "dtype": {"type": "DT_FLOAT"}}}, {"name": "efficientnet-b1/model/blocks_3/conv2d/Conv2D_bn_offset", "op": "Const", "attr": {"value": {"tensor": {"dtype": "DT_FLOAT", "tensorShape": {"dim": [{"size": "144"}]}}}, "dtype": {"type": "DT_FLOAT"}}}, {"name": "efficientnet-b1/model/blocks_3/depthwise_conv2d/depthwise_weights", "op": "Const", "attr": {"value": {"tensor": {"dtype": "DT_FLOAT", "tensorShape": {"dim": [{"size": "3"}, {"size": "3"}, {"size": "144"}, {"size": "1"}]}}}, "dtype": {"type": "DT_FLOAT"}}}, {"name": "efficientnet-b1/model/blocks_3/conv2d_1/Conv2D_weights", "op": "Const", "attr": {"value": {"tensor": {"dtype": "DT_FLOAT", "tensorShape": {"dim": [{"size": "1"}, {"size": "1"}, {"size": "144"}, {"size": "24"}]}}}, "dtype": {"type": "DT_FLOAT"}}}, {"name": "fpn_cells/cell_3/fnode7/op_after_combine12/conv/separable_conv2d_bn_offset", "op": "Const", "attr": {"value": {"tensor": {"dtype": "DT_FLOAT", "tensorShape": {"dim": [{"size": "88"}]}}}, "dtype": {"type": "DT_FLOAT"}}}, {"name": "efficientnet-b1/model/blocks_4/conv2d/Conv2D_weights", "op": "Const", "attr": {"value": {"tensor": {"dtype": "DT_FLOAT", "tensorShape": {"dim": [{"size": "1"}, {"size": "1"}, {"size": "24"}, {"size": "144"}]}}}, "dtype": {"type": "DT_FLOAT"}}}, {"name": "efficientnet-b1/model/blocks_4/depthwise_conv2d/depthwise_weights", "op": "Const", "attr": {"value": {"tensor": {"dtype": "DT_FLOAT", "tensorShape": {"dim": [{"size": "3"}, {"size": "3"}, {"size": "144"}, {"size": "1"}]}}}, "dtype": {"type": "DT_FLOAT"}}}, {"name": "efficientnet-b1/model/blocks_4/conv2d_1/Conv2D_weights", "op": "Const", "attr": {"value": {"tensor": {"dtype": "DT_FLOAT", "tensorShape": {"dim": [{"size": "1"}, {"size": "1"}, {"size": "144"}, {"size": "24"}]}}}, "dtype": {"type": "DT_FLOAT"}}}, {"name": "efficientnet-b1/model/blocks_5/conv2d/Conv2D_weights", "op": "Const", "attr": {"value": {"tensor": {"dtype": "DT_FLOAT", "tensorShape": {"dim": [{"size": "1"}, {"size": "1"}, {"size": "24"}, {"size": "144"}]}}}, "dtype": {"type": "DT_FLOAT"}}}, {"name": "efficientnet-b1/model/blocks_5/depthwise_conv2d/depthwise_weights", "op": "Const", "attr": {"value": {"tensor": {"dtype": "DT_FLOAT", "tensorShape": {"dim": [{"size": "5"}, {"size": "5"}, {"size": "144"}, {"size": "1"}]}}}, "dtype": {"type": "DT_FLOAT"}}}, {"name": "efficientnet-b1/model/blocks_5/conv2d_1/Conv2D_weights", "op": "Const", "attr": {"value": {"tensor": {"dtype": "DT_FLOAT", "tensorShape": {"dim": [{"size": "1"}, {"size": "1"}, {"size": "144"}, {"size": "40"}]}}}, "dtype": {"type": "DT_FLOAT"}}}, {"name": "box_net/box-0_4/separable_conv2d_weights", "op": "Const", "attr": {"value": {"tensor": {"dtype": "DT_FLOAT", "tensorShape": {"dim": [{"size": "1"}, {"size": "1"}, {"size": "88"}, {"size": "88"}]}}}, "dtype": {"type": "DT_FLOAT"}}}, {"name": "efficientnet-b1/model/blocks_5/conv2d_1/Conv2D_bn_offset", "op": "Const", "attr": {"value": {"tensor": {"dtype": "DT_FLOAT", "tensorShape": {"dim": [{"size": "40"}]}}}, "dtype": {"type": "DT_FLOAT"}}}, {"name": "efficientnet-b1/model/blocks_6/conv2d/Conv2D_weights", "op": "Const", "attr": {"value": {"tensor": {"dtype": "DT_FLOAT", "tensorShape": {"dim": [{"size": "1"}, {"size": "1"}, {"size": "40"}, {"size": "240"}]}}}, "dtype": {"type": "DT_FLOAT"}}}, {"name": "efficientnet-b1/model/blocks_6/conv2d/Conv2D_bn_offset", "op": "Const", "attr": {"value": {"tensor": {"dtype": "DT_FLOAT", "tensorShape": {"dim": [{"size": "240"}]}}}, "dtype": {"type": "DT_FLOAT"}}}, {"name": "efficientnet-b1/model/blocks_6/depthwise_conv2d/depthwise_weights", "op": "Const", "attr": {"value": {"tensor": {"dtype": "DT_FLOAT", "tensorShape": {"dim": [{"size": "5"}, {"size": "5"}, {"size": "240"}, {"size": "1"}]}}}, "dtype": {"type": "DT_FLOAT"}}}, {"name": "efficientnet-b1/model/blocks_6/conv2d_1/Conv2D_weights", "op": "Const", "attr": {"dtype": {"type": "DT_FLOAT"}, "value": {"tensor": {"dtype": "DT_FLOAT", "tensorShape": {"dim": [{"size": "1"}, {"size": "1"}, {"size": "240"}, {"size": "40"}]}}}}}, {"name": "efficientnet-b1/model/blocks_7/conv2d/Conv2D_weights", "op": "Const", "attr": {"value": {"tensor": {"dtype": "DT_FLOAT", "tensorShape": {"dim": [{"size": "1"}, {"size": "1"}, {"size": "40"}, {"size": "240"}]}}}, "dtype": {"type": "DT_FLOAT"}}}, {"name": "efficientnet-b1/model/blocks_7/depthwise_conv2d/depthwise_weights", "op": "Const", "attr": {"value": {"tensor": {"dtype": "DT_FLOAT", "tensorShape": {"dim": [{"size": "5"}, {"size": "5"}, {"size": "240"}, {"size": "1"}]}}}, "dtype": {"type": "DT_FLOAT"}}}, {"name": "efficientnet-b1/model/blocks_7/conv2d_1/Conv2D_weights", "op": "Const", "attr": {"dtype": {"type": "DT_FLOAT"}, "value": {"tensor": {"dtype": "DT_FLOAT", "tensorShape": {"dim": [{"size": "1"}, {"size": "1"}, {"size": "240"}, {"size": "40"}]}}}}}, {"name": "fpn_cells/cell_0/fnode3/resample_0_0_8/conv2d/Conv2D_weights", "op": "Const", "attr": {"dtype": {"type": "DT_FLOAT"}, "value": {"tensor": {"dtype": "DT_FLOAT", "tensorShape": {"dim": [{"size": "1"}, {"size": "1"}, {"size": "40"}, {"size": "88"}]}}}}}, {"name": "efficientnet-b1/model/blocks_8/conv2d/Conv2D_weights", "op": "Const", "attr": {"value": {"tensor": {"dtype": "DT_FLOAT", "tensorShape": {"dim": [{"size": "1"}, {"size": "1"}, {"size": "40"}, {"size": "240"}]}}}, "dtype": {"type": "DT_FLOAT"}}}, {"name": "efficientnet-b1/model/blocks_8/depthwise_conv2d/depthwise_weights", "op": "Const", "attr": {"value": {"tensor": {"dtype": "DT_FLOAT", "tensorShape": {"dim": [{"size": "3"}, {"size": "3"}, {"size": "240"}, {"size": "1"}]}}}, "dtype": {"type": "DT_FLOAT"}}}, {"name": "efficientnet-b1/model/blocks_8/conv2d_1/Conv2D_weights", "op": "Const", "attr": {"dtype": {"type": "DT_FLOAT"}, "value": {"tensor": {"dtype": "DT_FLOAT", "tensorShape": {"dim": [{"size": "1"}, {"size": "1"}, {"size": "240"}, {"size": "80"}]}}}}}, {"name": "class_net/class-0_4/separable_conv2d_weights", "op": "Const", "attr": {"dtype": {"type": "DT_FLOAT"}, "value": {"tensor": {"dtype": "DT_FLOAT", "tensorShape": {"dim": [{"size": "1"}, {"size": "1"}, {"size": "88"}, {"size": "88"}]}}}}}, {"name": "efficientnet-b1/model/blocks_8/conv2d_1/Conv2D_bn_offset", "op": "Const", "attr": {"value": {"tensor": {"dtype": "DT_FLOAT", "tensorShape": {"dim": [{"size": "80"}]}}}, "dtype": {"type": "DT_FLOAT"}}}, {"name": "efficientnet-b1/model/blocks_9/conv2d/Conv2D_weights", "op": "Const", "attr": {"value": {"tensor": {"dtype": "DT_FLOAT", "tensorShape": {"dim": [{"size": "1"}, {"size": "1"}, {"size": "80"}, {"size": "480"}]}}}, "dtype": {"type": "DT_FLOAT"}}}, {"name": "efficientnet-b1/model/blocks_9/conv2d/Conv2D_bn_offset", "op": "Const", "attr": {"value": {"tensor": {"dtype": "DT_FLOAT", "tensorShape": {"dim": [{"size": "480"}]}}}, "dtype": {"type": "DT_FLOAT"}}}, {"name": "efficientnet-b1/model/blocks_9/depthwise_conv2d/depthwise_weights", "op": "Const", "attr": {"dtype": {"type": "DT_FLOAT"}, "value": {"tensor": {"dtype": "DT_FLOAT", "tensorShape": {"dim": [{"size": "3"}, {"size": "3"}, {"size": "480"}, {"size": "1"}]}}}}}, {"name": "efficientnet-b1/model/blocks_9/conv2d_1/Conv2D_weights", "op": "Const", "attr": {"value": {"tensor": {"dtype": "DT_FLOAT", "tensorShape": {"dim": [{"size": "1"}, {"size": "1"}, {"size": "480"}, {"size": "80"}]}}}, "dtype": {"type": "DT_FLOAT"}}}, {"name": "efficientnet-b1/model/blocks_10/conv2d/Conv2D_weights", "op": "Const", "attr": {"value": {"tensor": {"dtype": "DT_FLOAT", "tensorShape": {"dim": [{"size": "1"}, {"size": "1"}, {"size": "80"}, {"size": "480"}]}}}, "dtype": {"type": "DT_FLOAT"}}}, {"name": "efficientnet-b1/model/blocks_10/depthwise_conv2d/depthwise_weights", "op": "Const", "attr": {"value": {"tensor": {"dtype": "DT_FLOAT", "tensorShape": {"dim": [{"size": "3"}, {"size": "3"}, {"size": "480"}, {"size": "1"}]}}}, "dtype": {"type": "DT_FLOAT"}}}, {"name": "efficientnet-b1/model/blocks_10/conv2d_1/Conv2D_weights", "op": "Const", "attr": {"value": {"tensor": {"dtype": "DT_FLOAT", "tensorShape": {"dim": [{"size": "1"}, {"size": "1"}, {"size": "480"}, {"size": "80"}]}}}, "dtype": {"type": "DT_FLOAT"}}}, {"name": "efficientnet-b1/model/blocks_11/conv2d/Conv2D_weights", "op": "Const", "attr": {"value": {"tensor": {"dtype": "DT_FLOAT", "tensorShape": {"dim": [{"size": "1"}, {"size": "1"}, {"size": "80"}, {"size": "480"}]}}}, "dtype": {"type": "DT_FLOAT"}}}, {"name": "efficientnet-b1/model/blocks_11/depthwise_conv2d/depthwise_weights", "op": "Const", "attr": {"value": {"tensor": {"dtype": "DT_FLOAT", "tensorShape": {"dim": [{"size": "3"}, {"size": "3"}, {"size": "480"}, {"size": "1"}]}}}, "dtype": {"type": "DT_FLOAT"}}}, {"name": "efficientnet-b1/model/blocks_11/conv2d_1/Conv2D_weights", "op": "Const", "attr": {"value": {"tensor": {"dtype": "DT_FLOAT", "tensorShape": {"dim": [{"size": "1"}, {"size": "1"}, {"size": "480"}, {"size": "80"}]}}}, "dtype": {"type": "DT_FLOAT"}}}, {"name": "efficientnet-b1/model/blocks_12/conv2d/Conv2D_weights", "op": "Const", "attr": {"dtype": {"type": "DT_FLOAT"}, "value": {"tensor": {"dtype": "DT_FLOAT", "tensorShape": {"dim": [{"size": "1"}, {"size": "1"}, {"size": "80"}, {"size": "480"}]}}}}}, {"name": "box_net/box-1_4/separable_conv2d_weights", "op": "Const", "attr": {"value": {"tensor": {"dtype": "DT_FLOAT", "tensorShape": {"dim": [{"size": "1"}, {"size": "1"}, {"size": "88"}, {"size": "88"}]}}}, "dtype": {"type": "DT_FLOAT"}}}, {"name": "efficientnet-b1/model/blocks_12/depthwise_conv2d/depthwise_weights", "op": "Const", "attr": {"value": {"tensor": {"dtype": "DT_FLOAT", "tensorShape": {"dim": [{"size": "5"}, {"size": "5"}, {"size": "480"}, {"size": "1"}]}}}, "dtype": {"type": "DT_FLOAT"}}}, {"name": "efficientnet-b1/model/blocks_12/conv2d_1/Conv2D_weights", "op": "Const", "attr": {"dtype": {"type": "DT_FLOAT"}, "value": {"tensor": {"dtype": "DT_FLOAT", "tensorShape": {"dim": [{"size": "1"}, {"size": "1"}, {"size": "480"}, {"size": "112"}]}}}}}, {"name": "efficientnet-b1/model/blocks_12/conv2d_1/Conv2D_bn_offset", "op": "Const", "attr": {"dtype": {"type": "DT_FLOAT"}, "value": {"tensor": {"dtype": "DT_FLOAT", "tensorShape": {"dim": [{"size": "112"}]}}}}}, {"name": "efficientnet-b1/model/blocks_13/conv2d/Conv2D_weights", "op": "Const", "attr": {"dtype": {"type": "DT_FLOAT"}, "value": {"tensor": {"dtype": "DT_FLOAT", "tensorShape": {"dim": [{"size": "1"}, {"size": "1"}, {"size": "112"}, {"size": "672"}]}}}}}, {"name": "efficientnet-b1/model/blocks_13/conv2d/Conv2D_bn_offset", "op": "Const", "attr": {"value": {"tensor": {"dtype": "DT_FLOAT", "tensorShape": {"dim": [{"size": "672"}]}}}, "dtype": {"type": "DT_FLOAT"}}}, {"name": "efficientnet-b1/model/blocks_13/depthwise_conv2d/depthwise_weights", "op": "Const", "attr": {"value": {"tensor": {"dtype": "DT_FLOAT", "tensorShape": {"dim": [{"size": "5"}, {"size": "5"}, {"size": "672"}, {"size": "1"}]}}}, "dtype": {"type": "DT_FLOAT"}}}, {"name": "efficientnet-b1/model/blocks_13/conv2d_1/Conv2D_weights", "op": "Const", "attr": {"dtype": {"type": "DT_FLOAT"}, "value": {"tensor": {"dtype": "DT_FLOAT", "tensorShape": {"dim": [{"size": "1"}, {"size": "1"}, {"size": "672"}, {"size": "112"}]}}}}}, {"name": "efficientnet-b1/model/blocks_14/conv2d/Conv2D_weights", "op": "Const", "attr": {"value": {"tensor": {"dtype": "DT_FLOAT", "tensorShape": {"dim": [{"size": "1"}, {"size": "1"}, {"size": "112"}, {"size": "672"}]}}}, "dtype": {"type": "DT_FLOAT"}}}, {"name": "efficientnet-b1/model/blocks_14/depthwise_conv2d/depthwise_weights", "op": "Const", "attr": {"dtype": {"type": "DT_FLOAT"}, "value": {"tensor": {"dtype": "DT_FLOAT", "tensorShape": {"dim": [{"size": "5"}, {"size": "5"}, {"size": "672"}, {"size": "1"}]}}}}}, {"name": "efficientnet-b1/model/blocks_14/conv2d_1/Conv2D_weights", "op": "Const", "attr": {"value": {"tensor": {"dtype": "DT_FLOAT", "tensorShape": {"dim": [{"size": "1"}, {"size": "1"}, {"size": "672"}, {"size": "112"}]}}}, "dtype": {"type": "DT_FLOAT"}}}, {"name": "efficientnet-b1/model/blocks_15/conv2d/Conv2D_weights", "op": "Const", "attr": {"value": {"tensor": {"dtype": "DT_FLOAT", "tensorShape": {"dim": [{"size": "1"}, {"size": "1"}, {"size": "112"}, {"size": "672"}]}}}, "dtype": {"type": "DT_FLOAT"}}}, {"name": "efficientnet-b1/model/blocks_15/depthwise_conv2d/depthwise_weights", "op": "Const", "attr": {"value": {"tensor": {"dtype": "DT_FLOAT", "tensorShape": {"dim": [{"size": "5"}, {"size": "5"}, {"size": "672"}, {"size": "1"}]}}}, "dtype": {"type": "DT_FLOAT"}}}, {"name": "efficientnet-b1/model/blocks_15/conv2d_1/Conv2D_weights", "op": "Const", "attr": {"value": {"tensor": {"dtype": "DT_FLOAT", "tensorShape": {"dim": [{"size": "1"}, {"size": "1"}, {"size": "672"}, {"size": "112"}]}}}, "dtype": {"type": "DT_FLOAT"}}}, {"name": "class_net/class-1_4/separable_conv2d_weights", "op": "Const", "attr": {"value": {"tensor": {"dtype": "DT_FLOAT", "tensorShape": {"dim": [{"size": "1"}, {"size": "1"}, {"size": "88"}, {"size": "88"}]}}}, "dtype": {"type": "DT_FLOAT"}}}, {"name": "fpn_cells/cell_0/fnode4/resample_0_1_9/conv2d/Conv2D_weights", "op": "Const", "attr": {"value": {"tensor": {"dtype": "DT_FLOAT", "tensorShape": {"dim": [{"size": "1"}, {"size": "1"}, {"size": "112"}, {"size": "88"}]}}}, "dtype": {"type": "DT_FLOAT"}}}, {"name": "fpn_cells/cell_0/fnode2/resample_0_1_7/conv2d/Conv2D_weights", "op": "Const", "attr": {"value": {"tensor": {"dtype": "DT_FLOAT", "tensorShape": {"dim": [{"size": "1"}, {"size": "1"}, {"size": "112"}, {"size": "88"}]}}}, "dtype": {"type": "DT_FLOAT"}}}, {"name": "efficientnet-b1/model/blocks_16/conv2d/Conv2D_weights", "op": "Const", "attr": {"value": {"tensor": {"dtype": "DT_FLOAT", "tensorShape": {"dim": [{"size": "1"}, {"size": "1"}, {"size": "112"}, {"size": "672"}]}}}, "dtype": {"type": "DT_FLOAT"}}}, {"name": "efficientnet-b1/model/blocks_16/depthwise_conv2d/depthwise_weights", "op": "Const", "attr": {"value": {"tensor": {"dtype": "DT_FLOAT", "tensorShape": {"dim": [{"size": "5"}, {"size": "5"}, {"size": "672"}, {"size": "1"}]}}}, "dtype": {"type": "DT_FLOAT"}}}, {"name": "efficientnet-b1/model/blocks_16/conv2d_1/Conv2D_weights", "op": "Const", "attr": {"value": {"tensor": {"dtype": "DT_FLOAT", "tensorShape": {"dim": [{"size": "1"}, {"size": "1"}, {"size": "672"}, {"size": "192"}]}}}, "dtype": {"type": "DT_FLOAT"}}}, {"name": "efficientnet-b1/model/blocks_16/conv2d_1/Conv2D_bn_offset", "op": "Const", "attr": {"value": {"tensor": {"dtype": "DT_FLOAT", "tensorShape": {"dim": [{"size": "192"}]}}}, "dtype": {"type": "DT_FLOAT"}}}, {"name": "efficientnet-b1/model/blocks_17/conv2d/Conv2D_weights", "op": "Const", "attr": {"dtype": {"type": "DT_FLOAT"}, "value": {"tensor": {"dtype": "DT_FLOAT", "tensorShape": {"dim": [{"size": "1"}, {"size": "1"}, {"size": "192"}, {"size": "1152"}]}}}}}, {"name": "efficientnet-b1/model/blocks_17/conv2d/Conv2D_bn_offset", "op": "Const", "attr": {"value": {"tensor": {"dtype": "DT_FLOAT", "tensorShape": {"dim": [{"size": "1152"}]}}}, "dtype": {"type": "DT_FLOAT"}}}, {"name": "efficientnet-b1/model/blocks_17/depthwise_conv2d/depthwise_weights", "op": "Const", "attr": {"value": {"tensor": {"dtype": "DT_FLOAT", "tensorShape": {"dim": [{"size": "5"}, {"size": "5"}, {"size": "1152"}, {"size": "1"}]}}}, "dtype": {"type": "DT_FLOAT"}}}, {"name": "efficientnet-b1/model/blocks_17/conv2d_1/Conv2D_weights", "op": "Const", "attr": {"value": {"tensor": {"dtype": "DT_FLOAT", "tensorShape": {"dim": [{"size": "1"}, {"size": "1"}, {"size": "1152"}, {"size": "192"}]}}}, "dtype": {"type": "DT_FLOAT"}}}, {"name": "efficientnet-b1/model/blocks_18/conv2d/Conv2D_weights", "op": "Const", "attr": {"dtype": {"type": "DT_FLOAT"}, "value": {"tensor": {"dtype": "DT_FLOAT", "tensorShape": {"dim": [{"size": "1"}, {"size": "1"}, {"size": "192"}, {"size": "1152"}]}}}}}, {"name": "box_net/box-2_4/separable_conv2d_weights", "op": "Const", "attr": {"value": {"tensor": {"dtype": "DT_FLOAT", "tensorShape": {"dim": [{"size": "1"}, {"size": "1"}, {"size": "88"}, {"size": "88"}]}}}, "dtype": {"type": "DT_FLOAT"}}}, {"name": "efficientnet-b1/model/blocks_18/depthwise_conv2d/depthwise_weights", "op": "Const", "attr": {"value": {"tensor": {"dtype": "DT_FLOAT", "tensorShape": {"dim": [{"size": "5"}, {"size": "5"}, {"size": "1152"}, {"size": "1"}]}}}, "dtype": {"type": "DT_FLOAT"}}}, {"name": "efficientnet-b1/model/blocks_18/conv2d_1/Conv2D_weights", "op": "Const", "attr": {"value": {"tensor": {"dtype": "DT_FLOAT", "tensorShape": {"dim": [{"size": "1"}, {"size": "1"}, {"size": "1152"}, {"size": "192"}]}}}, "dtype": {"type": "DT_FLOAT"}}}, {"name": "efficientnet-b1/model/blocks_19/conv2d/Conv2D_weights", "op": "Const", "attr": {"dtype": {"type": "DT_FLOAT"}, "value": {"tensor": {"dtype": "DT_FLOAT", "tensorShape": {"dim": [{"size": "1"}, {"size": "1"}, {"size": "192"}, {"size": "1152"}]}}}}}, {"name": "efficientnet-b1/model/blocks_19/depthwise_conv2d/depthwise_weights", "op": "Const", "attr": {"value": {"tensor": {"dtype": "DT_FLOAT", "tensorShape": {"dim": [{"size": "5"}, {"size": "5"}, {"size": "1152"}, {"size": "1"}]}}}, "dtype": {"type": "DT_FLOAT"}}}, {"name": "efficientnet-b1/model/blocks_19/conv2d_1/Conv2D_weights", "op": "Const", "attr": {"dtype": {"type": "DT_FLOAT"}, "value": {"tensor": {"dtype": "DT_FLOAT", "tensorShape": {"dim": [{"size": "1"}, {"size": "1"}, {"size": "1152"}, {"size": "192"}]}}}}}, {"name": "efficientnet-b1/model/blocks_20/conv2d/Conv2D_weights", "op": "Const", "attr": {"value": {"tensor": {"dtype": "DT_FLOAT", "tensorShape": {"dim": [{"size": "1"}, {"size": "1"}, {"size": "192"}, {"size": "1152"}]}}}, "dtype": {"type": "DT_FLOAT"}}}, {"name": "efficientnet-b1/model/blocks_20/depthwise_conv2d/depthwise_weights", "op": "Const", "attr": {"value": {"tensor": {"dtype": "DT_FLOAT", "tensorShape": {"dim": [{"size": "5"}, {"size": "5"}, {"size": "1152"}, {"size": "1"}]}}}, "dtype": {"type": "DT_FLOAT"}}}, {"name": "efficientnet-b1/model/blocks_20/conv2d_1/Conv2D_weights", "op": "Const", "attr": {"value": {"tensor": {"dtype": "DT_FLOAT", "tensorShape": {"dim": [{"size": "1"}, {"size": "1"}, {"size": "1152"}, {"size": "192"}]}}}, "dtype": {"type": "DT_FLOAT"}}}, {"name": "efficientnet-b1/model/blocks_21/conv2d/Conv2D_weights", "op": "Const", "attr": {"dtype": {"type": "DT_FLOAT"}, "value": {"tensor": {"dtype": "DT_FLOAT", "tensorShape": {"dim": [{"size": "1"}, {"size": "1"}, {"size": "192"}, {"size": "1152"}]}}}}}, {"name": "efficientnet-b1/model/blocks_21/depthwise_conv2d/depthwise_weights", "op": "Const", "attr": {"dtype": {"type": "DT_FLOAT"}, "value": {"tensor": {"dtype": "DT_FLOAT", "tensorShape": {"dim": [{"size": "3"}, {"size": "3"}, {"size": "1152"}, {"size": "1"}]}}}}}, {"name": "efficientnet-b1/model/blocks_21/conv2d_1/Conv2D_weights", "op": "Const", "attr": {"value": {"tensor": {"dtype": "DT_FLOAT", "tensorShape": {"dim": [{"size": "1"}, {"size": "1"}, {"size": "1152"}, {"size": "320"}]}}}, "dtype": {"type": "DT_FLOAT"}}}, {"name": "efficientnet-b1/model/blocks_21/conv2d_1/Conv2D_bn_offset", "op": "Const", "attr": {"value": {"tensor": {"dtype": "DT_FLOAT", "tensorShape": {"dim": [{"size": "320"}]}}}, "dtype": {"type": "DT_FLOAT"}}}, {"name": "efficientnet-b1/model/blocks_22/conv2d/Conv2D_weights", "op": "Const", "attr": {"value": {"tensor": {"dtype": "DT_FLOAT", "tensorShape": {"dim": [{"size": "1"}, {"size": "1"}, {"size": "320"}, {"size": "1920"}]}}}, "dtype": {"type": "DT_FLOAT"}}}, {"name": "efficientnet-b1/model/blocks_22/conv2d/Conv2D_bn_offset", "op": "Const", "attr": {"value": {"tensor": {"dtype": "DT_FLOAT", "tensorShape": {"dim": [{"size": "1920"}]}}}, "dtype": {"type": "DT_FLOAT"}}}, {"name": "efficientnet-b1/model/blocks_22/depthwise_conv2d/depthwise_weights", "op": "Const", "attr": {"dtype": {"type": "DT_FLOAT"}, "value": {"tensor": {"dtype": "DT_FLOAT", "tensorShape": {"dim": [{"size": "3"}, {"size": "3"}, {"size": "1920"}, {"size": "1"}]}}}}}, {"name": "efficientnet-b1/model/blocks_22/conv2d_1/Conv2D_weights", "op": "Const", "attr": {"value": {"tensor": {"dtype": "DT_FLOAT", "tensorShape": {"dim": [{"size": "1"}, {"size": "1"}, {"size": "1920"}, {"size": "320"}]}}}, "dtype": {"type": "DT_FLOAT"}}}, {"name": "fpn_cells/cell_0/fnode5/resample_0_2_10/conv2d/Conv2D_weights", "op": "Const", "attr": {"dtype": {"type": "DT_FLOAT"}, "value": {"tensor": {"dtype": "DT_FLOAT", "tensorShape": {"dim": [{"size": "1"}, {"size": "1"}, {"size": "320"}, {"size": "88"}]}}}}}, {"name": "fpn_cells/cell_0/fnode1/resample_0_2_6/conv2d/Conv2D_weights", "op": "Const", "attr": {"value": {"tensor": {"dtype": "DT_FLOAT", "tensorShape": {"dim": [{"size": "1"}, {"size": "1"}, {"size": "320"}, {"size": "88"}]}}}, "dtype": {"type": "DT_FLOAT"}}}, {"name": "class_net/class-2_4/separable_conv2d_weights", "op": "Const", "attr": {"dtype": {"type": "DT_FLOAT"}, "value": {"tensor": {"dtype": "DT_FLOAT", "tensorShape": {"dim": [{"size": "1"}, {"size": "1"}, {"size": "88"}, {"size": "88"}]}}}}}, {"name": "resample_p6/conv2d/Conv2D_weights", "op": "Const", "attr": {"value": {"tensor": {"dtype": "DT_FLOAT", "tensorShape": {"dim": [{"size": "1"}, {"size": "1"}, {"size": "320"}, {"size": "88"}]}}}, "dtype": {"type": "DT_FLOAT"}}}, {"name": "fpn_cells/cell_0/fnode0/op_after_combine5/conv/separable_conv2d_weights", "op": "Const", "attr": {"dtype": {"type": "DT_FLOAT"}, "value": {"tensor": {"dtype": "DT_FLOAT", "tensorShape": {"dim": [{"size": "1"}, {"size": "1"}, {"size": "88"}, {"size": "88"}]}}}}}, {"name": "fpn_cells/cell_0/fnode1/op_after_combine6/conv/separable_conv2d_weights", "op": "Const", "attr": {"value": {"tensor": {"dtype": "DT_FLOAT", "tensorShape": {"dim": [{"size": "1"}, {"size": "1"}, {"size": "88"}, {"size": "88"}]}}}, "dtype": {"type": "DT_FLOAT"}}}, {"name": "fpn_cells/cell_0/fnode2/op_after_combine7/conv/separable_conv2d_weights", "op": "Const", "attr": {"value": {"tensor": {"dtype": "DT_FLOAT", "tensorShape": {"dim": [{"size": "1"}, {"size": "1"}, {"size": "88"}, {"size": "88"}]}}}, "dtype": {"type": "DT_FLOAT"}}}, {"name": "fpn_cells/cell_0/fnode3/op_after_combine8/conv/separable_conv2d_weights", "op": "Const", "attr": {"dtype": {"type": "DT_FLOAT"}, "value": {"tensor": {"dtype": "DT_FLOAT", "tensorShape": {"dim": [{"size": "1"}, {"size": "1"}, {"size": "88"}, {"size": "88"}]}}}}}, {"name": "fpn_cells/cell_0/fnode4/op_after_combine9/conv/separable_conv2d_weights", "op": "Const", "attr": {"value": {"tensor": {"dtype": "DT_FLOAT", "tensorShape": {"dim": [{"size": "1"}, {"size": "1"}, {"size": "88"}, {"size": "88"}]}}}, "dtype": {"type": "DT_FLOAT"}}}, {"name": "fpn_cells/cell_0/fnode5/op_after_combine10/conv/separable_conv2d_weights", "op": "Const", "attr": {"dtype": {"type": "DT_FLOAT"}, "value": {"tensor": {"dtype": "DT_FLOAT", "tensorShape": {"dim": [{"size": "1"}, {"size": "1"}, {"size": "88"}, {"size": "88"}]}}}}}, {"name": "fpn_cells/cell_0/fnode6/op_after_combine11/conv/separable_conv2d_weights", "op": "Const", "attr": {"value": {"tensor": {"dtype": "DT_FLOAT", "tensorShape": {"dim": [{"size": "1"}, {"size": "1"}, {"size": "88"}, {"size": "88"}]}}}, "dtype": {"type": "DT_FLOAT"}}}, {"name": "fpn_cells/cell_0/fnode7/op_after_combine12/conv/separable_conv2d_weights", "op": "Const", "attr": {"value": {"tensor": {"dtype": "DT_FLOAT", "tensorShape": {"dim": [{"size": "1"}, {"size": "1"}, {"size": "88"}, {"size": "88"}]}}}, "dtype": {"type": "DT_FLOAT"}}}, {"name": "fpn_cells/cell_1/fnode0/op_after_combine5/conv/separable_conv2d_weights", "op": "Const", "attr": {"dtype": {"type": "DT_FLOAT"}, "value": {"tensor": {"dtype": "DT_FLOAT", "tensorShape": {"dim": [{"size": "1"}, {"size": "1"}, {"size": "88"}, {"size": "88"}]}}}}}, {"name": "fpn_cells/cell_1/fnode1/op_after_combine6/conv/separable_conv2d_weights", "op": "Const", "attr": {"value": {"tensor": {"dtype": "DT_FLOAT", "tensorShape": {"dim": [{"size": "1"}, {"size": "1"}, {"size": "88"}, {"size": "88"}]}}}, "dtype": {"type": "DT_FLOAT"}}}, {"name": "fpn_cells/cell_1/fnode2/op_after_combine7/conv/separable_conv2d_weights", "op": "Const", "attr": {"value": {"tensor": {"dtype": "DT_FLOAT", "tensorShape": {"dim": [{"size": "1"}, {"size": "1"}, {"size": "88"}, {"size": "88"}]}}}, "dtype": {"type": "DT_FLOAT"}}}, {"name": "fpn_cells/cell_1/fnode3/op_after_combine8/conv/separable_conv2d_weights", "op": "Const", "attr": {"dtype": {"type": "DT_FLOAT"}, "value": {"tensor": {"dtype": "DT_FLOAT", "tensorShape": {"dim": [{"size": "1"}, {"size": "1"}, {"size": "88"}, {"size": "88"}]}}}}}, {"name": "fpn_cells/cell_1/fnode4/op_after_combine9/conv/separable_conv2d_weights", "op": "Const", "attr": {"value": {"tensor": {"dtype": "DT_FLOAT", "tensorShape": {"dim": [{"size": "1"}, {"size": "1"}, {"size": "88"}, {"size": "88"}]}}}, "dtype": {"type": "DT_FLOAT"}}}, {"name": "fpn_cells/cell_1/fnode5/op_after_combine10/conv/separable_conv2d_weights", "op": "Const", "attr": {"value": {"tensor": {"dtype": "DT_FLOAT", "tensorShape": {"dim": [{"size": "1"}, {"size": "1"}, {"size": "88"}, {"size": "88"}]}}}, "dtype": {"type": "DT_FLOAT"}}}, {"name": "fpn_cells/cell_1/fnode6/op_after_combine11/conv/separable_conv2d_weights", "op": "Const", "attr": {"value": {"tensor": {"dtype": "DT_FLOAT", "tensorShape": {"dim": [{"size": "1"}, {"size": "1"}, {"size": "88"}, {"size": "88"}]}}}, "dtype": {"type": "DT_FLOAT"}}}, {"name": "fpn_cells/cell_1/fnode7/op_after_combine12/conv/separable_conv2d_weights", "op": "Const", "attr": {"value": {"tensor": {"dtype": "DT_FLOAT", "tensorShape": {"dim": [{"size": "1"}, {"size": "1"}, {"size": "88"}, {"size": "88"}]}}}, "dtype": {"type": "DT_FLOAT"}}}, {"name": "fpn_cells/cell_2/fnode0/op_after_combine5/conv/separable_conv2d_weights", "op": "Const", "attr": {"value": {"tensor": {"dtype": "DT_FLOAT", "tensorShape": {"dim": [{"size": "1"}, {"size": "1"}, {"size": "88"}, {"size": "88"}]}}}, "dtype": {"type": "DT_FLOAT"}}}, {"name": "fpn_cells/cell_2/fnode1/op_after_combine6/conv/separable_conv2d_weights", "op": "Const", "attr": {"value": {"tensor": {"dtype": "DT_FLOAT", "tensorShape": {"dim": [{"size": "1"}, {"size": "1"}, {"size": "88"}, {"size": "88"}]}}}, "dtype": {"type": "DT_FLOAT"}}}, {"name": "fpn_cells/cell_2/fnode2/op_after_combine7/conv/separable_conv2d_weights", "op": "Const", "attr": {"value": {"tensor": {"dtype": "DT_FLOAT", "tensorShape": {"dim": [{"size": "1"}, {"size": "1"}, {"size": "88"}, {"size": "88"}]}}}, "dtype": {"type": "DT_FLOAT"}}}, {"name": "fpn_cells/cell_2/fnode3/op_after_combine8/conv/separable_conv2d_weights", "op": "Const", "attr": {"dtype": {"type": "DT_FLOAT"}, "value": {"tensor": {"dtype": "DT_FLOAT", "tensorShape": {"dim": [{"size": "1"}, {"size": "1"}, {"size": "88"}, {"size": "88"}]}}}}}, {"name": "fpn_cells/cell_2/fnode4/op_after_combine9/conv/separable_conv2d_weights", "op": "Const", "attr": {"dtype": {"type": "DT_FLOAT"}, "value": {"tensor": {"dtype": "DT_FLOAT", "tensorShape": {"dim": [{"size": "1"}, {"size": "1"}, {"size": "88"}, {"size": "88"}]}}}}}, {"name": "fpn_cells/cell_2/fnode5/op_after_combine10/conv/separable_conv2d_weights", "op": "Const", "attr": {"value": {"tensor": {"dtype": "DT_FLOAT", "tensorShape": {"dim": [{"size": "1"}, {"size": "1"}, {"size": "88"}, {"size": "88"}]}}}, "dtype": {"type": "DT_FLOAT"}}}, {"name": "fpn_cells/cell_2/fnode6/op_after_combine11/conv/separable_conv2d_weights", "op": "Const", "attr": {"value": {"tensor": {"dtype": "DT_FLOAT", "tensorShape": {"dim": [{"size": "1"}, {"size": "1"}, {"size": "88"}, {"size": "88"}]}}}, "dtype": {"type": "DT_FLOAT"}}}, {"name": "fpn_cells/cell_2/fnode7/op_after_combine12/conv/separable_conv2d_weights", "op": "Const", "attr": {"value": {"tensor": {"dtype": "DT_FLOAT", "tensorShape": {"dim": [{"size": "1"}, {"size": "1"}, {"size": "88"}, {"size": "88"}]}}}, "dtype": {"type": "DT_FLOAT"}}}, {"name": "fpn_cells/cell_3/fnode0/op_after_combine5/conv/separable_conv2d_weights", "op": "Const", "attr": {"value": {"tensor": {"dtype": "DT_FLOAT", "tensorShape": {"dim": [{"size": "1"}, {"size": "1"}, {"size": "88"}, {"size": "88"}]}}}, "dtype": {"type": "DT_FLOAT"}}}, {"name": "fpn_cells/cell_3/fnode1/op_after_combine6/conv/separable_conv2d_weights", "op": "Const", "attr": {"dtype": {"type": "DT_FLOAT"}, "value": {"tensor": {"dtype": "DT_FLOAT", "tensorShape": {"dim": [{"size": "1"}, {"size": "1"}, {"size": "88"}, {"size": "88"}]}}}}}, {"name": "fpn_cells/cell_3/fnode2/op_after_combine7/conv/separable_conv2d_weights", "op": "Const", "attr": {"dtype": {"type": "DT_FLOAT"}, "value": {"tensor": {"dtype": "DT_FLOAT", "tensorShape": {"dim": [{"size": "1"}, {"size": "1"}, {"size": "88"}, {"size": "88"}]}}}}}, {"name": "fpn_cells/cell_3/fnode3/op_after_combine8/conv/separable_conv2d_weights", "op": "Const", "attr": {"value": {"tensor": {"dtype": "DT_FLOAT", "tensorShape": {"dim": [{"size": "1"}, {"size": "1"}, {"size": "88"}, {"size": "88"}]}}}, "dtype": {"type": "DT_FLOAT"}}}, {"name": "fpn_cells/cell_3/fnode4/op_after_combine9/conv/separable_conv2d_weights", "op": "Const", "attr": {"value": {"tensor": {"dtype": "DT_FLOAT", "tensorShape": {"dim": [{"size": "1"}, {"size": "1"}, {"size": "88"}, {"size": "88"}]}}}, "dtype": {"type": "DT_FLOAT"}}}, {"name": "fpn_cells/cell_3/fnode5/op_after_combine10/conv/separable_conv2d_weights", "op": "Const", "attr": {"value": {"tensor": {"dtype": "DT_FLOAT", "tensorShape": {"dim": [{"size": "1"}, {"size": "1"}, {"size": "88"}, {"size": "88"}]}}}, "dtype": {"type": "DT_FLOAT"}}}, {"name": "fpn_cells/cell_3/fnode6/op_after_combine11/conv/separable_conv2d_weights", "op": "Const", "attr": {"value": {"tensor": {"dtype": "DT_FLOAT", "tensorShape": {"dim": [{"size": "1"}, {"size": "1"}, {"size": "88"}, {"size": "88"}]}}}, "dtype": {"type": "DT_FLOAT"}}}, {"name": "sub", "op": "Sub", "input": ["input", "ExpandDims_1"], "attr": {"T": {"type": "DT_FLOAT"}}}, {"name": "truediv", "op": "Mul", "input": ["ConstantFolding/truediv_recip", "sub"], "attr": {"T": {"type": "DT_FLOAT"}}}, {"name": "efficientnet-b1/model/stem/tpu_batch_normalization/FusedBatchNormV3", "op": "_FusedConv2D", "input": ["truediv", "efficientnet-b1/model/stem/conv2d/Conv2D_weights", "efficientnet-b1/model/stem/conv2d/Conv2D_bn_offset"], "device": "/device:CPU:0", "attr": {"dilations": {"list": {"i": ["1", "1", "1", "1"]}}, "T": {"type": "DT_FLOAT"}, "data_format": {"s": "TkhXQw=="}, "strides": {"list": {"i": ["1", "2", "2", "1"]}}, "explicit_paddings": {"list": {}}, "use_cudnn_on_gpu": {"b": true}, "num_args": {"i": "1"}, "epsilon": {"f": 0.0}, "padding": {"s": "U0FNRQ=="}, "fused_ops": {"list": {"s": ["Qmlhc0FkZA=="]}}}}, {"name": "efficientnet-b1/model/stem/Sigmoid", "op": "Sigmoid", "input": ["efficientnet-b1/model/stem/tpu_batch_normalization/FusedBatchNormV3"], "attr": {"T": {"type": "DT_FLOAT"}}}, {"name": "efficientnet-b1/model/stem/mul", "op": "Mul", "input": ["efficientnet-b1/model/stem/Sigmoid", "efficientnet-b1/model/stem/tpu_batch_normalization/FusedBatchNormV3"], "attr": {"T": {"type": "DT_FLOAT"}}}, {"name": "efficientnet-b1/model/blocks_0/depthwise_conv2d/depthwise", "op": "DepthwiseConv2dNative", "input": ["efficientnet-b1/model/stem/mul", "efficientnet-b1/model/blocks_0/depthwise_conv2d/depthwise_weights"], "attr": {"T": {"type": "DT_FLOAT"}, "strides": {"list": {"i": ["1", "1", "1", "1"]}}, "data_format": {"s": "TkhXQw=="}, "padding": {"s": "U0FNRQ=="}, "dilations": {"list": {"i": ["1", "1", "1", "1"]}}}}, {"name": "efficientnet-b1/model/blocks_0/Sigmoid", "op": "Sigmoid", "input": ["efficientnet-b1/model/blocks_0/depthwise_conv2d/depthwise"], "attr": {"T": {"type": "DT_FLOAT"}}}, {"name": "efficientnet-b1/model/blocks_0/mul", "op": "Mul", "input": ["efficientnet-b1/model/blocks_0/Sigmoid", "efficientnet-b1/model/blocks_0/depthwise_conv2d/depthwise"], "attr": {"T": {"type": "DT_FLOAT"}}}, {"name": "efficientnet-b1/model/blocks_0/se/Mean", "op": "Mean", "input": ["efficientnet-b1/model/blocks_0/mul", "efficientnet-b1/model/blocks_22/se/Mean/reduction_indices"], "attr": {"keep_dims": {"b": true}, "Tidx": {"type": "DT_INT32"}, "T": {"type": "DT_FLOAT"}}}, {"name": "efficientnet-b1/model/blocks_0/se/conv2d/Conv2D", "op": "Conv2D", "input": ["efficientnet-b1/model/blocks_0/se/Mean", "efficientnet-b1/blocks_0/se/conv2d/kernel"], "device": "/device:CPU:0", "attr": {"dilations": {"list": {"i": ["1", "1", "1", "1"]}}, "T": {"type": "DT_FLOAT"}, "data_format": {"s": "TkhXQw=="}, "strides": {"list": {"i": ["1", "1", "1", "1"]}}, "use_cudnn_on_gpu": {"b": true}, "explicit_paddings": {"list": {}}, "padding": {"s": "U0FNRQ=="}}}, {"name": "efficientnet-b1/model/blocks_0/se/Sigmoid", "op": "Sigmoid", "input": ["efficientnet-b1/model/blocks_0/se/conv2d/Conv2D"], "attr": {"T": {"type": "DT_FLOAT"}}}, {"name": "efficientnet-b1/model/blocks_0/se/mul", "op": "Mul", "input": ["efficientnet-b1/model/blocks_0/se/Sigmoid", "efficientnet-b1/model/blocks_0/se/conv2d/Conv2D"], "attr": {"T": {"type": "DT_FLOAT"}}}, {"name": "efficientnet-b1/model/blocks_0/se/conv2d_1/Conv2D", "op": "Conv2D", "input": ["efficientnet-b1/model/blocks_0/se/mul", "efficientnet-b1/blocks_0/se/conv2d_1/kernel"], "device": "/device:CPU:0", "attr": {"dilations": {"list": {"i": ["1", "1", "1", "1"]}}, "T": {"type": "DT_FLOAT"}, "data_format": {"s": "TkhXQw=="}, "strides": {"list": {"i": ["1", "1", "1", "1"]}}, "explicit_paddings": {"list": {}}, "use_cudnn_on_gpu": {"b": true}, "padding": {"s": "U0FNRQ=="}}}, {"name": "efficientnet-b1/model/blocks_0/se/Sigmoid_1", "op": "Sigmoid", "input": ["efficientnet-b1/model/blocks_0/se/conv2d_1/Conv2D"], "attr": {"T": {"type": "DT_FLOAT"}}}, {"name": "efficientnet-b1/model/blocks_0/se/mul_1", "op": "Mul", "input": ["efficientnet-b1/model/blocks_0/mul", "efficientnet-b1/model/blocks_0/se/Sigmoid_1"], "attr": {"T": {"type": "DT_FLOAT"}}}, {"name": "efficientnet-b1/model/blocks_0/tpu_batch_normalization_1/FusedBatchNormV3", "op": "_FusedConv2D", "input": ["efficientnet-b1/model/blocks_0/se/mul_1", "efficientnet-b1/model/blocks_0/conv2d/Conv2D_weights", "efficientnet-b1/model/blocks_0/conv2d/Conv2D_bn_offset"], "device": "/device:CPU:0", "attr": {"data_format": {"s": "TkhXQw=="}, "strides": {"list": {"i": ["1", "1", "1", "1"]}}, "use_cudnn_on_gpu": {"b": true}, "explicit_paddings": {"list": {}}, "num_args": {"i": "1"}, "epsilon": {"f": 0.0}, "padding": {"s": "U0FNRQ=="}, "fused_ops": {"list": {"s": ["Qmlhc0FkZA=="]}}, "dilations": {"list": {"i": ["1", "1", "1", "1"]}}, "T": {"type": "DT_FLOAT"}}}, {"name": "efficientnet-b1/model/blocks_1/depthwise_conv2d/depthwise", "op": "DepthwiseConv2dNative", "input": ["efficientnet-b1/model/blocks_0/tpu_batch_normalization_1/FusedBatchNormV3", "efficientnet-b1/model/blocks_1/depthwise_conv2d/depthwise_weights"], "attr": {"strides": {"list": {"i": ["1", "1", "1", "1"]}}, "data_format": {"s": "TkhXQw=="}, "padding": {"s": "U0FNRQ=="}, "dilations": {"list": {"i": ["1", "1", "1", "1"]}}, "T": {"type": "DT_FLOAT"}}}, {"name": "efficientnet-b1/model/blocks_1/Sigmoid", "op": "Sigmoid", "input": ["efficientnet-b1/model/blocks_1/depthwise_conv2d/depthwise"], "attr": {"T": {"type": "DT_FLOAT"}}}, {"name": "efficientnet-b1/model/blocks_1/mul", "op": "Mul", "input": ["efficientnet-b1/model/blocks_1/Sigmoid", "efficientnet-b1/model/blocks_1/depthwise_conv2d/depthwise"], "attr": {"T": {"type": "DT_FLOAT"}}}, {"name": "efficientnet-b1/model/blocks_1/se/Mean", "op": "Mean", "input": ["efficientnet-b1/model/blocks_1/mul", "efficientnet-b1/model/blocks_22/se/Mean/reduction_indices"], "attr": {"T": {"type": "DT_FLOAT"}, "keep_dims": {"b": true}, "Tidx": {"type": "DT_INT32"}}}, {"name": "efficientnet-b1/model/blocks_1/se/conv2d/Conv2D", "op": "Conv2D", "input": ["efficientnet-b1/model/blocks_1/se/Mean", "efficientnet-b1/blocks_1/se/conv2d/kernel"], "device": "/device:CPU:0", "attr": {"data_format": {"s": "TkhXQw=="}, "strides": {"list": {"i": ["1", "1", "1", "1"]}}, "explicit_paddings": {"list": {}}, "use_cudnn_on_gpu": {"b": true}, "padding": {"s": "U0FNRQ=="}, "dilations": {"list": {"i": ["1", "1", "1", "1"]}}, "T": {"type": "DT_FLOAT"}}}, {"name": "efficientnet-b1/model/blocks_1/se/Sigmoid", "op": "Sigmoid", "input": ["efficientnet-b1/model/blocks_1/se/conv2d/Conv2D"], "attr": {"T": {"type": "DT_FLOAT"}}}, {"name": "efficientnet-b1/model/blocks_1/se/mul", "op": "Mul", "input": ["efficientnet-b1/model/blocks_1/se/Sigmoid", "efficientnet-b1/model/blocks_1/se/conv2d/Conv2D"], "attr": {"T": {"type": "DT_FLOAT"}}}, {"name": "efficientnet-b1/model/blocks_1/se/conv2d_1/Conv2D", "op": "Conv2D", "input": ["efficientnet-b1/model/blocks_1/se/mul", "efficientnet-b1/blocks_1/se/conv2d_1/kernel"], "device": "/device:CPU:0", "attr": {"T": {"type": "DT_FLOAT"}, "data_format": {"s": "TkhXQw=="}, "strides": {"list": {"i": ["1", "1", "1", "1"]}}, "explicit_paddings": {"list": {}}, "use_cudnn_on_gpu": {"b": true}, "padding": {"s": "U0FNRQ=="}, "dilations": {"list": {"i": ["1", "1", "1", "1"]}}}}, {"name": "efficientnet-b1/model/blocks_1/se/Sigmoid_1", "op": "Sigmoid", "input": ["efficientnet-b1/model/blocks_1/se/conv2d_1/Conv2D"], "attr": {"T": {"type": "DT_FLOAT"}}}, {"name": "efficientnet-b1/model/blocks_1/se/mul_1", "op": "Mul", "input": ["efficientnet-b1/model/blocks_1/mul", "efficientnet-b1/model/blocks_1/se/Sigmoid_1"], "attr": {"T": {"type": "DT_FLOAT"}}}, {"name": "efficientnet-b1/model/blocks_1/tpu_batch_normalization_1/FusedBatchNormV3", "op": "_FusedConv2D", "input": ["efficientnet-b1/model/blocks_1/se/mul_1", "efficientnet-b1/model/blocks_1/conv2d/Conv2D_weights", "efficientnet-b1/model/blocks_0/conv2d/Conv2D_bn_offset"], "device": "/device:CPU:0", "attr": {"strides": {"list": {"i": ["1", "1", "1", "1"]}}, "data_format": {"s": "TkhXQw=="}, "use_cudnn_on_gpu": {"b": true}, "explicit_paddings": {"list": {}}, "num_args": {"i": "1"}, "epsilon": {"f": 0.0}, "padding": {"s": "U0FNRQ=="}, "fused_ops": {"list": {"s": ["Qmlhc0FkZA=="]}}, "dilations": {"list": {"i": ["1", "1", "1", "1"]}}, "T": {"type": "DT_FLOAT"}}}, {"name": "efficientnet-b1/model/blocks_1/Add", "op": "Add", "input": ["efficientnet-b1/model/blocks_0/tpu_batch_normalization_1/FusedBatchNormV3", "efficientnet-b1/model/blocks_1/tpu_batch_normalization_1/FusedBatchNormV3"], "attr": {"T": {"type": "DT_FLOAT"}}}, {"name": "efficientnet-b1/model/blocks_2/tpu_batch_normalization/FusedBatchNormV3", "op": "_FusedConv2D", "input": ["efficientnet-b1/model/blocks_1/Add", "efficientnet-b1/model/blocks_2/conv2d/Conv2D_weights", "efficientnet-b1/model/blocks_2/conv2d/Conv2D_bn_offset"], "device": "/device:CPU:0", "attr": {"epsilon": {"f": 0.0}, "padding": {"s": "U0FNRQ=="}, "fused_ops": {"list": {"s": ["Qmlhc0FkZA=="]}}, "dilations": {"list": {"i": ["1", "1", "1", "1"]}}, "T": {"type": "DT_FLOAT"}, "strides": {"list": {"i": ["1", "1", "1", "1"]}}, "data_format": {"s": "TkhXQw=="}, "explicit_paddings": {"list": {}}, "use_cudnn_on_gpu": {"b": true}, "num_args": {"i": "1"}}}, {"name": "efficientnet-b1/model/blocks_2/Sigmoid", "op": "Sigmoid", "input": ["efficientnet-b1/model/blocks_2/tpu_batch_normalization/FusedBatchNormV3"], "attr": {"T": {"type": "DT_FLOAT"}}}, {"name": "efficientnet-b1/model/blocks_2/mul", "op": "Mul", "input": ["efficientnet-b1/model/blocks_2/Sigmoid", "efficientnet-b1/model/blocks_2/tpu_batch_normalization/FusedBatchNormV3"], "attr": {"T": {"type": "DT_FLOAT"}}}, {"name": "efficientnet-b1/model/blocks_2/depthwise_conv2d/depthwise", "op": "DepthwiseConv2dNative", "input": ["efficientnet-b1/model/blocks_2/mul", "efficientnet-b1/model/blocks_2/depthwise_conv2d/depthwise_weights"], "attr": {"padding": {"s": "U0FNRQ=="}, "dilations": {"list": {"i": ["1", "1", "1", "1"]}}, "T": {"type": "DT_FLOAT"}, "strides": {"list": {"i": ["1", "2", "2", "1"]}}, "data_format": {"s": "TkhXQw=="}}}, {"name": "efficientnet-b1/model/blocks_2/Sigmoid_1", "op": "Sigmoid", "input": ["efficientnet-b1/model/blocks_2/depthwise_conv2d/depthwise"], "attr": {"T": {"type": "DT_FLOAT"}}}, {"name": "efficientnet-b1/model/blocks_2/mul_1", "op": "Mul", "input": ["efficientnet-b1/model/blocks_2/Sigmoid_1", "efficientnet-b1/model/blocks_2/depthwise_conv2d/depthwise"], "attr": {"T": {"type": "DT_FLOAT"}}}, {"name": "efficientnet-b1/model/blocks_2/se/Mean", "op": "Mean", "input": ["efficientnet-b1/model/blocks_2/mul_1", "efficientnet-b1/model/blocks_22/se/Mean/reduction_indices"], "attr": {"keep_dims": {"b": true}, "Tidx": {"type": "DT_INT32"}, "T": {"type": "DT_FLOAT"}}}, {"name": "efficientnet-b1/model/blocks_2/se/conv2d/Conv2D", "op": "Conv2D", "input": ["efficientnet-b1/model/blocks_2/se/Mean", "efficientnet-b1/blocks_2/se/conv2d/kernel"], "device": "/device:CPU:0", "attr": {"dilations": {"list": {"i": ["1", "1", "1", "1"]}}, "T": {"type": "DT_FLOAT"}, "data_format": {"s": "TkhXQw=="}, "strides": {"list": {"i": ["1", "1", "1", "1"]}}, "use_cudnn_on_gpu": {"b": true}, "explicit_paddings": {"list": {}}, "padding": {"s": "U0FNRQ=="}}}, {"name": "efficientnet-b1/model/blocks_2/se/Sigmoid", "op": "Sigmoid", "input": ["efficientnet-b1/model/blocks_2/se/conv2d/Conv2D"], "attr": {"T": {"type": "DT_FLOAT"}}}, {"name": "efficientnet-b1/model/blocks_2/se/mul", "op": "Mul", "input": ["efficientnet-b1/model/blocks_2/se/Sigmoid", "efficientnet-b1/model/blocks_2/se/conv2d/Conv2D"], "attr": {"T": {"type": "DT_FLOAT"}}}, {"name": "efficientnet-b1/model/blocks_2/se/conv2d_1/Conv2D", "op": "Conv2D", "input": ["efficientnet-b1/model/blocks_2/se/mul", "efficientnet-b1/blocks_2/se/conv2d_1/kernel"], "device": "/device:CPU:0", "attr": {"dilations": {"list": {"i": ["1", "1", "1", "1"]}}, "T": {"type": "DT_FLOAT"}, "data_format": {"s": "TkhXQw=="}, "strides": {"list": {"i": ["1", "1", "1", "1"]}}, "use_cudnn_on_gpu": {"b": true}, "explicit_paddings": {"list": {}}, "padding": {"s": "U0FNRQ=="}}}, {"name": "efficientnet-b1/model/blocks_2/se/Sigmoid_1", "op": "Sigmoid", "input": ["efficientnet-b1/model/blocks_2/se/conv2d_1/Conv2D"], "attr": {"T": {"type": "DT_FLOAT"}}}, {"name": "efficientnet-b1/model/blocks_2/se/mul_1", "op": "Mul", "input": ["efficientnet-b1/model/blocks_2/mul_1", "efficientnet-b1/model/blocks_2/se/Sigmoid_1"], "attr": {"T": {"type": "DT_FLOAT"}}}, {"name": "efficientnet-b1/model/blocks_2/tpu_batch_normalization_2/FusedBatchNormV3", "op": "_FusedConv2D", "input": ["efficientnet-b1/model/blocks_2/se/mul_1", "efficientnet-b1/model/blocks_2/conv2d_1/Conv2D_weights", "efficientnet-b1/model/blocks_2/conv2d_1/Conv2D_bn_offset"], "device": "/device:CPU:0", "attr": {"epsilon": {"f": 0.0}, "padding": {"s": "U0FNRQ=="}, "fused_ops": {"list": {"s": ["Qmlhc0FkZA=="]}}, "dilations": {"list": {"i": ["1", "1", "1", "1"]}}, "T": {"type": "DT_FLOAT"}, "data_format": {"s": "TkhXQw=="}, "strides": {"list": {"i": ["1", "1", "1", "1"]}}, "explicit_paddings": {"list": {}}, "use_cudnn_on_gpu": {"b": true}, "num_args": {"i": "1"}}}, {"name": "efficientnet-b1/model/blocks_3/tpu_batch_normalization/FusedBatchNormV3", "op": "_FusedConv2D", "input": ["efficientnet-b1/model/blocks_2/tpu_batch_normalization_2/FusedBatchNormV3", "efficientnet-b1/model/blocks_3/conv2d/Conv2D_weights", "efficientnet-b1/model/blocks_3/conv2d/Conv2D_bn_offset"], "device": "/device:CPU:0", "attr": {"T": {"type": "DT_FLOAT"}, "data_format": {"s": "TkhXQw=="}, "strides": {"list": {"i": ["1", "1", "1", "1"]}}, "use_cudnn_on_gpu": {"b": true}, "explicit_paddings": {"list": {}}, "num_args": {"i": "1"}, "epsilon": {"f": 0.0}, "padding": {"s": "U0FNRQ=="}, "fused_ops": {"list": {"s": ["Qmlhc0FkZA=="]}}, "dilations": {"list": {"i": ["1", "1", "1", "1"]}}}}, {"name": "efficientnet-b1/model/blocks_3/Sigmoid", "op": "Sigmoid", "input": ["efficientnet-b1/model/blocks_3/tpu_batch_normalization/FusedBatchNormV3"], "attr": {"T": {"type": "DT_FLOAT"}}}, {"name": "efficientnet-b1/model/blocks_3/mul", "op": "Mul", "input": ["efficientnet-b1/model/blocks_3/Sigmoid", "efficientnet-b1/model/blocks_3/tpu_batch_normalization/FusedBatchNormV3"], "attr": {"T": {"type": "DT_FLOAT"}}}, {"name": "efficientnet-b1/model/blocks_3/depthwise_conv2d/depthwise", "op": "DepthwiseConv2dNative", "input": ["efficientnet-b1/model/blocks_3/mul", "efficientnet-b1/model/blocks_3/depthwise_conv2d/depthwise_weights"], "attr": {"padding": {"s": "U0FNRQ=="}, "dilations": {"list": {"i": ["1", "1", "1", "1"]}}, "T": {"type": "DT_FLOAT"}, "strides": {"list": {"i": ["1", "1", "1", "1"]}}, "data_format": {"s": "TkhXQw=="}}}, {"name": "efficientnet-b1/model/blocks_3/Sigmoid_1", "op": "Sigmoid", "input": ["efficientnet-b1/model/blocks_3/depthwise_conv2d/depthwise"], "attr": {"T": {"type": "DT_FLOAT"}}}, {"name": "efficientnet-b1/model/blocks_3/mul_1", "op": "Mul", "input": ["efficientnet-b1/model/blocks_3/Sigmoid_1", "efficientnet-b1/model/blocks_3/depthwise_conv2d/depthwise"], "attr": {"T": {"type": "DT_FLOAT"}}}, {"name": "efficientnet-b1/model/blocks_3/se/Mean", "op": "Mean", "input": ["efficientnet-b1/model/blocks_3/mul_1", "efficientnet-b1/model/blocks_22/se/Mean/reduction_indices"], "attr": {"keep_dims": {"b": true}, "Tidx": {"type": "DT_INT32"}, "T": {"type": "DT_FLOAT"}}}, {"name": "efficientnet-b1/model/blocks_3/se/conv2d/Conv2D", "op": "Conv2D", "input": ["efficientnet-b1/model/blocks_3/se/Mean", "efficientnet-b1/blocks_3/se/conv2d/kernel"], "device": "/device:CPU:0", "attr": {"dilations": {"list": {"i": ["1", "1", "1", "1"]}}, "T": {"type": "DT_FLOAT"}, "data_format": {"s": "TkhXQw=="}, "strides": {"list": {"i": ["1", "1", "1", "1"]}}, "use_cudnn_on_gpu": {"b": true}, "explicit_paddings": {"list": {}}, "padding": {"s": "U0FNRQ=="}}}, {"name": "efficientnet-b1/model/blocks_3/se/Sigmoid", "op": "Sigmoid", "input": ["efficientnet-b1/model/blocks_3/se/conv2d/Conv2D"], "attr": {"T": {"type": "DT_FLOAT"}}}, {"name": "efficientnet-b1/model/blocks_3/se/mul", "op": "Mul", "input": ["efficientnet-b1/model/blocks_3/se/Sigmoid", "efficientnet-b1/model/blocks_3/se/conv2d/Conv2D"], "attr": {"T": {"type": "DT_FLOAT"}}}, {"name": "efficientnet-b1/model/blocks_3/se/conv2d_1/Conv2D", "op": "Conv2D", "input": ["efficientnet-b1/model/blocks_3/se/mul", "efficientnet-b1/blocks_3/se/conv2d_1/kernel"], "device": "/device:CPU:0", "attr": {"dilations": {"list": {"i": ["1", "1", "1", "1"]}}, "T": {"type": "DT_FLOAT"}, "data_format": {"s": "TkhXQw=="}, "strides": {"list": {"i": ["1", "1", "1", "1"]}}, "use_cudnn_on_gpu": {"b": true}, "explicit_paddings": {"list": {}}, "padding": {"s": "U0FNRQ=="}}}, {"name": "efficientnet-b1/model/blocks_3/se/Sigmoid_1", "op": "Sigmoid", "input": ["efficientnet-b1/model/blocks_3/se/conv2d_1/Conv2D"], "attr": {"T": {"type": "DT_FLOAT"}}}, {"name": "efficientnet-b1/model/blocks_3/se/mul_1", "op": "Mul", "input": ["efficientnet-b1/model/blocks_3/mul_1", "efficientnet-b1/model/blocks_3/se/Sigmoid_1"], "attr": {"T": {"type": "DT_FLOAT"}}}, {"name": "efficientnet-b1/model/blocks_3/tpu_batch_normalization_2/FusedBatchNormV3", "op": "_FusedConv2D", "input": ["efficientnet-b1/model/blocks_3/se/mul_1", "efficientnet-b1/model/blocks_3/conv2d_1/Conv2D_weights", "efficientnet-b1/model/blocks_2/conv2d_1/Conv2D_bn_offset"], "device": "/device:CPU:0", "attr": {"dilations": {"list": {"i": ["1", "1", "1", "1"]}}, "T": {"type": "DT_FLOAT"}, "strides": {"list": {"i": ["1", "1", "1", "1"]}}, "data_format": {"s": "TkhXQw=="}, "use_cudnn_on_gpu": {"b": true}, "explicit_paddings": {"list": {}}, "num_args": {"i": "1"}, "epsilon": {"f": 0.0}, "padding": {"s": "U0FNRQ=="}, "fused_ops": {"list": {"s": ["Qmlhc0FkZA=="]}}}}, {"name": "efficientnet-b1/model/blocks_3/Add", "op": "Add", "input": ["efficientnet-b1/model/blocks_2/tpu_batch_normalization_2/FusedBatchNormV3", "efficientnet-b1/model/blocks_3/tpu_batch_normalization_2/FusedBatchNormV3"], "attr": {"T": {"type": "DT_FLOAT"}}}, {"name": "efficientnet-b1/model/blocks_4/tpu_batch_normalization/FusedBatchNormV3", "op": "_FusedConv2D", "input": ["efficientnet-b1/model/blocks_3/Add", "efficientnet-b1/model/blocks_4/conv2d/Conv2D_weights", "efficientnet-b1/model/blocks_3/conv2d/Conv2D_bn_offset"], "device": "/device:CPU:0", "attr": {"dilations": {"list": {"i": ["1", "1", "1", "1"]}}, "T": {"type": "DT_FLOAT"}, "data_format": {"s": "TkhXQw=="}, "strides": {"list": {"i": ["1", "1", "1", "1"]}}, "use_cudnn_on_gpu": {"b": true}, "explicit_paddings": {"list": {}}, "num_args": {"i": "1"}, "epsilon": {"f": 0.0}, "padding": {"s": "U0FNRQ=="}, "fused_ops": {"list": {"s": ["Qmlhc0FkZA=="]}}}}, {"name": "efficientnet-b1/model/blocks_4/Sigmoid", "op": "Sigmoid", "input": ["efficientnet-b1/model/blocks_4/tpu_batch_normalization/FusedBatchNormV3"], "attr": {"T": {"type": "DT_FLOAT"}}}, {"name": "efficientnet-b1/model/blocks_4/mul", "op": "Mul", "input": ["efficientnet-b1/model/blocks_4/Sigmoid", "efficientnet-b1/model/blocks_4/tpu_batch_normalization/FusedBatchNormV3"], "attr": {"T": {"type": "DT_FLOAT"}}}, {"name": "efficientnet-b1/model/blocks_4/depthwise_conv2d/depthwise", "op": "DepthwiseConv2dNative", "input": ["efficientnet-b1/model/blocks_4/mul", "efficientnet-b1/model/blocks_4/depthwise_conv2d/depthwise_weights"], "attr": {"padding": {"s": "U0FNRQ=="}, "dilations": {"list": {"i": ["1", "1", "1", "1"]}}, "T": {"type": "DT_FLOAT"}, "strides": {"list": {"i": ["1", "1", "1", "1"]}}, "data_format": {"s": "TkhXQw=="}}}, {"name": "efficientnet-b1/model/blocks_4/Sigmoid_1", "op": "Sigmoid", "input": ["efficientnet-b1/model/blocks_4/depthwise_conv2d/depthwise"], "attr": {"T": {"type": "DT_FLOAT"}}}, {"name": "efficientnet-b1/model/blocks_4/mul_1", "op": "Mul", "input": ["efficientnet-b1/model/blocks_4/Sigmoid_1", "efficientnet-b1/model/blocks_4/depthwise_conv2d/depthwise"], "attr": {"T": {"type": "DT_FLOAT"}}}, {"name": "efficientnet-b1/model/blocks_4/se/Mean", "op": "Mean", "input": ["efficientnet-b1/model/blocks_4/mul_1", "efficientnet-b1/model/blocks_22/se/Mean/reduction_indices"], "attr": {"keep_dims": {"b": true}, "Tidx": {"type": "DT_INT32"}, "T": {"type": "DT_FLOAT"}}}, {"name": "efficientnet-b1/model/blocks_4/se/conv2d/Conv2D", "op": "Conv2D", "input": ["efficientnet-b1/model/blocks_4/se/Mean", "efficientnet-b1/blocks_4/se/conv2d/kernel"], "device": "/device:CPU:0", "attr": {"dilations": {"list": {"i": ["1", "1", "1", "1"]}}, "T": {"type": "DT_FLOAT"}, "data_format": {"s": "TkhXQw=="}, "strides": {"list": {"i": ["1", "1", "1", "1"]}}, "explicit_paddings": {"list": {}}, "use_cudnn_on_gpu": {"b": true}, "padding": {"s": "U0FNRQ=="}}}, {"name": "efficientnet-b1/model/blocks_4/se/Sigmoid", "op": "Sigmoid", "input": ["efficientnet-b1/model/blocks_4/se/conv2d/Conv2D"], "attr": {"T": {"type": "DT_FLOAT"}}}, {"name": "efficientnet-b1/model/blocks_4/se/mul", "op": "Mul", "input": ["efficientnet-b1/model/blocks_4/se/Sigmoid", "efficientnet-b1/model/blocks_4/se/conv2d/Conv2D"], "attr": {"T": {"type": "DT_FLOAT"}}}, {"name": "efficientnet-b1/model/blocks_4/se/conv2d_1/Conv2D", "op": "Conv2D", "input": ["efficientnet-b1/model/blocks_4/se/mul", "efficientnet-b1/blocks_4/se/conv2d_1/kernel"], "device": "/device:CPU:0", "attr": {"dilations": {"list": {"i": ["1", "1", "1", "1"]}}, "T": {"type": "DT_FLOAT"}, "data_format": {"s": "TkhXQw=="}, "strides": {"list": {"i": ["1", "1", "1", "1"]}}, "explicit_paddings": {"list": {}}, "use_cudnn_on_gpu": {"b": true}, "padding": {"s": "U0FNRQ=="}}}, {"name": "efficientnet-b1/model/blocks_4/se/Sigmoid_1", "op": "Sigmoid", "input": ["efficientnet-b1/model/blocks_4/se/conv2d_1/Conv2D"], "attr": {"T": {"type": "DT_FLOAT"}}}, {"name": "efficientnet-b1/model/blocks_4/se/mul_1", "op": "Mul", "input": ["efficientnet-b1/model/blocks_4/mul_1", "efficientnet-b1/model/blocks_4/se/Sigmoid_1"], "attr": {"T": {"type": "DT_FLOAT"}}}, {"name": "efficientnet-b1/model/blocks_4/tpu_batch_normalization_2/FusedBatchNormV3", "op": "_FusedConv2D", "input": ["efficientnet-b1/model/blocks_4/se/mul_1", "efficientnet-b1/model/blocks_4/conv2d_1/Conv2D_weights", "efficientnet-b1/model/blocks_2/conv2d_1/Conv2D_bn_offset"], "device": "/device:CPU:0", "attr": {"fused_ops": {"list": {"s": ["Qmlhc0FkZA=="]}}, "dilations": {"list": {"i": ["1", "1", "1", "1"]}}, "T": {"type": "DT_FLOAT"}, "strides": {"list": {"i": ["1", "1", "1", "1"]}}, "data_format": {"s": "TkhXQw=="}, "use_cudnn_on_gpu": {"b": true}, "explicit_paddings": {"list": {}}, "num_args": {"i": "1"}, "epsilon": {"f": 0.0}, "padding": {"s": "U0FNRQ=="}}}, {"name": "efficientnet-b1/model/blocks_4/Add", "op": "Add", "input": ["efficientnet-b1/model/blocks_3/Add", "efficientnet-b1/model/blocks_4/tpu_batch_normalization_2/FusedBatchNormV3"], "attr": {"T": {"type": "DT_FLOAT"}}}, {"name": "efficientnet-b1/model/blocks_5/tpu_batch_normalization/FusedBatchNormV3", "op": "_FusedConv2D", "input": ["efficientnet-b1/model/blocks_4/Add", "efficientnet-b1/model/blocks_5/conv2d/Conv2D_weights", "efficientnet-b1/model/blocks_3/conv2d/Conv2D_bn_offset"], "device": "/device:CPU:0", "attr": {"fused_ops": {"list": {"s": ["Qmlhc0FkZA=="]}}, "dilations": {"list": {"i": ["1", "1", "1", "1"]}}, "T": {"type": "DT_FLOAT"}, "data_format": {"s": "TkhXQw=="}, "strides": {"list": {"i": ["1", "1", "1", "1"]}}, "use_cudnn_on_gpu": {"b": true}, "explicit_paddings": {"list": {}}, "num_args": {"i": "1"}, "epsilon": {"f": 0.0}, "padding": {"s": "U0FNRQ=="}}}, {"name": "efficientnet-b1/model/blocks_5/Sigmoid", "op": "Sigmoid", "input": ["efficientnet-b1/model/blocks_5/tpu_batch_normalization/FusedBatchNormV3"], "attr": {"T": {"type": "DT_FLOAT"}}}, {"name": "efficientnet-b1/model/blocks_5/mul", "op": "Mul", "input": ["efficientnet-b1/model/blocks_5/Sigmoid", "efficientnet-b1/model/blocks_5/tpu_batch_normalization/FusedBatchNormV3"], "attr": {"T": {"type": "DT_FLOAT"}}}, {"name": "efficientnet-b1/model/blocks_5/depthwise_conv2d/depthwise", "op": "DepthwiseConv2dNative", "input": ["efficientnet-b1/model/blocks_5/mul", "efficientnet-b1/model/blocks_5/depthwise_conv2d/depthwise_weights"], "attr": {"strides": {"list": {"i": ["1", "2", "2", "1"]}}, "data_format": {"s": "TkhXQw=="}, "padding": {"s": "U0FNRQ=="}, "dilations": {"list": {"i": ["1", "1", "1", "1"]}}, "T": {"type": "DT_FLOAT"}}}, {"name": "efficientnet-b1/model/blocks_5/Sigmoid_1", "op": "Sigmoid", "input": ["efficientnet-b1/model/blocks_5/depthwise_conv2d/depthwise"], "attr": {"T": {"type": "DT_FLOAT"}}}, {"name": "efficientnet-b1/model/blocks_5/mul_1", "op": "Mul", "input": ["efficientnet-b1/model/blocks_5/Sigmoid_1", "efficientnet-b1/model/blocks_5/depthwise_conv2d/depthwise"], "attr": {"T": {"type": "DT_FLOAT"}}}, {"name": "efficientnet-b1/model/blocks_5/se/Mean", "op": "Mean", "input": ["efficientnet-b1/model/blocks_5/mul_1", "efficientnet-b1/model/blocks_22/se/Mean/reduction_indices"], "attr": {"T": {"type": "DT_FLOAT"}, "keep_dims": {"b": true}, "Tidx": {"type": "DT_INT32"}}}, {"name": "efficientnet-b1/model/blocks_5/se/conv2d/Conv2D", "op": "Conv2D", "input": ["efficientnet-b1/model/blocks_5/se/Mean", "efficientnet-b1/blocks_5/se/conv2d/kernel"], "device": "/device:CPU:0", "attr": {"dilations": {"list": {"i": ["1", "1", "1", "1"]}}, "T": {"type": "DT_FLOAT"}, "data_format": {"s": "TkhXQw=="}, "strides": {"list": {"i": ["1", "1", "1", "1"]}}, "explicit_paddings": {"list": {}}, "use_cudnn_on_gpu": {"b": true}, "padding": {"s": "U0FNRQ=="}}}, {"name": "efficientnet-b1/model/blocks_5/se/Sigmoid", "op": "Sigmoid", "input": ["efficientnet-b1/model/blocks_5/se/conv2d/Conv2D"], "attr": {"T": {"type": "DT_FLOAT"}}}, {"name": "efficientnet-b1/model/blocks_5/se/mul", "op": "Mul", "input": ["efficientnet-b1/model/blocks_5/se/Sigmoid", "efficientnet-b1/model/blocks_5/se/conv2d/Conv2D"], "attr": {"T": {"type": "DT_FLOAT"}}}, {"name": "efficientnet-b1/model/blocks_5/se/conv2d_1/Conv2D", "op": "Conv2D", "input": ["efficientnet-b1/model/blocks_5/se/mul", "efficientnet-b1/blocks_5/se/conv2d_1/kernel"], "device": "/device:CPU:0", "attr": {"dilations": {"list": {"i": ["1", "1", "1", "1"]}}, "T": {"type": "DT_FLOAT"}, "data_format": {"s": "TkhXQw=="}, "strides": {"list": {"i": ["1", "1", "1", "1"]}}, "explicit_paddings": {"list": {}}, "use_cudnn_on_gpu": {"b": true}, "padding": {"s": "U0FNRQ=="}}}, {"name": "efficientnet-b1/model/blocks_5/se/Sigmoid_1", "op": "Sigmoid", "input": ["efficientnet-b1/model/blocks_5/se/conv2d_1/Conv2D"], "attr": {"T": {"type": "DT_FLOAT"}}}, {"name": "efficientnet-b1/model/blocks_5/se/mul_1", "op": "Mul", "input": ["efficientnet-b1/model/blocks_5/mul_1", "efficientnet-b1/model/blocks_5/se/Sigmoid_1"], "attr": {"T": {"type": "DT_FLOAT"}}}, {"name": "efficientnet-b1/model/blocks_5/tpu_batch_normalization_2/FusedBatchNormV3", "op": "_FusedConv2D", "input": ["efficientnet-b1/model/blocks_5/se/mul_1", "efficientnet-b1/model/blocks_5/conv2d_1/Conv2D_weights", "efficientnet-b1/model/blocks_5/conv2d_1/Conv2D_bn_offset"], "device": "/device:CPU:0", "attr": {"dilations": {"list": {"i": ["1", "1", "1", "1"]}}, "T": {"type": "DT_FLOAT"}, "data_format": {"s": "TkhXQw=="}, "strides": {"list": {"i": ["1", "1", "1", "1"]}}, "use_cudnn_on_gpu": {"b": true}, "explicit_paddings": {"list": {}}, "num_args": {"i": "1"}, "epsilon": {"f": 0.0}, "padding": {"s": "U0FNRQ=="}, "fused_ops": {"list": {"s": ["Qmlhc0FkZA=="]}}}}, {"name": "efficientnet-b1/model/blocks_6/tpu_batch_normalization/FusedBatchNormV3", "op": "_FusedConv2D", "input": ["efficientnet-b1/model/blocks_5/tpu_batch_normalization_2/FusedBatchNormV3", "efficientnet-b1/model/blocks_6/conv2d/Conv2D_weights", "efficientnet-b1/model/blocks_6/conv2d/Conv2D_bn_offset"], "device": "/device:CPU:0", "attr": {"fused_ops": {"list": {"s": ["Qmlhc0FkZA=="]}}, "dilations": {"list": {"i": ["1", "1", "1", "1"]}}, "T": {"type": "DT_FLOAT"}, "strides": {"list": {"i": ["1", "1", "1", "1"]}}, "data_format": {"s": "TkhXQw=="}, "use_cudnn_on_gpu": {"b": true}, "explicit_paddings": {"list": {}}, "num_args": {"i": "1"}, "epsilon": {"f": 0.0}, "padding": {"s": "U0FNRQ=="}}}, {"name": "efficientnet-b1/model/blocks_6/Sigmoid", "op": "Sigmoid", "input": ["efficientnet-b1/model/blocks_6/tpu_batch_normalization/FusedBatchNormV3"], "attr": {"T": {"type": "DT_FLOAT"}}}, {"name": "efficientnet-b1/model/blocks_6/mul", "op": "Mul", "input": ["efficientnet-b1/model/blocks_6/Sigmoid", "efficientnet-b1/model/blocks_6/tpu_batch_normalization/FusedBatchNormV3"], "attr": {"T": {"type": "DT_FLOAT"}}}, {"name": "efficientnet-b1/model/blocks_6/depthwise_conv2d/depthwise", "op": "DepthwiseConv2dNative", "input": ["efficientnet-b1/model/blocks_6/mul", "efficientnet-b1/model/blocks_6/depthwise_conv2d/depthwise_weights"], "attr": {"T": {"type": "DT_FLOAT"}, "strides": {"list": {"i": ["1", "1", "1", "1"]}}, "data_format": {"s": "TkhXQw=="}, "padding": {"s": "U0FNRQ=="}, "dilations": {"list": {"i": ["1", "1", "1", "1"]}}}}, {"name": "efficientnet-b1/model/blocks_6/Sigmoid_1", "op": "Sigmoid", "input": ["efficientnet-b1/model/blocks_6/depthwise_conv2d/depthwise"], "attr": {"T": {"type": "DT_FLOAT"}}}, {"name": "efficientnet-b1/model/blocks_6/mul_1", "op": "Mul", "input": ["efficientnet-b1/model/blocks_6/Sigmoid_1", "efficientnet-b1/model/blocks_6/depthwise_conv2d/depthwise"], "attr": {"T": {"type": "DT_FLOAT"}}}, {"name": "efficientnet-b1/model/blocks_6/se/Mean", "op": "Mean", "input": ["efficientnet-b1/model/blocks_6/mul_1", "efficientnet-b1/model/blocks_22/se/Mean/reduction_indices"], "attr": {"keep_dims": {"b": true}, "Tidx": {"type": "DT_INT32"}, "T": {"type": "DT_FLOAT"}}}, {"name": "efficientnet-b1/model/blocks_6/se/conv2d/Conv2D", "op": "Conv2D", "input": ["efficientnet-b1/model/blocks_6/se/Mean", "efficientnet-b1/blocks_6/se/conv2d/kernel"], "device": "/device:CPU:0", "attr": {"dilations": {"list": {"i": ["1", "1", "1", "1"]}}, "T": {"type": "DT_FLOAT"}, "data_format": {"s": "TkhXQw=="}, "strides": {"list": {"i": ["1", "1", "1", "1"]}}, "use_cudnn_on_gpu": {"b": true}, "explicit_paddings": {"list": {}}, "padding": {"s": "U0FNRQ=="}}}, {"name": "efficientnet-b1/model/blocks_6/se/Sigmoid", "op": "Sigmoid", "input": ["efficientnet-b1/model/blocks_6/se/conv2d/Conv2D"], "attr": {"T": {"type": "DT_FLOAT"}}}, {"name": "efficientnet-b1/model/blocks_6/se/mul", "op": "Mul", "input": ["efficientnet-b1/model/blocks_6/se/Sigmoid", "efficientnet-b1/model/blocks_6/se/conv2d/Conv2D"], "attr": {"T": {"type": "DT_FLOAT"}}}, {"name": "efficientnet-b1/model/blocks_6/se/conv2d_1/Conv2D", "op": "Conv2D", "input": ["efficientnet-b1/model/blocks_6/se/mul", "efficientnet-b1/blocks_6/se/conv2d_1/kernel"], "device": "/device:CPU:0", "attr": {"dilations": {"list": {"i": ["1", "1", "1", "1"]}}, "T": {"type": "DT_FLOAT"}, "data_format": {"s": "TkhXQw=="}, "strides": {"list": {"i": ["1", "1", "1", "1"]}}, "explicit_paddings": {"list": {}}, "use_cudnn_on_gpu": {"b": true}, "padding": {"s": "U0FNRQ=="}}}, {"name": "efficientnet-b1/model/blocks_6/se/Sigmoid_1", "op": "Sigmoid", "input": ["efficientnet-b1/model/blocks_6/se/conv2d_1/Conv2D"], "attr": {"T": {"type": "DT_FLOAT"}}}, {"name": "efficientnet-b1/model/blocks_6/se/mul_1", "op": "Mul", "input": ["efficientnet-b1/model/blocks_6/mul_1", "efficientnet-b1/model/blocks_6/se/Sigmoid_1"], "attr": {"T": {"type": "DT_FLOAT"}}}, {"name": "efficientnet-b1/model/blocks_6/tpu_batch_normalization_2/FusedBatchNormV3", "op": "_FusedConv2D", "input": ["efficientnet-b1/model/blocks_6/se/mul_1", "efficientnet-b1/model/blocks_6/conv2d_1/Conv2D_weights", "efficientnet-b1/model/blocks_5/conv2d_1/Conv2D_bn_offset"], "device": "/device:CPU:0", "attr": {"dilations": {"list": {"i": ["1", "1", "1", "1"]}}, "T": {"type": "DT_FLOAT"}, "data_format": {"s": "TkhXQw=="}, "strides": {"list": {"i": ["1", "1", "1", "1"]}}, "explicit_paddings": {"list": {}}, "use_cudnn_on_gpu": {"b": true}, "num_args": {"i": "1"}, "epsilon": {"f": 0.0}, "padding": {"s": "U0FNRQ=="}, "fused_ops": {"list": {"s": ["Qmlhc0FkZA=="]}}}}, {"name": "efficientnet-b1/model/blocks_6/Add", "op": "Add", "input": ["efficientnet-b1/model/blocks_5/tpu_batch_normalization_2/FusedBatchNormV3", "efficientnet-b1/model/blocks_6/tpu_batch_normalization_2/FusedBatchNormV3"], "attr": {"T": {"type": "DT_FLOAT"}}}, {"name": "efficientnet-b1/model/blocks_7/tpu_batch_normalization/FusedBatchNormV3", "op": "_FusedConv2D", "input": ["efficientnet-b1/model/blocks_6/Add", "efficientnet-b1/model/blocks_7/conv2d/Conv2D_weights", "efficientnet-b1/model/blocks_6/conv2d/Conv2D_bn_offset"], "device": "/device:CPU:0", "attr": {"epsilon": {"f": 0.0}, "padding": {"s": "U0FNRQ=="}, "fused_ops": {"list": {"s": ["Qmlhc0FkZA=="]}}, "dilations": {"list": {"i": ["1", "1", "1", "1"]}}, "T": {"type": "DT_FLOAT"}, "strides": {"list": {"i": ["1", "1", "1", "1"]}}, "data_format": {"s": "TkhXQw=="}, "explicit_paddings": {"list": {}}, "use_cudnn_on_gpu": {"b": true}, "num_args": {"i": "1"}}}, {"name": "efficientnet-b1/model/blocks_7/Sigmoid", "op": "Sigmoid", "input": ["efficientnet-b1/model/blocks_7/tpu_batch_normalization/FusedBatchNormV3"], "attr": {"T": {"type": "DT_FLOAT"}}}, {"name": "efficientnet-b1/model/blocks_7/mul", "op": "Mul", "input": ["efficientnet-b1/model/blocks_7/Sigmoid", "efficientnet-b1/model/blocks_7/tpu_batch_normalization/FusedBatchNormV3"], "attr": {"T": {"type": "DT_FLOAT"}}}, {"name": "efficientnet-b1/model/blocks_7/depthwise_conv2d/depthwise", "op": "DepthwiseConv2dNative", "input": ["efficientnet-b1/model/blocks_7/mul", "efficientnet-b1/model/blocks_7/depthwise_conv2d/depthwise_weights"], "attr": {"T": {"type": "DT_FLOAT"}, "strides": {"list": {"i": ["1", "1", "1", "1"]}}, "data_format": {"s": "TkhXQw=="}, "padding": {"s": "U0FNRQ=="}, "dilations": {"list": {"i": ["1", "1", "1", "1"]}}}}, {"name": "efficientnet-b1/model/blocks_7/Sigmoid_1", "op": "Sigmoid", "input": ["efficientnet-b1/model/blocks_7/depthwise_conv2d/depthwise"], "attr": {"T": {"type": "DT_FLOAT"}}}, {"name": "efficientnet-b1/model/blocks_7/mul_1", "op": "Mul", "input": ["efficientnet-b1/model/blocks_7/Sigmoid_1", "efficientnet-b1/model/blocks_7/depthwise_conv2d/depthwise"], "attr": {"T": {"type": "DT_FLOAT"}}}, {"name": "efficientnet-b1/model/blocks_7/se/Mean", "op": "Mean", "input": ["efficientnet-b1/model/blocks_7/mul_1", "efficientnet-b1/model/blocks_22/se/Mean/reduction_indices"], "attr": {"keep_dims": {"b": true}, "Tidx": {"type": "DT_INT32"}, "T": {"type": "DT_FLOAT"}}}, {"name": "efficientnet-b1/model/blocks_7/se/conv2d/Conv2D", "op": "Conv2D", "input": ["efficientnet-b1/model/blocks_7/se/Mean", "efficientnet-b1/blocks_7/se/conv2d/kernel"], "device": "/device:CPU:0", "attr": {"T": {"type": "DT_FLOAT"}, "data_format": {"s": "TkhXQw=="}, "strides": {"list": {"i": ["1", "1", "1", "1"]}}, "explicit_paddings": {"list": {}}, "use_cudnn_on_gpu": {"b": true}, "padding": {"s": "U0FNRQ=="}, "dilations": {"list": {"i": ["1", "1", "1", "1"]}}}}, {"name": "efficientnet-b1/model/blocks_7/se/Sigmoid", "op": "Sigmoid", "input": ["efficientnet-b1/model/blocks_7/se/conv2d/Conv2D"], "attr": {"T": {"type": "DT_FLOAT"}}}, {"name": "efficientnet-b1/model/blocks_7/se/mul", "op": "Mul", "input": ["efficientnet-b1/model/blocks_7/se/Sigmoid", "efficientnet-b1/model/blocks_7/se/conv2d/Conv2D"], "attr": {"T": {"type": "DT_FLOAT"}}}, {"name": "efficientnet-b1/model/blocks_7/se/conv2d_1/Conv2D", "op": "Conv2D", "input": ["efficientnet-b1/model/blocks_7/se/mul", "efficientnet-b1/blocks_7/se/conv2d_1/kernel"], "device": "/device:CPU:0", "attr": {"padding": {"s": "U0FNRQ=="}, "dilations": {"list": {"i": ["1", "1", "1", "1"]}}, "T": {"type": "DT_FLOAT"}, "data_format": {"s": "TkhXQw=="}, "strides": {"list": {"i": ["1", "1", "1", "1"]}}, "use_cudnn_on_gpu": {"b": true}, "explicit_paddings": {"list": {}}}}, {"name": "efficientnet-b1/model/blocks_7/se/Sigmoid_1", "op": "Sigmoid", "input": ["efficientnet-b1/model/blocks_7/se/conv2d_1/Conv2D"], "attr": {"T": {"type": "DT_FLOAT"}}}, {"name": "efficientnet-b1/model/blocks_7/se/mul_1", "op": "Mul", "input": ["efficientnet-b1/model/blocks_7/mul_1", "efficientnet-b1/model/blocks_7/se/Sigmoid_1"], "attr": {"T": {"type": "DT_FLOAT"}}}, {"name": "efficientnet-b1/model/blocks_7/tpu_batch_normalization_2/FusedBatchNormV3", "op": "_FusedConv2D", "input": ["efficientnet-b1/model/blocks_7/se/mul_1", "efficientnet-b1/model/blocks_7/conv2d_1/Conv2D_weights", "efficientnet-b1/model/blocks_5/conv2d_1/Conv2D_bn_offset"], "device": "/device:CPU:0", "attr": {"dilations": {"list": {"i": ["1", "1", "1", "1"]}}, "T": {"type": "DT_FLOAT"}, "strides": {"list": {"i": ["1", "1", "1", "1"]}}, "data_format": {"s": "TkhXQw=="}, "use_cudnn_on_gpu": {"b": true}, "explicit_paddings": {"list": {}}, "num_args": {"i": "1"}, "epsilon": {"f": 0.0}, "padding": {"s": "U0FNRQ=="}, "fused_ops": {"list": {"s": ["Qmlhc0FkZA=="]}}}}, {"name": "efficientnet-b1/model/blocks_7/Add", "op": "Add", "input": ["efficientnet-b1/model/blocks_6/Add", "efficientnet-b1/model/blocks_7/tpu_batch_normalization_2/FusedBatchNormV3"], "attr": {"T": {"type": "DT_FLOAT"}}}, {"name": "fpn_cells/cell_0/fnode3/resample_0_0_8/bn/FusedBatchNormV3", "op": "_FusedConv2D", "input": ["efficientnet-b1/model/blocks_7/Add", "fpn_cells/cell_0/fnode3/resample_0_0_8/conv2d/Conv2D_weights", "fpn_cells/cell_3/fnode7/op_after_combine12/conv/separable_conv2d_bn_offset"], "device": "/device:CPU:0", "attr": {"dilations": {"list": {"i": ["1", "1", "1", "1"]}}, "T": {"type": "DT_FLOAT"}, "data_format": {"s": "TkhXQw=="}, "strides": {"list": {"i": ["1", "1", "1", "1"]}}, "use_cudnn_on_gpu": {"b": true}, "explicit_paddings": {"list": {}}, "num_args": {"i": "1"}, "epsilon": {"f": 0.0}, "padding": {"s": "U0FNRQ=="}, "fused_ops": {"list": {"s": ["Qmlhc0FkZA=="]}}}}, {"name": "efficientnet-b1/model/blocks_8/tpu_batch_normalization/FusedBatchNormV3", "op": "_FusedConv2D", "input": ["efficientnet-b1/model/blocks_7/Add", "efficientnet-b1/model/blocks_8/conv2d/Conv2D_weights", "efficientnet-b1/model/blocks_6/conv2d/Conv2D_bn_offset"], "device": "/device:CPU:0", "attr": {"T": {"type": "DT_FLOAT"}, "data_format": {"s": "TkhXQw=="}, "strides": {"list": {"i": ["1", "1", "1", "1"]}}, "use_cudnn_on_gpu": {"b": true}, "explicit_paddings": {"list": {}}, "num_args": {"i": "1"}, "epsilon": {"f": 0.0}, "padding": {"s": "U0FNRQ=="}, "fused_ops": {"list": {"s": ["Qmlhc0FkZA=="]}}, "dilations": {"list": {"i": ["1", "1", "1", "1"]}}}}, {"name": "efficientnet-b1/model/blocks_8/Sigmoid", "op": "Sigmoid", "input": ["efficientnet-b1/model/blocks_8/tpu_batch_normalization/FusedBatchNormV3"], "attr": {"T": {"type": "DT_FLOAT"}}}, {"name": "efficientnet-b1/model/blocks_8/mul", "op": "Mul", "input": ["efficientnet-b1/model/blocks_8/Sigmoid", "efficientnet-b1/model/blocks_8/tpu_batch_normalization/FusedBatchNormV3"], "attr": {"T": {"type": "DT_FLOAT"}}}, {"name": "efficientnet-b1/model/blocks_8/depthwise_conv2d/depthwise", "op": "DepthwiseConv2dNative", "input": ["efficientnet-b1/model/blocks_8/mul", "efficientnet-b1/model/blocks_8/depthwise_conv2d/depthwise_weights"], "attr": {"T": {"type": "DT_FLOAT"}, "strides": {"list": {"i": ["1", "2", "2", "1"]}}, "data_format": {"s": "TkhXQw=="}, "padding": {"s": "U0FNRQ=="}, "dilations": {"list": {"i": ["1", "1", "1", "1"]}}}}, {"name": "efficientnet-b1/model/blocks_8/Sigmoid_1", "op": "Sigmoid", "input": ["efficientnet-b1/model/blocks_8/depthwise_conv2d/depthwise"], "attr": {"T": {"type": "DT_FLOAT"}}}, {"name": "efficientnet-b1/model/blocks_8/mul_1", "op": "Mul", "input": ["efficientnet-b1/model/blocks_8/Sigmoid_1", "efficientnet-b1/model/blocks_8/depthwise_conv2d/depthwise"], "attr": {"T": {"type": "DT_FLOAT"}}}, {"name": "efficientnet-b1/model/blocks_8/se/Mean", "op": "Mean", "input": ["efficientnet-b1/model/blocks_8/mul_1", "efficientnet-b1/model/blocks_22/se/Mean/reduction_indices"], "attr": {"keep_dims": {"b": true}, "Tidx": {"type": "DT_INT32"}, "T": {"type": "DT_FLOAT"}}}, {"name": "efficientnet-b1/model/blocks_8/se/conv2d/Conv2D", "op": "Conv2D", "input": ["efficientnet-b1/model/blocks_8/se/Mean", "efficientnet-b1/blocks_8/se/conv2d/kernel"], "device": "/device:CPU:0", "attr": {"padding": {"s": "U0FNRQ=="}, "dilations": {"list": {"i": ["1", "1", "1", "1"]}}, "T": {"type": "DT_FLOAT"}, "data_format": {"s": "TkhXQw=="}, "strides": {"list": {"i": ["1", "1", "1", "1"]}}, "use_cudnn_on_gpu": {"b": true}, "explicit_paddings": {"list": {}}}}, {"name": "efficientnet-b1/model/blocks_8/se/Sigmoid", "op": "Sigmoid", "input": ["efficientnet-b1/model/blocks_8/se/conv2d/Conv2D"], "attr": {"T": {"type": "DT_FLOAT"}}}, {"name": "efficientnet-b1/model/blocks_8/se/mul", "op": "Mul", "input": ["efficientnet-b1/model/blocks_8/se/Sigmoid", "efficientnet-b1/model/blocks_8/se/conv2d/Conv2D"], "attr": {"T": {"type": "DT_FLOAT"}}}, {"name": "efficientnet-b1/model/blocks_8/se/conv2d_1/Conv2D", "op": "Conv2D", "input": ["efficientnet-b1/model/blocks_8/se/mul", "efficientnet-b1/blocks_8/se/conv2d_1/kernel"], "device": "/device:CPU:0", "attr": {"padding": {"s": "U0FNRQ=="}, "dilations": {"list": {"i": ["1", "1", "1", "1"]}}, "T": {"type": "DT_FLOAT"}, "data_format": {"s": "TkhXQw=="}, "strides": {"list": {"i": ["1", "1", "1", "1"]}}, "use_cudnn_on_gpu": {"b": true}, "explicit_paddings": {"list": {}}}}, {"name": "efficientnet-b1/model/blocks_8/se/Sigmoid_1", "op": "Sigmoid", "input": ["efficientnet-b1/model/blocks_8/se/conv2d_1/Conv2D"], "attr": {"T": {"type": "DT_FLOAT"}}}, {"name": "efficientnet-b1/model/blocks_8/se/mul_1", "op": "Mul", "input": ["efficientnet-b1/model/blocks_8/mul_1", "efficientnet-b1/model/blocks_8/se/Sigmoid_1"], "attr": {"T": {"type": "DT_FLOAT"}}}, {"name": "efficientnet-b1/model/blocks_8/tpu_batch_normalization_2/FusedBatchNormV3", "op": "_FusedConv2D", "input": ["efficientnet-b1/model/blocks_8/se/mul_1", "efficientnet-b1/model/blocks_8/conv2d_1/Conv2D_weights", "efficientnet-b1/model/blocks_8/conv2d_1/Conv2D_bn_offset"], "device": "/device:CPU:0", "attr": {"epsilon": {"f": 0.0}, "padding": {"s": "U0FNRQ=="}, "fused_ops": {"list": {"s": ["Qmlhc0FkZA=="]}}, "dilations": {"list": {"i": ["1", "1", "1", "1"]}}, "T": {"type": "DT_FLOAT"}, "strides": {"list": {"i": ["1", "1", "1", "1"]}}, "data_format": {"s": "TkhXQw=="}, "explicit_paddings": {"list": {}}, "use_cudnn_on_gpu": {"b": true}, "num_args": {"i": "1"}}}, {"name": "efficientnet-b1/model/blocks_9/tpu_batch_normalization/FusedBatchNormV3", "op": "_FusedConv2D", "input": ["efficientnet-b1/model/blocks_8/tpu_batch_normalization_2/FusedBatchNormV3", "efficientnet-b1/model/blocks_9/conv2d/Conv2D_weights", "efficientnet-b1/model/blocks_9/conv2d/Conv2D_bn_offset"], "device": "/device:CPU:0", "attr": {"num_args": {"i": "1"}, "epsilon": {"f": 0.0}, "padding": {"s": "U0FNRQ=="}, "fused_ops": {"list": {"s": ["Qmlhc0FkZA=="]}}, "dilations": {"list": {"i": ["1", "1", "1", "1"]}}, "T": {"type": "DT_FLOAT"}, "strides": {"list": {"i": ["1", "1", "1", "1"]}}, "data_format": {"s": "TkhXQw=="}, "explicit_paddings": {"list": {}}, "use_cudnn_on_gpu": {"b": true}}}, {"name": "efficientnet-b1/model/blocks_9/Sigmoid", "op": "Sigmoid", "input": ["efficientnet-b1/model/blocks_9/tpu_batch_normalization/FusedBatchNormV3"], "attr": {"T": {"type": "DT_FLOAT"}}}, {"name": "efficientnet-b1/model/blocks_9/mul", "op": "Mul", "input": ["efficientnet-b1/model/blocks_9/Sigmoid", "efficientnet-b1/model/blocks_9/tpu_batch_normalization/FusedBatchNormV3"], "attr": {"T": {"type": "DT_FLOAT"}}}, {"name": "efficientnet-b1/model/blocks_9/depthwise_conv2d/depthwise", "op": "DepthwiseConv2dNative", "input": ["efficientnet-b1/model/blocks_9/mul", "efficientnet-b1/model/blocks_9/depthwise_conv2d/depthwise_weights"], "attr": {"padding": {"s": "U0FNRQ=="}, "dilations": {"list": {"i": ["1", "1", "1", "1"]}}, "T": {"type": "DT_FLOAT"}, "strides": {"list": {"i": ["1", "1", "1", "1"]}}, "data_format": {"s": "TkhXQw=="}}}, {"name": "efficientnet-b1/model/blocks_9/Sigmoid_1", "op": "Sigmoid", "input": ["efficientnet-b1/model/blocks_9/depthwise_conv2d/depthwise"], "attr": {"T": {"type": "DT_FLOAT"}}}, {"name": "efficientnet-b1/model/blocks_9/mul_1", "op": "Mul", "input": ["efficientnet-b1/model/blocks_9/Sigmoid_1", "efficientnet-b1/model/blocks_9/depthwise_conv2d/depthwise"], "attr": {"T": {"type": "DT_FLOAT"}}}, {"name": "efficientnet-b1/model/blocks_9/se/Mean", "op": "Mean", "input": ["efficientnet-b1/model/blocks_9/mul_1", "efficientnet-b1/model/blocks_22/se/Mean/reduction_indices"], "attr": {"T": {"type": "DT_FLOAT"}, "keep_dims": {"b": true}, "Tidx": {"type": "DT_INT32"}}}, {"name": "efficientnet-b1/model/blocks_9/se/conv2d/Conv2D", "op": "Conv2D", "input": ["efficientnet-b1/model/blocks_9/se/Mean", "efficientnet-b1/blocks_9/se/conv2d/kernel"], "device": "/device:CPU:0", "attr": {"T": {"type": "DT_FLOAT"}, "data_format": {"s": "TkhXQw=="}, "strides": {"list": {"i": ["1", "1", "1", "1"]}}, "explicit_paddings": {"list": {}}, "use_cudnn_on_gpu": {"b": true}, "padding": {"s": "U0FNRQ=="}, "dilations": {"list": {"i": ["1", "1", "1", "1"]}}}}, {"name": "efficientnet-b1/model/blocks_9/se/Sigmoid", "op": "Sigmoid", "input": ["efficientnet-b1/model/blocks_9/se/conv2d/Conv2D"], "attr": {"T": {"type": "DT_FLOAT"}}}, {"name": "efficientnet-b1/model/blocks_9/se/mul", "op": "Mul", "input": ["efficientnet-b1/model/blocks_9/se/Sigmoid", "efficientnet-b1/model/blocks_9/se/conv2d/Conv2D"], "attr": {"T": {"type": "DT_FLOAT"}}}, {"name": "efficientnet-b1/model/blocks_9/se/conv2d_1/Conv2D", "op": "Conv2D", "input": ["efficientnet-b1/model/blocks_9/se/mul", "efficientnet-b1/blocks_9/se/conv2d_1/kernel"], "device": "/device:CPU:0", "attr": {"dilations": {"list": {"i": ["1", "1", "1", "1"]}}, "T": {"type": "DT_FLOAT"}, "data_format": {"s": "TkhXQw=="}, "strides": {"list": {"i": ["1", "1", "1", "1"]}}, "explicit_paddings": {"list": {}}, "use_cudnn_on_gpu": {"b": true}, "padding": {"s": "U0FNRQ=="}}}, {"name": "efficientnet-b1/model/blocks_9/se/Sigmoid_1", "op": "Sigmoid", "input": ["efficientnet-b1/model/blocks_9/se/conv2d_1/Conv2D"], "attr": {"T": {"type": "DT_FLOAT"}}}, {"name": "efficientnet-b1/model/blocks_9/se/mul_1", "op": "Mul", "input": ["efficientnet-b1/model/blocks_9/mul_1", "efficientnet-b1/model/blocks_9/se/Sigmoid_1"], "attr": {"T": {"type": "DT_FLOAT"}}}, {"name": "efficientnet-b1/model/blocks_9/tpu_batch_normalization_2/FusedBatchNormV3", "op": "_FusedConv2D", "input": ["efficientnet-b1/model/blocks_9/se/mul_1", "efficientnet-b1/model/blocks_9/conv2d_1/Conv2D_weights", "efficientnet-b1/model/blocks_8/conv2d_1/Conv2D_bn_offset"], "device": "/device:CPU:0", "attr": {"dilations": {"list": {"i": ["1", "1", "1", "1"]}}, "T": {"type": "DT_FLOAT"}, "data_format": {"s": "TkhXQw=="}, "strides": {"list": {"i": ["1", "1", "1", "1"]}}, "use_cudnn_on_gpu": {"b": true}, "explicit_paddings": {"list": {}}, "num_args": {"i": "1"}, "epsilon": {"f": 0.0}, "padding": {"s": "U0FNRQ=="}, "fused_ops": {"list": {"s": ["Qmlhc0FkZA=="]}}}}, {"name": "efficientnet-b1/model/blocks_9/Add", "op": "Add", "input": ["efficientnet-b1/model/blocks_8/tpu_batch_normalization_2/FusedBatchNormV3", "efficientnet-b1/model/blocks_9/tpu_batch_normalization_2/FusedBatchNormV3"], "attr": {"T": {"type": "DT_FLOAT"}}}, {"name": "efficientnet-b1/model/blocks_10/tpu_batch_normalization/FusedBatchNormV3", "op": "_FusedConv2D", "input": ["efficientnet-b1/model/blocks_9/Add", "efficientnet-b1/model/blocks_10/conv2d/Conv2D_weights", "efficientnet-b1/model/blocks_9/conv2d/Conv2D_bn_offset"], "device": "/device:CPU:0", "attr": {"dilations": {"list": {"i": ["1", "1", "1", "1"]}}, "T": {"type": "DT_FLOAT"}, "data_format": {"s": "TkhXQw=="}, "strides": {"list": {"i": ["1", "1", "1", "1"]}}, "explicit_paddings": {"list": {}}, "use_cudnn_on_gpu": {"b": true}, "num_args": {"i": "1"}, "epsilon": {"f": 0.0}, "padding": {"s": "U0FNRQ=="}, "fused_ops": {"list": {"s": ["Qmlhc0FkZA=="]}}}}, {"name": "efficientnet-b1/model/blocks_10/Sigmoid", "op": "Sigmoid", "input": ["efficientnet-b1/model/blocks_10/tpu_batch_normalization/FusedBatchNormV3"], "attr": {"T": {"type": "DT_FLOAT"}}}, {"name": "efficientnet-b1/model/blocks_10/mul", "op": "Mul", "input": ["efficientnet-b1/model/blocks_10/Sigmoid", "efficientnet-b1/model/blocks_10/tpu_batch_normalization/FusedBatchNormV3"], "attr": {"T": {"type": "DT_FLOAT"}}}, {"name": "efficientnet-b1/model/blocks_10/depthwise_conv2d/depthwise", "op": "DepthwiseConv2dNative", "input": ["efficientnet-b1/model/blocks_10/mul", "efficientnet-b1/model/blocks_10/depthwise_conv2d/depthwise_weights"], "attr": {"T": {"type": "DT_FLOAT"}, "strides": {"list": {"i": ["1", "1", "1", "1"]}}, "data_format": {"s": "TkhXQw=="}, "padding": {"s": "U0FNRQ=="}, "dilations": {"list": {"i": ["1", "1", "1", "1"]}}}}, {"name": "efficientnet-b1/model/blocks_10/Sigmoid_1", "op": "Sigmoid", "input": ["efficientnet-b1/model/blocks_10/depthwise_conv2d/depthwise"], "attr": {"T": {"type": "DT_FLOAT"}}}, {"name": "efficientnet-b1/model/blocks_10/mul_1", "op": "Mul", "input": ["efficientnet-b1/model/blocks_10/Sigmoid_1", "efficientnet-b1/model/blocks_10/depthwise_conv2d/depthwise"], "attr": {"T": {"type": "DT_FLOAT"}}}, {"name": "efficientnet-b1/model/blocks_10/se/Mean", "op": "Mean", "input": ["efficientnet-b1/model/blocks_10/mul_1", "efficientnet-b1/model/blocks_22/se/Mean/reduction_indices"], "attr": {"T": {"type": "DT_FLOAT"}, "keep_dims": {"b": true}, "Tidx": {"type": "DT_INT32"}}}, {"name": "efficientnet-b1/model/blocks_10/se/conv2d/Conv2D", "op": "Conv2D", "input": ["efficientnet-b1/model/blocks_10/se/Mean", "efficientnet-b1/blocks_10/se/conv2d/kernel"], "device": "/device:CPU:0", "attr": {"dilations": {"list": {"i": ["1", "1", "1", "1"]}}, "T": {"type": "DT_FLOAT"}, "data_format": {"s": "TkhXQw=="}, "strides": {"list": {"i": ["1", "1", "1", "1"]}}, "use_cudnn_on_gpu": {"b": true}, "explicit_paddings": {"list": {}}, "padding": {"s": "U0FNRQ=="}}}, {"name": "efficientnet-b1/model/blocks_10/se/Sigmoid", "op": "Sigmoid", "input": ["efficientnet-b1/model/blocks_10/se/conv2d/Conv2D"], "attr": {"T": {"type": "DT_FLOAT"}}}, {"name": "efficientnet-b1/model/blocks_10/se/mul", "op": "Mul", "input": ["efficientnet-b1/model/blocks_10/se/Sigmoid", "efficientnet-b1/model/blocks_10/se/conv2d/Conv2D"], "attr": {"T": {"type": "DT_FLOAT"}}}, {"name": "efficientnet-b1/model/blocks_10/se/conv2d_1/Conv2D", "op": "Conv2D", "input": ["efficientnet-b1/model/blocks_10/se/mul", "efficientnet-b1/blocks_10/se/conv2d_1/kernel"], "device": "/device:CPU:0", "attr": {"dilations": {"list": {"i": ["1", "1", "1", "1"]}}, "T": {"type": "DT_FLOAT"}, "data_format": {"s": "TkhXQw=="}, "strides": {"list": {"i": ["1", "1", "1", "1"]}}, "explicit_paddings": {"list": {}}, "use_cudnn_on_gpu": {"b": true}, "padding": {"s": "U0FNRQ=="}}}, {"name": "efficientnet-b1/model/blocks_10/se/Sigmoid_1", "op": "Sigmoid", "input": ["efficientnet-b1/model/blocks_10/se/conv2d_1/Conv2D"], "attr": {"T": {"type": "DT_FLOAT"}}}, {"name": "efficientnet-b1/model/blocks_10/se/mul_1", "op": "Mul", "input": ["efficientnet-b1/model/blocks_10/mul_1", "efficientnet-b1/model/blocks_10/se/Sigmoid_1"], "attr": {"T": {"type": "DT_FLOAT"}}}, {"name": "efficientnet-b1/model/blocks_10/tpu_batch_normalization_2/FusedBatchNormV3", "op": "_FusedConv2D", "input": ["efficientnet-b1/model/blocks_10/se/mul_1", "efficientnet-b1/model/blocks_10/conv2d_1/Conv2D_weights", "efficientnet-b1/model/blocks_8/conv2d_1/Conv2D_bn_offset"], "device": "/device:CPU:0", "attr": {"data_format": {"s": "TkhXQw=="}, "strides": {"list": {"i": ["1", "1", "1", "1"]}}, "use_cudnn_on_gpu": {"b": true}, "explicit_paddings": {"list": {}}, "num_args": {"i": "1"}, "epsilon": {"f": 0.0}, "padding": {"s": "U0FNRQ=="}, "fused_ops": {"list": {"s": ["Qmlhc0FkZA=="]}}, "dilations": {"list": {"i": ["1", "1", "1", "1"]}}, "T": {"type": "DT_FLOAT"}}}, {"name": "efficientnet-b1/model/blocks_10/Add", "op": "Add", "input": ["efficientnet-b1/model/blocks_10/tpu_batch_normalization_2/FusedBatchNormV3", "efficientnet-b1/model/blocks_9/Add"], "attr": {"T": {"type": "DT_FLOAT"}}}, {"name": "efficientnet-b1/model/blocks_11/tpu_batch_normalization/FusedBatchNormV3", "op": "_FusedConv2D", "input": ["efficientnet-b1/model/blocks_10/Add", "efficientnet-b1/model/blocks_11/conv2d/Conv2D_weights", "efficientnet-b1/model/blocks_9/conv2d/Conv2D_bn_offset"], "device": "/device:CPU:0", "attr": {"fused_ops": {"list": {"s": ["Qmlhc0FkZA=="]}}, "dilations": {"list": {"i": ["1", "1", "1", "1"]}}, "T": {"type": "DT_FLOAT"}, "data_format": {"s": "TkhXQw=="}, "strides": {"list": {"i": ["1", "1", "1", "1"]}}, "explicit_paddings": {"list": {}}, "use_cudnn_on_gpu": {"b": true}, "num_args": {"i": "1"}, "epsilon": {"f": 0.0}, "padding": {"s": "U0FNRQ=="}}}, {"name": "efficientnet-b1/model/blocks_11/Sigmoid", "op": "Sigmoid", "input": ["efficientnet-b1/model/blocks_11/tpu_batch_normalization/FusedBatchNormV3"], "attr": {"T": {"type": "DT_FLOAT"}}}, {"name": "efficientnet-b1/model/blocks_11/mul", "op": "Mul", "input": ["efficientnet-b1/model/blocks_11/Sigmoid", "efficientnet-b1/model/blocks_11/tpu_batch_normalization/FusedBatchNormV3"], "attr": {"T": {"type": "DT_FLOAT"}}}, {"name": "efficientnet-b1/model/blocks_11/depthwise_conv2d/depthwise", "op": "DepthwiseConv2dNative", "input": ["efficientnet-b1/model/blocks_11/mul", "efficientnet-b1/model/blocks_11/depthwise_conv2d/depthwise_weights"], "attr": {"strides": {"list": {"i": ["1", "1", "1", "1"]}}, "data_format": {"s": "TkhXQw=="}, "padding": {"s": "U0FNRQ=="}, "dilations": {"list": {"i": ["1", "1", "1", "1"]}}, "T": {"type": "DT_FLOAT"}}}, {"name": "efficientnet-b1/model/blocks_11/Sigmoid_1", "op": "Sigmoid", "input": ["efficientnet-b1/model/blocks_11/depthwise_conv2d/depthwise"], "attr": {"T": {"type": "DT_FLOAT"}}}, {"name": "efficientnet-b1/model/blocks_11/mul_1", "op": "Mul", "input": ["efficientnet-b1/model/blocks_11/Sigmoid_1", "efficientnet-b1/model/blocks_11/depthwise_conv2d/depthwise"], "attr": {"T": {"type": "DT_FLOAT"}}}, {"name": "efficientnet-b1/model/blocks_11/se/Mean", "op": "Mean", "input": ["efficientnet-b1/model/blocks_11/mul_1", "efficientnet-b1/model/blocks_22/se/Mean/reduction_indices"], "attr": {"T": {"type": "DT_FLOAT"}, "keep_dims": {"b": true}, "Tidx": {"type": "DT_INT32"}}}, {"name": "efficientnet-b1/model/blocks_11/se/conv2d/Conv2D", "op": "Conv2D", "input": ["efficientnet-b1/model/blocks_11/se/Mean", "efficientnet-b1/blocks_11/se/conv2d/kernel"], "device": "/device:CPU:0", "attr": {"data_format": {"s": "TkhXQw=="}, "strides": {"list": {"i": ["1", "1", "1", "1"]}}, "explicit_paddings": {"list": {}}, "use_cudnn_on_gpu": {"b": true}, "padding": {"s": "U0FNRQ=="}, "dilations": {"list": {"i": ["1", "1", "1", "1"]}}, "T": {"type": "DT_FLOAT"}}}, {"name": "efficientnet-b1/model/blocks_11/se/Sigmoid", "op": "Sigmoid", "input": ["efficientnet-b1/model/blocks_11/se/conv2d/Conv2D"], "attr": {"T": {"type": "DT_FLOAT"}}}, {"name": "efficientnet-b1/model/blocks_11/se/mul", "op": "Mul", "input": ["efficientnet-b1/model/blocks_11/se/Sigmoid", "efficientnet-b1/model/blocks_11/se/conv2d/Conv2D"], "attr": {"T": {"type": "DT_FLOAT"}}}, {"name": "efficientnet-b1/model/blocks_11/se/conv2d_1/Conv2D", "op": "Conv2D", "input": ["efficientnet-b1/model/blocks_11/se/mul", "efficientnet-b1/blocks_11/se/conv2d_1/kernel"], "device": "/device:CPU:0", "attr": {"data_format": {"s": "TkhXQw=="}, "strides": {"list": {"i": ["1", "1", "1", "1"]}}, "explicit_paddings": {"list": {}}, "use_cudnn_on_gpu": {"b": true}, "padding": {"s": "U0FNRQ=="}, "dilations": {"list": {"i": ["1", "1", "1", "1"]}}, "T": {"type": "DT_FLOAT"}}}, {"name": "efficientnet-b1/model/blocks_11/se/Sigmoid_1", "op": "Sigmoid", "input": ["efficientnet-b1/model/blocks_11/se/conv2d_1/Conv2D"], "attr": {"T": {"type": "DT_FLOAT"}}}, {"name": "efficientnet-b1/model/blocks_11/se/mul_1", "op": "Mul", "input": ["efficientnet-b1/model/blocks_11/mul_1", "efficientnet-b1/model/blocks_11/se/Sigmoid_1"], "attr": {"T": {"type": "DT_FLOAT"}}}, {"name": "efficientnet-b1/model/blocks_11/tpu_batch_normalization_2/FusedBatchNormV3", "op": "_FusedConv2D", "input": ["efficientnet-b1/model/blocks_11/se/mul_1", "efficientnet-b1/model/blocks_11/conv2d_1/Conv2D_weights", "efficientnet-b1/model/blocks_8/conv2d_1/Conv2D_bn_offset"], "device": "/device:CPU:0", "attr": {"fused_ops": {"list": {"s": ["Qmlhc0FkZA=="]}}, "dilations": {"list": {"i": ["1", "1", "1", "1"]}}, "T": {"type": "DT_FLOAT"}, "data_format": {"s": "TkhXQw=="}, "strides": {"list": {"i": ["1", "1", "1", "1"]}}, "explicit_paddings": {"list": {}}, "use_cudnn_on_gpu": {"b": true}, "num_args": {"i": "1"}, "epsilon": {"f": 0.0}, "padding": {"s": "U0FNRQ=="}}}, {"name": "efficientnet-b1/model/blocks_11/Add", "op": "Add", "input": ["efficientnet-b1/model/blocks_10/Add", "efficientnet-b1/model/blocks_11/tpu_batch_normalization_2/FusedBatchNormV3"], "attr": {"T": {"type": "DT_FLOAT"}}}, {"name": "efficientnet-b1/model/blocks_12/tpu_batch_normalization/FusedBatchNormV3", "op": "_FusedConv2D", "input": ["efficientnet-b1/model/blocks_11/Add", "efficientnet-b1/model/blocks_12/conv2d/Conv2D_weights", "efficientnet-b1/model/blocks_9/conv2d/Conv2D_bn_offset"], "device": "/device:CPU:0", "attr": {"data_format": {"s": "TkhXQw=="}, "strides": {"list": {"i": ["1", "1", "1", "1"]}}, "use_cudnn_on_gpu": {"b": true}, "explicit_paddings": {"list": {}}, "num_args": {"i": "1"}, "epsilon": {"f": 0.0}, "padding": {"s": "U0FNRQ=="}, "fused_ops": {"list": {"s": ["Qmlhc0FkZA=="]}}, "dilations": {"list": {"i": ["1", "1", "1", "1"]}}, "T": {"type": "DT_FLOAT"}}}, {"name": "efficientnet-b1/model/blocks_12/Sigmoid", "op": "Sigmoid", "input": ["efficientnet-b1/model/blocks_12/tpu_batch_normalization/FusedBatchNormV3"], "attr": {"T": {"type": "DT_FLOAT"}}}, {"name": "efficientnet-b1/model/blocks_12/mul", "op": "Mul", "input": ["efficientnet-b1/model/blocks_12/Sigmoid", "efficientnet-b1/model/blocks_12/tpu_batch_normalization/FusedBatchNormV3"], "attr": {"T": {"type": "DT_FLOAT"}}}, {"name": "efficientnet-b1/model/blocks_12/depthwise_conv2d/depthwise", "op": "DepthwiseConv2dNative", "input": ["efficientnet-b1/model/blocks_12/mul", "efficientnet-b1/model/blocks_12/depthwise_conv2d/depthwise_weights"], "attr": {"T": {"type": "DT_FLOAT"}, "strides": {"list": {"i": ["1", "1", "1", "1"]}}, "data_format": {"s": "TkhXQw=="}, "padding": {"s": "U0FNRQ=="}, "dilations": {"list": {"i": ["1", "1", "1", "1"]}}}}, {"name": "efficientnet-b1/model/blocks_12/Sigmoid_1", "op": "Sigmoid", "input": ["efficientnet-b1/model/blocks_12/depthwise_conv2d/depthwise"], "attr": {"T": {"type": "DT_FLOAT"}}}, {"name": "efficientnet-b1/model/blocks_12/mul_1", "op": "Mul", "input": ["efficientnet-b1/model/blocks_12/Sigmoid_1", "efficientnet-b1/model/blocks_12/depthwise_conv2d/depthwise"], "attr": {"T": {"type": "DT_FLOAT"}}}, {"name": "efficientnet-b1/model/blocks_12/se/Mean", "op": "Mean", "input": ["efficientnet-b1/model/blocks_12/mul_1", "efficientnet-b1/model/blocks_22/se/Mean/reduction_indices"], "attr": {"T": {"type": "DT_FLOAT"}, "keep_dims": {"b": true}, "Tidx": {"type": "DT_INT32"}}}, {"name": "efficientnet-b1/model/blocks_12/se/conv2d/Conv2D", "op": "Conv2D", "input": ["efficientnet-b1/model/blocks_12/se/Mean", "efficientnet-b1/blocks_12/se/conv2d/kernel"], "device": "/device:CPU:0", "attr": {"data_format": {"s": "TkhXQw=="}, "strides": {"list": {"i": ["1", "1", "1", "1"]}}, "explicit_paddings": {"list": {}}, "use_cudnn_on_gpu": {"b": true}, "padding": {"s": "U0FNRQ=="}, "dilations": {"list": {"i": ["1", "1", "1", "1"]}}, "T": {"type": "DT_FLOAT"}}}, {"name": "efficientnet-b1/model/blocks_12/se/Sigmoid", "op": "Sigmoid", "input": ["efficientnet-b1/model/blocks_12/se/conv2d/Conv2D"], "attr": {"T": {"type": "DT_FLOAT"}}}, {"name": "efficientnet-b1/model/blocks_12/se/mul", "op": "Mul", "input": ["efficientnet-b1/model/blocks_12/se/Sigmoid", "efficientnet-b1/model/blocks_12/se/conv2d/Conv2D"], "attr": {"T": {"type": "DT_FLOAT"}}}, {"name": "efficientnet-b1/model/blocks_12/se/conv2d_1/Conv2D", "op": "Conv2D", "input": ["efficientnet-b1/model/blocks_12/se/mul", "efficientnet-b1/blocks_12/se/conv2d_1/kernel"], "device": "/device:CPU:0", "attr": {"T": {"type": "DT_FLOAT"}, "data_format": {"s": "TkhXQw=="}, "strides": {"list": {"i": ["1", "1", "1", "1"]}}, "use_cudnn_on_gpu": {"b": true}, "explicit_paddings": {"list": {}}, "padding": {"s": "U0FNRQ=="}, "dilations": {"list": {"i": ["1", "1", "1", "1"]}}}}, {"name": "efficientnet-b1/model/blocks_12/se/Sigmoid_1", "op": "Sigmoid", "input": ["efficientnet-b1/model/blocks_12/se/conv2d_1/Conv2D"], "attr": {"T": {"type": "DT_FLOAT"}}}, {"name": "efficientnet-b1/model/blocks_12/se/mul_1", "op": "Mul", "input": ["efficientnet-b1/model/blocks_12/mul_1", "efficientnet-b1/model/blocks_12/se/Sigmoid_1"], "attr": {"T": {"type": "DT_FLOAT"}}}, {"name": "efficientnet-b1/model/blocks_12/tpu_batch_normalization_2/FusedBatchNormV3", "op": "_FusedConv2D", "input": ["efficientnet-b1/model/blocks_12/se/mul_1", "efficientnet-b1/model/blocks_12/conv2d_1/Conv2D_weights", "efficientnet-b1/model/blocks_12/conv2d_1/Conv2D_bn_offset"], "device": "/device:CPU:0", "attr": {"strides": {"list": {"i": ["1", "1", "1", "1"]}}, "data_format": {"s": "TkhXQw=="}, "use_cudnn_on_gpu": {"b": true}, "explicit_paddings": {"list": {}}, "num_args": {"i": "1"}, "epsilon": {"f": 0.0}, "padding": {"s": "U0FNRQ=="}, "fused_ops": {"list": {"s": ["Qmlhc0FkZA=="]}}, "dilations": {"list": {"i": ["1", "1", "1", "1"]}}, "T": {"type": "DT_FLOAT"}}}, {"name": "efficientnet-b1/model/blocks_13/tpu_batch_normalization/FusedBatchNormV3", "op": "_FusedConv2D", "input": ["efficientnet-b1/model/blocks_12/tpu_batch_normalization_2/FusedBatchNormV3", "efficientnet-b1/model/blocks_13/conv2d/Conv2D_weights", "efficientnet-b1/model/blocks_13/conv2d/Conv2D_bn_offset"], "device": "/device:CPU:0", "attr": {"num_args": {"i": "1"}, "epsilon": {"f": 0.0}, "padding": {"s": "U0FNRQ=="}, "fused_ops": {"list": {"s": ["Qmlhc0FkZA=="]}}, "dilations": {"list": {"i": ["1", "1", "1", "1"]}}, "T": {"type": "DT_FLOAT"}, "data_format": {"s": "TkhXQw=="}, "strides": {"list": {"i": ["1", "1", "1", "1"]}}, "use_cudnn_on_gpu": {"b": true}, "explicit_paddings": {"list": {}}}}, {"name": "efficientnet-b1/model/blocks_13/Sigmoid", "op": "Sigmoid", "input": ["efficientnet-b1/model/blocks_13/tpu_batch_normalization/FusedBatchNormV3"], "attr": {"T": {"type": "DT_FLOAT"}}}, {"name": "efficientnet-b1/model/blocks_13/mul", "op": "Mul", "input": ["efficientnet-b1/model/blocks_13/Sigmoid", "efficientnet-b1/model/blocks_13/tpu_batch_normalization/FusedBatchNormV3"], "attr": {"T": {"type": "DT_FLOAT"}}}, {"name": "efficientnet-b1/model/blocks_13/depthwise_conv2d/depthwise", "op": "DepthwiseConv2dNative", "input": ["efficientnet-b1/model/blocks_13/mul", "efficientnet-b1/model/blocks_13/depthwise_conv2d/depthwise_weights"], "attr": {"padding": {"s": "U0FNRQ=="}, "dilations": {"list": {"i": ["1", "1", "1", "1"]}}, "T": {"type": "DT_FLOAT"}, "strides": {"list": {"i": ["1", "1", "1", "1"]}}, "data_format": {"s": "TkhXQw=="}}}, {"name": "efficientnet-b1/model/blocks_13/Sigmoid_1", "op": "Sigmoid", "input": ["efficientnet-b1/model/blocks_13/depthwise_conv2d/depthwise"], "attr": {"T": {"type": "DT_FLOAT"}}}, {"name": "efficientnet-b1/model/blocks_13/mul_1", "op": "Mul", "input": ["efficientnet-b1/model/blocks_13/Sigmoid_1", "efficientnet-b1/model/blocks_13/depthwise_conv2d/depthwise"], "attr": {"T": {"type": "DT_FLOAT"}}}, {"name": "efficientnet-b1/model/blocks_13/se/Mean", "op": "Mean", "input": ["efficientnet-b1/model/blocks_13/mul_1", "efficientnet-b1/model/blocks_22/se/Mean/reduction_indices"], "attr": {"keep_dims": {"b": true}, "Tidx": {"type": "DT_INT32"}, "T": {"type": "DT_FLOAT"}}}, {"name": "efficientnet-b1/model/blocks_13/se/conv2d/Conv2D", "op": "Conv2D", "input": ["efficientnet-b1/model/blocks_13/se/Mean", "efficientnet-b1/blocks_13/se/conv2d/kernel"], "device": "/device:CPU:0", "attr": {"T": {"type": "DT_FLOAT"}, "data_format": {"s": "TkhXQw=="}, "strides": {"list": {"i": ["1", "1", "1", "1"]}}, "explicit_paddings": {"list": {}}, "use_cudnn_on_gpu": {"b": true}, "padding": {"s": "U0FNRQ=="}, "dilations": {"list": {"i": ["1", "1", "1", "1"]}}}}, {"name": "efficientnet-b1/model/blocks_13/se/Sigmoid", "op": "Sigmoid", "input": ["efficientnet-b1/model/blocks_13/se/conv2d/Conv2D"], "attr": {"T": {"type": "DT_FLOAT"}}}, {"name": "efficientnet-b1/model/blocks_13/se/mul", "op": "Mul", "input": ["efficientnet-b1/model/blocks_13/se/Sigmoid", "efficientnet-b1/model/blocks_13/se/conv2d/Conv2D"], "attr": {"T": {"type": "DT_FLOAT"}}}, {"name": "efficientnet-b1/model/blocks_13/se/conv2d_1/Conv2D", "op": "Conv2D", "input": ["efficientnet-b1/model/blocks_13/se/mul", "efficientnet-b1/blocks_13/se/conv2d_1/kernel"], "device": "/device:CPU:0", "attr": {"padding": {"s": "U0FNRQ=="}, "dilations": {"list": {"i": ["1", "1", "1", "1"]}}, "T": {"type": "DT_FLOAT"}, "data_format": {"s": "TkhXQw=="}, "strides": {"list": {"i": ["1", "1", "1", "1"]}}, "use_cudnn_on_gpu": {"b": true}, "explicit_paddings": {"list": {}}}}, {"name": "efficientnet-b1/model/blocks_13/se/Sigmoid_1", "op": "Sigmoid", "input": ["efficientnet-b1/model/blocks_13/se/conv2d_1/Conv2D"], "attr": {"T": {"type": "DT_FLOAT"}}}, {"name": "efficientnet-b1/model/blocks_13/se/mul_1", "op": "Mul", "input": ["efficientnet-b1/model/blocks_13/mul_1", "efficientnet-b1/model/blocks_13/se/Sigmoid_1"], "attr": {"T": {"type": "DT_FLOAT"}}}, {"name": "efficientnet-b1/model/blocks_13/tpu_batch_normalization_2/FusedBatchNormV3", "op": "_FusedConv2D", "input": ["efficientnet-b1/model/blocks_13/se/mul_1", "efficientnet-b1/model/blocks_13/conv2d_1/Conv2D_weights", "efficientnet-b1/model/blocks_12/conv2d_1/Conv2D_bn_offset"], "device": "/device:CPU:0", "attr": {"num_args": {"i": "1"}, "epsilon": {"f": 0.0}, "padding": {"s": "U0FNRQ=="}, "fused_ops": {"list": {"s": ["Qmlhc0FkZA=="]}}, "dilations": {"list": {"i": ["1", "1", "1", "1"]}}, "T": {"type": "DT_FLOAT"}, "data_format": {"s": "TkhXQw=="}, "strides": {"list": {"i": ["1", "1", "1", "1"]}}, "use_cudnn_on_gpu": {"b": true}, "explicit_paddings": {"list": {}}}}, {"name": "efficientnet-b1/model/blocks_13/Add", "op": "Add", "input": ["efficientnet-b1/model/blocks_12/tpu_batch_normalization_2/FusedBatchNormV3", "efficientnet-b1/model/blocks_13/tpu_batch_normalization_2/FusedBatchNormV3"], "attr": {"T": {"type": "DT_FLOAT"}}}, {"name": "efficientnet-b1/model/blocks_14/tpu_batch_normalization/FusedBatchNormV3", "op": "_FusedConv2D", "input": ["efficientnet-b1/model/blocks_13/Add", "efficientnet-b1/model/blocks_14/conv2d/Conv2D_weights", "efficientnet-b1/model/blocks_13/conv2d/Conv2D_bn_offset"], "device": "/device:CPU:0", "attr": {"num_args": {"i": "1"}, "epsilon": {"f": 0.0}, "padding": {"s": "U0FNRQ=="}, "fused_ops": {"list": {"s": ["Qmlhc0FkZA=="]}}, "dilations": {"list": {"i": ["1", "1", "1", "1"]}}, "T": {"type": "DT_FLOAT"}, "strides": {"list": {"i": ["1", "1", "1", "1"]}}, "data_format": {"s": "TkhXQw=="}, "explicit_paddings": {"list": {}}, "use_cudnn_on_gpu": {"b": true}}}, {"name": "efficientnet-b1/model/blocks_14/Sigmoid", "op": "Sigmoid", "input": ["efficientnet-b1/model/blocks_14/tpu_batch_normalization/FusedBatchNormV3"], "attr": {"T": {"type": "DT_FLOAT"}}}, {"name": "efficientnet-b1/model/blocks_14/mul", "op": "Mul", "input": ["efficientnet-b1/model/blocks_14/Sigmoid", "efficientnet-b1/model/blocks_14/tpu_batch_normalization/FusedBatchNormV3"], "attr": {"T": {"type": "DT_FLOAT"}}}, {"name": "efficientnet-b1/model/blocks_14/depthwise_conv2d/depthwise", "op": "DepthwiseConv2dNative", "input": ["efficientnet-b1/model/blocks_14/mul", "efficientnet-b1/model/blocks_14/depthwise_conv2d/depthwise_weights"], "attr": {"padding": {"s": "U0FNRQ=="}, "dilations": {"list": {"i": ["1", "1", "1", "1"]}}, "T": {"type": "DT_FLOAT"}, "strides": {"list": {"i": ["1", "1", "1", "1"]}}, "data_format": {"s": "TkhXQw=="}}}, {"name": "efficientnet-b1/model/blocks_14/Sigmoid_1", "op": "Sigmoid", "input": ["efficientnet-b1/model/blocks_14/depthwise_conv2d/depthwise"], "attr": {"T": {"type": "DT_FLOAT"}}}, {"name": "efficientnet-b1/model/blocks_14/mul_1", "op": "Mul", "input": ["efficientnet-b1/model/blocks_14/Sigmoid_1", "efficientnet-b1/model/blocks_14/depthwise_conv2d/depthwise"], "attr": {"T": {"type": "DT_FLOAT"}}}, {"name": "efficientnet-b1/model/blocks_14/se/Mean", "op": "Mean", "input": ["efficientnet-b1/model/blocks_14/mul_1", "efficientnet-b1/model/blocks_22/se/Mean/reduction_indices"], "attr": {"T": {"type": "DT_FLOAT"}, "keep_dims": {"b": true}, "Tidx": {"type": "DT_INT32"}}}, {"name": "efficientnet-b1/model/blocks_14/se/conv2d/Conv2D", "op": "Conv2D", "input": ["efficientnet-b1/model/blocks_14/se/Mean", "efficientnet-b1/blocks_14/se/conv2d/kernel"], "device": "/device:CPU:0", "attr": {"dilations": {"list": {"i": ["1", "1", "1", "1"]}}, "T": {"type": "DT_FLOAT"}, "data_format": {"s": "TkhXQw=="}, "strides": {"list": {"i": ["1", "1", "1", "1"]}}, "use_cudnn_on_gpu": {"b": true}, "explicit_paddings": {"list": {}}, "padding": {"s": "U0FNRQ=="}}}, {"name": "efficientnet-b1/model/blocks_14/se/Sigmoid", "op": "Sigmoid", "input": ["efficientnet-b1/model/blocks_14/se/conv2d/Conv2D"], "attr": {"T": {"type": "DT_FLOAT"}}}, {"name": "efficientnet-b1/model/blocks_14/se/mul", "op": "Mul", "input": ["efficientnet-b1/model/blocks_14/se/Sigmoid", "efficientnet-b1/model/blocks_14/se/conv2d/Conv2D"], "attr": {"T": {"type": "DT_FLOAT"}}}, {"name": "efficientnet-b1/model/blocks_14/se/conv2d_1/Conv2D", "op": "Conv2D", "input": ["efficientnet-b1/model/blocks_14/se/mul", "efficientnet-b1/blocks_14/se/conv2d_1/kernel"], "device": "/device:CPU:0", "attr": {"dilations": {"list": {"i": ["1", "1", "1", "1"]}}, "T": {"type": "DT_FLOAT"}, "data_format": {"s": "TkhXQw=="}, "strides": {"list": {"i": ["1", "1", "1", "1"]}}, "use_cudnn_on_gpu": {"b": true}, "explicit_paddings": {"list": {}}, "padding": {"s": "U0FNRQ=="}}}, {"name": "efficientnet-b1/model/blocks_14/se/Sigmoid_1", "op": "Sigmoid", "input": ["efficientnet-b1/model/blocks_14/se/conv2d_1/Conv2D"], "attr": {"T": {"type": "DT_FLOAT"}}}, {"name": "efficientnet-b1/model/blocks_14/se/mul_1", "op": "Mul", "input": ["efficientnet-b1/model/blocks_14/mul_1", "efficientnet-b1/model/blocks_14/se/Sigmoid_1"], "attr": {"T": {"type": "DT_FLOAT"}}}, {"name": "efficientnet-b1/model/blocks_14/tpu_batch_normalization_2/FusedBatchNormV3", "op": "_FusedConv2D", "input": ["efficientnet-b1/model/blocks_14/se/mul_1", "efficientnet-b1/model/blocks_14/conv2d_1/Conv2D_weights", "efficientnet-b1/model/blocks_12/conv2d_1/Conv2D_bn_offset"], "device": "/device:CPU:0", "attr": {"fused_ops": {"list": {"s": ["Qmlhc0FkZA=="]}}, "dilations": {"list": {"i": ["1", "1", "1", "1"]}}, "T": {"type": "DT_FLOAT"}, "data_format": {"s": "TkhXQw=="}, "strides": {"list": {"i": ["1", "1", "1", "1"]}}, "explicit_paddings": {"list": {}}, "use_cudnn_on_gpu": {"b": true}, "num_args": {"i": "1"}, "epsilon": {"f": 0.0}, "padding": {"s": "U0FNRQ=="}}}, {"name": "efficientnet-b1/model/blocks_14/Add", "op": "Add", "input": ["efficientnet-b1/model/blocks_13/Add", "efficientnet-b1/model/blocks_14/tpu_batch_normalization_2/FusedBatchNormV3"], "attr": {"T": {"type": "DT_FLOAT"}}}, {"name": "efficientnet-b1/model/blocks_15/tpu_batch_normalization/FusedBatchNormV3", "op": "_FusedConv2D", "input": ["efficientnet-b1/model/blocks_14/Add", "efficientnet-b1/model/blocks_15/conv2d/Conv2D_weights", "efficientnet-b1/model/blocks_13/conv2d/Conv2D_bn_offset"], "device": "/device:CPU:0", "attr": {"T": {"type": "DT_FLOAT"}, "data_format": {"s": "TkhXQw=="}, "strides": {"list": {"i": ["1", "1", "1", "1"]}}, "explicit_paddings": {"list": {}}, "use_cudnn_on_gpu": {"b": true}, "num_args": {"i": "1"}, "epsilon": {"f": 0.0}, "padding": {"s": "U0FNRQ=="}, "fused_ops": {"list": {"s": ["Qmlhc0FkZA=="]}}, "dilations": {"list": {"i": ["1", "1", "1", "1"]}}}}, {"name": "efficientnet-b1/model/blocks_15/Sigmoid", "op": "Sigmoid", "input": ["efficientnet-b1/model/blocks_15/tpu_batch_normalization/FusedBatchNormV3"], "attr": {"T": {"type": "DT_FLOAT"}}}, {"name": "efficientnet-b1/model/blocks_15/mul", "op": "Mul", "input": ["efficientnet-b1/model/blocks_15/Sigmoid", "efficientnet-b1/model/blocks_15/tpu_batch_normalization/FusedBatchNormV3"], "attr": {"T": {"type": "DT_FLOAT"}}}, {"name": "efficientnet-b1/model/blocks_15/depthwise_conv2d/depthwise", "op": "DepthwiseConv2dNative", "input": ["efficientnet-b1/model/blocks_15/mul", "efficientnet-b1/model/blocks_15/depthwise_conv2d/depthwise_weights"], "attr": {"padding": {"s": "U0FNRQ=="}, "dilations": {"list": {"i": ["1", "1", "1", "1"]}}, "T": {"type": "DT_FLOAT"}, "strides": {"list": {"i": ["1", "1", "1", "1"]}}, "data_format": {"s": "TkhXQw=="}}}, {"name": "efficientnet-b1/model/blocks_15/Sigmoid_1", "op": "Sigmoid", "input": ["efficientnet-b1/model/blocks_15/depthwise_conv2d/depthwise"], "attr": {"T": {"type": "DT_FLOAT"}}}, {"name": "efficientnet-b1/model/blocks_15/mul_1", "op": "Mul", "input": ["efficientnet-b1/model/blocks_15/Sigmoid_1", "efficientnet-b1/model/blocks_15/depthwise_conv2d/depthwise"], "attr": {"T": {"type": "DT_FLOAT"}}}, {"name": "efficientnet-b1/model/blocks_15/se/Mean", "op": "Mean", "input": ["efficientnet-b1/model/blocks_15/mul_1", "efficientnet-b1/model/blocks_22/se/Mean/reduction_indices"], "attr": {"T": {"type": "DT_FLOAT"}, "keep_dims": {"b": true}, "Tidx": {"type": "DT_INT32"}}}, {"name": "efficientnet-b1/model/blocks_15/se/conv2d/Conv2D", "op": "Conv2D", "input": ["efficientnet-b1/model/blocks_15/se/Mean", "efficientnet-b1/blocks_15/se/conv2d/kernel"], "device": "/device:CPU:0", "attr": {"dilations": {"list": {"i": ["1", "1", "1", "1"]}}, "T": {"type": "DT_FLOAT"}, "data_format": {"s": "TkhXQw=="}, "strides": {"list": {"i": ["1", "1", "1", "1"]}}, "explicit_paddings": {"list": {}}, "use_cudnn_on_gpu": {"b": true}, "padding": {"s": "U0FNRQ=="}}}, {"name": "efficientnet-b1/model/blocks_15/se/Sigmoid", "op": "Sigmoid", "input": ["efficientnet-b1/model/blocks_15/se/conv2d/Conv2D"], "attr": {"T": {"type": "DT_FLOAT"}}}, {"name": "efficientnet-b1/model/blocks_15/se/mul", "op": "Mul", "input": ["efficientnet-b1/model/blocks_15/se/Sigmoid", "efficientnet-b1/model/blocks_15/se/conv2d/Conv2D"], "attr": {"T": {"type": "DT_FLOAT"}}}, {"name": "efficientnet-b1/model/blocks_15/se/conv2d_1/Conv2D", "op": "Conv2D", "input": ["efficientnet-b1/model/blocks_15/se/mul", "efficientnet-b1/blocks_15/se/conv2d_1/kernel"], "device": "/device:CPU:0", "attr": {"padding": {"s": "U0FNRQ=="}, "dilations": {"list": {"i": ["1", "1", "1", "1"]}}, "T": {"type": "DT_FLOAT"}, "data_format": {"s": "TkhXQw=="}, "strides": {"list": {"i": ["1", "1", "1", "1"]}}, "explicit_paddings": {"list": {}}, "use_cudnn_on_gpu": {"b": true}}}, {"name": "efficientnet-b1/model/blocks_15/se/Sigmoid_1", "op": "Sigmoid", "input": ["efficientnet-b1/model/blocks_15/se/conv2d_1/Conv2D"], "attr": {"T": {"type": "DT_FLOAT"}}}, {"name": "efficientnet-b1/model/blocks_15/se/mul_1", "op": "Mul", "input": ["efficientnet-b1/model/blocks_15/mul_1", "efficientnet-b1/model/blocks_15/se/Sigmoid_1"], "attr": {"T": {"type": "DT_FLOAT"}}}, {"name": "efficientnet-b1/model/blocks_15/tpu_batch_normalization_2/FusedBatchNormV3", "op": "_FusedConv2D", "input": ["efficientnet-b1/model/blocks_15/se/mul_1", "efficientnet-b1/model/blocks_15/conv2d_1/Conv2D_weights", "efficientnet-b1/model/blocks_12/conv2d_1/Conv2D_bn_offset"], "device": "/device:CPU:0", "attr": {"dilations": {"list": {"i": ["1", "1", "1", "1"]}}, "T": {"type": "DT_FLOAT"}, "strides": {"list": {"i": ["1", "1", "1", "1"]}}, "data_format": {"s": "TkhXQw=="}, "explicit_paddings": {"list": {}}, "use_cudnn_on_gpu": {"b": true}, "num_args": {"i": "1"}, "epsilon": {"f": 0.0}, "padding": {"s": "U0FNRQ=="}, "fused_ops": {"list": {"s": ["Qmlhc0FkZA=="]}}}}, {"name": "efficientnet-b1/model/blocks_15/Add", "op": "Add", "input": ["efficientnet-b1/model/blocks_14/Add", "efficientnet-b1/model/blocks_15/tpu_batch_normalization_2/FusedBatchNormV3"], "attr": {"T": {"type": "DT_FLOAT"}}}, {"name": "fpn_cells/cell_0/fnode4/resample_0_1_9/bn/FusedBatchNormV3", "op": "_FusedConv2D", "input": ["efficientnet-b1/model/blocks_15/Add", "fpn_cells/cell_0/fnode4/resample_0_1_9/conv2d/Conv2D_weights", "fpn_cells/cell_3/fnode7/op_after_combine12/conv/separable_conv2d_bn_offset"], "device": "/device:CPU:0", "attr": {"num_args": {"i": "1"}, "epsilon": {"f": 0.0}, "padding": {"s": "U0FNRQ=="}, "fused_ops": {"list": {"s": ["Qmlhc0FkZA=="]}}, "dilations": {"list": {"i": ["1", "1", "1", "1"]}}, "T": {"type": "DT_FLOAT"}, "data_format": {"s": "TkhXQw=="}, "strides": {"list": {"i": ["1", "1", "1", "1"]}}, "use_cudnn_on_gpu": {"b": true}, "explicit_paddings": {"list": {}}}}, {"name": "fpn_cells/cell_0/fnode2/resample_0_1_7/bn/FusedBatchNormV3", "op": "_FusedConv2D", "input": ["efficientnet-b1/model/blocks_15/Add", "fpn_cells/cell_0/fnode2/resample_0_1_7/conv2d/Conv2D_weights", "fpn_cells/cell_3/fnode7/op_after_combine12/conv/separable_conv2d_bn_offset"], "device": "/device:CPU:0", "attr": {"dilations": {"list": {"i": ["1", "1", "1", "1"]}}, "T": {"type": "DT_FLOAT"}, "strides": {"list": {"i": ["1", "1", "1", "1"]}}, "data_format": {"s": "TkhXQw=="}, "explicit_paddings": {"list": {}}, "use_cudnn_on_gpu": {"b": true}, "num_args": {"i": "1"}, "epsilon": {"f": 0.0}, "padding": {"s": "U0FNRQ=="}, "fused_ops": {"list": {"s": ["Qmlhc0FkZA=="]}}}}, {"name": "efficientnet-b1/model/blocks_16/tpu_batch_normalization/FusedBatchNormV3", "op": "_FusedConv2D", "input": ["efficientnet-b1/model/blocks_15/Add", "efficientnet-b1/model/blocks_16/conv2d/Conv2D_weights", "efficientnet-b1/model/blocks_13/conv2d/Conv2D_bn_offset"], "device": "/device:CPU:0", "attr": {"data_format": {"s": "TkhXQw=="}, "strides": {"list": {"i": ["1", "1", "1", "1"]}}, "use_cudnn_on_gpu": {"b": true}, "explicit_paddings": {"list": {}}, "num_args": {"i": "1"}, "epsilon": {"f": 0.0}, "padding": {"s": "U0FNRQ=="}, "fused_ops": {"list": {"s": ["Qmlhc0FkZA=="]}}, "dilations": {"list": {"i": ["1", "1", "1", "1"]}}, "T": {"type": "DT_FLOAT"}}}, {"name": "efficientnet-b1/model/blocks_16/Sigmoid", "op": "Sigmoid", "input": ["efficientnet-b1/model/blocks_16/tpu_batch_normalization/FusedBatchNormV3"], "attr": {"T": {"type": "DT_FLOAT"}}}, {"name": "efficientnet-b1/model/blocks_16/mul", "op": "Mul", "input": ["efficientnet-b1/model/blocks_16/Sigmoid", "efficientnet-b1/model/blocks_16/tpu_batch_normalization/FusedBatchNormV3"], "attr": {"T": {"type": "DT_FLOAT"}}}, {"name": "efficientnet-b1/model/blocks_16/depthwise_conv2d/depthwise", "op": "DepthwiseConv2dNative", "input": ["efficientnet-b1/model/blocks_16/mul", "efficientnet-b1/model/blocks_16/depthwise_conv2d/depthwise_weights"], "attr": {"padding": {"s": "U0FNRQ=="}, "dilations": {"list": {"i": ["1", "1", "1", "1"]}}, "T": {"type": "DT_FLOAT"}, "strides": {"list": {"i": ["1", "2", "2", "1"]}}, "data_format": {"s": "TkhXQw=="}}}, {"name": "efficientnet-b1/model/blocks_16/Sigmoid_1", "op": "Sigmoid", "input": ["efficientnet-b1/model/blocks_16/depthwise_conv2d/depthwise"], "attr": {"T": {"type": "DT_FLOAT"}}}, {"name": "efficientnet-b1/model/blocks_16/mul_1", "op": "Mul", "input": ["efficientnet-b1/model/blocks_16/Sigmoid_1", "efficientnet-b1/model/blocks_16/depthwise_conv2d/depthwise"], "attr": {"T": {"type": "DT_FLOAT"}}}, {"name": "efficientnet-b1/model/blocks_16/se/Mean", "op": "Mean", "input": ["efficientnet-b1/model/blocks_16/mul_1", "efficientnet-b1/model/blocks_22/se/Mean/reduction_indices"], "attr": {"keep_dims": {"b": true}, "Tidx": {"type": "DT_INT32"}, "T": {"type": "DT_FLOAT"}}}, {"name": "efficientnet-b1/model/blocks_16/se/conv2d/Conv2D", "op": "Conv2D", "input": ["efficientnet-b1/model/blocks_16/se/Mean", "efficientnet-b1/blocks_16/se/conv2d/kernel"], "device": "/device:CPU:0", "attr": {"padding": {"s": "U0FNRQ=="}, "dilations": {"list": {"i": ["1", "1", "1", "1"]}}, "T": {"type": "DT_FLOAT"}, "data_format": {"s": "TkhXQw=="}, "strides": {"list": {"i": ["1", "1", "1", "1"]}}, "use_cudnn_on_gpu": {"b": true}, "explicit_paddings": {"list": {}}}}, {"name": "efficientnet-b1/model/blocks_16/se/Sigmoid", "op": "Sigmoid", "input": ["efficientnet-b1/model/blocks_16/se/conv2d/Conv2D"], "attr": {"T": {"type": "DT_FLOAT"}}}, {"name": "efficientnet-b1/model/blocks_16/se/mul", "op": "Mul", "input": ["efficientnet-b1/model/blocks_16/se/Sigmoid", "efficientnet-b1/model/blocks_16/se/conv2d/Conv2D"], "attr": {"T": {"type": "DT_FLOAT"}}}, {"name": "efficientnet-b1/model/blocks_16/se/conv2d_1/Conv2D", "op": "Conv2D", "input": ["efficientnet-b1/model/blocks_16/se/mul", "efficientnet-b1/blocks_16/se/conv2d_1/kernel"], "device": "/device:CPU:0", "attr": {"dilations": {"list": {"i": ["1", "1", "1", "1"]}}, "T": {"type": "DT_FLOAT"}, "data_format": {"s": "TkhXQw=="}, "strides": {"list": {"i": ["1", "1", "1", "1"]}}, "explicit_paddings": {"list": {}}, "use_cudnn_on_gpu": {"b": true}, "padding": {"s": "U0FNRQ=="}}}, {"name": "efficientnet-b1/model/blocks_16/se/Sigmoid_1", "op": "Sigmoid", "input": ["efficientnet-b1/model/blocks_16/se/conv2d_1/Conv2D"], "attr": {"T": {"type": "DT_FLOAT"}}}, {"name": "efficientnet-b1/model/blocks_16/se/mul_1", "op": "Mul", "input": ["efficientnet-b1/model/blocks_16/mul_1", "efficientnet-b1/model/blocks_16/se/Sigmoid_1"], "attr": {"T": {"type": "DT_FLOAT"}}}, {"name": "efficientnet-b1/model/blocks_16/tpu_batch_normalization_2/FusedBatchNormV3", "op": "_FusedConv2D", "input": ["efficientnet-b1/model/blocks_16/se/mul_1", "efficientnet-b1/model/blocks_16/conv2d_1/Conv2D_weights", "efficientnet-b1/model/blocks_16/conv2d_1/Conv2D_bn_offset"], "device": "/device:CPU:0", "attr": {"dilations": {"list": {"i": ["1", "1", "1", "1"]}}, "T": {"type": "DT_FLOAT"}, "strides": {"list": {"i": ["1", "1", "1", "1"]}}, "data_format": {"s": "TkhXQw=="}, "use_cudnn_on_gpu": {"b": true}, "explicit_paddings": {"list": {}}, "num_args": {"i": "1"}, "epsilon": {"f": 0.0}, "padding": {"s": "U0FNRQ=="}, "fused_ops": {"list": {"s": ["Qmlhc0FkZA=="]}}}}, {"name": "efficientnet-b1/model/blocks_17/tpu_batch_normalization/FusedBatchNormV3", "op": "_FusedConv2D", "input": ["efficientnet-b1/model/blocks_16/tpu_batch_normalization_2/FusedBatchNormV3", "efficientnet-b1/model/blocks_17/conv2d/Conv2D_weights", "efficientnet-b1/model/blocks_17/conv2d/Conv2D_bn_offset"], "device": "/device:CPU:0", "attr": {"num_args": {"i": "1"}, "epsilon": {"f": 0.0}, "padding": {"s": "U0FNRQ=="}, "fused_ops": {"list": {"s": ["Qmlhc0FkZA=="]}}, "dilations": {"list": {"i": ["1", "1", "1", "1"]}}, "T": {"type": "DT_FLOAT"}, "data_format": {"s": "TkhXQw=="}, "strides": {"list": {"i": ["1", "1", "1", "1"]}}, "explicit_paddings": {"list": {}}, "use_cudnn_on_gpu": {"b": true}}}, {"name": "efficientnet-b1/model/blocks_17/Sigmoid", "op": "Sigmoid", "input": ["efficientnet-b1/model/blocks_17/tpu_batch_normalization/FusedBatchNormV3"], "attr": {"T": {"type": "DT_FLOAT"}}}, {"name": "efficientnet-b1/model/blocks_17/mul", "op": "Mul", "input": ["efficientnet-b1/model/blocks_17/Sigmoid", "efficientnet-b1/model/blocks_17/tpu_batch_normalization/FusedBatchNormV3"], "attr": {"T": {"type": "DT_FLOAT"}}}, {"name": "efficientnet-b1/model/blocks_17/depthwise_conv2d/depthwise", "op": "DepthwiseConv2dNative", "input": ["efficientnet-b1/model/blocks_17/mul", "efficientnet-b1/model/blocks_17/depthwise_conv2d/depthwise_weights"], "attr": {"T": {"type": "DT_FLOAT"}, "strides": {"list": {"i": ["1", "1", "1", "1"]}}, "data_format": {"s": "TkhXQw=="}, "padding": {"s": "U0FNRQ=="}, "dilations": {"list": {"i": ["1", "1", "1", "1"]}}}}, {"name": "efficientnet-b1/model/blocks_17/Sigmoid_1", "op": "Sigmoid", "input": ["efficientnet-b1/model/blocks_17/depthwise_conv2d/depthwise"], "attr": {"T": {"type": "DT_FLOAT"}}}, {"name": "efficientnet-b1/model/blocks_17/mul_1", "op": "Mul", "input": ["efficientnet-b1/model/blocks_17/Sigmoid_1", "efficientnet-b1/model/blocks_17/depthwise_conv2d/depthwise"], "attr": {"T": {"type": "DT_FLOAT"}}}, {"name": "efficientnet-b1/model/blocks_17/se/Mean", "op": "Mean", "input": ["efficientnet-b1/model/blocks_17/mul_1", "efficientnet-b1/model/blocks_22/se/Mean/reduction_indices"], "attr": {"T": {"type": "DT_FLOAT"}, "keep_dims": {"b": true}, "Tidx": {"type": "DT_INT32"}}}, {"name": "efficientnet-b1/model/blocks_17/se/conv2d/Conv2D", "op": "Conv2D", "input": ["efficientnet-b1/model/blocks_17/se/Mean", "efficientnet-b1/blocks_17/se/conv2d/kernel"], "device": "/device:CPU:0", "attr": {"padding": {"s": "U0FNRQ=="}, "dilations": {"list": {"i": ["1", "1", "1", "1"]}}, "T": {"type": "DT_FLOAT"}, "data_format": {"s": "TkhXQw=="}, "strides": {"list": {"i": ["1", "1", "1", "1"]}}, "use_cudnn_on_gpu": {"b": true}, "explicit_paddings": {"list": {}}}}, {"name": "efficientnet-b1/model/blocks_17/se/Sigmoid", "op": "Sigmoid", "input": ["efficientnet-b1/model/blocks_17/se/conv2d/Conv2D"], "attr": {"T": {"type": "DT_FLOAT"}}}, {"name": "efficientnet-b1/model/blocks_17/se/mul", "op": "Mul", "input": ["efficientnet-b1/model/blocks_17/se/Sigmoid", "efficientnet-b1/model/blocks_17/se/conv2d/Conv2D"], "attr": {"T": {"type": "DT_FLOAT"}}}, {"name": "efficientnet-b1/model/blocks_17/se/conv2d_1/Conv2D", "op": "Conv2D", "input": ["efficientnet-b1/model/blocks_17/se/mul", "efficientnet-b1/blocks_17/se/conv2d_1/kernel"], "device": "/device:CPU:0", "attr": {"data_format": {"s": "TkhXQw=="}, "strides": {"list": {"i": ["1", "1", "1", "1"]}}, "explicit_paddings": {"list": {}}, "use_cudnn_on_gpu": {"b": true}, "padding": {"s": "U0FNRQ=="}, "dilations": {"list": {"i": ["1", "1", "1", "1"]}}, "T": {"type": "DT_FLOAT"}}}, {"name": "efficientnet-b1/model/blocks_17/se/Sigmoid_1", "op": "Sigmoid", "input": ["efficientnet-b1/model/blocks_17/se/conv2d_1/Conv2D"], "attr": {"T": {"type": "DT_FLOAT"}}}, {"name": "efficientnet-b1/model/blocks_17/se/mul_1", "op": "Mul", "input": ["efficientnet-b1/model/blocks_17/mul_1", "efficientnet-b1/model/blocks_17/se/Sigmoid_1"], "attr": {"T": {"type": "DT_FLOAT"}}}, {"name": "efficientnet-b1/model/blocks_17/tpu_batch_normalization_2/FusedBatchNormV3", "op": "_FusedConv2D", "input": ["efficientnet-b1/model/blocks_17/se/mul_1", "efficientnet-b1/model/blocks_17/conv2d_1/Conv2D_weights", "efficientnet-b1/model/blocks_16/conv2d_1/Conv2D_bn_offset"], "device": "/device:CPU:0", "attr": {"strides": {"list": {"i": ["1", "1", "1", "1"]}}, "data_format": {"s": "TkhXQw=="}, "use_cudnn_on_gpu": {"b": true}, "explicit_paddings": {"list": {}}, "num_args": {"i": "1"}, "epsilon": {"f": 0.0}, "padding": {"s": "U0FNRQ=="}, "fused_ops": {"list": {"s": ["Qmlhc0FkZA=="]}}, "dilations": {"list": {"i": ["1", "1", "1", "1"]}}, "T": {"type": "DT_FLOAT"}}}, {"name": "efficientnet-b1/model/blocks_17/Add", "op": "Add", "input": ["efficientnet-b1/model/blocks_16/tpu_batch_normalization_2/FusedBatchNormV3", "efficientnet-b1/model/blocks_17/tpu_batch_normalization_2/FusedBatchNormV3"], "attr": {"T": {"type": "DT_FLOAT"}}}, {"name": "efficientnet-b1/model/blocks_18/tpu_batch_normalization/FusedBatchNormV3", "op": "_FusedConv2D", "input": ["efficientnet-b1/model/blocks_17/Add", "efficientnet-b1/model/blocks_18/conv2d/Conv2D_weights", "efficientnet-b1/model/blocks_17/conv2d/Conv2D_bn_offset"], "device": "/device:CPU:0", "attr": {"num_args": {"i": "1"}, "epsilon": {"f": 0.0}, "padding": {"s": "U0FNRQ=="}, "fused_ops": {"list": {"s": ["Qmlhc0FkZA=="]}}, "dilations": {"list": {"i": ["1", "1", "1", "1"]}}, "T": {"type": "DT_FLOAT"}, "data_format": {"s": "TkhXQw=="}, "strides": {"list": {"i": ["1", "1", "1", "1"]}}, "explicit_paddings": {"list": {}}, "use_cudnn_on_gpu": {"b": true}}}, {"name": "efficientnet-b1/model/blocks_18/Sigmoid", "op": "Sigmoid", "input": ["efficientnet-b1/model/blocks_18/tpu_batch_normalization/FusedBatchNormV3"], "attr": {"T": {"type": "DT_FLOAT"}}}, {"name": "efficientnet-b1/model/blocks_18/mul", "op": "Mul", "input": ["efficientnet-b1/model/blocks_18/Sigmoid", "efficientnet-b1/model/blocks_18/tpu_batch_normalization/FusedBatchNormV3"], "attr": {"T": {"type": "DT_FLOAT"}}}, {"name": "efficientnet-b1/model/blocks_18/depthwise_conv2d/depthwise", "op": "DepthwiseConv2dNative", "input": ["efficientnet-b1/model/blocks_18/mul", "efficientnet-b1/model/blocks_18/depthwise_conv2d/depthwise_weights"], "attr": {"padding": {"s": "U0FNRQ=="}, "dilations": {"list": {"i": ["1", "1", "1", "1"]}}, "T": {"type": "DT_FLOAT"}, "strides": {"list": {"i": ["1", "1", "1", "1"]}}, "data_format": {"s": "TkhXQw=="}}}, {"name": "efficientnet-b1/model/blocks_18/Sigmoid_1", "op": "Sigmoid", "input": ["efficientnet-b1/model/blocks_18/depthwise_conv2d/depthwise"], "attr": {"T": {"type": "DT_FLOAT"}}}, {"name": "efficientnet-b1/model/blocks_18/mul_1", "op": "Mul", "input": ["efficientnet-b1/model/blocks_18/Sigmoid_1", "efficientnet-b1/model/blocks_18/depthwise_conv2d/depthwise"], "attr": {"T": {"type": "DT_FLOAT"}}}, {"name": "efficientnet-b1/model/blocks_…
": {"T_threshold": {"type": "DT_FLOAT"}, "T": {"type": "DT_FLOAT"}}}, {"name": "get_boxes", "op": "GatherV2", "input": ["boxes", "non_max_suppression/NonMaxSuppressionV3", "get_boxes/axis"], "attr": {"Taxis": {"type": "DT_INT32"}, "batch_dims": {"i": "0"}, "Tindices": {"type": "DT_INT32"}, "Tparams": {"type": "DT_FLOAT"}}}, {"name": "get_classes", "op": "GatherV2", "input": ["strided_slice_5", "non_max_suppression/NonMaxSuppressionV3", "get_boxes/axis"], "attr": {"Tparams": {"type": "DT_INT32"}, "Taxis": {"type": "DT_INT32"}, "batch_dims": {"i": "0"}, "Tindices": {"type": "DT_INT32"}}}, {"name": "get_scores", "op": "GatherV2", "input": ["scores", "non_max_suppression/NonMaxSuppressionV3", "get_boxes/axis"], "attr": {"batch_dims": {"i": "0"}, "Tindices": {"type": "DT_INT32"}, "Tparams": {"type": "DT_FLOAT"}, "Taxis": {"type": "DT_INT32"}}}], "versions": {}}, "weightsManifest": [{"paths": ["group1-shard1of4.bin", "group1-shard2of4.bin", "group1-shard3of4.bin", "group1-shard4of4.bin"], "weights": [{"name": "box_net/box-0/depthwise_kernel", "shape": [3, 3, 88, 1], "dtype": "float32", "quantization": {"min": -0.0799516522900058, "scale": 2.451978173091845e-06, "dtype": "uint16"}}, {"name": "box_net/box-1/depthwise_kernel", "shape": [3, 3, 88, 1], "dtype": "float32", "quantization": {"min": -0.07877888547716602, "scale": 2.429197825382856e-06, "dtype": "uint16"}}, {"name": "box_net/box-2/depthwise_kernel", "shape": [3, 3, 88, 1], "dtype": "float32", "quantization": {"min": -0.08029616117941266, "scale": 2.4412064082273093e-06, "dtype": "uint16"}}, {"name": "box_net/box-predict/depthwise_kernel", "shape": [3, 3, 88, 1], "dtype": "float32", "quantization": {"min": -0.08058411896142387, "scale": 2.457732065433203e-06, "dtype": "uint16"}}, {"name": "box_net/box-predict/pointwise_kernel", "shape": [1, 1, 88, 36], "dtype": "float32", "quantization": {"min": -0.24166415475221925, "scale": 7.379959529475943e-06, "dtype": "uint16"}}, {"name": "Reshape_1/shape", "shape": [3], "dtype": "int32"}, {"name": "strided_slice_7/stack_1", "shape": [1], "dtype": "int32"}, {"name": "strided_slice_9/stack_1", "shape": [1], "dtype": "int32"}, {"name": "Const_2", "shape": [76725, 4], "dtype": "float32", "quantization": {"min": -504.9366477406924, "scale": 0.025175083399346484, "dtype": "uint16"}}, {"name": "transpose/perm", "shape": [2], "dtype": "int32"}, {"name": "strided_slice_7/stack", "shape": [1], "dtype": "int32"}, {"name": "ConstantFolding/fpn_cells/cell_3/fnode6/truediv_recip", "shape": [], "dtype": "float32", "quantization": {"min": 0.3333222270011902, "scale": 1.0, "dtype": "uint16"}}, {"name": "ConstantFolding/fpn_cells/cell_3/fnode7/truediv_recip", "shape": [], "dtype": "float32", "quantization": {"min": 0.4999750256538391, "scale": 1.0, "dtype": "uint16"}}, {"name": "fpn_cells/cell_0/fnode0/resample_1_4_5/nearest_upsampling/ones", "shape": [1, 1, 2, 1, 2, 1], "dtype": "float32", "quantization": {"min": 1.0, "scale": 1.0, "dtype": "uint16"}}, {"name": "fpn_cells/cell_0/fnode0/op_after_combine5/conv/depthwise_kernel", "shape": [3, 3, 88, 1], "dtype": "float32", "quantization": {"min": -0.08614167387176544, "scale": 2.634704813328198e-06, "dtype": "uint16"}}, {"name": "fpn_cells/cell_0/fnode1/op_after_combine6/conv/depthwise_kernel", "shape": [3, 3, 88, 1], "dtype": "float32", "quantization": {"min": -0.0863945229793428, "scale": 2.632454461724696e-06, "dtype": "uint16"}}, {"name": "fpn_cells/cell_0/fnode2/op_after_combine7/conv/depthwise_kernel", "shape": [3, 3, 88, 1], "dtype": "float32", "quantization": {"min": -0.08649228929682054, "scale": 2.639696310102562e-06, "dtype": "uint16"}}, {"name": "fpn_cells/cell_0/fnode3/op_after_combine8/conv/depthwise_kernel", "shape": [3, 3, 88, 1], "dtype": "float32", "quantization": {"min": -0.08650182292037019, "scale": 2.6400678443573994e-06, "dtype": "uint16"}}, {"name": "fpn_cells/cell_0/fnode4/op_after_combine9/conv/depthwise_kernel", "shape": [3, 3, 88, 1], "dtype": "float32", "quantization": {"min": -0.08626827724562763, "scale": 2.6338241816458334e-06, "dtype": "uint16"}}, {"name": "fpn_cells/cell_0/fnode5/op_after_combine10/conv/depthwise_kernel", "shape": [3, 3, 88, 1], "dtype": "float32", "quantization": {"min": -0.0858281958591586, "scale": 2.62375262469915e-06, "dtype": "uint16"}}, {"name": "fpn_cells/cell_0/fnode6/op_after_combine11/conv/depthwise_kernel", "shape": [3, 3, 88, 1], "dtype": "float32", "quantization": {"min": -0.08641420833086035, "scale": 2.6387629269225705e-06, "dtype": "uint16"}}, {"name": "efficientnet-b1/blocks_10/se/conv2d/kernel", "shape": [1, 1, 480, 20], "dtype": "float32", "quantization": {"min": -1.248347351750602, "scale": 3.570787619423919e-05, "dtype": "uint16"}}, {"name": "efficientnet-b1/blocks_10/se/conv2d_1/kernel", "shape": [1, 1, 20, 480], "dtype": "float32", "quantization": {"min": -0.24677129908003487, "scale": 7.310009451982785e-06, "dtype": "uint16"}}, {"name": "ConstantFolding/truediv_recip", "shape": [1, 1, 3], "dtype": "float32", "quantization": {"min": 4.366812229156494, "scale": 1.4873448467421988e-06, "dtype": "uint16"}}, {"name": "ExpandDims_1", "shape": [1, 1, 3], "dtype": "float32", "quantization": {"min": 0.4059999883174896, "scale": 1.2054631263847582e-06, "dtype": "uint16"}}, {"name": "efficientnet-b1/blocks_0/se/conv2d/kernel", "shape": [1, 1, 32, 8], "dtype": "float32", "quantization": {"min": -1.1437783989106307, "scale": 3.781210614931504e-05, "dtype": "uint16"}}, {"name": "efficientnet-b1/blocks_0/se/conv2d_1/kernel", "shape": [1, 1, 8, 32], "dtype": "float32", "quantization": {"min": -0.5618789468275798, "scale": 2.2327794429866073e-05, "dtype": "uint16"}}, {"name": "efficientnet-b1/blocks_1/se/conv2d/kernel", "shape": [1, 1, 16, 4], "dtype": "float32", "quantization": {"min": -1.6439759891002432, "scale": 5.2305949382763066e-05, "dtype": "uint16"}}, {"name": "efficientnet-b1/blocks_1/se/conv2d_1/kernel", "shape": [1, 1, 4, 16], "dtype": "float32", "quantization": {"min": -0.898249925901863, "scale": 2.5024374589827638e-05, "dtype": "uint16"}}, {"name": "efficientnet-b1/blocks_2/se/conv2d/kernel", "shape": [1, 1, 96, 4], "dtype": "float32", "quantization": {"min": -2.0922929151330867, "scale": 5.920634186403369e-05, "dtype": "uint16"}}, {"name": "efficientnet-b1/blocks_2/se/conv2d_1/kernel", "shape": [1, 1, 4, 96], "dtype": "float32", "quantization": {"min": -0.35476849502872126, "scale": 1.1774202483446327e-05, "dtype": "uint16"}}, {"name": "efficientnet-b1/blocks_3/se/conv2d/kernel", "shape": [1, 1, 144, 6], "dtype": "float32", "quantization": {"min": -1.810162958258794, "scale": 5.579345821288355e-05, "dtype": "uint16"}}, {"name": "efficientnet-b1/blocks_3/se/conv2d_1/kernel", "shape": [1, 1, 6, 144], "dtype": "float32", "quantization": {"min": -0.3327743287316411, "scale": 1.145364936778554e-05, "dtype": "uint16"}}, {"name": "efficientnet-b1/blocks_4/se/conv2d/kernel", "shape": [1, 1, 144, 6], "dtype": "float32", "quantization": {"min": -2.1524165261298376, "scale": 6.0971517934673316e-05, "dtype": "uint16"}}, {"name": "efficientnet-b1/blocks_4/se/conv2d_1/kernel", "shape": [1, 1, 6, 144], "dtype": "float32", "quantization": {"min": -0.322193247557796, "scale": 1.1476161978906359e-05, "dtype": "uint16"}}, {"name": "efficientnet-b1/blocks_5/se/conv2d/kernel", "shape": [1, 1, 144, 6], "dtype": "float32", "quantization": {"min": -1.7953779566048795, "scale": 5.4511111142970594e-05, "dtype": "uint16"}}, {"name": "efficientnet-b1/blocks_5/se/conv2d_1/kernel", "shape": [1, 1, 6, 144], "dtype": "float32", "quantization": {"min": -0.36845685852204235, "scale": 1.0585103235428836e-05, "dtype": "uint16"}}, {"name": "efficientnet-b1/blocks_6/se/conv2d/kernel", "shape": [1, 1, 240, 10], "dtype": "float32", "quantization": {"min": -1.5891371652701087, "scale": 4.6855088019522014e-05, "dtype": "uint16"}}, {"name": "efficientnet-b1/blocks_6/se/conv2d_1/kernel", "shape": [1, 1, 10, 240], "dtype": "float32", "quantization": {"min": -0.29170565616714333, "scale": 9.356437635665501e-06, "dtype": "uint16"}}, {"name": "efficientnet-b1/blocks_7/se/conv2d/kernel", "shape": [1, 1, 240, 10], "dtype": "float32", "quantization": {"min": -1.4211895018208898, "scale": 4.483106216904482e-05, "dtype": "uint16"}}, {"name": "efficientnet-b1/blocks_7/se/conv2d_1/kernel", "shape": [1, 1, 10, 240], "dtype": "float32", "quantization": {"min": -0.29096374979842815, "scale": 9.722774503723457e-06, "dtype": "uint16"}}, {"name": "efficientnet-b1/blocks_8/se/conv2d/kernel", "shape": [1, 1, 240, 10], "dtype": "float32", "quantization": {"min": -1.4998984619637434, "scale": 4.5940104198099283e-05, "dtype": "uint16"}}, {"name": "efficientnet-b1/blocks_8/se/conv2d_1/kernel", "shape": [1, 1, 10, 240], "dtype": "float32", "quantization": {"min": -0.35887403788842714, "scale": 1.0221128361152549e-05, "dtype": "uint16"}}, {"name": "efficientnet-b1/blocks_9/se/conv2d/kernel", "shape": [1, 1, 480, 20], "dtype": "float32", "quantization": {"min": -1.1850877417500871, "scale": 3.5860675454658126e-05, "dtype": "uint16"}}, {"name": "efficientnet-b1/blocks_9/se/conv2d_1/kernel", "shape": [1, 1, 20, 480], "dtype": "float32", "quantization": {"min": -0.28153753847763724, "scale": 8.132927130532317e-06, "dtype": "uint16"}}, {"name": "efficientnet-b1/blocks_11/se/conv2d/kernel", "shape": [1, 1, 480, 20], "dtype": "float32", "quantization": {"min": -1.3717903524766828, "scale": 4.077612366912439e-05, "dtype": "uint16"}}, {"name": "efficientnet-b1/blocks_11/se/conv2d_1/kernel", "shape": [1, 1, 20, 480], "dtype": "float32", "quantization": {"min": -0.2649695619316607, "scale": 7.714264642240035e-06, "dtype": "uint16"}}, {"name": "efficientnet-b1/blocks_12/se/conv2d/kernel", "shape": [1, 1, 480, 20], "dtype": "float32", "quantization": {"min": -1.120246174185047, "scale": 3.398186538206173e-05, "dtype": "uint16"}}, {"name": "efficientnet-b1/blocks_12/se/conv2d_1/kernel", "shape": [1, 1, 20, 480], "dtype": "float32", "quantization": {"min": -0.26561355293183625, "scale": 7.75514023158646e-06, "dtype": "uint16"}}, {"name": "efficientnet-b1/blocks_13/se/conv2d/kernel", "shape": [1, 1, 672, 28], "dtype": "float32", "quantization": {"min": -1.0479885834455036, "scale": 3.1294451249567114e-05, "dtype": "uint16"}}, {"name": "efficientnet-b1/blocks_13/se/conv2d_1/kernel", "shape": [1, 1, 28, 672], "dtype": "float32", "quantization": {"min": -0.213369330396148, "scale": 6.639573387980707e-06, "dtype": "uint16"}}, {"name": "efficientnet-b1/blocks_14/se/conv2d/kernel", "shape": [1, 1, 672, 28], "dtype": "float32", "quantization": {"min": -1.0494341036115968, "scale": 3.102356412367626e-05, "dtype": "uint16"}}, {"name": "efficientnet-b1/blocks_14/se/conv2d_1/kernel", "shape": [1, 1, 28, 672], "dtype": "float32", "quantization": {"min": -0.20129673345652674, "scale": 6.295244353781797e-06, "dtype": "uint16"}}, {"name": "efficientnet-b1/blocks_15/se/conv2d/kernel", "shape": [1, 1, 672, 28], "dtype": "float32", "quantization": {"min": -1.0280569814367826, "scale": 3.284736984589375e-05, "dtype": "uint16"}}, {"name": "efficientnet-b1/blocks_15/se/conv2d_1/kernel", "shape": [1, 1, 28, 672], "dtype": "float32", "quantization": {"min": -0.23143158039384934, "scale": 7.4043889299286325e-06, "dtype": "uint16"}}, {"name": "efficientnet-b1/blocks_16/se/conv2d/kernel", "shape": [1, 1, 672, 28], "dtype": "float32", "quantization": {"min": -1.0452248788747613, "scale": 3.176975315728758e-05, "dtype": "uint16"}}, {"name": "efficientnet-b1/blocks_16/se/conv2d_1/kernel", "shape": [1, 1, 28, 672], "dtype": "float32", "quantization": {"min": -0.2206621267027119, "scale": 6.397301675780938e-06, "dtype": "uint16"}}, {"name": "efficientnet-b1/blocks_17/se/conv2d/kernel", "shape": [1, 1, 1152, 48], "dtype": "float32", "quantization": {"min": -0.9869139272706263, "scale": 2.8109197586745266e-05, "dtype": "uint16"}}, {"name": "efficientnet-b1/blocks_17/se/conv2d_1/kernel", "shape": [1, 1, 48, 1152], "dtype": "float32", "quantization": {"min": -0.181350358148284, "scale": 5.392356996470043e-06, "dtype": "uint16"}}, {"name": "efficientnet-b1/blocks_18/se/conv2d/kernel", "shape": [1, 1, 1152, 48], "dtype": "float32", "quantization": {"min": -0.8972367201770408, "scale": 2.684247951226712e-05, "dtype": "uint16"}}, {"name": "efficientnet-b1/blocks_18/se/conv2d_1/kernel", "shape": [1, 1, 48, 1152], "dtype": "float32", "quantization": {"min": -0.1738418183838229, "scale": 5.184665027850369e-06, "dtype": "uint16"}}, {"name": "efficientnet-b1/blocks_19/se/conv2d/kernel", "shape": [1, 1, 1152, 48], "dtype": "float32", "quantization": {"min": -0.8150405982598075, "scale": 2.5252218312672185e-05, "dtype": "uint16"}}, {"name": "efficientnet-b1/blocks_19/se/conv2d_1/kernel", "shape": [1, 1, 48, 1152], "dtype": "float32", "quantization": {"min": -0.2264496650604486, "scale": 6.244820061233484e-06, "dtype": "uint16"}}, {"name": "efficientnet-b1/blocks_20/se/conv2d/kernel", "shape": [1, 1, 1152, 48], "dtype": "float32", "quantization": {"min": -0.8189583791323655, "scale": 2.5328870786266833e-05, "dtype": "uint16"}}, {"name": "efficientnet-b1/blocks_20/se/conv2d_1/kernel", "shape": [1, 1, 48, 1152], "dtype": "float32", "quantization": {"min": -0.1896059398762265, "scale": 5.492321993981418e-06, "dtype": "uint16"}}, {"name": "efficientnet-b1/blocks_21/se/conv2d/kernel", "shape": [1, 1, 1152, 48], "dtype": "float32", "quantization": {"min": -0.9117061293051483, "scale": 2.5853002390618127e-05, "dtype": "uint16"}}, {"name": "efficientnet-b1/blocks_21/se/conv2d_1/kernel", "shape": [1, 1, 48, 1152], "dtype": "float32", "quantization": {"min": -0.17171766996392762, "scale": 5.3546312627125144e-06, "dtype": "uint16"}}, {"name": "efficientnet-b1/model/blocks_22/se/Mean/reduction_indices", "shape": [2], "dtype": "int32"}, {"name": "efficientnet-b1/blocks_22/se/conv2d/kernel", "shape": [1, 1, 1920, 80], "dtype": "float32", "quantization": {"min": -0.6974152287920652, "scale": 2.2116995807315042e-05, "dtype": "uint16"}}, {"name": "efficientnet-b1/blocks_22/se/conv2d_1/kernel", "shape": [1, 1, 80, 1920], "dtype": "float32", "quantization": {"min": -0.15065513816925394, "scale": 4.496497184577046e-06, "dtype": "uint16"}}, {"name": "fpn_cells/cell_0/fnode7/op_after_combine12/conv/depthwise_kernel", "shape": [3, 3, 88, 1], "dtype": "float32", "quantization": {"min": -0.08651313506702886, "scale": 2.640332511354113e-06, "dtype": "uint16"}}, {"name": "fpn_cells/cell_1/fnode0/op_after_combine5/conv/depthwise_kernel", "shape": [3, 3, 88, 1], "dtype": "float32", "quantization": {"min": -0.08530189803445276, "scale": 2.620400517139826e-06, "dtype": "uint16"}}, {"name": "fpn_cells/cell_1/fnode1/op_after_combine6/conv/depthwise_kernel", "shape": [3, 3, 88, 1], "dtype": "float32", "quantization": {"min": -0.08622560751349918, "scale": 2.636062595949226e-06, "dtype": "uint16"}}, {"name": "fpn_cells/cell_1/fnode2/op_after_combine7/conv/depthwise_kernel", "shape": [3, 3, 88, 1], "dtype": "float32", "quantization": {"min": -0.08641004501531806, "scale": 2.6389581302015045e-06, "dtype": "uint16"}}, {"name": "fpn_cells/cell_1/fnode3/op_after_combine8/conv/depthwise_kernel", "shape": [3, 3, 88, 1], "dtype": "float32", "quantization": {"min": -0.08608558111894939, "scale": 2.6260014983512104e-06, "dtype": "uint16"}}, {"name": "fpn_cells/cell_1/fnode4/op_after_combine9/conv/depthwise_kernel", "shape": [3, 3, 88, 1], "dtype": "float32", "quantization": {"min": -0.08653744401819075, "scale": 2.636006092728708e-06, "dtype": "uint16"}}, {"name": "fpn_cells/cell_1/fnode5/op_after_combine10/conv/depthwise_kernel", "shape": [3, 3, 88, 1], "dtype": "float32", "quantization": {"min": -0.08583445972251048, "scale": 2.624746490199697e-06, "dtype": "uint16"}}, {"name": "fpn_cells/cell_1/fnode6/op_after_combine11/conv/depthwise_kernel", "shape": [3, 3, 88, 1], "dtype": "float32", "quantization": {"min": -0.08618168828552335, "scale": 2.6318233764589064e-06, "dtype": "uint16"}}, {"name": "fpn_cells/cell_1/fnode7/op_after_combine12/conv/depthwise_kernel", "shape": [3, 3, 88, 1], "dtype": "float32", "quantization": {"min": -0.0864694077718528, "scale": 2.6392396231069438e-06, "dtype": "uint16"}}, {"name": "fpn_cells/cell_2/fnode0/op_after_combine5/conv/depthwise_kernel", "shape": [3, 3, 88, 1], "dtype": "float32", "quantization": {"min": -0.08605445844351568, "scale": 2.626734789643652e-06, "dtype": "uint16"}}, {"name": "fpn_cells/cell_2/fnode1/op_after_combine6/conv/depthwise_kernel", "shape": [3, 3, 88, 1], "dtype": "float32", "quantization": {"min": -0.08636118912108841, "scale": 2.625518776672496e-06, "dtype": "uint16"}}, {"name": "fpn_cells/cell_2/fnode2/op_after_combine7/conv/depthwise_kernel", "shape": [3, 3, 88, 1], "dtype": "float32", "quantization": {"min": -0.0864647810480465, "scale": 2.637488364336592e-06, "dtype": "uint16"}}, {"name": "fpn_cells/cell_2/fnode3/op_after_combine8/conv/depthwise_kernel", "shape": [3, 3, 88, 1], "dtype": "float32", "quantization": {"min": -0.0863865142888105, "scale": 2.637836706122645e-06, "dtype": "uint16"}}, {"name": "fpn_cells/cell_2/fnode4/op_after_combine9/conv/depthwise_kernel", "shape": [3, 3, 88, 1], "dtype": "float32", "quantization": {"min": -0.0863459214121342, "scale": 2.6374025294643758e-06, "dtype": "uint16"}}, {"name": "fpn_cells/cell_2/fnode5/op_after_combine10/conv/depthwise_kernel", "shape": [3, 3, 88, 1], "dtype": "float32", "quantization": {"min": -0.08627871984103329, "scale": 2.6316522751573367e-06, "dtype": "uint16"}}, {"name": "fpn_cells/cell_2/fnode6/op_after_combine11/conv/depthwise_kernel", "shape": [3, 3, 88, 1], "dtype": "float32", "quantization": {"min": -0.08651116254107852, "scale": 2.64051407200435e-06, "dtype": "uint16"}}, {"name": "fpn_cells/cell_2/fnode7/op_after_combine12/conv/depthwise_kernel", "shape": [3, 3, 88, 1], "dtype": "float32", "quantization": {"min": -0.08644150324177757, "scale": 2.633324292992676e-06, "dtype": "uint16"}}, {"name": "fpn_cells/cell_0/fnode0/resample_1_4_5/nearest_upsampling/Reshape/shape", "shape": [6], "dtype": "int32"}, {"name": "fpn_cells/cell_0/fnode0/resample_1_4_5/nearest_upsampling/Reshape_1/shape", "shape": [4], "dtype": "int32"}, {"name": "fpn_cells/cell_3/fnode0/op_after_combine5/conv/depthwise_kernel", "shape": [3, 3, 88, 1], "dtype": "float32", "quantization": {"min": -0.08638579199052088, "scale": 2.6378146505395854e-06, "dtype": "uint16"}}, {"name": "fpn_cells/cell_0/fnode1/resample_1_5_6/nearest_upsampling/Reshape/shape", "shape": [6], "dtype": "int32"}, {"name": "fpn_cells/cell_0/fnode1/resample_1_5_6/nearest_upsampling/Reshape_1/shape", "shape": [4], "dtype": "int32"}, {"name": "fpn_cells/cell_3/fnode1/op_after_combine6/conv/depthwise_kernel", "shape": [3, 3, 88, 1], "dtype": "float32", "quantization": {"min": -0.08571105302562519, "scale": 2.627722515961285e-06, "dtype": "uint16"}}, {"name": "fpn_cells/cell_0/fnode2/resample_1_6_7/nearest_upsampling/Reshape/shape", "shape": [6], "dtype": "int32"}, {"name": "fpn_cells/cell_0/fnode2/resample_1_6_7/nearest_upsampling/Reshape_1/shape", "shape": [4], "dtype": "int32"}, {"name": "fpn_cells/cell_3/fnode2/op_after_combine7/conv/depthwise_kernel", "shape": [3, 3, 88, 1], "dtype": "float32", "quantization": {"min": -0.08543881306177038, "scale": 2.623639277192396e-06, "dtype": "uint16"}}, {"name": "fpn_cells/cell_0/fnode3/resample_1_7_8/nearest_upsampling/Reshape/shape", "shape": [6], "dtype": "int32"}, {"name": "fpn_cells/cell_0/fnode3/resample_1_7_8/nearest_upsampling/Reshape_1/shape", "shape": [4], "dtype": "int32"}, {"name": "fpn_cells/cell_3/fnode3/op_after_combine8/conv/depthwise_kernel", "shape": [3, 3, 88, 1], "dtype": "float32", "quantization": {"min": -0.08654575573583576, "scale": 2.6352959939050502e-06, "dtype": "uint16"}}, {"name": "fpn_cells/cell_3/fnode4/op_after_combine9/conv/depthwise_kernel", "shape": [3, 3, 88, 1], "dtype": "float32", "quantization": {"min": -0.0865048979438669, "scale": 2.639356153893727e-06, "dtype": "uint16"}}, {"name": "fpn_cells/cell_3/fnode5/op_after_combine10/conv/depthwise_kernel", "shape": [3, 3, 88, 1], "dtype": "float32", "quantization": {"min": -0.08614909343266275, "scale": 2.6302657293274737e-06, "dtype": "uint16"}}, {"name": "fpn_cells/cell_3/fnode6/op_after_combine11/conv/depthwise_kernel", "shape": [3, 3, 88, 1], "dtype": "float32", "quantization": {"min": -0.08633117937856147, "scale": 2.6379191303376865e-06, "dtype": "uint16"}}, {"name": "fpn_cells/cell_3/fnode7/op_after_combine12/conv/depthwise_kernel", "shape": [3, 3, 88, 1], "dtype": "float32", "quantization": {"min": -0.08654681541792468, "scale": 2.637416285781645e-06, "dtype": "uint16"}}, {"name": "class_net/class-0/depthwise_kernel", "shape": [3, 3, 88, 1], "dtype": "float32", "quantization": {"min": -0.07992619053569584, "scale": 2.403000226562516e-06, "dtype": "uint16"}}, {"name": "class_net/class-1/depthwise_kernel", "shape": [3, 3, 88, 1], "dtype": "float32", "quantization": {"min": -0.08034017498081915, "scale": 2.4127627779692217e-06, "dtype": "uint16"}}, {"name": "class_net/class-2/depthwise_kernel", "shape": [3, 3, 88, 1], "dtype": "float32", "quantization": {"min": -0.07972051598682478, "scale": 2.3967445128622685e-06, "dtype": "uint16"}}, {"name": "class_net/class-predict/depthwise_kernel", "shape": [3, 3, 88, 1], "dtype": "float32", "quantization": {"min": -0.08063706685992503, "scale": 2.44666141331164e-06, "dtype": "uint16"}}, {"name": "class_net/class-predict/pointwise_kernel", "shape": [1, 1, 88, 810], "dtype": "float32", "quantization": {"min": -0.24236730648331303, "scale": 7.395334772016997e-06, "dtype": "uint16"}}, {"name": "class_net/class-predict/bias", "shape": [810], "dtype": "float32", "quantization": {"min": -4.595119953155518, "scale": 1.0, "dtype": "uint16"}}, {"name": "Reshape/shape", "shape": [3], "dtype": "int32"}, {"name": "concat_1/axis", "shape": [], "dtype": "int32"}, {"name": "Reshape_10/shape", "shape": [1], "dtype": "int32"}, {"name": "TopKV2/k", "shape": [], "dtype": "int32"}, {"name": "div/y", "shape": [], "dtype": "int32"}, {"name": "strided_slice_5/stack", "shape": [1], "dtype": "int32"}, {"name": "strided_slice_5/stack_1", "shape": [1], "dtype": "int32"}, {"name": "non_max_suppression/NonMaxSuppressionV3/max_output_size", "shape": [], "dtype": "int32"}, {"name": "non_max_suppression/iou_threshold", "shape": [], "dtype": "float32", "quantization": {"min": 0.5, "scale": 1.0, "dtype": "uint16"}}, {"name": "non_max_suppression/score_threshold", "shape": [], "dtype": "float32", "quantization": {"min": -Infinity, "scale": 1.0, "dtype": "uint16"}}, {"name": "get_boxes/axis", "shape": [], "dtype": "int32"}, {"name": "efficientnet-b1/model/stem/conv2d/Conv2D_weights", "shape": [3, 3, 3, 32], "dtype": "float32", "quantization": {"min": -0.24571635225976626, "scale": 8.283318239609165e-06, "dtype": "uint16"}}, {"name": "efficientnet-b1/model/stem/conv2d/Conv2D_bn_offset", "shape": [32], "dtype": "float32", "quantization": {"min": 0.0, "scale": 1.0, "dtype": "uint16"}}, {"name": "efficientnet-b1/model/blocks_0/depthwise_conv2d/depthwise_weights", "shape": [3, 3, 32, 1], "dtype": "float32", "quantization": {"min": -1.2659446884822343, "scale": 4.2435796744510404e-05, "dtype": "uint16"}}, {"name": "efficientnet-b1/model/blocks_0/conv2d/Conv2D_weights", "shape": [1, 1, 32, 16], "dtype": "float32", "quantization": {"min": -1.0390628107408824, "scale": 3.159301926908335e-05, "dtype": "uint16"}}, {"name": "efficientnet-b1/model/blocks_0/conv2d/Conv2D_bn_offset", "shape": [16], "dtype": "float32", "quantization": {"min": 0.0, "scale": 1.0, "dtype": "uint16"}}, {"name": "efficientnet-b1/model/blocks_1/depthwise_conv2d/depthwise_weights", "shape": [3, 3, 16, 1], "dtype": "float32", "quantization": {"min": -1.3009409039428181, "scale": 3.939380159710568e-05, "dtype": "uint16"}}, {"name": "efficientnet-b1/model/blocks_1/conv2d/Conv2D_weights", "shape": [1, 1, 16, 16], "dtype": "float32", "quantization": {"min": -1.054097771915626, "scale": 3.33976862022567e-05, "dtype": "uint16"}}, {"name": "efficientnet-b1/model/blocks_2/conv2d/Conv2D_weights", "shape": [1, 1, 16, 96], "dtype": "float32", "quantization": {"min": -0.48998097154626113, "scale": 1.3910034678389245e-05, "dtype": "uint16"}}, {"name": "efficientnet-b1/model/blocks_2/conv2d/Conv2D_bn_offset", "shape": [96], "dtype": "float32", "quantization": {"min": 0.0, "scale": 1.0, "dtype": "uint16"}}, {"name": "efficientnet-b1/model/blocks_2/depthwise_conv2d/depthwise_weights", "shape": [3, 3, 96, 1], "dtype": "float32", "quantization": {"min": -1.5314344565510214, "scale": 4.1936427420751996e-05, "dtype": "uint16"}}, {"name": "efficientnet-b1/model/blocks_2/conv2d_1/Conv2D_weights", "shape": [1, 1, 96, 24], "dtype": "float32", "quantization": {"min": -0.9710678942245178, "scale": 2.94566490998155e-05, "dtype": "uint16"}}, {"name": "fpn_cells/cell_3/fnode7/op_after_combine12/conv/separable_conv2d_weights", "shape": [1, 1, 88, 88], "dtype": "float32", "quantization": {"min": -0.18458539748538355, "scale": 5.633615061357655e-06, "dtype": "uint16"}}, {"name": "efficientnet-b1/model/blocks_2/conv2d_1/Conv2D_bn_offset", "shape": [24], "dtype": "float32", "quantization": {"min": 0.0, "scale": 1.0, "dtype": "uint16"}}, {"name": "efficientnet-b1/model/blocks_3/conv2d/Conv2D_weights", "shape": [1, 1, 24, 144], "dtype": "float32", "quantization": {"min": -0.43887443163942996, "scale": 1.3151766006575666e-05, "dtype": "uint16"}}, {"name": "efficientnet-b1/model/blocks_3/conv2d/Conv2D_bn_offset", "shape": [144], "dtype": "float32", "quantization": {"min": 0.0, "scale": 1.0, "dtype": "uint16"}}, {"name": "efficientnet-b1/model/blocks_3/depthwise_conv2d/depthwise_weights", "shape": [3, 3, 144, 1], "dtype": "float32", "quantization": {"min": -1.6998788966988503, "scale": 5.216432616377237e-05, "dtype": "uint16"}}, {"name": "efficientnet-b1/model/blocks_3/conv2d_1/Conv2D_weights", "shape": [1, 1, 144, 24], "dtype": "float32", "quantization": {"min": -1.04251465881281, "scale": 3.0681145967003444e-05, "dtype": "uint16"}}, {"name": "fpn_cells/cell_3/fnode7/op_after_combine12/conv/separable_conv2d_bn_offset", "shape": [88], "dtype": "float32", "quantization": {"min": 0.0, "scale": 1.0, "dtype": "uint16"}}, {"name": "efficientnet-b1/model/blocks_4/conv2d/Conv2D_weights", "shape": [1, 1, 24, 144], "dtype": "float32", "quantization": {"min": -0.46263960174158325, "scale": 1.3688777161925119e-05, "dtype": "uint16"}}, {"name": "efficientnet-b1/model/blocks_4/depthwise_conv2d/depthwise_weights", "shape": [3, 3, 144, 1], "dtype": "float32", "quantization": {"min": -1.528418219037666, "scale": 4.844585308687014e-05, "dtype": "uint16"}}, {"name": "efficientnet-b1/model/blocks_4/conv2d_1/Conv2D_weights", "shape": [1, 1, 144, 24], "dtype": "float32", "quantization": {"min": -1.0649122449674495, "scale": 3.235831798746428e-05, "dtype": "uint16"}}, {"name": "efficientnet-b1/model/blocks_5/conv2d/Conv2D_weights", "shape": [1, 1, 24, 144], "dtype": "float32", "quantization": {"min": -0.3545128336289823, "scale": 1.1401692780657456e-05, "dtype": "uint16"}}, {"name": "efficientnet-b1/model/blocks_5/depthwise_conv2d/depthwise_weights", "shape": [5, 5, 144, 1], "dtype": "float32", "quantization": {"min": -1.0966941590930155, "scale": 3.210369014645401e-05, "dtype": "uint16"}}, {"name": "efficientnet-b1/model/blocks_5/conv2d_1/Conv2D_weights", "shape": [1, 1, 144, 40], "dtype": "float32", "quantization": {"min": -0.8769513943006711, "scale": 2.6797597992381088e-05, "dtype": "uint16"}}, {"name": "box_net/box-0_4/separable_conv2d_weights", "shape": [1, 1, 88, 88], "dtype": "float32", "quantization": {"min": -0.2421315535497109, "scale": 7.387465021653371e-06, "dtype": "uint16"}}, {"name": "efficientnet-b1/model/blocks_5/conv2d_1/Conv2D_bn_offset", "shape": [40], "dtype": "float32", "quantization": {"min": 0.0, "scale": 1.0, "dtype": "uint16"}}, {"name": "efficientnet-b1/model/blocks_6/conv2d/Conv2D_weights", "shape": [1, 1, 40, 240], "dtype": "float32", "quantization": {"min": -0.36944845932576115, "scale": 1.1003349396168727e-05, "dtype": "uint16"}}, {"name": "efficientnet-b1/model/blocks_6/conv2d/Conv2D_bn_offset", "shape": [240], "dtype": "float32", "quantization": {"min": 0.0, "scale": 1.0, "dtype": "uint16"}}, {"name": "efficientnet-b1/model/blocks_6/depthwise_conv2d/depthwise_weights", "shape": [5, 5, 240, 1], "dtype": "float32", "quantization": {"min": -1.339848986914022, "scale": 3.706462106597754e-05, "dtype": "uint16"}}, {"name": "efficientnet-b1/model/blocks_6/conv2d_1/Conv2D_weights", "shape": [1, 1, 240, 40], "dtype": "float32", "quantization": {"min": -0.8474438954183655, "scale": 2.438196321369409e-05, "dtype": "uint16"}}, {"name": "efficientnet-b1/model/blocks_7/conv2d/Conv2D_weights", "shape": [1, 1, 40, 240], "dtype": "float32", "quantization": {"min": -0.33033392760549357, "scale": 1.0067166294014371e-05, "dtype": "uint16"}}, {"name": "efficientnet-b1/model/blocks_7/depthwise_conv2d/depthwise_weights", "shape": [5, 5, 240, 1], "dtype": "float32", "quantization": {"min": -1.033785094283143, "scale": 3.257555047370862e-05, "dtype": "uint16"}}, {"name": "efficientnet-b1/model/blocks_7/conv2d_1/Conv2D_weights", "shape": [1, 1, 240, 40], "dtype": "float32", "quantization": {"min": -0.8542104872429754, "scale": 2.6285017146992905e-05, "dtype": "uint16"}}, {"name": "fpn_cells/cell_0/fnode3/resample_0_0_8/conv2d/Conv2D_weights", "shape": [1, 1, 40, 88], "dtype": "float32", "quantization": {"min": -0.21628435261236625, "scale": 6.602892679581337e-06, "dtype": "uint16"}}, {"name": "efficientnet-b1/model/blocks_8/conv2d/Conv2D_weights", "shape": [1, 1, 40, 240], "dtype": "float32", "quantization": {"min": -0.3597313478149083, "scale": 1.1156190039228045e-05, "dtype": "uint16"}}, {"name": "efficientnet-b1/model/blocks_8/depthwise_conv2d/depthwise_weights", "shape": [3, 3, 240, 1], "dtype": "float32", "quantization": {"min": -1.5891584144464808, "scale": 4.715883478089147e-05, "dtype": "uint16"}}, {"name": "efficientnet-b1/model/blocks_8/conv2d_1/Conv2D_weights", "shape": [1, 1, 240, 80], "dtype": "float32", "quantization": {"min": -0.6067877609633177, "scale": 1.8058622093488816e-05, "dtype": "uint16"}}, {"name": "class_net/class-0_4/separable_conv2d_weights", "shape": [1, 1, 88, 88], "dtype": "float32", "quantization": {"min": -0.24129935350481393, "scale": 7.376478158009719e-06, "dtype": "uint16"}}, {"name": "efficientnet-b1/model/blocks_8/conv2d_1/Conv2D_bn_offset", "shape": [80], "dtype": "float32", "quantization": {"min": 0.0, "scale": 1.0, "dtype": "uint16"}}, {"name": "efficientnet-b1/model/blocks_9/conv2d/Conv2D_weights", "shape": [1, 1, 80, 480], "dtype": "float32", "quantization": {"min": -0.2726142465149664, "scale": 8.43615183397699e-06, "dtype": "uint16"}}, {"name": "efficientnet-b1/model/blocks_9/conv2d/Conv2D_bn_offset", "shape": [480], "dtype": "float32", "quantization": {"min": 0.0, "scale": 1.0, "dtype": "uint16"}}, {"name": "efficientnet-b1/model/blocks_9/depthwise_conv2d/depthwise_weights", "shape": [3, 3, 480, 1], "dtype": "float32", "quantization": {"min": -1.6876503609497724, "scale": 5.542911817091248e-05, "dtype": "uint16"}}, {"name": "efficientnet-b1/model/blocks_9/conv2d_1/Conv2D_weights", "shape": [1, 1, 480, 80], "dtype": "float32", "quantization": {"min": -0.6070169638157654, "scale": 1.909518902185553e-05, "dtype": "uint16"}}, {"name": "efficientnet-b1/model/blocks_10/conv2d/Conv2D_weights", "shape": [1, 1, 80, 480], "dtype": "float32", "quantization": {"min": -0.2604173512828789, "scale": 7.907969733165678e-06, "dtype": "uint16"}}, {"name": "efficientnet-b1/model/blocks_10/depthwise_conv2d/depthwise_weights", "shape": [3, 3, 480, 1], "dtype": "float32", "quantization": {"min": -1.874255768192472, "scale": 5.7947556523388326e-05, "dtype": "uint16"}}, {"name": "efficientnet-b1/model/blocks_10/conv2d_1/Conv2D_weights", "shape": [1, 1, 480, 80], "dtype": "float32", "quantization": {"min": -0.6069459908285247, "scale": 1.960166615516486e-05, "dtype": "uint16"}}, {"name": "efficientnet-b1/model/blocks_11/conv2d/Conv2D_weights", "shape": [1, 1, 80, 480], "dtype": "float32", "quantization": {"min": -0.2515711233146023, "scale": 8.126207226390668e-06, "dtype": "uint16"}}, {"name": "efficientnet-b1/model/blocks_11/depthwise_conv2d/depthwise_weights", "shape": [3, 3, 480, 1], "dtype": "float32", "quantization": {"min": -1.5547841362761463, "scale": 5.214246885358328e-05, "dtype": "uint16"}}, {"name": "efficientnet-b1/model/blocks_11/conv2d_1/Conv2D_weights", "shape": [1, 1, 480, 80], "dtype": "float32", "quantization": {"min": -0.7049420796552457, "scale": 2.0366396430683434e-05, "dtype": "uint16"}}, {"name": "efficientnet-b1/model/blocks_12/conv2d/Conv2D_weights", "shape": [1, 1, 80, 480], "dtype": "float32", "quantization": {"min": -0.2423653899463698, "scale": 7.5503236743417385e-06, "dtype": "uint16"}}, {"name": "box_net/box-1_4/separable_conv2d_weights", "shape": [1, 1, 88, 88], "dtype": "float32", "quantization": {"min": -0.24219772743125562, "scale": 7.3876808025639215e-06, "dtype": "uint16"}}, {"name": "efficientnet-b1/model/blocks_12/depthwise_conv2d/depthwise_weights", "shape": [5, 5, 480, 1], "dtype": "float32", "quantization": {"min": -1.118982204227123, "scale": 3.5337024070836955e-05, "dtype": "uint16"}}, {"name": "efficientnet-b1/model/blocks_12/conv2d_1/Conv2D_weights", "shape": [1, 1, 480, 112], "dtype": "float32", "quantization": {"min": -0.5874757166002311, "scale": 1.716309902714748e-05, "dtype": "uint16"}}, {"name": "efficientnet-b1/model/blocks_12/conv2d_1/Conv2D_bn_offset", "shape": [112], "dtype": "float32", "quantization": {"min": 0.0, "scale": 1.0, "dtype": "uint16"}}, {"name": "efficientnet-b1/model/blocks_13/conv2d/Conv2D_weights", "shape": [1, 1, 112, 672], "dtype": "float32", "quantization": {"min": -0.22526606708762756, "scale": 7.253777719775481e-06, "dtype": "uint16"}}, {"name": "efficientnet-b1/model/blocks_13/conv2d/Conv2D_bn_offset", "shape": [672], "dtype": "float32", "quantization": {"min": 0.0, "scale": 1.0, "dtype": "uint16"}}, {"name": "efficientnet-b1/model/blocks_13/depthwise_conv2d/depthwise_weights", "shape": [5, 5, 672, 1], "dtype": "float32", "quantization": {"min": -1.2083154476979525, "scale": 3.715835683922605e-05, "dtype": "uint16"}}, {"name": "efficientnet-b1/model/blocks_13/conv2d_1/Conv2D_weights", "shape": [1, 1, 672, 112], "dtype": "float32", "quantization": {"min": -0.5036637456336865, "scale": 1.587292381688842e-05, "dtype": "uint16"}}, {"name": "efficientnet-b1/model/blocks_14/conv2d/Conv2D_weights", "shape": [1, 1, 112, 672], "dtype": "float32", "quantization": {"min": -0.214790546019581, "scale": 6.979610905945961e-06, "dtype": "uint16"}}, {"name": "efficientnet-b1/model/blocks_14/depthwise_conv2d/depthwise_weights", "shape": [5, 5, 672, 1], "dtype": "float32", "quantization": {"min": -1.007002690042685, "scale": 3.0550412294238366e-05, "dtype": "uint16"}}, {"name": "efficientnet-b1/model/blocks_14/conv2d_1/Conv2D_weights", "shape": [1, 1, 672, 112], "dtype": "float32", "quantization": {"min": -0.6173476837788602, "scale": 1.872679984768732e-05, "dtype": "uint16"}}, {"name": "efficientnet-b1/model/blocks_15/conv2d/Conv2D_weights", "shape": [1, 1, 112, 672], "dtype": "float32", "quantization": {"min": -0.2378651332203107, "scale": 7.221821453693739e-06, "dtype": "uint16"}}, {"name": "efficientnet-b1/model/blocks_15/depthwise_conv2d/depthwise_weights", "shape": [5, 5, 672, 1], "dtype": "float32", "quantization": {"min": -1.1052361688361412, "scale": 3.3704445256042365e-05, "dtype": "uint16"}}, {"name": "efficientnet-b1/model/blocks_15/conv2d_1/Conv2D_weights", "shape": [1, 1, 672, 112], "dtype": "float32", "quantization": {"min": -0.5727530182540266, "scale": 1.8515922097889846e-05, "dtype": "uint16"}}, {"name": "class_net/class-1_4/separable_conv2d_weights", "shape": [1, 1, 88, 88], "dtype": "float32", "quantization": {"min": -0.24180606034679344, "scale": 7.375283973244478e-06, "dtype": "uint16"}}, {"name": "fpn_cells/cell_0/fnode4/resample_0_1_9/conv2d/Conv2D_weights", "shape": [1, 1, 112, 88], "dtype": "float32", "quantization": {"min": -0.1731837219019417, "scale": 5.2851477631207794e-06, "dtype": "uint16"}}, {"name": "fpn_cells/cell_0/fnode2/resample_0_1_7/conv2d/Conv2D_weights", "shape": [1, 1, 112, 88], "dtype": "float32", "quantization": {"min": -0.17317697954021422, "scale": 5.284135707448638e-06, "dtype": "uint16"}}, {"name": "efficientnet-b1/model/blocks_16/conv2d/Conv2D_weights", "shape": [1, 1, 112, 672], "dtype": "float32", "quantization": {"min": -0.23635968016279346, "scale": 7.4033602757249096e-06, "dtype": "uint16"}}, {"name": "efficientnet-b1/model/blocks_16/depthwise_conv2d/depthwise_weights", "shape": [5, 5, 672, 1], "dtype": "float32", "quantization": {"min": -1.181926526613673, "scale": 3.560663151815608e-05, "dtype": "uint16"}}, {"name": "efficientnet-b1/model/blocks_16/conv2d_1/Conv2D_weights", "shape": [1, 1, 672, 192], "dtype": "float32", "quantization": {"min": -0.49103425935512185, "scale": 1.4402788236738388e-05, "dtype": "uint16"}}, {"name": "efficientnet-b1/model/blocks_16/conv2d_1/Conv2D_bn_offset", "shape": [192], "dtype": "float32", "quantization": {"min": 0.0, "scale": 1.0, "dtype": "uint16"}}, {"name": "efficientnet-b1/model/blocks_17/conv2d/Conv2D_weights", "shape": [1, 1, 192, 1152], "dtype": "float32", "quantization": {"min": -0.19429453172968028, "scale": 5.739020284438939e-06, "dtype": "uint16"}}, {"name": "efficientnet-b1/model/blocks_17/conv2d/Conv2D_bn_offset", "shape": [1152], "dtype": "float32", "quantization": {"min": 0.0, "scale": 1.0, "dtype": "uint16"}}, {"name": "efficientnet-b1/model/blocks_17/depthwise_conv2d/depthwise_weights", "shape": [5, 5, 1152, 1], "dtype": "float32", "quantization": {"min": -1.0365795030504377, "scale": 3.30647369394079e-05, "dtype": "uint16"}}, {"name": "efficientnet-b1/model/blocks_17/conv2d_1/Conv2D_weights", "shape": [1, 1, 1152, 192], "dtype": "float32", "quantization": {"min": -0.44620537570787616, "scale": 1.3828964721622642e-05, "dtype": "uint16"}}, {"name": "efficientnet-b1/model/blocks_18/conv2d/Conv2D_weights", "shape": [1, 1, 192, 1152], "dtype": "float32", "quantization": {"min": -0.19298738150813263, "scale": 5.7428174827594895e-06, "dtype": "uint16"}}, {"name": "box_net/box-2_4/separable_conv2d_weights", "shape": [1, 1, 88, 88], "dtype": "float32", "quantization": {"min": -0.2423436914754876, "scale": 7.3959682447428085e-06, "dtype": "uint16"}}, {"name": "efficientnet-b1/model/blocks_18/depthwise_conv2d/depthwise_weights", "shape": [5, 5, 1152, 1], "dtype": "float32", "quantization": {"min": -1.1704572176654977, "scale": 3.575115970755056e-05, "dtype": "uint16"}}, {"name": "efficientnet-b1/model/blocks_18/conv2d_1/Conv2D_weights", "shape": [1, 1, 1152, 192], "dtype": "float32", "quantization": {"min": -0.534072478247551, "scale": 1.533897634118993e-05, "dtype": "uint16"}}, {"name": "efficientnet-b1/model/blocks_19/conv2d/Conv2D_weights", "shape": [1, 1, 192, 1152], "dtype": "float32", "quantization": {"min": -0.1935795585869233, "scale": 6.060725065338863e-06, "dtype": "uint16"}}, {"name": "efficientnet-b1/model/blocks_19/depthwise_conv2d/depthwise_weights", "shape": [5, 5, 1152, 1], "dtype": "float32", "quantization": {"min": -1.1158550680243033, "scale": 3.5212694247982054e-05, "dtype": "uint16"}}, {"name": "efficientnet-b1/model/blocks_19/conv2d_1/Conv2D_weights", "shape": [1, 1, 1152, 192], "dtype": "float32", "quantization": {"min": -0.48238075226624916, "scale": 1.4701351708711725e-05, "dtype": "uint16"}}, {"name": "efficientnet-b1/model/blocks_20/conv2d/Conv2D_weights", "shape": [1, 1, 192, 1152], "dtype": "float32", "quantization": {"min": -0.21661911782869497, "scale": 6.09062356825887e-06, "dtype": "uint16"}}, {"name": "efficientnet-b1/model/blocks_20/depthwise_conv2d/depthwise_weights", "shape": [5, 5, 1152, 1], "dtype": "float32", "quantization": {"min": -1.3894536797693102, "scale": 3.967260599518346e-05, "dtype": "uint16"}}, {"name": "efficientnet-b1/model/blocks_20/conv2d_1/Conv2D_weights", "shape": [1, 1, 1152, 192], "dtype": "float32", "quantization": {"min": -0.45812332233429826, "scale": 1.4045968921213462e-05, "dtype": "uint16"}}, {"name": "efficientnet-b1/model/blocks_21/conv2d/Conv2D_weights", "shape": [1, 1, 192, 1152], "dtype": "float32", "quantization": {"min": -0.19317261136222996, "scale": 5.684556864287857e-06, "dtype": "uint16"}}, {"name": "efficientnet-b1/model/blocks_21/depthwise_conv2d/depthwise_weights", "shape": [3, 3, 1152, 1], "dtype": "float32", "quantization": {"min": -2.031560953259877, "scale": 5.8657993684237376e-05, "dtype": "uint16"}}, {"name": "efficientnet-b1/model/blocks_21/conv2d_1/Conv2D_weights", "shape": [1, 1, 1152, 320], "dtype": "float32", "quantization": {"min": -0.37327094055871957, "scale": 1.1114546824640292e-05, "dtype": "uint16"}}, {"name": "efficientnet-b1/model/blocks_21/conv2d_1/Conv2D_bn_offset", "shape": [320], "dtype": "float32", "quantization": {"min": 0.0, "scale": 1.0, "dtype": "uint16"}}, {"name": "efficientnet-b1/model/blocks_22/conv2d/Conv2D_weights", "shape": [1, 1, 320, 1920], "dtype": "float32", "quantization": {"min": -0.15230970642446082, "scale": 4.572217411877426e-06, "dtype": "uint16"}}, {"name": "efficientnet-b1/model/blocks_22/conv2d/Conv2D_bn_offset", "shape": [1920], "dtype": "float32", "quantization": {"min": 0.0, "scale": 1.0, "dtype": "uint16"}}, {"name": "efficientnet-b1/model/blocks_22/depthwise_conv2d/depthwise_weights", "shape": [3, 3, 1920, 1], "dtype": "float32", "quantization": {"min": -1.7709507483207105, "scale": 5.3898735378175446e-05, "dtype": "uint16"}}, {"name": "efficientnet-b1/model/blocks_22/conv2d_1/Conv2D_weights", "shape": [1, 1, 1920, 320], "dtype": "float32", "quantization": {"min": -0.3930138474608701, "scale": 1.1574890954257822e-05, "dtype": "uint16"}}, {"name": "fpn_cells/cell_0/fnode5/resample_0_2_10/conv2d/Conv2D_weights", "shape": [1, 1, 320, 88], "dtype": "float32", "quantization": {"min": -0.12123725362525085, "scale": 3.7003190582728253e-06, "dtype": "uint16"}}, {"name": "fpn_cells/cell_0/fnode1/resample_0_2_6/conv2d/Conv2D_weights", "shape": [1, 1, 320, 88], "dtype": "float32", "quantization": {"min": -0.12123637591184044, "scale": 3.7001793350172577e-06, "dtype": "uint16"}}, {"name": "class_net/class-2_4/separable_conv2d_weights", "shape": [1, 1, 88, 88], "dtype": "float32", "quantization": {"min": -0.2423255075604017, "scale": 7.395639002636931e-06, "dtype": "uint16"}}, {"name": "resample_p6/conv2d/Conv2D_weights", "shape": [1, 1, 320, 88], "dtype": "float32", "quantization": {"min": -0.12125586325890632, "scale": 3.700322355241427e-06, "dtype": "uint16"}}, {"name": "fpn_cells/cell_0/fnode0/op_after_combine5/conv/separable_conv2d_weights", "shape": [1, 1, 88, 88], "dtype": "float32", "quantization": {"min": -0.18461045387490277, "scale": 5.634207833574521e-06, "dtype": "uint16"}}, {"name": "fpn_cells/cell_0/fnode1/op_after_combine6/conv/separable_conv2d_weights", "shape": [1, 1, 88, 88], "dtype": "float32", "quantization": {"min": -0.18462893728115942, "scale": 5.634084140407672e-06, "dtype": "uint16"}}, {"name": "fpn_cells/cell_0/fnode2/op_after_combine7/conv/separable_conv2d_weights", "shape": [1, 1, 88, 88], "dtype": "float32", "quantization": {"min": -0.18458379211292628, "scale": 5.631847204055722e-06, "dtype": "uint16"}}, {"name": "fpn_cells/cell_0/fnode3/op_after_combine8/conv/separable_conv2d_weights", "shape": [1, 1, 88, 88], "dtype": "float32", "quantization": {"min": -0.18461366915530922, "scale": 5.633790141759261e-06, "dtype": "uint16"}}, {"name": "fpn_cells/cell_0/fnode4/op_after_combine9/conv/separable_conv2d_weights", "shape": [1, 1, 88, 88], "dtype": "float32", "quantization": {"min": -0.1846249995780881, "scale": 5.632073444314941e-06, "dtype": "uint16"}}, {"name": "fpn_cells/cell_0/fnode5/op_after_combine10/conv/separable_conv2d_weights", "shape": [1, 1, 88, 88], "dtype": "float32", "quantization": {"min": -0.1845440300031013, "scale": 5.633212149056816e-06, "dtype": "uint16"}}, {"name": "fpn_cells/cell_0/fnode6/op_after_combine11/conv/separable_conv2d_weights", "shape": [1, 1, 88, 88], "dtype": "float32", "quantization": {"min": -0.18456326135101458, "scale": 5.633283318103183e-06, "dtype": "uint16"}}, {"name": "fpn_cells/cell_0/fnode7/op_after_combine12/conv/separable_conv2d_weights", "shape": [1, 1, 88, 88], "dtype": "float32", "quantization": {"min": -0.18458297868028534, "scale": 5.633025472420817e-06, "dtype": "uint16"}}, {"name": "fpn_cells/cell_1/fnode0/op_after_combine5/conv/separable_conv2d_weights", "shape": [1, 1, 88, 88], "dtype": "float32", "quantization": {"min": -0.18461591297959704, "scale": 5.633170993793581e-06, "dtype": "uint16"}}, {"name": "fpn_cells/cell_1/fnode1/op_after_combine6/conv/separable_conv2d_weights", "shape": [1, 1, 88, 88], "dtype": "float32", "quantization": {"min": -0.18457300691552955, "scale": 5.633408830287192e-06, "dtype": "uint16"}}, {"name": "fpn_cells/cell_1/fnode2/op_after_combine7/conv/separable_conv2d_weights", "shape": [1, 1, 88, 88], "dtype": "float32", "quantization": {"min": -0.1845926835972702, "scale": 5.633837436205409e-06, "dtype": "uint16"}}, {"name": "fpn_cells/cell_1/fnode3/op_after_combine8/conv/separable_conv2d_weights", "shape": [1, 1, 88, 88], "dtype": "float32", "quantization": {"min": -0.18452445435889608, "scale": 5.632614601919905e-06, "dtype": "uint16"}}, {"name": "fpn_cells/cell_1/fnode4/op_after_combine9/conv/separable_conv2d_weights", "shape": [1, 1, 88, 88], "dtype": "float32", "quantization": {"min": -0.18461431487161215, "scale": 5.634153717814025e-06, "dtype": "uint16"}}, {"name": "fpn_cells/cell_1/fnode5/op_after_combine10/conv/separable_conv2d_weights", "shape": [1, 1, 88, 88], "dtype": "float32", "quantization": {"min": -0.1846014936862807, "scale": 5.632731019018116e-06, "dtype": "uint16"}}, {"name": "fpn_cells/cell_1/fnode6/op_after_combine11/conv/separable_conv2d_weights", "shape": [1, 1, 88, 88], "dtype": "float32", "quantization": {"min": -0.18458130304942716, "scale": 5.631771260089311e-06, "dtype": "uint16"}}, {"name": "fpn_cells/cell_1/fnode7/op_after_combine12/conv/separable_conv2d_weights", "shape": [1, 1, 88, 88], "dtype": "float32", "quantization": {"min": -0.184602387837126, "scale": 5.630868345446742e-06, "dtype": "uint16"}}, {"name": "fpn_cells/cell_2/fnode0/op_after_combine5/conv/separable_conv2d_weights", "shape": [1, 1, 88, 88], "dtype": "float32", "quantization": {"min": -0.18452181440064752, "scale": 5.6328779046537496e-06, "dtype": "uint16"}}, {"name": "fpn_cells/cell_2/fnode1/op_after_combine6/conv/separable_conv2d_weights", "shape": [1, 1, 88, 88], "dtype": "float32", "quantization": {"min": -0.18457514031660804, "scale": 5.632958168785914e-06, "dtype": "uint16"}}, {"name": "fpn_cells/cell_2/fnode2/op_after_combine7/conv/separable_conv2d_weights", "shape": [1, 1, 88, 88], "dtype": "float32", "quantization": {"min": -0.1845704527610025, "scale": 5.633158942804899e-06, "dtype": "uint16"}}, {"name": "fpn_cells/cell_2/fnode3/op_after_combine8/conv/separable_conv2d_weights", "shape": [1, 1, 88, 88], "dtype": "float32", "quantization": {"min": -0.1846288168790494, "scale": 5.634252399494931e-06, "dtype": "uint16"}}, {"name": "fpn_cells/cell_2/fnode4/op_after_combine9/conv/separable_conv2d_weights", "shape": [1, 1, 88, 88], "dtype": "float32", "quantization": {"min": -0.1846135137755456, "scale": 5.633441572596064e-06, "dtype": "uint16"}}, {"name": "fpn_cells/cell_2/fnode5/op_after_combine10/conv/separable_conv2d_weights", "shape": [1, 1, 88, 88], "dtype": "float32", "quantization": {"min": -0.18456897878047485, "scale": 5.632770127887046e-06, "dtype": "uint16"}}, {"name": "fpn_cells/cell_2/fnode6/op_after_combine11/conv/separable_conv2d_weights", "shape": [1, 1, 88, 88], "dtype": "float32", "quantization": {"min": -0.1845873143795363, "scale": 5.633329703040751e-06, "dtype": "uint16"}}, {"name": "fpn_cells/cell_2/fnode7/op_after_combine12/conv/separable_conv2d_weights", "shape": [1, 1, 88, 88], "dtype": "float32", "quantization": {"min": -0.18452940627294756, "scale": 5.632937704842869e-06, "dtype": "uint16"}}, {"name": "fpn_cells/cell_3/fnode0/op_after_combine5/conv/separable_conv2d_weights", "shape": [1, 1, 88, 88], "dtype": "float32", "quantization": {"min": -0.18456747780050287, "scale": 5.633412013567221e-06, "dtype": "uint16"}}, {"name": "fpn_cells/cell_3/fnode1/op_after_combine6/conv/separable_conv2d_weights", "shape": [1, 1, 88, 88], "dtype": "float32", "quantization": {"min": -0.1846249818581324, "scale": 5.6334477117789765e-06, "dtype": "uint16"}}, {"name": "fpn_cells/cell_3/fnode2/op_after_combine7/conv/separable_conv2d_weights", "shape": [1, 1, 88, 88], "dtype": "float32", "quantization": {"min": -0.18456243095694813, "scale": 5.631023644036738e-06, "dtype": "uint16"}}, {"name": "fpn_cells/cell_3/fnode3/op_after_combine8/conv/separable_conv2d_weights", "shape": [1, 1, 88, 88], "dtype": "float32", "quantization": {"min": -0.18460620397528058, "scale": 5.633218515616874e-06, "dtype": "uint16"}}, {"name": "fpn_cells/cell_3/fnode4/op_after_combine9/conv/separable_conv2d_weights", "shape": [1, 1, 88, 88], "dtype": "float32", "quantization": {"min": -0.1845588833168678, "scale": 5.632633928977226e-06, "dtype": "uint16"}}, {"name": "fpn_cells/cell_3/fnode5/op_after_combine10/conv/separable_conv2d_weights", "shape": [1, 1, 88, 88], "dtype": "float32", "quantization": {"min": -0.1846052198101438, "scale": 5.633532296076896e-06, "dtype": "uint16"}}, {"name": "fpn_cells/cell_3/fnode6/op_after_combine11/conv/separable_conv2d_weights", "shape": [1, 1, 88, 88], "dtype": "float32", "quantization": {"min": -0.1845942108497618, "scale": 5.633884048520122e-06, "dtype": "uint16"}}, {"name": "ConstantFolding/stack_3_const_axis", "shape": [], "dtype": "int32"}, {"name": "ConstantFolding/stack_4_const_axis", "shape": [], "dtype": "int32"}, {"name": "ConstantFolding/stack_2_const_axis", "shape": [], "dtype": "int32"}, {"name": "ConstantFolding/stack_1_const_axis", "shape": [], "dtype": "int32"}]}]}